name: "RecNet"
layer {
  name: "data"
  type: "HDF5Data"
  top: "data"
  top: "label"
  include {
    phase: TRAIN
  }
  hdf5_data_param {
    source: "train.txt"
    batch_size: 100
  }
}
layer {
  name: "data"
  type: "HDF5Data"
  top: "data"
  top: "label"
  include {
    phase: TEST
  }
  hdf5_data_param {
    source: "test.txt"
    batch_size: 1
  }
}

layer {
  name: "Slice1"
  type: "Slice"
  bottom: "data"
  top: "Slice1"
  top: "Slice2"
  top: "Slice3"
  top: "Slice4"
  top: "Slice5"
  top: "Slice6"
  top: "Slice7"
  top: "Slice8"
  top: "Slice9"
  top: "Slice10"
  top: "Slice11"
  top: "Slice12"
  top: "Slice13"
  top: "Slice14"
  top: "Slice15"
  top: "Slice16"
  top: "Slice17"
  top: "Slice18"
  top: "Slice19"
  top: "Slice20"
  top: "Slice21"
  top: "Slice22"
  top: "Slice23"
  top: "Slice24"
  top: "Slice25"
  top: "Slice26"
  top: "Slice27"
  top: "Slice28"
  top: "Slice29"
  top: "Slice30"
  top: "Slice31"
  top: "Slice32"
  top: "Slice33"
  top: "Slice34"
  top: "Slice35"
  top: "Slice36"
  top: "Slice37"
  top: "Slice38"
  top: "Slice39"
  top: "Slice40"
  top: "Slice41"
  top: "Slice42"
  top: "Slice43"
  top: "Slice44"
  top: "Slice45"
  top: "Slice46"
  top: "Slice47"
  top: "Slice48"
  top: "Slice49"
  top: "Slice50"
  top: "Slice51"
  top: "Slice52"
  top: "Slice53"
  top: "Slice54"
  top: "Slice55"
  top: "Slice56"
  top: "Slice57"
  top: "Slice58"
  top: "Slice59"
  top: "Slice60"
  top: "Slice61"
  top: "Slice62"
  top: "Slice63"
  top: "Slice64"
  top: "Slice65"
  top: "Slice66"
  top: "Slice67"
  top: "Slice68"
  top: "Slice69"
  top: "Slice70"
  top: "Slice71"
  top: "Slice72"
  top: "Slice73"
  top: "Slice74"
  top: "Slice75"
  top: "Slice76"
  top: "Slice77"
  top: "Slice78"
  top: "Slice79"
  top: "Slice80"
  top: "Slice81"
  top: "Slice82"
  top: "Slice83"
  top: "Slice84"
  top: "Slice85"
  top: "Slice86"
  top: "Slice87"
  top: "Slice88"
  top: "Slice89"
  top: "Slice90"
  top: "Slice91"
  top: "Slice92"
  top: "Slice93"
  top: "Slice94"
  top: "Slice95"
  top: "Slice96"
  top: "Slice97"
  top: "Slice98"
  top: "Slice99"
  top: "Slice100"
  top: "Slice101"
  top: "Slice102"
  top: "Slice103"
  top: "Slice104"
  top: "Slice105"
  top: "Slice106"
  top: "Slice107"
  top: "Slice108"
  top: "Slice109"
  top: "Slice110"
  top: "Slice111"
  top: "Slice112"
  top: "Slice113"
  top: "Slice114"
  top: "Slice115"
  top: "Slice116"
  top: "Slice117"
  top: "Slice118"
  top: "Slice119"
  top: "Slice120"
  top: "Slice121"
  top: "Slice122"
  top: "Slice123"
  top: "Slice124"
  top: "Slice125"
  top: "Slice126"
  top: "Slice127"
  top: "Slice128"
  top: "Slice129"
  top: "Slice130"
  top: "Slice131"
  top: "Slice132"
  top: "Slice133"
  top: "Slice134"
  top: "Slice135"
  top: "Slice136"
  top: "Slice137"
  top: "Slice138"
  top: "Slice139"
  top: "Slice140"
  top: "Slice141"
  top: "Slice142"
  top: "Slice143"
  top: "Slice144"
  top: "Slice145"
  top: "Slice146"
  top: "Slice147"
  top: "Slice148"
  top: "Slice149"
  top: "Slice150"
  top: "Slice151"
  top: "Slice152"
  top: "Slice153"
  top: "Slice154"
  top: "Slice155"
  top: "Slice156"
  top: "Slice157"
  top: "Slice158"
  top: "Slice159"
  top: "Slice160"
  top: "Slice161"
  top: "Slice162"
  top: "Slice163"
  top: "Slice164"
  top: "Slice165"
  top: "Slice166"
  top: "Slice167"
  top: "Slice168"
  top: "Slice169"
  top: "Slice170"
  top: "Slice171"
  top: "Slice172"
  top: "Slice173"
  top: "Slice174"
  top: "Slice175"
  top: "Slice176"
  top: "Slice177"
  top: "Slice178"
  top: "Slice179"
  top: "Slice180"
  top: "Slice181"
  top: "Slice182"
  top: "Slice183"
  top: "Slice184"
  top: "Slice185"
  top: "Slice186"
  top: "Slice187"
  top: "Slice188"
  top: "Slice189"
  top: "Slice190"
  top: "Slice191"
  top: "Slice192"
  top: "Slice193"
  top: "Slice194"
  top: "Slice195"
  top: "Slice196"
  top: "Slice197"
  top: "Slice198"
  top: "Slice199"
  top: "Slice200"
  top: "Slice201"
  top: "Slice202"
  top: "Slice203"
  top: "Slice204"
  top: "Slice205"
  top: "Slice206"
  top: "Slice207"
  top: "Slice208"
  top: "Slice209"
  top: "Slice210"
  top: "Slice211"
  top: "Slice212"
  top: "Slice213"
  top: "Slice214"
  top: "Slice215"
  top: "Slice216"
  top: "Slice217"
  top: "Slice218"
  top: "Slice219"
  top: "Slice220"
  top: "Slice221"
  top: "Slice222"
  top: "Slice223"
  top: "Slice224"
  top: "Slice225"
  top: "Slice226"
  top: "Slice227"
  top: "Slice228"
  top: "Slice229"
  top: "Slice230"
  top: "Slice231"
  top: "Slice232"
  top: "Slice233"
  top: "Slice234"
  top: "Slice235"
  top: "Slice236"
  top: "Slice237"
  top: "Slice238"
  top: "Slice239"
  top: "Slice240"
  top: "Slice241"
  top: "Slice242"
  top: "Slice243"
  top: "Slice244"
  top: "Slice245"
  top: "Slice246"
  top: "Slice247"
  top: "Slice248"
  top: "Slice249"
  top: "Slice250"
  top: "Slice251"
  top: "Slice252"
  top: "Slice253"
  top: "Slice254"
  top: "Slice255"
  top: "Slice256"
  top: "Slice257"
  top: "Slice258"
  top: "Slice259"
  top: "Slice260"
  top: "Slice261"
  top: "Slice262"
  top: "Slice263"
  top: "Slice264"
  top: "Slice265"
  top: "Slice266"
  top: "Slice267"
  top: "Slice268"
  top: "Slice269"
  top: "Slice270"
  top: "Slice271"
  top: "Slice272"
  top: "Slice273"
  top: "Slice274"
  top: "Slice275"
  top: "Slice276"
  top: "Slice277"
  top: "Slice278"
  top: "Slice279"
  top: "Slice280"
  top: "Slice281"
  top: "Slice282"
  top: "Slice283"
  top: "Slice284"
  top: "Slice285"
  top: "Slice286"
  top: "Slice287"
  top: "Slice288"
  top: "Slice289"
  top: "Slice290"
  top: "Slice291"
  top: "Slice292"
  top: "Slice293"
  top: "Slice294"
  top: "Slice295"
  top: "Slice296"
  top: "Slice297"
  top: "Slice298"
  top: "Slice299"
  top: "Slice300"
  top: "Slice301"
  top: "Slice302"
  top: "Slice303"
  top: "Slice304"
  top: "Slice305"
  top: "Slice306"
  top: "Slice307"
  top: "Slice308"
  top: "Slice309"
  top: "Slice310"
  top: "Slice311"
  top: "Slice312"
  top: "Slice313"
  top: "Slice314"
  top: "Slice315"
  top: "Slice316"
  top: "Slice317"
  top: "Slice318"
  top: "Slice319"
  top: "Slice320"
  top: "Slice321"
  top: "Slice322"
  top: "Slice323"
  top: "Slice324"
  top: "Slice325"
  top: "Slice326"
  top: "Slice327"
  top: "Slice328"
  top: "Slice329"
  top: "Slice330"
  top: "Slice331"
  top: "Slice332"
  top: "Slice333"
  top: "Slice334"
  top: "Slice335"
  top: "Slice336"
  top: "Slice337"
  top: "Slice338"
  top: "Slice339"
  top: "Slice340"
  top: "Slice341"
  top: "Slice342"
  top: "Slice343"
  top: "Slice344"
  top: "Slice345"
  top: "Slice346"
  top: "Slice347"
  top: "Slice348"
  top: "Slice349"
  top: "Slice350"
  top: "Slice351"
  top: "Slice352"
  top: "Slice353"
  top: "Slice354"
  top: "Slice355"
  top: "Slice356"
  top: "Slice357"
  top: "Slice358"
  top: "Slice359"
  top: "Slice360"
  top: "Slice361"
  top: "Slice362"
  top: "Slice363"
  top: "Slice364"
  top: "Slice365"
  top: "Slice366"
  top: "Slice367"
  top: "Slice368"
  top: "Slice369"
  top: "Slice370"
  top: "Slice371"
  top: "Slice372"
  top: "Slice373"
  top: "Slice374"
  top: "Slice375"
  top: "Slice376"
  top: "Slice377"
  top: "Slice378"
  top: "Slice379"
  top: "Slice380"
  top: "Slice381"
  top: "Slice382"
  top: "Slice383"
  top: "Slice384"
  top: "Slice385"
  top: "Slice386"
  top: "Slice387"
  top: "Slice388"
  top: "Slice389"
  top: "Slice390"
  top: "Slice391"
  top: "Slice392"
  top: "Slice393"
  top: "Slice394"
  top: "Slice395"
  top: "Slice396"
  top: "Slice397"
  top: "Slice398"
  top: "Slice399"
  top: "Slice400"
  top: "Slice401"
  top: "Slice402"
  top: "Slice403"
  top: "Slice404"
  top: "Slice405"
  top: "Slice406"
  top: "Slice407"
  top: "Slice408"
  top: "Slice409"
  top: "Slice410"
  top: "Slice411"
  top: "Slice412"
  top: "Slice413"
  top: "Slice414"
  top: "Slice415"
  top: "Slice416"
  top: "Slice417"
  top: "Slice418"
  top: "Slice419"
  top: "Slice420"
  top: "Slice421"
  top: "Slice422"
  top: "Slice423"
  top: "Slice424"
  top: "Slice425"
  top: "Slice426"
  top: "Slice427"
  top: "Slice428"
  top: "Slice429"
  top: "Slice430"
  top: "Slice431"
  top: "Slice432"
  top: "Slice433"
  top: "Slice434"
  top: "Slice435"
  top: "Slice436"
  top: "Slice437"
  top: "Slice438"
  top: "Slice439"
  top: "Slice440"
  top: "Slice441"
  top: "Slice442"
  top: "Slice443"
  top: "Slice444"
  top: "Slice445"
  top: "Slice446"
  top: "Slice447"
  top: "Slice448"
  top: "Slice449"
  top: "Slice450"
  top: "Slice451"
  top: "Slice452"
  top: "Slice453"
  top: "Slice454"
  top: "Slice455"
  top: "Slice456"
  top: "Slice457"
  top: "Slice458"
  top: "Slice459"
  top: "Slice460"
  top: "Slice461"
  top: "Slice462"
  top: "Slice463"
  top: "Slice464"
  top: "Slice465"
  top: "Slice466"
  top: "Slice467"
  top: "Slice468"
  top: "Slice469"
  top: "Slice470"
  top: "Slice471"
  top: "Slice472"
  top: "Slice473"
  top: "Slice474"
  top: "Slice475"
  top: "Slice476"
  top: "Slice477"
  top: "Slice478"
  top: "Slice479"
  top: "Slice480"
  top: "Slice481"
  top: "Slice482"
  top: "Slice483"
  top: "Slice484"
  top: "Slice485"
  top: "Slice486"
  top: "Slice487"
  top: "Slice488"
  top: "Slice489"
  top: "Slice490"
  top: "Slice491"
  top: "Slice492"
  top: "Slice493"
  top: "Slice494"
  top: "Slice495"
  top: "Slice496"
  top: "Slice497"
  top: "Slice498"
  top: "Slice499"
  top: "Slice500"
  top: "Slice501"
  top: "Slice502"
  top: "Slice503"
  top: "Slice504"
  top: "Slice505"
  top: "Slice506"
  top: "Slice507"
  top: "Slice508"
  top: "Slice509"
  top: "Slice510"
  top: "Slice511"
  top: "Slice512"
  top: "Slice513"
  top: "Slice514"
  top: "Slice515"
  top: "Slice516"
  top: "Slice517"
  top: "Slice518"
  top: "Slice519"
  top: "Slice520"
  top: "Slice521"
  top: "Slice522"
  top: "Slice523"
  top: "Slice524"
  top: "Slice525"
  top: "Slice526"
  top: "Slice527"
  top: "Slice528"
  top: "Slice529"
  top: "Slice530"
  top: "Slice531"
  top: "Slice532"
  top: "Slice533"
  top: "Slice534"
  top: "Slice535"
  top: "Slice536"
  top: "Slice537"
  top: "Slice538"
  top: "Slice539"
  top: "Slice540"
  top: "Slice541"
  top: "Slice542"
  top: "Slice543"
  top: "Slice544"
  top: "Slice545"
  top: "Slice546"
  top: "Slice547"
  top: "Slice548"
  top: "Slice549"
  top: "Slice550"
  top: "Slice551"
  top: "Slice552"
  top: "Slice553"
  top: "Slice554"
  top: "Slice555"
  top: "Slice556"
  top: "Slice557"
  top: "Slice558"
  top: "Slice559"
  top: "Slice560"
  top: "Slice561"
  top: "Slice562"
  top: "Slice563"
  top: "Slice564"
  top: "Slice565"
  top: "Slice566"
  top: "Slice567"
  top: "Slice568"
  top: "Slice569"
  top: "Slice570"
  top: "Slice571"
  top: "Slice572"
  top: "Slice573"
  top: "Slice574"
  top: "Slice575"
  top: "Slice576"
  top: "Slice577"
  top: "Slice578"
  top: "Slice579"
  top: "Slice580"
  top: "Slice581"
  top: "Slice582"
  top: "Slice583"
  top: "Slice584"
  top: "Slice585"
  top: "Slice586"
  top: "Slice587"
  top: "Slice588"
  top: "Slice589"
  top: "Slice590"
  top: "Slice591"
  top: "Slice592"
  top: "Slice593"
  top: "Slice594"
  top: "Slice595"
  top: "Slice596"
  top: "Slice597"
  top: "Slice598"
  top: "Slice599"
  top: "Slice600"
  top: "Slice601"
  top: "Slice602"
  top: "Slice603"
  top: "Slice604"
  top: "Slice605"
  top: "Slice606"
  top: "Slice607"
  top: "Slice608"
  top: "Slice609"
  top: "Slice610"
  top: "Slice611"
  top: "Slice612"
  top: "Slice613"
  top: "Slice614"
  top: "Slice615"
  top: "Slice616"
  top: "Slice617"
  top: "Slice618"
  top: "Slice619"
  top: "Slice620"
  top: "Slice621"
  top: "Slice622"
  top: "Slice623"
  top: "Slice624"
  top: "Slice625"
  top: "Slice626"
  top: "Slice627"
  top: "Slice628"
  top: "Slice629"
  top: "Slice630"
  top: "Slice631"
  top: "Slice632"
  top: "Slice633"
  top: "Slice634"
  top: "Slice635"
  top: "Slice636"
  top: "Slice637"
  top: "Slice638"
  top: "Slice639"
  top: "Slice640"
  top: "Slice641"
  top: "Slice642"
  top: "Slice643"
  top: "Slice644"
  top: "Slice645"
  top: "Slice646"
  top: "Slice647"
  top: "Slice648"
  top: "Slice649"
  top: "Slice650"
  top: "Slice651"
  top: "Slice652"
  top: "Slice653"
  top: "Slice654"
  top: "Slice655"
  top: "Slice656"
  top: "Slice657"
  top: "Slice658"
  top: "Slice659"
  top: "Slice660"
  top: "Slice661"
  top: "Slice662"
  top: "Slice663"
  top: "Slice664"
  top: "Slice665"
  top: "Slice666"
  top: "Slice667"
  top: "Slice668"
  top: "Slice669"
  top: "Slice670"
  top: "Slice671"
  top: "Slice672"
  top: "Slice673"
  top: "Slice674"
  top: "Slice675"
  top: "Slice676"
  top: "Slice677"
  top: "Slice678"
  top: "Slice679"
  top: "Slice680"
  top: "Slice681"
  top: "Slice682"
  top: "Slice683"
  top: "Slice684"
  top: "Slice685"
  top: "Slice686"
  top: "Slice687"
  top: "Slice688"
  top: "Slice689"
  top: "Slice690"
  top: "Slice691"
  top: "Slice692"
  top: "Slice693"
  top: "Slice694"
  top: "Slice695"
  top: "Slice696"
  top: "Slice697"
  top: "Slice698"
  top: "Slice699"
  top: "Slice700"
  top: "Slice701"
  top: "Slice702"
  top: "Slice703"
  top: "Slice704"
  top: "Slice705"
  top: "Slice706"
  top: "Slice707"
  top: "Slice708"
  top: "Slice709"
  top: "Slice710"
  top: "Slice711"
  top: "Slice712"
  top: "Slice713"
  top: "Slice714"
  top: "Slice715"
  top: "Slice716"
  top: "Slice717"
  top: "Slice718"
  top: "Slice719"
  top: "Slice720"
  top: "Slice721"
  top: "Slice722"
  top: "Slice723"
  top: "Slice724"
  top: "Slice725"
  top: "Slice726"
  top: "Slice727"
  top: "Slice728"
  top: "Slice729"
  top: "Slice730"
  top: "Slice731"
  top: "Slice732"
  top: "Slice733"
  top: "Slice734"
  top: "Slice735"
  top: "Slice736"
  top: "Slice737"
  top: "Slice738"
  top: "Slice739"
  top: "Slice740"
  top: "Slice741"
  top: "Slice742"
  top: "Slice743"
  top: "Slice744"
  top: "Slice745"
  top: "Slice746"
  top: "Slice747"
  top: "Slice748"
  top: "Slice749"
  top: "Slice750"
  top: "Slice751"
  top: "Slice752"
  top: "Slice753"
  top: "Slice754"
  top: "Slice755"
  top: "Slice756"
  top: "Slice757"
  top: "Slice758"
  top: "Slice759"
  top: "Slice760"
  top: "Slice761"
  top: "Slice762"
  top: "Slice763"
  top: "Slice764"
  top: "Slice765"
  top: "Slice766"
  top: "Slice767"
  top: "Slice768"
  top: "Slice769"
  top: "Slice770"
  top: "Slice771"
  top: "Slice772"
  top: "Slice773"
  top: "Slice774"
  top: "Slice775"
  top: "Slice776"
  top: "Slice777"
  top: "Slice778"
  top: "Slice779"
  top: "Slice780"
  top: "Slice781"
  top: "Slice782"
  top: "Slice783"
  top: "Slice784"
  top: "Slice785"
  top: "Slice786"
  top: "Slice787"
  top: "Slice788"
  top: "Slice789"
  top: "Slice790"
  top: "Slice791"
  top: "Slice792"
  top: "Slice793"
  top: "Slice794"
  top: "Slice795"
  top: "Slice796"
  top: "Slice797"
  top: "Slice798"
  top: "Slice799"
  top: "Slice800"
  top: "Slice801"
  top: "Slice802"
  top: "Slice803"
  top: "Slice804"
  top: "Slice805"
  top: "Slice806"
  top: "Slice807"
  top: "Slice808"
  top: "Slice809"
  top: "Slice810"
  top: "Slice811"
  top: "Slice812"
  top: "Slice813"
  top: "Slice814"
  top: "Slice815"
  top: "Slice816"
  top: "Slice817"
  top: "Slice818"
  top: "Slice819"
  top: "Slice820"
  top: "Slice821"
  top: "Slice822"
  top: "Slice823"
  top: "Slice824"
  top: "Slice825"
  top: "Slice826"
  top: "Slice827"
  top: "Slice828"
  top: "Slice829"
  top: "Slice830"
  top: "Slice831"
  top: "Slice832"
  top: "Slice833"
  top: "Slice834"
  top: "Slice835"
  top: "Slice836"
  top: "Slice837"
  top: "Slice838"
  top: "Slice839"
  top: "Slice840"
  top: "Slice841"
  top: "Slice842"
  top: "Slice843"
  top: "Slice844"
  top: "Slice845"
  top: "Slice846"
  top: "Slice847"
  top: "Slice848"
  top: "Slice849"
  top: "Slice850"
  top: "Slice851"
  top: "Slice852"
  top: "Slice853"
  top: "Slice854"
  top: "Slice855"
  top: "Slice856"
  top: "Slice857"
  top: "Slice858"
  top: "Slice859"
  top: "Slice860"
  top: "Slice861"
  top: "Slice862"
  top: "Slice863"
  top: "Slice864"
  top: "Slice865"
  top: "Slice866"
  top: "Slice867"
  top: "Slice868"
  top: "Slice869"
  top: "Slice870"
  top: "Slice871"
  top: "Slice872"
  top: "Slice873"
  top: "Slice874"
  top: "Slice875"
  top: "Slice876"
  top: "Slice877"
  top: "Slice878"
  top: "Slice879"
  top: "Slice880"
  top: "Slice881"
  top: "Slice882"
  top: "Slice883"
  top: "Slice884"
  top: "Slice885"
  top: "Slice886"
  top: "Slice887"
  top: "Slice888"
  top: "Slice889"
  top: "Slice890"
  top: "Slice891"
  top: "Slice892"
  top: "Slice893"
  top: "Slice894"
  top: "Slice895"
  top: "Slice896"
  top: "Slice897"
  top: "Slice898"
  top: "Slice899"
  top: "Slice900"
  top: "Slice901"
  top: "Slice902"
  top: "Slice903"
  top: "Slice904"
  top: "Slice905"
  top: "Slice906"
  top: "Slice907"
  top: "Slice908"
  top: "Slice909"
  top: "Slice910"
  top: "Slice911"
  top: "Slice912"
  top: "Slice913"
  top: "Slice914"
  top: "Slice915"
  top: "Slice916"
  top: "Slice917"
  top: "Slice918"
  top: "Slice919"
  top: "Slice920"
  top: "Slice921"
  top: "Slice922"
  top: "Slice923"
  top: "Slice924"
  top: "Slice925"
  top: "Slice926"
  top: "Slice927"
  top: "Slice928"
  top: "Slice929"
  top: "Slice930"
  top: "Slice931"
  top: "Slice932"
  top: "Slice933"
  top: "Slice934"
  top: "Slice935"
  top: "Slice936"
  top: "Slice937"
  top: "Slice938"
  top: "Slice939"
  top: "Slice940"
  top: "Slice941"
  top: "Slice942"
  top: "Slice943"
  top: "Slice944"
  top: "Slice945"
  top: "Slice946"
  top: "Slice947"
  top: "Slice948"
  top: "Slice949"
  top: "Slice950"
  top: "Slice951"
  top: "Slice952"
  top: "Slice953"
  top: "Slice954"
  top: "Slice955"
  top: "Slice956"
  top: "Slice957"
  top: "Slice958"
  top: "Slice959"
  top: "Slice960"
  top: "Slice961"
  top: "Slice962"
  top: "Slice963"
  top: "Slice964"
  top: "Slice965"
  top: "Slice966"
  top: "Slice967"
  top: "Slice968"
  top: "Slice969"
  top: "Slice970"
  top: "Slice971"
  top: "Slice972"
  top: "Slice973"
  top: "Slice974"
  top: "Slice975"
  top: "Slice976"
  top: "Slice977"
  top: "Slice978"
  top: "Slice979"
  top: "Slice980"
  top: "Slice981"
  top: "Slice982"
  top: "Slice983"
  top: "Slice984"
  top: "Slice985"
  top: "Slice986"
  top: "Slice987"
  top: "Slice988"
  top: "Slice989"
  top: "Slice990"
  top: "Slice991"
  top: "Slice992"
  top: "Slice993"
  top: "Slice994"
  top: "Slice995"
  top: "Slice996"
  top: "Slice997"
  top: "Slice998"
  top: "Slice999"
  top: "Slice1000"
  top: "Slice1001"
  top: "Slice1002"
  top: "Slice1003"
  top: "Slice1004"
  top: "Slice1005"
  top: "Slice1006"
  top: "Slice1007"
  top: "Slice1008"
  top: "Slice1009"
  top: "Slice1010"
  top: "Slice1011"
  top: "Slice1012"
  top: "Slice1013"
  top: "Slice1014"
  top: "Slice1015"
  top: "Slice1016"
  top: "Slice1017"
  top: "Slice1018"
  top: "Slice1019"
  top: "Slice1020"
  top: "Slice1021"
  top: "Slice1022"
  top: "Slice1023"
  top: "Slice1024"
  top: "Slice1025"
  top: "Slice1026"
  top: "Slice1027"
  top: "Slice1028"
  top: "Slice1029"
  top: "Slice1030"
  top: "Slice1031"
  top: "Slice1032"
  top: "Slice1033"
  top: "Slice1034"
  top: "Slice1035"
  top: "Slice1036"
  top: "Slice1037"
  top: "Slice1038"
  top: "Slice1039"
  top: "Slice1040"
  top: "Slice1041"
  top: "Slice1042"
  top: "Slice1043"
  top: "Slice1044"
  top: "Slice1045"
  top: "Slice1046"
  top: "Slice1047"
  top: "Slice1048"
  top: "Slice1049"
  top: "Slice1050"
  top: "Slice1051"
  top: "Slice1052"
  top: "Slice1053"
  top: "Slice1054"
  top: "Slice1055"
  top: "Slice1056"
  top: "Slice1057"
  top: "Slice1058"
  top: "Slice1059"
  top: "Slice1060"
  top: "Slice1061"
  top: "Slice1062"
  top: "Slice1063"
  top: "Slice1064"
  top: "Slice1065"
  top: "Slice1066"
  top: "Slice1067"
  top: "Slice1068"
  top: "Slice1069"
  top: "Slice1070"
  top: "Slice1071"
  top: "Slice1072"
  top: "Slice1073"
  top: "Slice1074"
  top: "Slice1075"
  top: "Slice1076"
  top: "Slice1077"
  top: "Slice1078"
  top: "Slice1079"
  top: "Slice1080"
  top: "Slice1081"
  top: "Slice1082"
  top: "Slice1083"
  top: "Slice1084"
  top: "Slice1085"
  top: "Slice1086"
  top: "Slice1087"
  top: "Slice1088"
  top: "Slice1089"
  top: "Slice1090"
  top: "Slice1091"
  top: "Slice1092"
  top: "Slice1093"
  top: "Slice1094"
  top: "Slice1095"
  top: "Slice1096"
  top: "Slice1097"
  top: "Slice1098"
  top: "Slice1099"
  top: "Slice1100"
  top: "Slice1101"
  top: "Slice1102"
  top: "Slice1103"
  top: "Slice1104"
  top: "Slice1105"
  top: "Slice1106"
  top: "Slice1107"
  top: "Slice1108"
  top: "Slice1109"
  top: "Slice1110"
  top: "Slice1111"
  top: "Slice1112"
  top: "Slice1113"
  top: "Slice1114"
  top: "Slice1115"
  top: "Slice1116"
  top: "Slice1117"
  top: "Slice1118"
  top: "Slice1119"
  top: "Slice1120"
  top: "Slice1121"
  top: "Slice1122"
  top: "Slice1123"
  top: "Slice1124"
  top: "Slice1125"
  top: "Slice1126"
  top: "Slice1127"
  top: "Slice1128"
  top: "Slice1129"
  top: "Slice1130"
  top: "Slice1131"
  top: "Slice1132"
  top: "Slice1133"
  top: "Slice1134"
  top: "Slice1135"
  top: "Slice1136"
  top: "Slice1137"
  top: "Slice1138"
  top: "Slice1139"
  top: "Slice1140"
  top: "Slice1141"
  top: "Slice1142"
  top: "Slice1143"
  top: "Slice1144"
  top: "Slice1145"
  top: "Slice1146"
  top: "Slice1147"
  top: "Slice1148"
  top: "Slice1149"
  top: "Slice1150"
  top: "Slice1151"
  top: "Slice1152"
  top: "Slice1153"
  top: "Slice1154"
  top: "Slice1155"
  top: "Slice1156"
  top: "Slice1157"
  top: "Slice1158"
  top: "Slice1159"
  top: "Slice1160"
  top: "Slice1161"
  top: "Slice1162"
  top: "Slice1163"
  top: "Slice1164"
  top: "Slice1165"
  top: "Slice1166"
  top: "Slice1167"
  top: "Slice1168"
  top: "Slice1169"
  top: "Slice1170"
  top: "Slice1171"
  top: "Slice1172"
  top: "Slice1173"
  top: "Slice1174"
  top: "Slice1175"
  top: "Slice1176"
  top: "Slice1177"
  top: "Slice1178"
  top: "Slice1179"
  top: "Slice1180"
  top: "Slice1181"
  top: "Slice1182"
  top: "Slice1183"
  top: "Slice1184"
  top: "Slice1185"
  top: "Slice1186"
  top: "Slice1187"
  top: "Slice1188"
  top: "Slice1189"
  top: "Slice1190"
  top: "Slice1191"
  top: "Slice1192"
  top: "Slice1193"
  top: "Slice1194"
  top: "Slice1195"
  top: "Slice1196"
  top: "Slice1197"
  top: "Slice1198"
  top: "Slice1199"
  top: "Slice1200"
  top: "Slice1201"
  top: "Slice1202"
  top: "Slice1203"
  top: "Slice1204"
  top: "Slice1205"
  top: "Slice1206"
  top: "Slice1207"
  top: "Slice1208"
  top: "Slice1209"
  top: "Slice1210"
  top: "Slice1211"
  top: "Slice1212"
  top: "Slice1213"
  top: "Slice1214"
  top: "Slice1215"
  top: "Slice1216"
  top: "Slice1217"
  top: "Slice1218"
  top: "Slice1219"
  top: "Slice1220"
  top: "Slice1221"
  top: "Slice1222"
  top: "Slice1223"
  top: "Slice1224"
  top: "Slice1225"
  top: "Slice1226"
  top: "Slice1227"
  top: "Slice1228"
  top: "Slice1229"
  top: "Slice1230"
  top: "Slice1231"
  top: "Slice1232"
  top: "Slice1233"
  top: "Slice1234"
  top: "Slice1235"
  top: "Slice1236"
  top: "Slice1237"
  top: "Slice1238"
  top: "Slice1239"
  top: "Slice1240"
  top: "Slice1241"
  top: "Slice1242"
  top: "Slice1243"
  top: "Slice1244"
  top: "Slice1245"
  top: "Slice1246"
  top: "Slice1247"
  top: "Slice1248"
  top: "Slice1249"
  top: "Slice1250"
  top: "Slice1251"
  top: "Slice1252"
  top: "Slice1253"
  top: "Slice1254"
  top: "Slice1255"
  top: "Slice1256"
  top: "Slice1257"
  top: "Slice1258"
  top: "Slice1259"
  top: "Slice1260"
  top: "Slice1261"
  top: "Slice1262"
  top: "Slice1263"
  top: "Slice1264"
  top: "Slice1265"
  top: "Slice1266"
  top: "Slice1267"
  top: "Slice1268"
  top: "Slice1269"
  top: "Slice1270"
  top: "Slice1271"
  top: "Slice1272"
  top: "Slice1273"
  top: "Slice1274"
  top: "Slice1275"
  top: "Slice1276"
  top: "Slice1277"
  top: "Slice1278"
  top: "Slice1279"
  top: "Slice1280"
  top: "Slice1281"
  top: "Slice1282"
  top: "Slice1283"
  top: "Slice1284"
  top: "Slice1285"
  top: "Slice1286"
  top: "Slice1287"
  top: "Slice1288"
  top: "Slice1289"
  top: "Slice1290"
  top: "Slice1291"
  top: "Slice1292"
  top: "Slice1293"
  top: "Slice1294"
  top: "Slice1295"
  top: "Slice1296"
  top: "Slice1297"
  top: "Slice1298"
  top: "Slice1299"
  top: "Slice1300"
  top: "Slice1301"
  top: "Slice1302"
  top: "Slice1303"
  top: "Slice1304"
  top: "Slice1305"
  top: "Slice1306"
  top: "Slice1307"
  top: "Slice1308"
  top: "Slice1309"
  top: "Slice1310"
  top: "Slice1311"
  top: "Slice1312"
  top: "Slice1313"
  top: "Slice1314"
  top: "Slice1315"
  top: "Slice1316"
  top: "Slice1317"
  top: "Slice1318"
  top: "Slice1319"
  top: "Slice1320"
  top: "Slice1321"
  top: "Slice1322"
  top: "Slice1323"
  top: "Slice1324"
  top: "Slice1325"
  top: "Slice1326"
  top: "Slice1327"
  top: "Slice1328"
  top: "Slice1329"
  top: "Slice1330"
  top: "Slice1331"
  top: "Slice1332"
  top: "Slice1333"
  top: "Slice1334"
  top: "Slice1335"
  top: "Slice1336"
  top: "Slice1337"
  top: "Slice1338"
  top: "Slice1339"
  top: "Slice1340"
  top: "Slice1341"
  top: "Slice1342"
  top: "Slice1343"
  top: "Slice1344"
  top: "Slice1345"
  top: "Slice1346"
  top: "Slice1347"
  top: "Slice1348"
  top: "Slice1349"
  top: "Slice1350"
  top: "Slice1351"
  top: "Slice1352"
  top: "Slice1353"
  top: "Slice1354"
  top: "Slice1355"
  top: "Slice1356"
  top: "Slice1357"
  top: "Slice1358"
  top: "Slice1359"
  top: "Slice1360"
  top: "Slice1361"
  top: "Slice1362"
  top: "Slice1363"
  top: "Slice1364"
  top: "Slice1365"
  top: "Slice1366"
  top: "Slice1367"
  top: "Slice1368"
  top: "Slice1369"
  top: "Slice1370"
  top: "Slice1371"
  top: "Slice1372"
  top: "Slice1373"
  top: "Slice1374"
  top: "Slice1375"
  top: "Slice1376"
  top: "Slice1377"
  top: "Slice1378"
  top: "Slice1379"
  top: "Slice1380"
  top: "Slice1381"
  top: "Slice1382"
  top: "Slice1383"
  top: "Slice1384"
  top: "Slice1385"
  top: "Slice1386"
  top: "Slice1387"
  top: "Slice1388"
  top: "Slice1389"
  top: "Slice1390"
  top: "Slice1391"
  top: "Slice1392"
  top: "Slice1393"
  top: "Slice1394"
  top: "Slice1395"
  top: "Slice1396"
  top: "Slice1397"
  top: "Slice1398"
  top: "Slice1399"
  top: "Slice1400"
  top: "Slice1401"
  top: "Slice1402"
  top: "Slice1403"
  top: "Slice1404"
  top: "Slice1405"
  top: "Slice1406"
  top: "Slice1407"
  top: "Slice1408"
  top: "Slice1409"
  top: "Slice1410"
  top: "Slice1411"
  top: "Slice1412"
  top: "Slice1413"
  top: "Slice1414"
  top: "Slice1415"
  top: "Slice1416"
  top: "Slice1417"
  top: "Slice1418"
  top: "Slice1419"
  top: "Slice1420"
  top: "Slice1421"
  top: "Slice1422"
  top: "Slice1423"
  top: "Slice1424"
  top: "Slice1425"
  top: "Slice1426"
  top: "Slice1427"
  top: "Slice1428"
  top: "Slice1429"
  top: "Slice1430"
  top: "Slice1431"
  top: "Slice1432"
  top: "Slice1433"
  top: "Slice1434"
  top: "Slice1435"
  top: "Slice1436"
  top: "Slice1437"
  top: "Slice1438"
  top: "Slice1439"
  top: "Slice1440"
  top: "Slice1441"
  top: "Slice1442"
  top: "Slice1443"
  top: "Slice1444"
  top: "Slice1445"
  top: "Slice1446"
  top: "Slice1447"
  top: "Slice1448"
  top: "Slice1449"
  top: "Slice1450"
  top: "Slice1451"
  top: "Slice1452"
  top: "Slice1453"
  top: "Slice1454"
  top: "Slice1455"
  top: "Slice1456"
  top: "Slice1457"
  top: "Slice1458"
  top: "Slice1459"
  top: "Slice1460"
  top: "Slice1461"
  top: "Slice1462"
  top: "Slice1463"
  top: "Slice1464"
  top: "Slice1465"
  top: "Slice1466"
  top: "Slice1467"
  top: "Slice1468"
  top: "Slice1469"
  top: "Slice1470"
  top: "Slice1471"
  top: "Slice1472"
  top: "Slice1473"
  top: "Slice1474"
  top: "Slice1475"
  top: "Slice1476"
  top: "Slice1477"
  top: "Slice1478"
  top: "Slice1479"
  top: "Slice1480"
  top: "Slice1481"
  top: "Slice1482"
  top: "Slice1483"
  top: "Slice1484"
  top: "Slice1485"
  top: "Slice1486"
  top: "Slice1487"
  top: "Slice1488"
  top: "Slice1489"
  top: "Slice1490"
  top: "Slice1491"
  top: "Slice1492"
  top: "Slice1493"
  top: "Slice1494"
  top: "Slice1495"
  top: "Slice1496"
  top: "Slice1497"
  top: "Slice1498"
  top: "Slice1499"
  top: "Slice1500"
  top: "Slice1501"
  top: "Slice1502"
  top: "Slice1503"
  top: "Slice1504"
  top: "Slice1505"
  top: "Slice1506"
  top: "Slice1507"
  top: "Slice1508"
  top: "Slice1509"
  top: "Slice1510"
  top: "Slice1511"
  top: "Slice1512"
  top: "Slice1513"
  top: "Slice1514"
  top: "Slice1515"
  top: "Slice1516"
  top: "Slice1517"
  top: "Slice1518"
  top: "Slice1519"
  top: "Slice1520"
  top: "Slice1521"
  top: "Slice1522"
  top: "Slice1523"
  top: "Slice1524"
  top: "Slice1525"
  top: "Slice1526"
  top: "Slice1527"
  top: "Slice1528"
  top: "Slice1529"
  top: "Slice1530"
  top: "Slice1531"
  top: "Slice1532"
  top: "Slice1533"
  top: "Slice1534"
  top: "Slice1535"
  top: "Slice1536"
  top: "Slice1537"
  top: "Slice1538"
  top: "Slice1539"
  top: "Slice1540"
  top: "Slice1541"
  top: "Slice1542"
  top: "Slice1543"
  top: "Slice1544"
  top: "Slice1545"
  top: "Slice1546"
  top: "Slice1547"
  top: "Slice1548"
  top: "Slice1549"
  top: "Slice1550"
  top: "Slice1551"
  top: "Slice1552"
  top: "Slice1553"
  top: "Slice1554"
  top: "Slice1555"
  top: "Slice1556"
  top: "Slice1557"
  top: "Slice1558"
  top: "Slice1559"
  top: "Slice1560"
  top: "Slice1561"
  top: "Slice1562"
  top: "Slice1563"
  top: "Slice1564"
  top: "Slice1565"
  top: "Slice1566"
  top: "Slice1567"
  top: "Slice1568"
  top: "Slice1569"
  top: "Slice1570"
  top: "Slice1571"
  top: "Slice1572"
  top: "Slice1573"
  top: "Slice1574"
  top: "Slice1575"
  top: "Slice1576"
  top: "Slice1577"
  top: "Slice1578"
  top: "Slice1579"
  top: "Slice1580"
  top: "Slice1581"
  top: "Slice1582"
  top: "Slice1583"
  top: "Slice1584"
  top: "Slice1585"
  top: "Slice1586"
  top: "Slice1587"
  top: "Slice1588"
  top: "Slice1589"
  top: "Slice1590"
  top: "Slice1591"
  top: "Slice1592"
  top: "Slice1593"
  top: "Slice1594"
  top: "Slice1595"
  top: "Slice1596"
  top: "Slice1597"
  top: "Slice1598"
  top: "Slice1599"
  top: "Slice1600"
  top: "Slice1601"
  top: "Slice1602"
  top: "Slice1603"
  top: "Slice1604"
  top: "Slice1605"
  top: "Slice1606"
  top: "Slice1607"
  top: "Slice1608"
  top: "Slice1609"
  top: "Slice1610"
  top: "Slice1611"
  top: "Slice1612"
  top: "Slice1613"
  top: "Slice1614"
  top: "Slice1615"
  top: "Slice1616"
  top: "Slice1617"
  top: "Slice1618"
  top: "Slice1619"
  top: "Slice1620"
  top: "Slice1621"
  top: "Slice1622"
  top: "Slice1623"
  top: "Slice1624"
  top: "Slice1625"
  top: "Slice1626"
  top: "Slice1627"
  top: "Slice1628"
  top: "Slice1629"
  top: "Slice1630"
  top: "Slice1631"
  top: "Slice1632"
  top: "Slice1633"
  top: "Slice1634"
  top: "Slice1635"
  top: "Slice1636"
  top: "Slice1637"
  top: "Slice1638"
  top: "Slice1639"
  top: "Slice1640"
  top: "Slice1641"
  top: "Slice1642"
  top: "Slice1643"
  top: "Slice1644"
  top: "Slice1645"
  top: "Slice1646"
  top: "Slice1647"
  top: "Slice1648"
  top: "Slice1649"
  top: "Slice1650"
  top: "Slice1651"
  top: "Slice1652"
  top: "Slice1653"
  top: "Slice1654"
  top: "Slice1655"
  top: "Slice1656"
  top: "Slice1657"
  top: "Slice1658"
  top: "Slice1659"
  top: "Slice1660"
  top: "Slice1661"
  top: "Slice1662"
  top: "Slice1663"
  top: "Slice1664"
  top: "Slice1665"
  top: "Slice1666"
  top: "Slice1667"
  top: "Slice1668"
  top: "Slice1669"
  top: "Slice1670"
  top: "Slice1671"
  top: "Slice1672"
  top: "Slice1673"
  top: "Slice1674"
  top: "Slice1675"
  top: "Slice1676"
  top: "Slice1677"
  top: "Slice1678"
  top: "Slice1679"
  top: "Slice1680"
  top: "Slice1681"
  top: "Slice1682"
  top: "Slice1683"
  top: "Slice1684"
  top: "Slice1685"
  top: "Slice1686"
  top: "Slice1687"
  top: "Slice1688"
  top: "Slice1689"
  top: "Slice1690"
  top: "Slice1691"
  top: "Slice1692"
  top: "Slice1693"
  top: "Slice1694"
  top: "Slice1695"
  top: "Slice1696"
  top: "Slice1697"
  top: "Slice1698"
  top: "Slice1699"
  top: "Slice1700"
  top: "Slice1701"
  top: "Slice1702"
  top: "Slice1703"
  top: "Slice1704"
  top: "Slice1705"
  top: "Slice1706"
  top: "Slice1707"
  top: "Slice1708"
  top: "Slice1709"
  top: "Slice1710"
  top: "Slice1711"
  top: "Slice1712"
  top: "Slice1713"
  top: "Slice1714"
  top: "Slice1715"
  top: "Slice1716"
  top: "Slice1717"
  top: "Slice1718"
  top: "Slice1719"
  top: "Slice1720"
  top: "Slice1721"
  top: "Slice1722"
  top: "Slice1723"
  top: "Slice1724"
  top: "Slice1725"
  top: "Slice1726"
  top: "Slice1727"
  top: "Slice1728"
  top: "Slice1729"
  top: "Slice1730"
  top: "Slice1731"
  top: "Slice1732"
  top: "Slice1733"
  top: "Slice1734"
  top: "Slice1735"
  top: "Slice1736"
  top: "Slice1737"
  top: "Slice1738"
  top: "Slice1739"
  top: "Slice1740"
  top: "Slice1741"
  top: "Slice1742"
  top: "Slice1743"
  top: "Slice1744"
  top: "Slice1745"
  top: "Slice1746"
  top: "Slice1747"
  top: "Slice1748"
  top: "Slice1749"
  top: "Slice1750"
  top: "Slice1751"
  top: "Slice1752"
  top: "Slice1753"
  top: "Slice1754"
  top: "Slice1755"
  top: "Slice1756"
  top: "Slice1757"
  top: "Slice1758"
  top: "Slice1759"
  top: "Slice1760"
  top: "Slice1761"
  top: "Slice1762"
  top: "Slice1763"
  top: "Slice1764"
  top: "Slice1765"
  top: "Slice1766"
  top: "Slice1767"
  top: "Slice1768"
  top: "Slice1769"
  top: "Slice1770"
  top: "Slice1771"
  top: "Slice1772"
  top: "Slice1773"
  top: "Slice1774"
  top: "Slice1775"
  top: "Slice1776"
  top: "Slice1777"
  top: "Slice1778"
  top: "Slice1779"
  top: "Slice1780"
  top: "Slice1781"
  top: "Slice1782"
  top: "Slice1783"
  top: "Slice1784"
  top: "Slice1785"
  top: "Slice1786"
  top: "Slice1787"
  top: "Slice1788"
  top: "Slice1789"
  top: "Slice1790"
  top: "Slice1791"
  top: "Slice1792"
  top: "Slice1793"
  top: "Slice1794"
  top: "Slice1795"
  top: "Slice1796"
  top: "Slice1797"
  top: "Slice1798"
  top: "Slice1799"
  top: "Slice1800"
  slice_param {
    slice_point: 500
    slice_point: 1000
    slice_point: 1500
    slice_point: 2000
    slice_point: 2500
    slice_point: 3000
    slice_point: 3500
    slice_point: 4000
    slice_point: 4500
    slice_point: 5000
    slice_point: 5500
    slice_point: 6000
    slice_point: 6500
    slice_point: 7000
    slice_point: 7500
    slice_point: 8000
    slice_point: 8500
    slice_point: 9000
    slice_point: 9500
    slice_point: 10000
    slice_point: 10500
    slice_point: 11000
    slice_point: 11500
    slice_point: 12000
    slice_point: 12500
    slice_point: 13000
    slice_point: 13500
    slice_point: 14000
    slice_point: 14500
    slice_point: 15000
    slice_point: 15500
    slice_point: 16000
    slice_point: 16500
    slice_point: 17000
    slice_point: 17500
    slice_point: 18000
    slice_point: 18500
    slice_point: 19000
    slice_point: 19500
    slice_point: 20000
    slice_point: 20500
    slice_point: 21000
    slice_point: 21500
    slice_point: 22000
    slice_point: 22500
    slice_point: 23000
    slice_point: 23500
    slice_point: 24000
    slice_point: 24500
    slice_point: 25000
    slice_point: 25500
    slice_point: 26000
    slice_point: 26500
    slice_point: 27000
    slice_point: 27500
    slice_point: 28000
    slice_point: 28500
    slice_point: 29000
    slice_point: 29500
    slice_point: 30000
    slice_point: 30500
    slice_point: 31000
    slice_point: 31500
    slice_point: 32000
    slice_point: 32500
    slice_point: 33000
    slice_point: 33500
    slice_point: 34000
    slice_point: 34500
    slice_point: 35000
    slice_point: 35500
    slice_point: 36000
    slice_point: 36500
    slice_point: 37000
    slice_point: 37500
    slice_point: 38000
    slice_point: 38500
    slice_point: 39000
    slice_point: 39500
    slice_point: 40000
    slice_point: 40500
    slice_point: 41000
    slice_point: 41500
    slice_point: 42000
    slice_point: 42500
    slice_point: 43000
    slice_point: 43500
    slice_point: 44000
    slice_point: 44500
    slice_point: 45000
    slice_point: 45500
    slice_point: 46000
    slice_point: 46500
    slice_point: 47000
    slice_point: 47500
    slice_point: 48000
    slice_point: 48500
    slice_point: 49000
    slice_point: 49500
    slice_point: 50000
    slice_point: 50500
    slice_point: 51000
    slice_point: 51500
    slice_point: 52000
    slice_point: 52500
    slice_point: 53000
    slice_point: 53500
    slice_point: 54000
    slice_point: 54500
    slice_point: 55000
    slice_point: 55500
    slice_point: 56000
    slice_point: 56500
    slice_point: 57000
    slice_point: 57500
    slice_point: 58000
    slice_point: 58500
    slice_point: 59000
    slice_point: 59500
    slice_point: 60000
    slice_point: 60500
    slice_point: 61000
    slice_point: 61500
    slice_point: 62000
    slice_point: 62500
    slice_point: 63000
    slice_point: 63500
    slice_point: 64000
    slice_point: 64500
    slice_point: 65000
    slice_point: 65500
    slice_point: 66000
    slice_point: 66500
    slice_point: 67000
    slice_point: 67500
    slice_point: 68000
    slice_point: 68500
    slice_point: 69000
    slice_point: 69500
    slice_point: 70000
    slice_point: 70500
    slice_point: 71000
    slice_point: 71500
    slice_point: 72000
    slice_point: 72500
    slice_point: 73000
    slice_point: 73500
    slice_point: 74000
    slice_point: 74500
    slice_point: 75000
    slice_point: 75500
    slice_point: 76000
    slice_point: 76500
    slice_point: 77000
    slice_point: 77500
    slice_point: 78000
    slice_point: 78500
    slice_point: 79000
    slice_point: 79500
    slice_point: 80000
    slice_point: 80500
    slice_point: 81000
    slice_point: 81500
    slice_point: 82000
    slice_point: 82500
    slice_point: 83000
    slice_point: 83500
    slice_point: 84000
    slice_point: 84500
    slice_point: 85000
    slice_point: 85500
    slice_point: 86000
    slice_point: 86500
    slice_point: 87000
    slice_point: 87500
    slice_point: 88000
    slice_point: 88500
    slice_point: 89000
    slice_point: 89500
    slice_point: 90000
    slice_point: 90500
    slice_point: 91000
    slice_point: 91500
    slice_point: 92000
    slice_point: 92500
    slice_point: 93000
    slice_point: 93500
    slice_point: 94000
    slice_point: 94500
    slice_point: 95000
    slice_point: 95500
    slice_point: 96000
    slice_point: 96500
    slice_point: 97000
    slice_point: 97500
    slice_point: 98000
    slice_point: 98500
    slice_point: 99000
    slice_point: 99500
    slice_point: 100000
    slice_point: 100500
    slice_point: 101000
    slice_point: 101500
    slice_point: 102000
    slice_point: 102500
    slice_point: 103000
    slice_point: 103500
    slice_point: 104000
    slice_point: 104500
    slice_point: 105000
    slice_point: 105500
    slice_point: 106000
    slice_point: 106500
    slice_point: 107000
    slice_point: 107500
    slice_point: 108000
    slice_point: 108500
    slice_point: 109000
    slice_point: 109500
    slice_point: 110000
    slice_point: 110500
    slice_point: 111000
    slice_point: 111500
    slice_point: 112000
    slice_point: 112500
    slice_point: 113000
    slice_point: 113500
    slice_point: 114000
    slice_point: 114500
    slice_point: 115000
    slice_point: 115500
    slice_point: 116000
    slice_point: 116500
    slice_point: 117000
    slice_point: 117500
    slice_point: 118000
    slice_point: 118500
    slice_point: 119000
    slice_point: 119500
    slice_point: 120000
    slice_point: 120500
    slice_point: 121000
    slice_point: 121500
    slice_point: 122000
    slice_point: 122500
    slice_point: 123000
    slice_point: 123500
    slice_point: 124000
    slice_point: 124500
    slice_point: 125000
    slice_point: 125500
    slice_point: 126000
    slice_point: 126500
    slice_point: 127000
    slice_point: 127500
    slice_point: 128000
    slice_point: 128500
    slice_point: 129000
    slice_point: 129500
    slice_point: 130000
    slice_point: 130500
    slice_point: 131000
    slice_point: 131500
    slice_point: 132000
    slice_point: 132500
    slice_point: 133000
    slice_point: 133500
    slice_point: 134000
    slice_point: 134500
    slice_point: 135000
    slice_point: 135500
    slice_point: 136000
    slice_point: 136500
    slice_point: 137000
    slice_point: 137500
    slice_point: 138000
    slice_point: 138500
    slice_point: 139000
    slice_point: 139500
    slice_point: 140000
    slice_point: 140500
    slice_point: 141000
    slice_point: 141500
    slice_point: 142000
    slice_point: 142500
    slice_point: 143000
    slice_point: 143500
    slice_point: 144000
    slice_point: 144500
    slice_point: 145000
    slice_point: 145500
    slice_point: 146000
    slice_point: 146500
    slice_point: 147000
    slice_point: 147500
    slice_point: 148000
    slice_point: 148500
    slice_point: 149000
    slice_point: 149500
    slice_point: 150000
    slice_point: 150500
    slice_point: 151000
    slice_point: 151500
    slice_point: 152000
    slice_point: 152500
    slice_point: 153000
    slice_point: 153500
    slice_point: 154000
    slice_point: 154500
    slice_point: 155000
    slice_point: 155500
    slice_point: 156000
    slice_point: 156500
    slice_point: 157000
    slice_point: 157500
    slice_point: 158000
    slice_point: 158500
    slice_point: 159000
    slice_point: 159500
    slice_point: 160000
    slice_point: 160500
    slice_point: 161000
    slice_point: 161500
    slice_point: 162000
    slice_point: 162500
    slice_point: 163000
    slice_point: 163500
    slice_point: 164000
    slice_point: 164500
    slice_point: 165000
    slice_point: 165500
    slice_point: 166000
    slice_point: 166500
    slice_point: 167000
    slice_point: 167500
    slice_point: 168000
    slice_point: 168500
    slice_point: 169000
    slice_point: 169500
    slice_point: 170000
    slice_point: 170500
    slice_point: 171000
    slice_point: 171500
    slice_point: 172000
    slice_point: 172500
    slice_point: 173000
    slice_point: 173500
    slice_point: 174000
    slice_point: 174500
    slice_point: 175000
    slice_point: 175500
    slice_point: 176000
    slice_point: 176500
    slice_point: 177000
    slice_point: 177500
    slice_point: 178000
    slice_point: 178500
    slice_point: 179000
    slice_point: 179500
    slice_point: 180000
    slice_point: 180500
    slice_point: 181000
    slice_point: 181500
    slice_point: 182000
    slice_point: 182500
    slice_point: 183000
    slice_point: 183500
    slice_point: 184000
    slice_point: 184500
    slice_point: 185000
    slice_point: 185500
    slice_point: 186000
    slice_point: 186500
    slice_point: 187000
    slice_point: 187500
    slice_point: 188000
    slice_point: 188500
    slice_point: 189000
    slice_point: 189500
    slice_point: 190000
    slice_point: 190500
    slice_point: 191000
    slice_point: 191500
    slice_point: 192000
    slice_point: 192500
    slice_point: 193000
    slice_point: 193500
    slice_point: 194000
    slice_point: 194500
    slice_point: 195000
    slice_point: 195500
    slice_point: 196000
    slice_point: 196500
    slice_point: 197000
    slice_point: 197500
    slice_point: 198000
    slice_point: 198500
    slice_point: 199000
    slice_point: 199500
    slice_point: 200000
    slice_point: 200500
    slice_point: 201000
    slice_point: 201500
    slice_point: 202000
    slice_point: 202500
    slice_point: 203000
    slice_point: 203500
    slice_point: 204000
    slice_point: 204500
    slice_point: 205000
    slice_point: 205500
    slice_point: 206000
    slice_point: 206500
    slice_point: 207000
    slice_point: 207500
    slice_point: 208000
    slice_point: 208500
    slice_point: 209000
    slice_point: 209500
    slice_point: 210000
    slice_point: 210500
    slice_point: 211000
    slice_point: 211500
    slice_point: 212000
    slice_point: 212500
    slice_point: 213000
    slice_point: 213500
    slice_point: 214000
    slice_point: 214500
    slice_point: 215000
    slice_point: 215500
    slice_point: 216000
    slice_point: 216500
    slice_point: 217000
    slice_point: 217500
    slice_point: 218000
    slice_point: 218500
    slice_point: 219000
    slice_point: 219500
    slice_point: 220000
    slice_point: 220500
    slice_point: 221000
    slice_point: 221500
    slice_point: 222000
    slice_point: 222500
    slice_point: 223000
    slice_point: 223500
    slice_point: 224000
    slice_point: 224500
    slice_point: 225000
    slice_point: 225500
    slice_point: 226000
    slice_point: 226500
    slice_point: 227000
    slice_point: 227500
    slice_point: 228000
    slice_point: 228500
    slice_point: 229000
    slice_point: 229500
    slice_point: 230000
    slice_point: 230500
    slice_point: 231000
    slice_point: 231500
    slice_point: 232000
    slice_point: 232500
    slice_point: 233000
    slice_point: 233500
    slice_point: 234000
    slice_point: 234500
    slice_point: 235000
    slice_point: 235500
    slice_point: 236000
    slice_point: 236500
    slice_point: 237000
    slice_point: 237500
    slice_point: 238000
    slice_point: 238500
    slice_point: 239000
    slice_point: 239500
    slice_point: 240000
    slice_point: 240500
    slice_point: 241000
    slice_point: 241500
    slice_point: 242000
    slice_point: 242500
    slice_point: 243000
    slice_point: 243500
    slice_point: 244000
    slice_point: 244500
    slice_point: 245000
    slice_point: 245500
    slice_point: 246000
    slice_point: 246500
    slice_point: 247000
    slice_point: 247500
    slice_point: 248000
    slice_point: 248500
    slice_point: 249000
    slice_point: 249500
    slice_point: 250000
    slice_point: 250500
    slice_point: 251000
    slice_point: 251500
    slice_point: 252000
    slice_point: 252500
    slice_point: 253000
    slice_point: 253500
    slice_point: 254000
    slice_point: 254500
    slice_point: 255000
    slice_point: 255500
    slice_point: 256000
    slice_point: 256500
    slice_point: 257000
    slice_point: 257500
    slice_point: 258000
    slice_point: 258500
    slice_point: 259000
    slice_point: 259500
    slice_point: 260000
    slice_point: 260500
    slice_point: 261000
    slice_point: 261500
    slice_point: 262000
    slice_point: 262500
    slice_point: 263000
    slice_point: 263500
    slice_point: 264000
    slice_point: 264500
    slice_point: 265000
    slice_point: 265500
    slice_point: 266000
    slice_point: 266500
    slice_point: 267000
    slice_point: 267500
    slice_point: 268000
    slice_point: 268500
    slice_point: 269000
    slice_point: 269500
    slice_point: 270000
    slice_point: 270500
    slice_point: 271000
    slice_point: 271500
    slice_point: 272000
    slice_point: 272500
    slice_point: 273000
    slice_point: 273500
    slice_point: 274000
    slice_point: 274500
    slice_point: 275000
    slice_point: 275500
    slice_point: 276000
    slice_point: 276500
    slice_point: 277000
    slice_point: 277500
    slice_point: 278000
    slice_point: 278500
    slice_point: 279000
    slice_point: 279500
    slice_point: 280000
    slice_point: 280500
    slice_point: 281000
    slice_point: 281500
    slice_point: 282000
    slice_point: 282500
    slice_point: 283000
    slice_point: 283500
    slice_point: 284000
    slice_point: 284500
    slice_point: 285000
    slice_point: 285500
    slice_point: 286000
    slice_point: 286500
    slice_point: 287000
    slice_point: 287500
    slice_point: 288000
    slice_point: 288500
    slice_point: 289000
    slice_point: 289500
    slice_point: 290000
    slice_point: 290500
    slice_point: 291000
    slice_point: 291500
    slice_point: 292000
    slice_point: 292500
    slice_point: 293000
    slice_point: 293500
    slice_point: 294000
    slice_point: 294500
    slice_point: 295000
    slice_point: 295500
    slice_point: 296000
    slice_point: 296500
    slice_point: 297000
    slice_point: 297500
    slice_point: 298000
    slice_point: 298500
    slice_point: 299000
    slice_point: 299500
    slice_point: 300000
    slice_point: 300500
    slice_point: 301000
    slice_point: 301500
    slice_point: 302000
    slice_point: 302500
    slice_point: 303000
    slice_point: 303500
    slice_point: 304000
    slice_point: 304500
    slice_point: 305000
    slice_point: 305500
    slice_point: 306000
    slice_point: 306500
    slice_point: 307000
    slice_point: 307500
    slice_point: 308000
    slice_point: 308500
    slice_point: 309000
    slice_point: 309500
    slice_point: 310000
    slice_point: 310500
    slice_point: 311000
    slice_point: 311500
    slice_point: 312000
    slice_point: 312500
    slice_point: 313000
    slice_point: 313500
    slice_point: 314000
    slice_point: 314500
    slice_point: 315000
    slice_point: 315500
    slice_point: 316000
    slice_point: 316500
    slice_point: 317000
    slice_point: 317500
    slice_point: 318000
    slice_point: 318500
    slice_point: 319000
    slice_point: 319500
    slice_point: 320000
    slice_point: 320500
    slice_point: 321000
    slice_point: 321500
    slice_point: 322000
    slice_point: 322500
    slice_point: 323000
    slice_point: 323500
    slice_point: 324000
    slice_point: 324500
    slice_point: 325000
    slice_point: 325500
    slice_point: 326000
    slice_point: 326500
    slice_point: 327000
    slice_point: 327500
    slice_point: 328000
    slice_point: 328500
    slice_point: 329000
    slice_point: 329500
    slice_point: 330000
    slice_point: 330500
    slice_point: 331000
    slice_point: 331500
    slice_point: 332000
    slice_point: 332500
    slice_point: 333000
    slice_point: 333500
    slice_point: 334000
    slice_point: 334500
    slice_point: 335000
    slice_point: 335500
    slice_point: 336000
    slice_point: 336500
    slice_point: 337000
    slice_point: 337500
    slice_point: 338000
    slice_point: 338500
    slice_point: 339000
    slice_point: 339500
    slice_point: 340000
    slice_point: 340500
    slice_point: 341000
    slice_point: 341500
    slice_point: 342000
    slice_point: 342500
    slice_point: 343000
    slice_point: 343500
    slice_point: 344000
    slice_point: 344500
    slice_point: 345000
    slice_point: 345500
    slice_point: 346000
    slice_point: 346500
    slice_point: 347000
    slice_point: 347500
    slice_point: 348000
    slice_point: 348500
    slice_point: 349000
    slice_point: 349500
    slice_point: 350000
    slice_point: 350500
    slice_point: 351000
    slice_point: 351500
    slice_point: 352000
    slice_point: 352500
    slice_point: 353000
    slice_point: 353500
    slice_point: 354000
    slice_point: 354500
    slice_point: 355000
    slice_point: 355500
    slice_point: 356000
    slice_point: 356500
    slice_point: 357000
    slice_point: 357500
    slice_point: 358000
    slice_point: 358500
    slice_point: 359000
    slice_point: 359500
    slice_point: 360000
    slice_point: 360500
    slice_point: 361000
    slice_point: 361500
    slice_point: 362000
    slice_point: 362500
    slice_point: 363000
    slice_point: 363500
    slice_point: 364000
    slice_point: 364500
    slice_point: 365000
    slice_point: 365500
    slice_point: 366000
    slice_point: 366500
    slice_point: 367000
    slice_point: 367500
    slice_point: 368000
    slice_point: 368500
    slice_point: 369000
    slice_point: 369500
    slice_point: 370000
    slice_point: 370500
    slice_point: 371000
    slice_point: 371500
    slice_point: 372000
    slice_point: 372500
    slice_point: 373000
    slice_point: 373500
    slice_point: 374000
    slice_point: 374500
    slice_point: 375000
    slice_point: 375500
    slice_point: 376000
    slice_point: 376500
    slice_point: 377000
    slice_point: 377500
    slice_point: 378000
    slice_point: 378500
    slice_point: 379000
    slice_point: 379500
    slice_point: 380000
    slice_point: 380500
    slice_point: 381000
    slice_point: 381500
    slice_point: 382000
    slice_point: 382500
    slice_point: 383000
    slice_point: 383500
    slice_point: 384000
    slice_point: 384500
    slice_point: 385000
    slice_point: 385500
    slice_point: 386000
    slice_point: 386500
    slice_point: 387000
    slice_point: 387500
    slice_point: 388000
    slice_point: 388500
    slice_point: 389000
    slice_point: 389500
    slice_point: 390000
    slice_point: 390500
    slice_point: 391000
    slice_point: 391500
    slice_point: 392000
    slice_point: 392500
    slice_point: 393000
    slice_point: 393500
    slice_point: 394000
    slice_point: 394500
    slice_point: 395000
    slice_point: 395500
    slice_point: 396000
    slice_point: 396500
    slice_point: 397000
    slice_point: 397500
    slice_point: 398000
    slice_point: 398500
    slice_point: 399000
    slice_point: 399500
    slice_point: 400000
    slice_point: 400500
    slice_point: 401000
    slice_point: 401500
    slice_point: 402000
    slice_point: 402500
    slice_point: 403000
    slice_point: 403500
    slice_point: 404000
    slice_point: 404500
    slice_point: 405000
    slice_point: 405500
    slice_point: 406000
    slice_point: 406500
    slice_point: 407000
    slice_point: 407500
    slice_point: 408000
    slice_point: 408500
    slice_point: 409000
    slice_point: 409500
    slice_point: 410000
    slice_point: 410500
    slice_point: 411000
    slice_point: 411500
    slice_point: 412000
    slice_point: 412500
    slice_point: 413000
    slice_point: 413500
    slice_point: 414000
    slice_point: 414500
    slice_point: 415000
    slice_point: 415500
    slice_point: 416000
    slice_point: 416500
    slice_point: 417000
    slice_point: 417500
    slice_point: 418000
    slice_point: 418500
    slice_point: 419000
    slice_point: 419500
    slice_point: 420000
    slice_point: 420500
    slice_point: 421000
    slice_point: 421500
    slice_point: 422000
    slice_point: 422500
    slice_point: 423000
    slice_point: 423500
    slice_point: 424000
    slice_point: 424500
    slice_point: 425000
    slice_point: 425500
    slice_point: 426000
    slice_point: 426500
    slice_point: 427000
    slice_point: 427500
    slice_point: 428000
    slice_point: 428500
    slice_point: 429000
    slice_point: 429500
    slice_point: 430000
    slice_point: 430500
    slice_point: 431000
    slice_point: 431500
    slice_point: 432000
    slice_point: 432500
    slice_point: 433000
    slice_point: 433500
    slice_point: 434000
    slice_point: 434500
    slice_point: 435000
    slice_point: 435500
    slice_point: 436000
    slice_point: 436500
    slice_point: 437000
    slice_point: 437500
    slice_point: 438000
    slice_point: 438500
    slice_point: 439000
    slice_point: 439500
    slice_point: 440000
    slice_point: 440500
    slice_point: 441000
    slice_point: 441500
    slice_point: 442000
    slice_point: 442500
    slice_point: 443000
    slice_point: 443500
    slice_point: 444000
    slice_point: 444500
    slice_point: 445000
    slice_point: 445500
    slice_point: 446000
    slice_point: 446500
    slice_point: 447000
    slice_point: 447500
    slice_point: 448000
    slice_point: 448500
    slice_point: 449000
    slice_point: 449500
    slice_point: 450000
    slice_point: 450500
    slice_point: 451000
    slice_point: 451500
    slice_point: 452000
    slice_point: 452500
    slice_point: 453000
    slice_point: 453500
    slice_point: 454000
    slice_point: 454500
    slice_point: 455000
    slice_point: 455500
    slice_point: 456000
    slice_point: 456500
    slice_point: 457000
    slice_point: 457500
    slice_point: 458000
    slice_point: 458500
    slice_point: 459000
    slice_point: 459500
    slice_point: 460000
    slice_point: 460500
    slice_point: 461000
    slice_point: 461500
    slice_point: 462000
    slice_point: 462500
    slice_point: 463000
    slice_point: 463500
    slice_point: 464000
    slice_point: 464500
    slice_point: 465000
    slice_point: 465500
    slice_point: 466000
    slice_point: 466500
    slice_point: 467000
    slice_point: 467500
    slice_point: 468000
    slice_point: 468500
    slice_point: 469000
    slice_point: 469500
    slice_point: 470000
    slice_point: 470500
    slice_point: 471000
    slice_point: 471500
    slice_point: 472000
    slice_point: 472500
    slice_point: 473000
    slice_point: 473500
    slice_point: 474000
    slice_point: 474500
    slice_point: 475000
    slice_point: 475500
    slice_point: 476000
    slice_point: 476500
    slice_point: 477000
    slice_point: 477500
    slice_point: 478000
    slice_point: 478500
    slice_point: 479000
    slice_point: 479500
    slice_point: 480000
    slice_point: 480500
    slice_point: 481000
    slice_point: 481500
    slice_point: 482000
    slice_point: 482500
    slice_point: 483000
    slice_point: 483500
    slice_point: 484000
    slice_point: 484500
    slice_point: 485000
    slice_point: 485500
    slice_point: 486000
    slice_point: 486500
    slice_point: 487000
    slice_point: 487500
    slice_point: 488000
    slice_point: 488500
    slice_point: 489000
    slice_point: 489500
    slice_point: 490000
    slice_point: 490500
    slice_point: 491000
    slice_point: 491500
    slice_point: 492000
    slice_point: 492500
    slice_point: 493000
    slice_point: 493500
    slice_point: 494000
    slice_point: 494500
    slice_point: 495000
    slice_point: 495500
    slice_point: 496000
    slice_point: 496500
    slice_point: 497000
    slice_point: 497500
    slice_point: 498000
    slice_point: 498500
    slice_point: 499000
    slice_point: 499500
    slice_point: 500000
    slice_point: 500500
    slice_point: 501000
    slice_point: 501500
    slice_point: 502000
    slice_point: 502500
    slice_point: 503000
    slice_point: 503500
    slice_point: 504000
    slice_point: 504500
    slice_point: 505000
    slice_point: 505500
    slice_point: 506000
    slice_point: 506500
    slice_point: 507000
    slice_point: 507500
    slice_point: 508000
    slice_point: 508500
    slice_point: 509000
    slice_point: 509500
    slice_point: 510000
    slice_point: 510500
    slice_point: 511000
    slice_point: 511500
    slice_point: 512000
    slice_point: 512500
    slice_point: 513000
    slice_point: 513500
    slice_point: 514000
    slice_point: 514500
    slice_point: 515000
    slice_point: 515500
    slice_point: 516000
    slice_point: 516500
    slice_point: 517000
    slice_point: 517500
    slice_point: 518000
    slice_point: 518500
    slice_point: 519000
    slice_point: 519500
    slice_point: 520000
    slice_point: 520500
    slice_point: 521000
    slice_point: 521500
    slice_point: 522000
    slice_point: 522500
    slice_point: 523000
    slice_point: 523500
    slice_point: 524000
    slice_point: 524500
    slice_point: 525000
    slice_point: 525500
    slice_point: 526000
    slice_point: 526500
    slice_point: 527000
    slice_point: 527500
    slice_point: 528000
    slice_point: 528500
    slice_point: 529000
    slice_point: 529500
    slice_point: 530000
    slice_point: 530500
    slice_point: 531000
    slice_point: 531500
    slice_point: 532000
    slice_point: 532500
    slice_point: 533000
    slice_point: 533500
    slice_point: 534000
    slice_point: 534500
    slice_point: 535000
    slice_point: 535500
    slice_point: 536000
    slice_point: 536500
    slice_point: 537000
    slice_point: 537500
    slice_point: 538000
    slice_point: 538500
    slice_point: 539000
    slice_point: 539500
    slice_point: 540000
    slice_point: 540500
    slice_point: 541000
    slice_point: 541500
    slice_point: 542000
    slice_point: 542500
    slice_point: 543000
    slice_point: 543500
    slice_point: 544000
    slice_point: 544500
    slice_point: 545000
    slice_point: 545500
    slice_point: 546000
    slice_point: 546500
    slice_point: 547000
    slice_point: 547500
    slice_point: 548000
    slice_point: 548500
    slice_point: 549000
    slice_point: 549500
    slice_point: 550000
    slice_point: 550500
    slice_point: 551000
    slice_point: 551500
    slice_point: 552000
    slice_point: 552500
    slice_point: 553000
    slice_point: 553500
    slice_point: 554000
    slice_point: 554500
    slice_point: 555000
    slice_point: 555500
    slice_point: 556000
    slice_point: 556500
    slice_point: 557000
    slice_point: 557500
    slice_point: 558000
    slice_point: 558500
    slice_point: 559000
    slice_point: 559500
    slice_point: 560000
    slice_point: 560500
    slice_point: 561000
    slice_point: 561500
    slice_point: 562000
    slice_point: 562500
    slice_point: 563000
    slice_point: 563500
    slice_point: 564000
    slice_point: 564500
    slice_point: 565000
    slice_point: 565500
    slice_point: 566000
    slice_point: 566500
    slice_point: 567000
    slice_point: 567500
    slice_point: 568000
    slice_point: 568500
    slice_point: 569000
    slice_point: 569500
    slice_point: 570000
    slice_point: 570500
    slice_point: 571000
    slice_point: 571500
    slice_point: 572000
    slice_point: 572500
    slice_point: 573000
    slice_point: 573500
    slice_point: 574000
    slice_point: 574500
    slice_point: 575000
    slice_point: 575500
    slice_point: 576000
    slice_point: 576500
    slice_point: 577000
    slice_point: 577500
    slice_point: 578000
    slice_point: 578500
    slice_point: 579000
    slice_point: 579500
    slice_point: 580000
    slice_point: 580500
    slice_point: 581000
    slice_point: 581500
    slice_point: 582000
    slice_point: 582500
    slice_point: 583000
    slice_point: 583500
    slice_point: 584000
    slice_point: 584500
    slice_point: 585000
    slice_point: 585500
    slice_point: 586000
    slice_point: 586500
    slice_point: 587000
    slice_point: 587500
    slice_point: 588000
    slice_point: 588500
    slice_point: 589000
    slice_point: 589500
    slice_point: 590000
    slice_point: 590500
    slice_point: 591000
    slice_point: 591500
    slice_point: 592000
    slice_point: 592500
    slice_point: 593000
    slice_point: 593500
    slice_point: 594000
    slice_point: 594500
    slice_point: 595000
    slice_point: 595500
    slice_point: 596000
    slice_point: 596500
    slice_point: 597000
    slice_point: 597500
    slice_point: 598000
    slice_point: 598500
    slice_point: 599000
    slice_point: 599500
    slice_point: 600000
    slice_point: 600500
    slice_point: 601000
    slice_point: 601500
    slice_point: 602000
    slice_point: 602500
    slice_point: 603000
    slice_point: 603500
    slice_point: 604000
    slice_point: 604500
    slice_point: 605000
    slice_point: 605500
    slice_point: 606000
    slice_point: 606500
    slice_point: 607000
    slice_point: 607500
    slice_point: 608000
    slice_point: 608500
    slice_point: 609000
    slice_point: 609500
    slice_point: 610000
    slice_point: 610500
    slice_point: 611000
    slice_point: 611500
    slice_point: 612000
    slice_point: 612500
    slice_point: 613000
    slice_point: 613500
    slice_point: 614000
    slice_point: 614500
    slice_point: 615000
    slice_point: 615500
    slice_point: 616000
    slice_point: 616500
    slice_point: 617000
    slice_point: 617500
    slice_point: 618000
    slice_point: 618500
    slice_point: 619000
    slice_point: 619500
    slice_point: 620000
    slice_point: 620500
    slice_point: 621000
    slice_point: 621500
    slice_point: 622000
    slice_point: 622500
    slice_point: 623000
    slice_point: 623500
    slice_point: 624000
    slice_point: 624500
    slice_point: 625000
    slice_point: 625500
    slice_point: 626000
    slice_point: 626500
    slice_point: 627000
    slice_point: 627500
    slice_point: 628000
    slice_point: 628500
    slice_point: 629000
    slice_point: 629500
    slice_point: 630000
    slice_point: 630500
    slice_point: 631000
    slice_point: 631500
    slice_point: 632000
    slice_point: 632500
    slice_point: 633000
    slice_point: 633500
    slice_point: 634000
    slice_point: 634500
    slice_point: 635000
    slice_point: 635500
    slice_point: 636000
    slice_point: 636500
    slice_point: 637000
    slice_point: 637500
    slice_point: 638000
    slice_point: 638500
    slice_point: 639000
    slice_point: 639500
    slice_point: 640000
    slice_point: 640500
    slice_point: 641000
    slice_point: 641500
    slice_point: 642000
    slice_point: 642500
    slice_point: 643000
    slice_point: 643500
    slice_point: 644000
    slice_point: 644500
    slice_point: 645000
    slice_point: 645500
    slice_point: 646000
    slice_point: 646500
    slice_point: 647000
    slice_point: 647500
    slice_point: 648000
    slice_point: 648500
    slice_point: 649000
    slice_point: 649500
    slice_point: 650000
    slice_point: 650500
    slice_point: 651000
    slice_point: 651500
    slice_point: 652000
    slice_point: 652500
    slice_point: 653000
    slice_point: 653500
    slice_point: 654000
    slice_point: 654500
    slice_point: 655000
    slice_point: 655500
    slice_point: 656000
    slice_point: 656500
    slice_point: 657000
    slice_point: 657500
    slice_point: 658000
    slice_point: 658500
    slice_point: 659000
    slice_point: 659500
    slice_point: 660000
    slice_point: 660500
    slice_point: 661000
    slice_point: 661500
    slice_point: 662000
    slice_point: 662500
    slice_point: 663000
    slice_point: 663500
    slice_point: 664000
    slice_point: 664500
    slice_point: 665000
    slice_point: 665500
    slice_point: 666000
    slice_point: 666500
    slice_point: 667000
    slice_point: 667500
    slice_point: 668000
    slice_point: 668500
    slice_point: 669000
    slice_point: 669500
    slice_point: 670000
    slice_point: 670500
    slice_point: 671000
    slice_point: 671500
    slice_point: 672000
    slice_point: 672500
    slice_point: 673000
    slice_point: 673500
    slice_point: 674000
    slice_point: 674500
    slice_point: 675000
    slice_point: 675500
    slice_point: 676000
    slice_point: 676500
    slice_point: 677000
    slice_point: 677500
    slice_point: 678000
    slice_point: 678500
    slice_point: 679000
    slice_point: 679500
    slice_point: 680000
    slice_point: 680500
    slice_point: 681000
    slice_point: 681500
    slice_point: 682000
    slice_point: 682500
    slice_point: 683000
    slice_point: 683500
    slice_point: 684000
    slice_point: 684500
    slice_point: 685000
    slice_point: 685500
    slice_point: 686000
    slice_point: 686500
    slice_point: 687000
    slice_point: 687500
    slice_point: 688000
    slice_point: 688500
    slice_point: 689000
    slice_point: 689500
    slice_point: 690000
    slice_point: 690500
    slice_point: 691000
    slice_point: 691500
    slice_point: 692000
    slice_point: 692500
    slice_point: 693000
    slice_point: 693500
    slice_point: 694000
    slice_point: 694500
    slice_point: 695000
    slice_point: 695500
    slice_point: 696000
    slice_point: 696500
    slice_point: 697000
    slice_point: 697500
    slice_point: 698000
    slice_point: 698500
    slice_point: 699000
    slice_point: 699500
    slice_point: 700000
    slice_point: 700500
    slice_point: 701000
    slice_point: 701500
    slice_point: 702000
    slice_point: 702500
    slice_point: 703000
    slice_point: 703500
    slice_point: 704000
    slice_point: 704500
    slice_point: 705000
    slice_point: 705500
    slice_point: 706000
    slice_point: 706500
    slice_point: 707000
    slice_point: 707500
    slice_point: 708000
    slice_point: 708500
    slice_point: 709000
    slice_point: 709500
    slice_point: 710000
    slice_point: 710500
    slice_point: 711000
    slice_point: 711500
    slice_point: 712000
    slice_point: 712500
    slice_point: 713000
    slice_point: 713500
    slice_point: 714000
    slice_point: 714500
    slice_point: 715000
    slice_point: 715500
    slice_point: 716000
    slice_point: 716500
    slice_point: 717000
    slice_point: 717500
    slice_point: 718000
    slice_point: 718500
    slice_point: 719000
    slice_point: 719500
    slice_point: 720000
    slice_point: 720500
    slice_point: 721000
    slice_point: 721500
    slice_point: 722000
    slice_point: 722500
    slice_point: 723000
    slice_point: 723500
    slice_point: 724000
    slice_point: 724500
    slice_point: 725000
    slice_point: 725500
    slice_point: 726000
    slice_point: 726500
    slice_point: 727000
    slice_point: 727500
    slice_point: 728000
    slice_point: 728500
    slice_point: 729000
    slice_point: 729500
    slice_point: 730000
    slice_point: 730500
    slice_point: 731000
    slice_point: 731500
    slice_point: 732000
    slice_point: 732500
    slice_point: 733000
    slice_point: 733500
    slice_point: 734000
    slice_point: 734500
    slice_point: 735000
    slice_point: 735500
    slice_point: 736000
    slice_point: 736500
    slice_point: 737000
    slice_point: 737500
    slice_point: 738000
    slice_point: 738500
    slice_point: 739000
    slice_point: 739500
    slice_point: 740000
    slice_point: 740500
    slice_point: 741000
    slice_point: 741500
    slice_point: 742000
    slice_point: 742500
    slice_point: 743000
    slice_point: 743500
    slice_point: 744000
    slice_point: 744500
    slice_point: 745000
    slice_point: 745500
    slice_point: 746000
    slice_point: 746500
    slice_point: 747000
    slice_point: 747500
    slice_point: 748000
    slice_point: 748500
    slice_point: 749000
    slice_point: 749500
    slice_point: 750000
    slice_point: 750500
    slice_point: 751000
    slice_point: 751500
    slice_point: 752000
    slice_point: 752500
    slice_point: 753000
    slice_point: 753500
    slice_point: 754000
    slice_point: 754500
    slice_point: 755000
    slice_point: 755500
    slice_point: 756000
    slice_point: 756500
    slice_point: 757000
    slice_point: 757500
    slice_point: 758000
    slice_point: 758500
    slice_point: 759000
    slice_point: 759500
    slice_point: 760000
    slice_point: 760500
    slice_point: 761000
    slice_point: 761500
    slice_point: 762000
    slice_point: 762500
    slice_point: 763000
    slice_point: 763500
    slice_point: 764000
    slice_point: 764500
    slice_point: 765000
    slice_point: 765500
    slice_point: 766000
    slice_point: 766500
    slice_point: 767000
    slice_point: 767500
    slice_point: 768000
    slice_point: 768500
    slice_point: 769000
    slice_point: 769500
    slice_point: 770000
    slice_point: 770500
    slice_point: 771000
    slice_point: 771500
    slice_point: 772000
    slice_point: 772500
    slice_point: 773000
    slice_point: 773500
    slice_point: 774000
    slice_point: 774500
    slice_point: 775000
    slice_point: 775500
    slice_point: 776000
    slice_point: 776500
    slice_point: 777000
    slice_point: 777500
    slice_point: 778000
    slice_point: 778500
    slice_point: 779000
    slice_point: 779500
    slice_point: 780000
    slice_point: 780500
    slice_point: 781000
    slice_point: 781500
    slice_point: 782000
    slice_point: 782500
    slice_point: 783000
    slice_point: 783500
    slice_point: 784000
    slice_point: 784500
    slice_point: 785000
    slice_point: 785500
    slice_point: 786000
    slice_point: 786500
    slice_point: 787000
    slice_point: 787500
    slice_point: 788000
    slice_point: 788500
    slice_point: 789000
    slice_point: 789500
    slice_point: 790000
    slice_point: 790500
    slice_point: 791000
    slice_point: 791500
    slice_point: 792000
    slice_point: 792500
    slice_point: 793000
    slice_point: 793500
    slice_point: 794000
    slice_point: 794500
    slice_point: 795000
    slice_point: 795500
    slice_point: 796000
    slice_point: 796500
    slice_point: 797000
    slice_point: 797500
    slice_point: 798000
    slice_point: 798500
    slice_point: 799000
    slice_point: 799500
    slice_point: 800000
    slice_point: 800500
    slice_point: 801000
    slice_point: 801500
    slice_point: 802000
    slice_point: 802500
    slice_point: 803000
    slice_point: 803500
    slice_point: 804000
    slice_point: 804500
    slice_point: 805000
    slice_point: 805500
    slice_point: 806000
    slice_point: 806500
    slice_point: 807000
    slice_point: 807500
    slice_point: 808000
    slice_point: 808500
    slice_point: 809000
    slice_point: 809500
    slice_point: 810000
    slice_point: 810500
    slice_point: 811000
    slice_point: 811500
    slice_point: 812000
    slice_point: 812500
    slice_point: 813000
    slice_point: 813500
    slice_point: 814000
    slice_point: 814500
    slice_point: 815000
    slice_point: 815500
    slice_point: 816000
    slice_point: 816500
    slice_point: 817000
    slice_point: 817500
    slice_point: 818000
    slice_point: 818500
    slice_point: 819000
    slice_point: 819500
    slice_point: 820000
    slice_point: 820500
    slice_point: 821000
    slice_point: 821500
    slice_point: 822000
    slice_point: 822500
    slice_point: 823000
    slice_point: 823500
    slice_point: 824000
    slice_point: 824500
    slice_point: 825000
    slice_point: 825500
    slice_point: 826000
    slice_point: 826500
    slice_point: 827000
    slice_point: 827500
    slice_point: 828000
    slice_point: 828500
    slice_point: 829000
    slice_point: 829500
    slice_point: 830000
    slice_point: 830500
    slice_point: 831000
    slice_point: 831500
    slice_point: 832000
    slice_point: 832500
    slice_point: 833000
    slice_point: 833500
    slice_point: 834000
    slice_point: 834500
    slice_point: 835000
    slice_point: 835500
    slice_point: 836000
    slice_point: 836500
    slice_point: 837000
    slice_point: 837500
    slice_point: 838000
    slice_point: 838500
    slice_point: 839000
    slice_point: 839500
    slice_point: 840000
    slice_point: 840500
    slice_point: 841000
    slice_point: 841500
    slice_point: 842000
    slice_point: 842500
    slice_point: 843000
    slice_point: 843500
    slice_point: 844000
    slice_point: 844500
    slice_point: 845000
    slice_point: 845500
    slice_point: 846000
    slice_point: 846500
    slice_point: 847000
    slice_point: 847500
    slice_point: 848000
    slice_point: 848500
    slice_point: 849000
    slice_point: 849500
    slice_point: 850000
    slice_point: 850500
    slice_point: 851000
    slice_point: 851500
    slice_point: 852000
    slice_point: 852500
    slice_point: 853000
    slice_point: 853500
    slice_point: 854000
    slice_point: 854500
    slice_point: 855000
    slice_point: 855500
    slice_point: 856000
    slice_point: 856500
    slice_point: 857000
    slice_point: 857500
    slice_point: 858000
    slice_point: 858500
    slice_point: 859000
    slice_point: 859500
    slice_point: 860000
    slice_point: 860500
    slice_point: 861000
    slice_point: 861500
    slice_point: 862000
    slice_point: 862500
    slice_point: 863000
    slice_point: 863500
    slice_point: 864000
    slice_point: 864500
    slice_point: 865000
    slice_point: 865500
    slice_point: 866000
    slice_point: 866500
    slice_point: 867000
    slice_point: 867500
    slice_point: 868000
    slice_point: 868500
    slice_point: 869000
    slice_point: 869500
    slice_point: 870000
    slice_point: 870500
    slice_point: 871000
    slice_point: 871500
    slice_point: 872000
    slice_point: 872500
    slice_point: 873000
    slice_point: 873500
    slice_point: 874000
    slice_point: 874500
    slice_point: 875000
    slice_point: 875500
    slice_point: 876000
    slice_point: 876500
    slice_point: 877000
    slice_point: 877500
    slice_point: 878000
    slice_point: 878500
    slice_point: 879000
    slice_point: 879500
    slice_point: 880000
    slice_point: 880500
    slice_point: 881000
    slice_point: 881500
    slice_point: 882000
    slice_point: 882500
    slice_point: 883000
    slice_point: 883500
    slice_point: 884000
    slice_point: 884500
    slice_point: 885000
    slice_point: 885500
    slice_point: 886000
    slice_point: 886500
    slice_point: 887000
    slice_point: 887500
    slice_point: 888000
    slice_point: 888500
    slice_point: 889000
    slice_point: 889500
    slice_point: 890000
    slice_point: 890500
    slice_point: 891000
    slice_point: 891500
    slice_point: 892000
    slice_point: 892500
    slice_point: 893000
    slice_point: 893500
    slice_point: 894000
    slice_point: 894500
    slice_point: 895000
    slice_point: 895500
    slice_point: 896000
    slice_point: 896500
    slice_point: 897000
    slice_point: 897500
    slice_point: 898000
    slice_point: 898500
    slice_point: 899000
    slice_point: 899500
  }
}
layer {
  name: "InnerProduct1"
  type: "InnerProduct"
  bottom: "Slice1"
  top: "InnerProduct1"
  param {
    lr_mult: 1
    decay_mult: 1
  }
  param {
    lr_mult: 2
    decay_mult: 0
  }
  inner_product_param {
    num_output: 1
    weight_filler {
      type: "xavier"
    }
    bias_filler {
      type: "constant"
      value: 0
    }
  }
}
layer {
  name: "ReLU1"
  type: "ReLU"
  bottom: "InnerProduct1"
  top: "InnerProduct1"
}
layer {
  name: "InnerProduct2"
  type: "InnerProduct"
  bottom: "Slice2"
  top: "InnerProduct2"
  param {
    lr_mult: 1
    decay_mult: 1
  }
  param {
    lr_mult: 2
    decay_mult: 0
  }
  inner_product_param {
    num_output: 1
    weight_filler {
      type: "xavier"
    }
    bias_filler {
      type: "constant"
      value: 0
    }
  }
}
layer {
  name: "ReLU2"
  type: "ReLU"
  bottom: "InnerProduct2"
  top: "InnerProduct2"
}
layer {
  name: "InnerProduct3"
  type: "InnerProduct"
  bottom: "Slice3"
  top: "InnerProduct3"
  param {
    lr_mult: 1
    decay_mult: 1
  }
  param {
    lr_mult: 2
    decay_mult: 0
  }
  inner_product_param {
    num_output: 1
    weight_filler {
      type: "xavier"
    }
    bias_filler {
      type: "constant"
      value: 0
    }
  }
}
layer {
  name: "ReLU3"
  type: "ReLU"
  bottom: "InnerProduct3"
  top: "InnerProduct3"
}
layer {
  name: "InnerProduct4"
  type: "InnerProduct"
  bottom: "Slice4"
  top: "InnerProduct4"
  param {
    lr_mult: 1
    decay_mult: 1
  }
  param {
    lr_mult: 2
    decay_mult: 0
  }
  inner_product_param {
    num_output: 1
    weight_filler {
      type: "xavier"
    }
    bias_filler {
      type: "constant"
      value: 0
    }
  }
}
layer {
  name: "ReLU4"
  type: "ReLU"
  bottom: "InnerProduct4"
  top: "InnerProduct4"
}
layer {
  name: "InnerProduct5"
  type: "InnerProduct"
  bottom: "Slice5"
  top: "InnerProduct5"
  param {
    lr_mult: 1
    decay_mult: 1
  }
  param {
    lr_mult: 2
    decay_mult: 0
  }
  inner_product_param {
    num_output: 1
    weight_filler {
      type: "xavier"
    }
    bias_filler {
      type: "constant"
      value: 0
    }
  }
}
layer {
  name: "ReLU5"
  type: "ReLU"
  bottom: "InnerProduct5"
  top: "InnerProduct5"
}
layer {
  name: "InnerProduct6"
  type: "InnerProduct"
  bottom: "Slice6"
  top: "InnerProduct6"
  param {
    lr_mult: 1
    decay_mult: 1
  }
  param {
    lr_mult: 2
    decay_mult: 0
  }
  inner_product_param {
    num_output: 1
    weight_filler {
      type: "xavier"
    }
    bias_filler {
      type: "constant"
      value: 0
    }
  }
}
layer {
  name: "ReLU6"
  type: "ReLU"
  bottom: "InnerProduct6"
  top: "InnerProduct6"
}
layer {
  name: "InnerProduct7"
  type: "InnerProduct"
  bottom: "Slice7"
  top: "InnerProduct7"
  param {
    lr_mult: 1
    decay_mult: 1
  }
  param {
    lr_mult: 2
    decay_mult: 0
  }
  inner_product_param {
    num_output: 1
    weight_filler {
      type: "xavier"
    }
    bias_filler {
      type: "constant"
      value: 0
    }
  }
}
layer {
  name: "ReLU7"
  type: "ReLU"
  bottom: "InnerProduct7"
  top: "InnerProduct7"
}
layer {
  name: "InnerProduct8"
  type: "InnerProduct"
  bottom: "Slice8"
  top: "InnerProduct8"
  param {
    lr_mult: 1
    decay_mult: 1
  }
  param {
    lr_mult: 2
    decay_mult: 0
  }
  inner_product_param {
    num_output: 1
    weight_filler {
      type: "xavier"
    }
    bias_filler {
      type: "constant"
      value: 0
    }
  }
}
layer {
  name: "ReLU8"
  type: "ReLU"
  bottom: "InnerProduct8"
  top: "InnerProduct8"
}
layer {
  name: "InnerProduct9"
  type: "InnerProduct"
  bottom: "Slice9"
  top: "InnerProduct9"
  param {
    lr_mult: 1
    decay_mult: 1
  }
  param {
    lr_mult: 2
    decay_mult: 0
  }
  inner_product_param {
    num_output: 1
    weight_filler {
      type: "xavier"
    }
    bias_filler {
      type: "constant"
      value: 0
    }
  }
}
layer {
  name: "ReLU9"
  type: "ReLU"
  bottom: "InnerProduct9"
  top: "InnerProduct9"
}
layer {
  name: "InnerProduct10"
  type: "InnerProduct"
  bottom: "Slice10"
  top: "InnerProduct10"
  param {
    lr_mult: 1
    decay_mult: 1
  }
  param {
    lr_mult: 2
    decay_mult: 0
  }
  inner_product_param {
    num_output: 1
    weight_filler {
      type: "xavier"
    }
    bias_filler {
      type: "constant"
      value: 0
    }
  }
}
layer {
  name: "ReLU10"
  type: "ReLU"
  bottom: "InnerProduct10"
  top: "InnerProduct10"
}
layer {
  name: "InnerProduct11"
  type: "InnerProduct"
  bottom: "Slice11"
  top: "InnerProduct11"
  param {
    lr_mult: 1
    decay_mult: 1
  }
  param {
    lr_mult: 2
    decay_mult: 0
  }
  inner_product_param {
    num_output: 1
    weight_filler {
      type: "xavier"
    }
    bias_filler {
      type: "constant"
      value: 0
    }
  }
}
layer {
  name: "ReLU11"
  type: "ReLU"
  bottom: "InnerProduct11"
  top: "InnerProduct11"
}
layer {
  name: "InnerProduct12"
  type: "InnerProduct"
  bottom: "Slice12"
  top: "InnerProduct12"
  param {
    lr_mult: 1
    decay_mult: 1
  }
  param {
    lr_mult: 2
    decay_mult: 0
  }
  inner_product_param {
    num_output: 1
    weight_filler {
      type: "xavier"
    }
    bias_filler {
      type: "constant"
      value: 0
    }
  }
}
layer {
  name: "ReLU12"
  type: "ReLU"
  bottom: "InnerProduct12"
  top: "InnerProduct12"
}
layer {
  name: "InnerProduct13"
  type: "InnerProduct"
  bottom: "Slice13"
  top: "InnerProduct13"
  param {
    lr_mult: 1
    decay_mult: 1
  }
  param {
    lr_mult: 2
    decay_mult: 0
  }
  inner_product_param {
    num_output: 1
    weight_filler {
      type: "xavier"
    }
    bias_filler {
      type: "constant"
      value: 0
    }
  }
}
layer {
  name: "ReLU13"
  type: "ReLU"
  bottom: "InnerProduct13"
  top: "InnerProduct13"
}
layer {
  name: "InnerProduct14"
  type: "InnerProduct"
  bottom: "Slice14"
  top: "InnerProduct14"
  param {
    lr_mult: 1
    decay_mult: 1
  }
  param {
    lr_mult: 2
    decay_mult: 0
  }
  inner_product_param {
    num_output: 1
    weight_filler {
      type: "xavier"
    }
    bias_filler {
      type: "constant"
      value: 0
    }
  }
}
layer {
  name: "ReLU14"
  type: "ReLU"
  bottom: "InnerProduct14"
  top: "InnerProduct14"
}
layer {
  name: "InnerProduct15"
  type: "InnerProduct"
  bottom: "Slice15"
  top: "InnerProduct15"
  param {
    lr_mult: 1
    decay_mult: 1
  }
  param {
    lr_mult: 2
    decay_mult: 0
  }
  inner_product_param {
    num_output: 1
    weight_filler {
      type: "xavier"
    }
    bias_filler {
      type: "constant"
      value: 0
    }
  }
}
layer {
  name: "ReLU15"
  type: "ReLU"
  bottom: "InnerProduct15"
  top: "InnerProduct15"
}
layer {
  name: "InnerProduct16"
  type: "InnerProduct"
  bottom: "Slice16"
  top: "InnerProduct16"
  param {
    lr_mult: 1
    decay_mult: 1
  }
  param {
    lr_mult: 2
    decay_mult: 0
  }
  inner_product_param {
    num_output: 1
    weight_filler {
      type: "xavier"
    }
    bias_filler {
      type: "constant"
      value: 0
    }
  }
}
layer {
  name: "ReLU16"
  type: "ReLU"
  bottom: "InnerProduct16"
  top: "InnerProduct16"
}
layer {
  name: "InnerProduct17"
  type: "InnerProduct"
  bottom: "Slice17"
  top: "InnerProduct17"
  param {
    lr_mult: 1
    decay_mult: 1
  }
  param {
    lr_mult: 2
    decay_mult: 0
  }
  inner_product_param {
    num_output: 1
    weight_filler {
      type: "xavier"
    }
    bias_filler {
      type: "constant"
      value: 0
    }
  }
}
layer {
  name: "ReLU17"
  type: "ReLU"
  bottom: "InnerProduct17"
  top: "InnerProduct17"
}
layer {
  name: "InnerProduct18"
  type: "InnerProduct"
  bottom: "Slice18"
  top: "InnerProduct18"
  param {
    lr_mult: 1
    decay_mult: 1
  }
  param {
    lr_mult: 2
    decay_mult: 0
  }
  inner_product_param {
    num_output: 1
    weight_filler {
      type: "xavier"
    }
    bias_filler {
      type: "constant"
      value: 0
    }
  }
}
layer {
  name: "ReLU18"
  type: "ReLU"
  bottom: "InnerProduct18"
  top: "InnerProduct18"
}
layer {
  name: "InnerProduct19"
  type: "InnerProduct"
  bottom: "Slice19"
  top: "InnerProduct19"
  param {
    lr_mult: 1
    decay_mult: 1
  }
  param {
    lr_mult: 2
    decay_mult: 0
  }
  inner_product_param {
    num_output: 1
    weight_filler {
      type: "xavier"
    }
    bias_filler {
      type: "constant"
      value: 0
    }
  }
}
layer {
  name: "ReLU19"
  type: "ReLU"
  bottom: "InnerProduct19"
  top: "InnerProduct19"
}
layer {
  name: "InnerProduct20"
  type: "InnerProduct"
  bottom: "Slice20"
  top: "InnerProduct20"
  param {
    lr_mult: 1
    decay_mult: 1
  }
  param {
    lr_mult: 2
    decay_mult: 0
  }
  inner_product_param {
    num_output: 1
    weight_filler {
      type: "xavier"
    }
    bias_filler {
      type: "constant"
      value: 0
    }
  }
}
layer {
  name: "ReLU20"
  type: "ReLU"
  bottom: "InnerProduct20"
  top: "InnerProduct20"
}
layer {
  name: "InnerProduct21"
  type: "InnerProduct"
  bottom: "Slice21"
  top: "InnerProduct21"
  param {
    lr_mult: 1
    decay_mult: 1
  }
  param {
    lr_mult: 2
    decay_mult: 0
  }
  inner_product_param {
    num_output: 1
    weight_filler {
      type: "xavier"
    }
    bias_filler {
      type: "constant"
      value: 0
    }
  }
}
layer {
  name: "ReLU21"
  type: "ReLU"
  bottom: "InnerProduct21"
  top: "InnerProduct21"
}
layer {
  name: "InnerProduct22"
  type: "InnerProduct"
  bottom: "Slice22"
  top: "InnerProduct22"
  param {
    lr_mult: 1
    decay_mult: 1
  }
  param {
    lr_mult: 2
    decay_mult: 0
  }
  inner_product_param {
    num_output: 1
    weight_filler {
      type: "xavier"
    }
    bias_filler {
      type: "constant"
      value: 0
    }
  }
}
layer {
  name: "ReLU22"
  type: "ReLU"
  bottom: "InnerProduct22"
  top: "InnerProduct22"
}
layer {
  name: "InnerProduct23"
  type: "InnerProduct"
  bottom: "Slice23"
  top: "InnerProduct23"
  param {
    lr_mult: 1
    decay_mult: 1
  }
  param {
    lr_mult: 2
    decay_mult: 0
  }
  inner_product_param {
    num_output: 1
    weight_filler {
      type: "xavier"
    }
    bias_filler {
      type: "constant"
      value: 0
    }
  }
}
layer {
  name: "ReLU23"
  type: "ReLU"
  bottom: "InnerProduct23"
  top: "InnerProduct23"
}
layer {
  name: "InnerProduct24"
  type: "InnerProduct"
  bottom: "Slice24"
  top: "InnerProduct24"
  param {
    lr_mult: 1
    decay_mult: 1
  }
  param {
    lr_mult: 2
    decay_mult: 0
  }
  inner_product_param {
    num_output: 1
    weight_filler {
      type: "xavier"
    }
    bias_filler {
      type: "constant"
      value: 0
    }
  }
}
layer {
  name: "ReLU24"
  type: "ReLU"
  bottom: "InnerProduct24"
  top: "InnerProduct24"
}
layer {
  name: "InnerProduct25"
  type: "InnerProduct"
  bottom: "Slice25"
  top: "InnerProduct25"
  param {
    lr_mult: 1
    decay_mult: 1
  }
  param {
    lr_mult: 2
    decay_mult: 0
  }
  inner_product_param {
    num_output: 1
    weight_filler {
      type: "xavier"
    }
    bias_filler {
      type: "constant"
      value: 0
    }
  }
}
layer {
  name: "ReLU25"
  type: "ReLU"
  bottom: "InnerProduct25"
  top: "InnerProduct25"
}
layer {
  name: "InnerProduct26"
  type: "InnerProduct"
  bottom: "Slice26"
  top: "InnerProduct26"
  param {
    lr_mult: 1
    decay_mult: 1
  }
  param {
    lr_mult: 2
    decay_mult: 0
  }
  inner_product_param {
    num_output: 1
    weight_filler {
      type: "xavier"
    }
    bias_filler {
      type: "constant"
      value: 0
    }
  }
}
layer {
  name: "ReLU26"
  type: "ReLU"
  bottom: "InnerProduct26"
  top: "InnerProduct26"
}
layer {
  name: "InnerProduct27"
  type: "InnerProduct"
  bottom: "Slice27"
  top: "InnerProduct27"
  param {
    lr_mult: 1
    decay_mult: 1
  }
  param {
    lr_mult: 2
    decay_mult: 0
  }
  inner_product_param {
    num_output: 1
    weight_filler {
      type: "xavier"
    }
    bias_filler {
      type: "constant"
      value: 0
    }
  }
}
layer {
  name: "ReLU27"
  type: "ReLU"
  bottom: "InnerProduct27"
  top: "InnerProduct27"
}
layer {
  name: "InnerProduct28"
  type: "InnerProduct"
  bottom: "Slice28"
  top: "InnerProduct28"
  param {
    lr_mult: 1
    decay_mult: 1
  }
  param {
    lr_mult: 2
    decay_mult: 0
  }
  inner_product_param {
    num_output: 1
    weight_filler {
      type: "xavier"
    }
    bias_filler {
      type: "constant"
      value: 0
    }
  }
}
layer {
  name: "ReLU28"
  type: "ReLU"
  bottom: "InnerProduct28"
  top: "InnerProduct28"
}
layer {
  name: "InnerProduct29"
  type: "InnerProduct"
  bottom: "Slice29"
  top: "InnerProduct29"
  param {
    lr_mult: 1
    decay_mult: 1
  }
  param {
    lr_mult: 2
    decay_mult: 0
  }
  inner_product_param {
    num_output: 1
    weight_filler {
      type: "xavier"
    }
    bias_filler {
      type: "constant"
      value: 0
    }
  }
}
layer {
  name: "ReLU29"
  type: "ReLU"
  bottom: "InnerProduct29"
  top: "InnerProduct29"
}
layer {
  name: "InnerProduct30"
  type: "InnerProduct"
  bottom: "Slice30"
  top: "InnerProduct30"
  param {
    lr_mult: 1
    decay_mult: 1
  }
  param {
    lr_mult: 2
    decay_mult: 0
  }
  inner_product_param {
    num_output: 1
    weight_filler {
      type: "xavier"
    }
    bias_filler {
      type: "constant"
      value: 0
    }
  }
}
layer {
  name: "ReLU30"
  type: "ReLU"
  bottom: "InnerProduct30"
  top: "InnerProduct30"
}
layer {
  name: "InnerProduct31"
  type: "InnerProduct"
  bottom: "Slice31"
  top: "InnerProduct31"
  param {
    lr_mult: 1
    decay_mult: 1
  }
  param {
    lr_mult: 2
    decay_mult: 0
  }
  inner_product_param {
    num_output: 1
    weight_filler {
      type: "xavier"
    }
    bias_filler {
      type: "constant"
      value: 0
    }
  }
}
layer {
  name: "ReLU31"
  type: "ReLU"
  bottom: "InnerProduct31"
  top: "InnerProduct31"
}
layer {
  name: "InnerProduct32"
  type: "InnerProduct"
  bottom: "Slice32"
  top: "InnerProduct32"
  param {
    lr_mult: 1
    decay_mult: 1
  }
  param {
    lr_mult: 2
    decay_mult: 0
  }
  inner_product_param {
    num_output: 1
    weight_filler {
      type: "xavier"
    }
    bias_filler {
      type: "constant"
      value: 0
    }
  }
}
layer {
  name: "ReLU32"
  type: "ReLU"
  bottom: "InnerProduct32"
  top: "InnerProduct32"
}
layer {
  name: "InnerProduct33"
  type: "InnerProduct"
  bottom: "Slice33"
  top: "InnerProduct33"
  param {
    lr_mult: 1
    decay_mult: 1
  }
  param {
    lr_mult: 2
    decay_mult: 0
  }
  inner_product_param {
    num_output: 1
    weight_filler {
      type: "xavier"
    }
    bias_filler {
      type: "constant"
      value: 0
    }
  }
}
layer {
  name: "ReLU33"
  type: "ReLU"
  bottom: "InnerProduct33"
  top: "InnerProduct33"
}
layer {
  name: "InnerProduct34"
  type: "InnerProduct"
  bottom: "Slice34"
  top: "InnerProduct34"
  param {
    lr_mult: 1
    decay_mult: 1
  }
  param {
    lr_mult: 2
    decay_mult: 0
  }
  inner_product_param {
    num_output: 1
    weight_filler {
      type: "xavier"
    }
    bias_filler {
      type: "constant"
      value: 0
    }
  }
}
layer {
  name: "ReLU34"
  type: "ReLU"
  bottom: "InnerProduct34"
  top: "InnerProduct34"
}
layer {
  name: "InnerProduct35"
  type: "InnerProduct"
  bottom: "Slice35"
  top: "InnerProduct35"
  param {
    lr_mult: 1
    decay_mult: 1
  }
  param {
    lr_mult: 2
    decay_mult: 0
  }
  inner_product_param {
    num_output: 1
    weight_filler {
      type: "xavier"
    }
    bias_filler {
      type: "constant"
      value: 0
    }
  }
}
layer {
  name: "ReLU35"
  type: "ReLU"
  bottom: "InnerProduct35"
  top: "InnerProduct35"
}
layer {
  name: "InnerProduct36"
  type: "InnerProduct"
  bottom: "Slice36"
  top: "InnerProduct36"
  param {
    lr_mult: 1
    decay_mult: 1
  }
  param {
    lr_mult: 2
    decay_mult: 0
  }
  inner_product_param {
    num_output: 1
    weight_filler {
      type: "xavier"
    }
    bias_filler {
      type: "constant"
      value: 0
    }
  }
}
layer {
  name: "ReLU36"
  type: "ReLU"
  bottom: "InnerProduct36"
  top: "InnerProduct36"
}
layer {
  name: "InnerProduct37"
  type: "InnerProduct"
  bottom: "Slice37"
  top: "InnerProduct37"
  param {
    lr_mult: 1
    decay_mult: 1
  }
  param {
    lr_mult: 2
    decay_mult: 0
  }
  inner_product_param {
    num_output: 1
    weight_filler {
      type: "xavier"
    }
    bias_filler {
      type: "constant"
      value: 0
    }
  }
}
layer {
  name: "ReLU37"
  type: "ReLU"
  bottom: "InnerProduct37"
  top: "InnerProduct37"
}
layer {
  name: "InnerProduct38"
  type: "InnerProduct"
  bottom: "Slice38"
  top: "InnerProduct38"
  param {
    lr_mult: 1
    decay_mult: 1
  }
  param {
    lr_mult: 2
    decay_mult: 0
  }
  inner_product_param {
    num_output: 1
    weight_filler {
      type: "xavier"
    }
    bias_filler {
      type: "constant"
      value: 0
    }
  }
}
layer {
  name: "ReLU38"
  type: "ReLU"
  bottom: "InnerProduct38"
  top: "InnerProduct38"
}
layer {
  name: "InnerProduct39"
  type: "InnerProduct"
  bottom: "Slice39"
  top: "InnerProduct39"
  param {
    lr_mult: 1
    decay_mult: 1
  }
  param {
    lr_mult: 2
    decay_mult: 0
  }
  inner_product_param {
    num_output: 1
    weight_filler {
      type: "xavier"
    }
    bias_filler {
      type: "constant"
      value: 0
    }
  }
}
layer {
  name: "ReLU39"
  type: "ReLU"
  bottom: "InnerProduct39"
  top: "InnerProduct39"
}
layer {
  name: "InnerProduct40"
  type: "InnerProduct"
  bottom: "Slice40"
  top: "InnerProduct40"
  param {
    lr_mult: 1
    decay_mult: 1
  }
  param {
    lr_mult: 2
    decay_mult: 0
  }
  inner_product_param {
    num_output: 1
    weight_filler {
      type: "xavier"
    }
    bias_filler {
      type: "constant"
      value: 0
    }
  }
}
layer {
  name: "ReLU40"
  type: "ReLU"
  bottom: "InnerProduct40"
  top: "InnerProduct40"
}
layer {
  name: "InnerProduct41"
  type: "InnerProduct"
  bottom: "Slice41"
  top: "InnerProduct41"
  param {
    lr_mult: 1
    decay_mult: 1
  }
  param {
    lr_mult: 2
    decay_mult: 0
  }
  inner_product_param {
    num_output: 1
    weight_filler {
      type: "xavier"
    }
    bias_filler {
      type: "constant"
      value: 0
    }
  }
}
layer {
  name: "ReLU41"
  type: "ReLU"
  bottom: "InnerProduct41"
  top: "InnerProduct41"
}
layer {
  name: "InnerProduct42"
  type: "InnerProduct"
  bottom: "Slice42"
  top: "InnerProduct42"
  param {
    lr_mult: 1
    decay_mult: 1
  }
  param {
    lr_mult: 2
    decay_mult: 0
  }
  inner_product_param {
    num_output: 1
    weight_filler {
      type: "xavier"
    }
    bias_filler {
      type: "constant"
      value: 0
    }
  }
}
layer {
  name: "ReLU42"
  type: "ReLU"
  bottom: "InnerProduct42"
  top: "InnerProduct42"
}
layer {
  name: "InnerProduct43"
  type: "InnerProduct"
  bottom: "Slice43"
  top: "InnerProduct43"
  param {
    lr_mult: 1
    decay_mult: 1
  }
  param {
    lr_mult: 2
    decay_mult: 0
  }
  inner_product_param {
    num_output: 1
    weight_filler {
      type: "xavier"
    }
    bias_filler {
      type: "constant"
      value: 0
    }
  }
}
layer {
  name: "ReLU43"
  type: "ReLU"
  bottom: "InnerProduct43"
  top: "InnerProduct43"
}
layer {
  name: "InnerProduct44"
  type: "InnerProduct"
  bottom: "Slice44"
  top: "InnerProduct44"
  param {
    lr_mult: 1
    decay_mult: 1
  }
  param {
    lr_mult: 2
    decay_mult: 0
  }
  inner_product_param {
    num_output: 1
    weight_filler {
      type: "xavier"
    }
    bias_filler {
      type: "constant"
      value: 0
    }
  }
}
layer {
  name: "ReLU44"
  type: "ReLU"
  bottom: "InnerProduct44"
  top: "InnerProduct44"
}
layer {
  name: "InnerProduct45"
  type: "InnerProduct"
  bottom: "Slice45"
  top: "InnerProduct45"
  param {
    lr_mult: 1
    decay_mult: 1
  }
  param {
    lr_mult: 2
    decay_mult: 0
  }
  inner_product_param {
    num_output: 1
    weight_filler {
      type: "xavier"
    }
    bias_filler {
      type: "constant"
      value: 0
    }
  }
}
layer {
  name: "ReLU45"
  type: "ReLU"
  bottom: "InnerProduct45"
  top: "InnerProduct45"
}
layer {
  name: "InnerProduct46"
  type: "InnerProduct"
  bottom: "Slice46"
  top: "InnerProduct46"
  param {
    lr_mult: 1
    decay_mult: 1
  }
  param {
    lr_mult: 2
    decay_mult: 0
  }
  inner_product_param {
    num_output: 1
    weight_filler {
      type: "xavier"
    }
    bias_filler {
      type: "constant"
      value: 0
    }
  }
}
layer {
  name: "ReLU46"
  type: "ReLU"
  bottom: "InnerProduct46"
  top: "InnerProduct46"
}
layer {
  name: "InnerProduct47"
  type: "InnerProduct"
  bottom: "Slice47"
  top: "InnerProduct47"
  param {
    lr_mult: 1
    decay_mult: 1
  }
  param {
    lr_mult: 2
    decay_mult: 0
  }
  inner_product_param {
    num_output: 1
    weight_filler {
      type: "xavier"
    }
    bias_filler {
      type: "constant"
      value: 0
    }
  }
}
layer {
  name: "ReLU47"
  type: "ReLU"
  bottom: "InnerProduct47"
  top: "InnerProduct47"
}
layer {
  name: "InnerProduct48"
  type: "InnerProduct"
  bottom: "Slice48"
  top: "InnerProduct48"
  param {
    lr_mult: 1
    decay_mult: 1
  }
  param {
    lr_mult: 2
    decay_mult: 0
  }
  inner_product_param {
    num_output: 1
    weight_filler {
      type: "xavier"
    }
    bias_filler {
      type: "constant"
      value: 0
    }
  }
}
layer {
  name: "ReLU48"
  type: "ReLU"
  bottom: "InnerProduct48"
  top: "InnerProduct48"
}
layer {
  name: "InnerProduct49"
  type: "InnerProduct"
  bottom: "Slice49"
  top: "InnerProduct49"
  param {
    lr_mult: 1
    decay_mult: 1
  }
  param {
    lr_mult: 2
    decay_mult: 0
  }
  inner_product_param {
    num_output: 1
    weight_filler {
      type: "xavier"
    }
    bias_filler {
      type: "constant"
      value: 0
    }
  }
}
layer {
  name: "ReLU49"
  type: "ReLU"
  bottom: "InnerProduct49"
  top: "InnerProduct49"
}
layer {
  name: "InnerProduct50"
  type: "InnerProduct"
  bottom: "Slice50"
  top: "InnerProduct50"
  param {
    lr_mult: 1
    decay_mult: 1
  }
  param {
    lr_mult: 2
    decay_mult: 0
  }
  inner_product_param {
    num_output: 1
    weight_filler {
      type: "xavier"
    }
    bias_filler {
      type: "constant"
      value: 0
    }
  }
}
layer {
  name: "ReLU50"
  type: "ReLU"
  bottom: "InnerProduct50"
  top: "InnerProduct50"
}
layer {
  name: "InnerProduct51"
  type: "InnerProduct"
  bottom: "Slice51"
  top: "InnerProduct51"
  param {
    lr_mult: 1
    decay_mult: 1
  }
  param {
    lr_mult: 2
    decay_mult: 0
  }
  inner_product_param {
    num_output: 1
    weight_filler {
      type: "xavier"
    }
    bias_filler {
      type: "constant"
      value: 0
    }
  }
}
layer {
  name: "ReLU51"
  type: "ReLU"
  bottom: "InnerProduct51"
  top: "InnerProduct51"
}
layer {
  name: "InnerProduct52"
  type: "InnerProduct"
  bottom: "Slice52"
  top: "InnerProduct52"
  param {
    lr_mult: 1
    decay_mult: 1
  }
  param {
    lr_mult: 2
    decay_mult: 0
  }
  inner_product_param {
    num_output: 1
    weight_filler {
      type: "xavier"
    }
    bias_filler {
      type: "constant"
      value: 0
    }
  }
}
layer {
  name: "ReLU52"
  type: "ReLU"
  bottom: "InnerProduct52"
  top: "InnerProduct52"
}
layer {
  name: "InnerProduct53"
  type: "InnerProduct"
  bottom: "Slice53"
  top: "InnerProduct53"
  param {
    lr_mult: 1
    decay_mult: 1
  }
  param {
    lr_mult: 2
    decay_mult: 0
  }
  inner_product_param {
    num_output: 1
    weight_filler {
      type: "xavier"
    }
    bias_filler {
      type: "constant"
      value: 0
    }
  }
}
layer {
  name: "ReLU53"
  type: "ReLU"
  bottom: "InnerProduct53"
  top: "InnerProduct53"
}
layer {
  name: "InnerProduct54"
  type: "InnerProduct"
  bottom: "Slice54"
  top: "InnerProduct54"
  param {
    lr_mult: 1
    decay_mult: 1
  }
  param {
    lr_mult: 2
    decay_mult: 0
  }
  inner_product_param {
    num_output: 1
    weight_filler {
      type: "xavier"
    }
    bias_filler {
      type: "constant"
      value: 0
    }
  }
}
layer {
  name: "ReLU54"
  type: "ReLU"
  bottom: "InnerProduct54"
  top: "InnerProduct54"
}
layer {
  name: "InnerProduct55"
  type: "InnerProduct"
  bottom: "Slice55"
  top: "InnerProduct55"
  param {
    lr_mult: 1
    decay_mult: 1
  }
  param {
    lr_mult: 2
    decay_mult: 0
  }
  inner_product_param {
    num_output: 1
    weight_filler {
      type: "xavier"
    }
    bias_filler {
      type: "constant"
      value: 0
    }
  }
}
layer {
  name: "ReLU55"
  type: "ReLU"
  bottom: "InnerProduct55"
  top: "InnerProduct55"
}
layer {
  name: "InnerProduct56"
  type: "InnerProduct"
  bottom: "Slice56"
  top: "InnerProduct56"
  param {
    lr_mult: 1
    decay_mult: 1
  }
  param {
    lr_mult: 2
    decay_mult: 0
  }
  inner_product_param {
    num_output: 1
    weight_filler {
      type: "xavier"
    }
    bias_filler {
      type: "constant"
      value: 0
    }
  }
}
layer {
  name: "ReLU56"
  type: "ReLU"
  bottom: "InnerProduct56"
  top: "InnerProduct56"
}
layer {
  name: "InnerProduct57"
  type: "InnerProduct"
  bottom: "Slice57"
  top: "InnerProduct57"
  param {
    lr_mult: 1
    decay_mult: 1
  }
  param {
    lr_mult: 2
    decay_mult: 0
  }
  inner_product_param {
    num_output: 1
    weight_filler {
      type: "xavier"
    }
    bias_filler {
      type: "constant"
      value: 0
    }
  }
}
layer {
  name: "ReLU57"
  type: "ReLU"
  bottom: "InnerProduct57"
  top: "InnerProduct57"
}
layer {
  name: "InnerProduct58"
  type: "InnerProduct"
  bottom: "Slice58"
  top: "InnerProduct58"
  param {
    lr_mult: 1
    decay_mult: 1
  }
  param {
    lr_mult: 2
    decay_mult: 0
  }
  inner_product_param {
    num_output: 1
    weight_filler {
      type: "xavier"
    }
    bias_filler {
      type: "constant"
      value: 0
    }
  }
}
layer {
  name: "ReLU58"
  type: "ReLU"
  bottom: "InnerProduct58"
  top: "InnerProduct58"
}
layer {
  name: "InnerProduct59"
  type: "InnerProduct"
  bottom: "Slice59"
  top: "InnerProduct59"
  param {
    lr_mult: 1
    decay_mult: 1
  }
  param {
    lr_mult: 2
    decay_mult: 0
  }
  inner_product_param {
    num_output: 1
    weight_filler {
      type: "xavier"
    }
    bias_filler {
      type: "constant"
      value: 0
    }
  }
}
layer {
  name: "ReLU59"
  type: "ReLU"
  bottom: "InnerProduct59"
  top: "InnerProduct59"
}
layer {
  name: "InnerProduct60"
  type: "InnerProduct"
  bottom: "Slice60"
  top: "InnerProduct60"
  param {
    lr_mult: 1
    decay_mult: 1
  }
  param {
    lr_mult: 2
    decay_mult: 0
  }
  inner_product_param {
    num_output: 1
    weight_filler {
      type: "xavier"
    }
    bias_filler {
      type: "constant"
      value: 0
    }
  }
}
layer {
  name: "ReLU60"
  type: "ReLU"
  bottom: "InnerProduct60"
  top: "InnerProduct60"
}
layer {
  name: "InnerProduct61"
  type: "InnerProduct"
  bottom: "Slice61"
  top: "InnerProduct61"
  param {
    lr_mult: 1
    decay_mult: 1
  }
  param {
    lr_mult: 2
    decay_mult: 0
  }
  inner_product_param {
    num_output: 1
    weight_filler {
      type: "xavier"
    }
    bias_filler {
      type: "constant"
      value: 0
    }
  }
}
layer {
  name: "ReLU61"
  type: "ReLU"
  bottom: "InnerProduct61"
  top: "InnerProduct61"
}
layer {
  name: "InnerProduct62"
  type: "InnerProduct"
  bottom: "Slice62"
  top: "InnerProduct62"
  param {
    lr_mult: 1
    decay_mult: 1
  }
  param {
    lr_mult: 2
    decay_mult: 0
  }
  inner_product_param {
    num_output: 1
    weight_filler {
      type: "xavier"
    }
    bias_filler {
      type: "constant"
      value: 0
    }
  }
}
layer {
  name: "ReLU62"
  type: "ReLU"
  bottom: "InnerProduct62"
  top: "InnerProduct62"
}
layer {
  name: "InnerProduct63"
  type: "InnerProduct"
  bottom: "Slice63"
  top: "InnerProduct63"
  param {
    lr_mult: 1
    decay_mult: 1
  }
  param {
    lr_mult: 2
    decay_mult: 0
  }
  inner_product_param {
    num_output: 1
    weight_filler {
      type: "xavier"
    }
    bias_filler {
      type: "constant"
      value: 0
    }
  }
}
layer {
  name: "ReLU63"
  type: "ReLU"
  bottom: "InnerProduct63"
  top: "InnerProduct63"
}
layer {
  name: "InnerProduct64"
  type: "InnerProduct"
  bottom: "Slice64"
  top: "InnerProduct64"
  param {
    lr_mult: 1
    decay_mult: 1
  }
  param {
    lr_mult: 2
    decay_mult: 0
  }
  inner_product_param {
    num_output: 1
    weight_filler {
      type: "xavier"
    }
    bias_filler {
      type: "constant"
      value: 0
    }
  }
}
layer {
  name: "ReLU64"
  type: "ReLU"
  bottom: "InnerProduct64"
  top: "InnerProduct64"
}
layer {
  name: "InnerProduct65"
  type: "InnerProduct"
  bottom: "Slice65"
  top: "InnerProduct65"
  param {
    lr_mult: 1
    decay_mult: 1
  }
  param {
    lr_mult: 2
    decay_mult: 0
  }
  inner_product_param {
    num_output: 1
    weight_filler {
      type: "xavier"
    }
    bias_filler {
      type: "constant"
      value: 0
    }
  }
}
layer {
  name: "ReLU65"
  type: "ReLU"
  bottom: "InnerProduct65"
  top: "InnerProduct65"
}
layer {
  name: "InnerProduct66"
  type: "InnerProduct"
  bottom: "Slice66"
  top: "InnerProduct66"
  param {
    lr_mult: 1
    decay_mult: 1
  }
  param {
    lr_mult: 2
    decay_mult: 0
  }
  inner_product_param {
    num_output: 1
    weight_filler {
      type: "xavier"
    }
    bias_filler {
      type: "constant"
      value: 0
    }
  }
}
layer {
  name: "ReLU66"
  type: "ReLU"
  bottom: "InnerProduct66"
  top: "InnerProduct66"
}
layer {
  name: "InnerProduct67"
  type: "InnerProduct"
  bottom: "Slice67"
  top: "InnerProduct67"
  param {
    lr_mult: 1
    decay_mult: 1
  }
  param {
    lr_mult: 2
    decay_mult: 0
  }
  inner_product_param {
    num_output: 1
    weight_filler {
      type: "xavier"
    }
    bias_filler {
      type: "constant"
      value: 0
    }
  }
}
layer {
  name: "ReLU67"
  type: "ReLU"
  bottom: "InnerProduct67"
  top: "InnerProduct67"
}
layer {
  name: "InnerProduct68"
  type: "InnerProduct"
  bottom: "Slice68"
  top: "InnerProduct68"
  param {
    lr_mult: 1
    decay_mult: 1
  }
  param {
    lr_mult: 2
    decay_mult: 0
  }
  inner_product_param {
    num_output: 1
    weight_filler {
      type: "xavier"
    }
    bias_filler {
      type: "constant"
      value: 0
    }
  }
}
layer {
  name: "ReLU68"
  type: "ReLU"
  bottom: "InnerProduct68"
  top: "InnerProduct68"
}
layer {
  name: "InnerProduct69"
  type: "InnerProduct"
  bottom: "Slice69"
  top: "InnerProduct69"
  param {
    lr_mult: 1
    decay_mult: 1
  }
  param {
    lr_mult: 2
    decay_mult: 0
  }
  inner_product_param {
    num_output: 1
    weight_filler {
      type: "xavier"
    }
    bias_filler {
      type: "constant"
      value: 0
    }
  }
}
layer {
  name: "ReLU69"
  type: "ReLU"
  bottom: "InnerProduct69"
  top: "InnerProduct69"
}
layer {
  name: "InnerProduct70"
  type: "InnerProduct"
  bottom: "Slice70"
  top: "InnerProduct70"
  param {
    lr_mult: 1
    decay_mult: 1
  }
  param {
    lr_mult: 2
    decay_mult: 0
  }
  inner_product_param {
    num_output: 1
    weight_filler {
      type: "xavier"
    }
    bias_filler {
      type: "constant"
      value: 0
    }
  }
}
layer {
  name: "ReLU70"
  type: "ReLU"
  bottom: "InnerProduct70"
  top: "InnerProduct70"
}
layer {
  name: "InnerProduct71"
  type: "InnerProduct"
  bottom: "Slice71"
  top: "InnerProduct71"
  param {
    lr_mult: 1
    decay_mult: 1
  }
  param {
    lr_mult: 2
    decay_mult: 0
  }
  inner_product_param {
    num_output: 1
    weight_filler {
      type: "xavier"
    }
    bias_filler {
      type: "constant"
      value: 0
    }
  }
}
layer {
  name: "ReLU71"
  type: "ReLU"
  bottom: "InnerProduct71"
  top: "InnerProduct71"
}
layer {
  name: "InnerProduct72"
  type: "InnerProduct"
  bottom: "Slice72"
  top: "InnerProduct72"
  param {
    lr_mult: 1
    decay_mult: 1
  }
  param {
    lr_mult: 2
    decay_mult: 0
  }
  inner_product_param {
    num_output: 1
    weight_filler {
      type: "xavier"
    }
    bias_filler {
      type: "constant"
      value: 0
    }
  }
}
layer {
  name: "ReLU72"
  type: "ReLU"
  bottom: "InnerProduct72"
  top: "InnerProduct72"
}
layer {
  name: "InnerProduct73"
  type: "InnerProduct"
  bottom: "Slice73"
  top: "InnerProduct73"
  param {
    lr_mult: 1
    decay_mult: 1
  }
  param {
    lr_mult: 2
    decay_mult: 0
  }
  inner_product_param {
    num_output: 1
    weight_filler {
      type: "xavier"
    }
    bias_filler {
      type: "constant"
      value: 0
    }
  }
}
layer {
  name: "ReLU73"
  type: "ReLU"
  bottom: "InnerProduct73"
  top: "InnerProduct73"
}
layer {
  name: "InnerProduct74"
  type: "InnerProduct"
  bottom: "Slice74"
  top: "InnerProduct74"
  param {
    lr_mult: 1
    decay_mult: 1
  }
  param {
    lr_mult: 2
    decay_mult: 0
  }
  inner_product_param {
    num_output: 1
    weight_filler {
      type: "xavier"
    }
    bias_filler {
      type: "constant"
      value: 0
    }
  }
}
layer {
  name: "ReLU74"
  type: "ReLU"
  bottom: "InnerProduct74"
  top: "InnerProduct74"
}
layer {
  name: "InnerProduct75"
  type: "InnerProduct"
  bottom: "Slice75"
  top: "InnerProduct75"
  param {
    lr_mult: 1
    decay_mult: 1
  }
  param {
    lr_mult: 2
    decay_mult: 0
  }
  inner_product_param {
    num_output: 1
    weight_filler {
      type: "xavier"
    }
    bias_filler {
      type: "constant"
      value: 0
    }
  }
}
layer {
  name: "ReLU75"
  type: "ReLU"
  bottom: "InnerProduct75"
  top: "InnerProduct75"
}
layer {
  name: "InnerProduct76"
  type: "InnerProduct"
  bottom: "Slice76"
  top: "InnerProduct76"
  param {
    lr_mult: 1
    decay_mult: 1
  }
  param {
    lr_mult: 2
    decay_mult: 0
  }
  inner_product_param {
    num_output: 1
    weight_filler {
      type: "xavier"
    }
    bias_filler {
      type: "constant"
      value: 0
    }
  }
}
layer {
  name: "ReLU76"
  type: "ReLU"
  bottom: "InnerProduct76"
  top: "InnerProduct76"
}
layer {
  name: "InnerProduct77"
  type: "InnerProduct"
  bottom: "Slice77"
  top: "InnerProduct77"
  param {
    lr_mult: 1
    decay_mult: 1
  }
  param {
    lr_mult: 2
    decay_mult: 0
  }
  inner_product_param {
    num_output: 1
    weight_filler {
      type: "xavier"
    }
    bias_filler {
      type: "constant"
      value: 0
    }
  }
}
layer {
  name: "ReLU77"
  type: "ReLU"
  bottom: "InnerProduct77"
  top: "InnerProduct77"
}
layer {
  name: "InnerProduct78"
  type: "InnerProduct"
  bottom: "Slice78"
  top: "InnerProduct78"
  param {
    lr_mult: 1
    decay_mult: 1
  }
  param {
    lr_mult: 2
    decay_mult: 0
  }
  inner_product_param {
    num_output: 1
    weight_filler {
      type: "xavier"
    }
    bias_filler {
      type: "constant"
      value: 0
    }
  }
}
layer {
  name: "ReLU78"
  type: "ReLU"
  bottom: "InnerProduct78"
  top: "InnerProduct78"
}
layer {
  name: "InnerProduct79"
  type: "InnerProduct"
  bottom: "Slice79"
  top: "InnerProduct79"
  param {
    lr_mult: 1
    decay_mult: 1
  }
  param {
    lr_mult: 2
    decay_mult: 0
  }
  inner_product_param {
    num_output: 1
    weight_filler {
      type: "xavier"
    }
    bias_filler {
      type: "constant"
      value: 0
    }
  }
}
layer {
  name: "ReLU79"
  type: "ReLU"
  bottom: "InnerProduct79"
  top: "InnerProduct79"
}
layer {
  name: "InnerProduct80"
  type: "InnerProduct"
  bottom: "Slice80"
  top: "InnerProduct80"
  param {
    lr_mult: 1
    decay_mult: 1
  }
  param {
    lr_mult: 2
    decay_mult: 0
  }
  inner_product_param {
    num_output: 1
    weight_filler {
      type: "xavier"
    }
    bias_filler {
      type: "constant"
      value: 0
    }
  }
}
layer {
  name: "ReLU80"
  type: "ReLU"
  bottom: "InnerProduct80"
  top: "InnerProduct80"
}
layer {
  name: "InnerProduct81"
  type: "InnerProduct"
  bottom: "Slice81"
  top: "InnerProduct81"
  param {
    lr_mult: 1
    decay_mult: 1
  }
  param {
    lr_mult: 2
    decay_mult: 0
  }
  inner_product_param {
    num_output: 1
    weight_filler {
      type: "xavier"
    }
    bias_filler {
      type: "constant"
      value: 0
    }
  }
}
layer {
  name: "ReLU81"
  type: "ReLU"
  bottom: "InnerProduct81"
  top: "InnerProduct81"
}
layer {
  name: "InnerProduct82"
  type: "InnerProduct"
  bottom: "Slice82"
  top: "InnerProduct82"
  param {
    lr_mult: 1
    decay_mult: 1
  }
  param {
    lr_mult: 2
    decay_mult: 0
  }
  inner_product_param {
    num_output: 1
    weight_filler {
      type: "xavier"
    }
    bias_filler {
      type: "constant"
      value: 0
    }
  }
}
layer {
  name: "ReLU82"
  type: "ReLU"
  bottom: "InnerProduct82"
  top: "InnerProduct82"
}
layer {
  name: "InnerProduct83"
  type: "InnerProduct"
  bottom: "Slice83"
  top: "InnerProduct83"
  param {
    lr_mult: 1
    decay_mult: 1
  }
  param {
    lr_mult: 2
    decay_mult: 0
  }
  inner_product_param {
    num_output: 1
    weight_filler {
      type: "xavier"
    }
    bias_filler {
      type: "constant"
      value: 0
    }
  }
}
layer {
  name: "ReLU83"
  type: "ReLU"
  bottom: "InnerProduct83"
  top: "InnerProduct83"
}
layer {
  name: "InnerProduct84"
  type: "InnerProduct"
  bottom: "Slice84"
  top: "InnerProduct84"
  param {
    lr_mult: 1
    decay_mult: 1
  }
  param {
    lr_mult: 2
    decay_mult: 0
  }
  inner_product_param {
    num_output: 1
    weight_filler {
      type: "xavier"
    }
    bias_filler {
      type: "constant"
      value: 0
    }
  }
}
layer {
  name: "ReLU84"
  type: "ReLU"
  bottom: "InnerProduct84"
  top: "InnerProduct84"
}
layer {
  name: "InnerProduct85"
  type: "InnerProduct"
  bottom: "Slice85"
  top: "InnerProduct85"
  param {
    lr_mult: 1
    decay_mult: 1
  }
  param {
    lr_mult: 2
    decay_mult: 0
  }
  inner_product_param {
    num_output: 1
    weight_filler {
      type: "xavier"
    }
    bias_filler {
      type: "constant"
      value: 0
    }
  }
}
layer {
  name: "ReLU85"
  type: "ReLU"
  bottom: "InnerProduct85"
  top: "InnerProduct85"
}
layer {
  name: "InnerProduct86"
  type: "InnerProduct"
  bottom: "Slice86"
  top: "InnerProduct86"
  param {
    lr_mult: 1
    decay_mult: 1
  }
  param {
    lr_mult: 2
    decay_mult: 0
  }
  inner_product_param {
    num_output: 1
    weight_filler {
      type: "xavier"
    }
    bias_filler {
      type: "constant"
      value: 0
    }
  }
}
layer {
  name: "ReLU86"
  type: "ReLU"
  bottom: "InnerProduct86"
  top: "InnerProduct86"
}
layer {
  name: "InnerProduct87"
  type: "InnerProduct"
  bottom: "Slice87"
  top: "InnerProduct87"
  param {
    lr_mult: 1
    decay_mult: 1
  }
  param {
    lr_mult: 2
    decay_mult: 0
  }
  inner_product_param {
    num_output: 1
    weight_filler {
      type: "xavier"
    }
    bias_filler {
      type: "constant"
      value: 0
    }
  }
}
layer {
  name: "ReLU87"
  type: "ReLU"
  bottom: "InnerProduct87"
  top: "InnerProduct87"
}
layer {
  name: "InnerProduct88"
  type: "InnerProduct"
  bottom: "Slice88"
  top: "InnerProduct88"
  param {
    lr_mult: 1
    decay_mult: 1
  }
  param {
    lr_mult: 2
    decay_mult: 0
  }
  inner_product_param {
    num_output: 1
    weight_filler {
      type: "xavier"
    }
    bias_filler {
      type: "constant"
      value: 0
    }
  }
}
layer {
  name: "ReLU88"
  type: "ReLU"
  bottom: "InnerProduct88"
  top: "InnerProduct88"
}
layer {
  name: "InnerProduct89"
  type: "InnerProduct"
  bottom: "Slice89"
  top: "InnerProduct89"
  param {
    lr_mult: 1
    decay_mult: 1
  }
  param {
    lr_mult: 2
    decay_mult: 0
  }
  inner_product_param {
    num_output: 1
    weight_filler {
      type: "xavier"
    }
    bias_filler {
      type: "constant"
      value: 0
    }
  }
}
layer {
  name: "ReLU89"
  type: "ReLU"
  bottom: "InnerProduct89"
  top: "InnerProduct89"
}
layer {
  name: "InnerProduct90"
  type: "InnerProduct"
  bottom: "Slice90"
  top: "InnerProduct90"
  param {
    lr_mult: 1
    decay_mult: 1
  }
  param {
    lr_mult: 2
    decay_mult: 0
  }
  inner_product_param {
    num_output: 1
    weight_filler {
      type: "xavier"
    }
    bias_filler {
      type: "constant"
      value: 0
    }
  }
}
layer {
  name: "ReLU90"
  type: "ReLU"
  bottom: "InnerProduct90"
  top: "InnerProduct90"
}
layer {
  name: "InnerProduct91"
  type: "InnerProduct"
  bottom: "Slice91"
  top: "InnerProduct91"
  param {
    lr_mult: 1
    decay_mult: 1
  }
  param {
    lr_mult: 2
    decay_mult: 0
  }
  inner_product_param {
    num_output: 1
    weight_filler {
      type: "xavier"
    }
    bias_filler {
      type: "constant"
      value: 0
    }
  }
}
layer {
  name: "ReLU91"
  type: "ReLU"
  bottom: "InnerProduct91"
  top: "InnerProduct91"
}
layer {
  name: "InnerProduct92"
  type: "InnerProduct"
  bottom: "Slice92"
  top: "InnerProduct92"
  param {
    lr_mult: 1
    decay_mult: 1
  }
  param {
    lr_mult: 2
    decay_mult: 0
  }
  inner_product_param {
    num_output: 1
    weight_filler {
      type: "xavier"
    }
    bias_filler {
      type: "constant"
      value: 0
    }
  }
}
layer {
  name: "ReLU92"
  type: "ReLU"
  bottom: "InnerProduct92"
  top: "InnerProduct92"
}
layer {
  name: "InnerProduct93"
  type: "InnerProduct"
  bottom: "Slice93"
  top: "InnerProduct93"
  param {
    lr_mult: 1
    decay_mult: 1
  }
  param {
    lr_mult: 2
    decay_mult: 0
  }
  inner_product_param {
    num_output: 1
    weight_filler {
      type: "xavier"
    }
    bias_filler {
      type: "constant"
      value: 0
    }
  }
}
layer {
  name: "ReLU93"
  type: "ReLU"
  bottom: "InnerProduct93"
  top: "InnerProduct93"
}
layer {
  name: "InnerProduct94"
  type: "InnerProduct"
  bottom: "Slice94"
  top: "InnerProduct94"
  param {
    lr_mult: 1
    decay_mult: 1
  }
  param {
    lr_mult: 2
    decay_mult: 0
  }
  inner_product_param {
    num_output: 1
    weight_filler {
      type: "xavier"
    }
    bias_filler {
      type: "constant"
      value: 0
    }
  }
}
layer {
  name: "ReLU94"
  type: "ReLU"
  bottom: "InnerProduct94"
  top: "InnerProduct94"
}
layer {
  name: "InnerProduct95"
  type: "InnerProduct"
  bottom: "Slice95"
  top: "InnerProduct95"
  param {
    lr_mult: 1
    decay_mult: 1
  }
  param {
    lr_mult: 2
    decay_mult: 0
  }
  inner_product_param {
    num_output: 1
    weight_filler {
      type: "xavier"
    }
    bias_filler {
      type: "constant"
      value: 0
    }
  }
}
layer {
  name: "ReLU95"
  type: "ReLU"
  bottom: "InnerProduct95"
  top: "InnerProduct95"
}
layer {
  name: "InnerProduct96"
  type: "InnerProduct"
  bottom: "Slice96"
  top: "InnerProduct96"
  param {
    lr_mult: 1
    decay_mult: 1
  }
  param {
    lr_mult: 2
    decay_mult: 0
  }
  inner_product_param {
    num_output: 1
    weight_filler {
      type: "xavier"
    }
    bias_filler {
      type: "constant"
      value: 0
    }
  }
}
layer {
  name: "ReLU96"
  type: "ReLU"
  bottom: "InnerProduct96"
  top: "InnerProduct96"
}
layer {
  name: "InnerProduct97"
  type: "InnerProduct"
  bottom: "Slice97"
  top: "InnerProduct97"
  param {
    lr_mult: 1
    decay_mult: 1
  }
  param {
    lr_mult: 2
    decay_mult: 0
  }
  inner_product_param {
    num_output: 1
    weight_filler {
      type: "xavier"
    }
    bias_filler {
      type: "constant"
      value: 0
    }
  }
}
layer {
  name: "ReLU97"
  type: "ReLU"
  bottom: "InnerProduct97"
  top: "InnerProduct97"
}
layer {
  name: "InnerProduct98"
  type: "InnerProduct"
  bottom: "Slice98"
  top: "InnerProduct98"
  param {
    lr_mult: 1
    decay_mult: 1
  }
  param {
    lr_mult: 2
    decay_mult: 0
  }
  inner_product_param {
    num_output: 1
    weight_filler {
      type: "xavier"
    }
    bias_filler {
      type: "constant"
      value: 0
    }
  }
}
layer {
  name: "ReLU98"
  type: "ReLU"
  bottom: "InnerProduct98"
  top: "InnerProduct98"
}
layer {
  name: "InnerProduct99"
  type: "InnerProduct"
  bottom: "Slice99"
  top: "InnerProduct99"
  param {
    lr_mult: 1
    decay_mult: 1
  }
  param {
    lr_mult: 2
    decay_mult: 0
  }
  inner_product_param {
    num_output: 1
    weight_filler {
      type: "xavier"
    }
    bias_filler {
      type: "constant"
      value: 0
    }
  }
}
layer {
  name: "ReLU99"
  type: "ReLU"
  bottom: "InnerProduct99"
  top: "InnerProduct99"
}
layer {
  name: "InnerProduct100"
  type: "InnerProduct"
  bottom: "Slice100"
  top: "InnerProduct100"
  param {
    lr_mult: 1
    decay_mult: 1
  }
  param {
    lr_mult: 2
    decay_mult: 0
  }
  inner_product_param {
    num_output: 1
    weight_filler {
      type: "xavier"
    }
    bias_filler {
      type: "constant"
      value: 0
    }
  }
}
layer {
  name: "ReLU100"
  type: "ReLU"
  bottom: "InnerProduct100"
  top: "InnerProduct100"
}
layer {
  name: "InnerProduct101"
  type: "InnerProduct"
  bottom: "Slice101"
  top: "InnerProduct101"
  param {
    lr_mult: 1
    decay_mult: 1
  }
  param {
    lr_mult: 2
    decay_mult: 0
  }
  inner_product_param {
    num_output: 1
    weight_filler {
      type: "xavier"
    }
    bias_filler {
      type: "constant"
      value: 0
    }
  }
}
layer {
  name: "ReLU101"
  type: "ReLU"
  bottom: "InnerProduct101"
  top: "InnerProduct101"
}
layer {
  name: "InnerProduct102"
  type: "InnerProduct"
  bottom: "Slice102"
  top: "InnerProduct102"
  param {
    lr_mult: 1
    decay_mult: 1
  }
  param {
    lr_mult: 2
    decay_mult: 0
  }
  inner_product_param {
    num_output: 1
    weight_filler {
      type: "xavier"
    }
    bias_filler {
      type: "constant"
      value: 0
    }
  }
}
layer {
  name: "ReLU102"
  type: "ReLU"
  bottom: "InnerProduct102"
  top: "InnerProduct102"
}
layer {
  name: "InnerProduct103"
  type: "InnerProduct"
  bottom: "Slice103"
  top: "InnerProduct103"
  param {
    lr_mult: 1
    decay_mult: 1
  }
  param {
    lr_mult: 2
    decay_mult: 0
  }
  inner_product_param {
    num_output: 1
    weight_filler {
      type: "xavier"
    }
    bias_filler {
      type: "constant"
      value: 0
    }
  }
}
layer {
  name: "ReLU103"
  type: "ReLU"
  bottom: "InnerProduct103"
  top: "InnerProduct103"
}
layer {
  name: "InnerProduct104"
  type: "InnerProduct"
  bottom: "Slice104"
  top: "InnerProduct104"
  param {
    lr_mult: 1
    decay_mult: 1
  }
  param {
    lr_mult: 2
    decay_mult: 0
  }
  inner_product_param {
    num_output: 1
    weight_filler {
      type: "xavier"
    }
    bias_filler {
      type: "constant"
      value: 0
    }
  }
}
layer {
  name: "ReLU104"
  type: "ReLU"
  bottom: "InnerProduct104"
  top: "InnerProduct104"
}
layer {
  name: "InnerProduct105"
  type: "InnerProduct"
  bottom: "Slice105"
  top: "InnerProduct105"
  param {
    lr_mult: 1
    decay_mult: 1
  }
  param {
    lr_mult: 2
    decay_mult: 0
  }
  inner_product_param {
    num_output: 1
    weight_filler {
      type: "xavier"
    }
    bias_filler {
      type: "constant"
      value: 0
    }
  }
}
layer {
  name: "ReLU105"
  type: "ReLU"
  bottom: "InnerProduct105"
  top: "InnerProduct105"
}
layer {
  name: "InnerProduct106"
  type: "InnerProduct"
  bottom: "Slice106"
  top: "InnerProduct106"
  param {
    lr_mult: 1
    decay_mult: 1
  }
  param {
    lr_mult: 2
    decay_mult: 0
  }
  inner_product_param {
    num_output: 1
    weight_filler {
      type: "xavier"
    }
    bias_filler {
      type: "constant"
      value: 0
    }
  }
}
layer {
  name: "ReLU106"
  type: "ReLU"
  bottom: "InnerProduct106"
  top: "InnerProduct106"
}
layer {
  name: "InnerProduct107"
  type: "InnerProduct"
  bottom: "Slice107"
  top: "InnerProduct107"
  param {
    lr_mult: 1
    decay_mult: 1
  }
  param {
    lr_mult: 2
    decay_mult: 0
  }
  inner_product_param {
    num_output: 1
    weight_filler {
      type: "xavier"
    }
    bias_filler {
      type: "constant"
      value: 0
    }
  }
}
layer {
  name: "ReLU107"
  type: "ReLU"
  bottom: "InnerProduct107"
  top: "InnerProduct107"
}
layer {
  name: "InnerProduct108"
  type: "InnerProduct"
  bottom: "Slice108"
  top: "InnerProduct108"
  param {
    lr_mult: 1
    decay_mult: 1
  }
  param {
    lr_mult: 2
    decay_mult: 0
  }
  inner_product_param {
    num_output: 1
    weight_filler {
      type: "xavier"
    }
    bias_filler {
      type: "constant"
      value: 0
    }
  }
}
layer {
  name: "ReLU108"
  type: "ReLU"
  bottom: "InnerProduct108"
  top: "InnerProduct108"
}
layer {
  name: "InnerProduct109"
  type: "InnerProduct"
  bottom: "Slice109"
  top: "InnerProduct109"
  param {
    lr_mult: 1
    decay_mult: 1
  }
  param {
    lr_mult: 2
    decay_mult: 0
  }
  inner_product_param {
    num_output: 1
    weight_filler {
      type: "xavier"
    }
    bias_filler {
      type: "constant"
      value: 0
    }
  }
}
layer {
  name: "ReLU109"
  type: "ReLU"
  bottom: "InnerProduct109"
  top: "InnerProduct109"
}
layer {
  name: "InnerProduct110"
  type: "InnerProduct"
  bottom: "Slice110"
  top: "InnerProduct110"
  param {
    lr_mult: 1
    decay_mult: 1
  }
  param {
    lr_mult: 2
    decay_mult: 0
  }
  inner_product_param {
    num_output: 1
    weight_filler {
      type: "xavier"
    }
    bias_filler {
      type: "constant"
      value: 0
    }
  }
}
layer {
  name: "ReLU110"
  type: "ReLU"
  bottom: "InnerProduct110"
  top: "InnerProduct110"
}
layer {
  name: "InnerProduct111"
  type: "InnerProduct"
  bottom: "Slice111"
  top: "InnerProduct111"
  param {
    lr_mult: 1
    decay_mult: 1
  }
  param {
    lr_mult: 2
    decay_mult: 0
  }
  inner_product_param {
    num_output: 1
    weight_filler {
      type: "xavier"
    }
    bias_filler {
      type: "constant"
      value: 0
    }
  }
}
layer {
  name: "ReLU111"
  type: "ReLU"
  bottom: "InnerProduct111"
  top: "InnerProduct111"
}
layer {
  name: "InnerProduct112"
  type: "InnerProduct"
  bottom: "Slice112"
  top: "InnerProduct112"
  param {
    lr_mult: 1
    decay_mult: 1
  }
  param {
    lr_mult: 2
    decay_mult: 0
  }
  inner_product_param {
    num_output: 1
    weight_filler {
      type: "xavier"
    }
    bias_filler {
      type: "constant"
      value: 0
    }
  }
}
layer {
  name: "ReLU112"
  type: "ReLU"
  bottom: "InnerProduct112"
  top: "InnerProduct112"
}
layer {
  name: "InnerProduct113"
  type: "InnerProduct"
  bottom: "Slice113"
  top: "InnerProduct113"
  param {
    lr_mult: 1
    decay_mult: 1
  }
  param {
    lr_mult: 2
    decay_mult: 0
  }
  inner_product_param {
    num_output: 1
    weight_filler {
      type: "xavier"
    }
    bias_filler {
      type: "constant"
      value: 0
    }
  }
}
layer {
  name: "ReLU113"
  type: "ReLU"
  bottom: "InnerProduct113"
  top: "InnerProduct113"
}
layer {
  name: "InnerProduct114"
  type: "InnerProduct"
  bottom: "Slice114"
  top: "InnerProduct114"
  param {
    lr_mult: 1
    decay_mult: 1
  }
  param {
    lr_mult: 2
    decay_mult: 0
  }
  inner_product_param {
    num_output: 1
    weight_filler {
      type: "xavier"
    }
    bias_filler {
      type: "constant"
      value: 0
    }
  }
}
layer {
  name: "ReLU114"
  type: "ReLU"
  bottom: "InnerProduct114"
  top: "InnerProduct114"
}
layer {
  name: "InnerProduct115"
  type: "InnerProduct"
  bottom: "Slice115"
  top: "InnerProduct115"
  param {
    lr_mult: 1
    decay_mult: 1
  }
  param {
    lr_mult: 2
    decay_mult: 0
  }
  inner_product_param {
    num_output: 1
    weight_filler {
      type: "xavier"
    }
    bias_filler {
      type: "constant"
      value: 0
    }
  }
}
layer {
  name: "ReLU115"
  type: "ReLU"
  bottom: "InnerProduct115"
  top: "InnerProduct115"
}
layer {
  name: "InnerProduct116"
  type: "InnerProduct"
  bottom: "Slice116"
  top: "InnerProduct116"
  param {
    lr_mult: 1
    decay_mult: 1
  }
  param {
    lr_mult: 2
    decay_mult: 0
  }
  inner_product_param {
    num_output: 1
    weight_filler {
      type: "xavier"
    }
    bias_filler {
      type: "constant"
      value: 0
    }
  }
}
layer {
  name: "ReLU116"
  type: "ReLU"
  bottom: "InnerProduct116"
  top: "InnerProduct116"
}
layer {
  name: "InnerProduct117"
  type: "InnerProduct"
  bottom: "Slice117"
  top: "InnerProduct117"
  param {
    lr_mult: 1
    decay_mult: 1
  }
  param {
    lr_mult: 2
    decay_mult: 0
  }
  inner_product_param {
    num_output: 1
    weight_filler {
      type: "xavier"
    }
    bias_filler {
      type: "constant"
      value: 0
    }
  }
}
layer {
  name: "ReLU117"
  type: "ReLU"
  bottom: "InnerProduct117"
  top: "InnerProduct117"
}
layer {
  name: "InnerProduct118"
  type: "InnerProduct"
  bottom: "Slice118"
  top: "InnerProduct118"
  param {
    lr_mult: 1
    decay_mult: 1
  }
  param {
    lr_mult: 2
    decay_mult: 0
  }
  inner_product_param {
    num_output: 1
    weight_filler {
      type: "xavier"
    }
    bias_filler {
      type: "constant"
      value: 0
    }
  }
}
layer {
  name: "ReLU118"
  type: "ReLU"
  bottom: "InnerProduct118"
  top: "InnerProduct118"
}
layer {
  name: "InnerProduct119"
  type: "InnerProduct"
  bottom: "Slice119"
  top: "InnerProduct119"
  param {
    lr_mult: 1
    decay_mult: 1
  }
  param {
    lr_mult: 2
    decay_mult: 0
  }
  inner_product_param {
    num_output: 1
    weight_filler {
      type: "xavier"
    }
    bias_filler {
      type: "constant"
      value: 0
    }
  }
}
layer {
  name: "ReLU119"
  type: "ReLU"
  bottom: "InnerProduct119"
  top: "InnerProduct119"
}
layer {
  name: "InnerProduct120"
  type: "InnerProduct"
  bottom: "Slice120"
  top: "InnerProduct120"
  param {
    lr_mult: 1
    decay_mult: 1
  }
  param {
    lr_mult: 2
    decay_mult: 0
  }
  inner_product_param {
    num_output: 1
    weight_filler {
      type: "xavier"
    }
    bias_filler {
      type: "constant"
      value: 0
    }
  }
}
layer {
  name: "ReLU120"
  type: "ReLU"
  bottom: "InnerProduct120"
  top: "InnerProduct120"
}
layer {
  name: "InnerProduct121"
  type: "InnerProduct"
  bottom: "Slice121"
  top: "InnerProduct121"
  param {
    lr_mult: 1
    decay_mult: 1
  }
  param {
    lr_mult: 2
    decay_mult: 0
  }
  inner_product_param {
    num_output: 1
    weight_filler {
      type: "xavier"
    }
    bias_filler {
      type: "constant"
      value: 0
    }
  }
}
layer {
  name: "ReLU121"
  type: "ReLU"
  bottom: "InnerProduct121"
  top: "InnerProduct121"
}
layer {
  name: "InnerProduct122"
  type: "InnerProduct"
  bottom: "Slice122"
  top: "InnerProduct122"
  param {
    lr_mult: 1
    decay_mult: 1
  }
  param {
    lr_mult: 2
    decay_mult: 0
  }
  inner_product_param {
    num_output: 1
    weight_filler {
      type: "xavier"
    }
    bias_filler {
      type: "constant"
      value: 0
    }
  }
}
layer {
  name: "ReLU122"
  type: "ReLU"
  bottom: "InnerProduct122"
  top: "InnerProduct122"
}
layer {
  name: "InnerProduct123"
  type: "InnerProduct"
  bottom: "Slice123"
  top: "InnerProduct123"
  param {
    lr_mult: 1
    decay_mult: 1
  }
  param {
    lr_mult: 2
    decay_mult: 0
  }
  inner_product_param {
    num_output: 1
    weight_filler {
      type: "xavier"
    }
    bias_filler {
      type: "constant"
      value: 0
    }
  }
}
layer {
  name: "ReLU123"
  type: "ReLU"
  bottom: "InnerProduct123"
  top: "InnerProduct123"
}
layer {
  name: "InnerProduct124"
  type: "InnerProduct"
  bottom: "Slice124"
  top: "InnerProduct124"
  param {
    lr_mult: 1
    decay_mult: 1
  }
  param {
    lr_mult: 2
    decay_mult: 0
  }
  inner_product_param {
    num_output: 1
    weight_filler {
      type: "xavier"
    }
    bias_filler {
      type: "constant"
      value: 0
    }
  }
}
layer {
  name: "ReLU124"
  type: "ReLU"
  bottom: "InnerProduct124"
  top: "InnerProduct124"
}
layer {
  name: "InnerProduct125"
  type: "InnerProduct"
  bottom: "Slice125"
  top: "InnerProduct125"
  param {
    lr_mult: 1
    decay_mult: 1
  }
  param {
    lr_mult: 2
    decay_mult: 0
  }
  inner_product_param {
    num_output: 1
    weight_filler {
      type: "xavier"
    }
    bias_filler {
      type: "constant"
      value: 0
    }
  }
}
layer {
  name: "ReLU125"
  type: "ReLU"
  bottom: "InnerProduct125"
  top: "InnerProduct125"
}
layer {
  name: "InnerProduct126"
  type: "InnerProduct"
  bottom: "Slice126"
  top: "InnerProduct126"
  param {
    lr_mult: 1
    decay_mult: 1
  }
  param {
    lr_mult: 2
    decay_mult: 0
  }
  inner_product_param {
    num_output: 1
    weight_filler {
      type: "xavier"
    }
    bias_filler {
      type: "constant"
      value: 0
    }
  }
}
layer {
  name: "ReLU126"
  type: "ReLU"
  bottom: "InnerProduct126"
  top: "InnerProduct126"
}
layer {
  name: "InnerProduct127"
  type: "InnerProduct"
  bottom: "Slice127"
  top: "InnerProduct127"
  param {
    lr_mult: 1
    decay_mult: 1
  }
  param {
    lr_mult: 2
    decay_mult: 0
  }
  inner_product_param {
    num_output: 1
    weight_filler {
      type: "xavier"
    }
    bias_filler {
      type: "constant"
      value: 0
    }
  }
}
layer {
  name: "ReLU127"
  type: "ReLU"
  bottom: "InnerProduct127"
  top: "InnerProduct127"
}
layer {
  name: "InnerProduct128"
  type: "InnerProduct"
  bottom: "Slice128"
  top: "InnerProduct128"
  param {
    lr_mult: 1
    decay_mult: 1
  }
  param {
    lr_mult: 2
    decay_mult: 0
  }
  inner_product_param {
    num_output: 1
    weight_filler {
      type: "xavier"
    }
    bias_filler {
      type: "constant"
      value: 0
    }
  }
}
layer {
  name: "ReLU128"
  type: "ReLU"
  bottom: "InnerProduct128"
  top: "InnerProduct128"
}
layer {
  name: "InnerProduct129"
  type: "InnerProduct"
  bottom: "Slice129"
  top: "InnerProduct129"
  param {
    lr_mult: 1
    decay_mult: 1
  }
  param {
    lr_mult: 2
    decay_mult: 0
  }
  inner_product_param {
    num_output: 1
    weight_filler {
      type: "xavier"
    }
    bias_filler {
      type: "constant"
      value: 0
    }
  }
}
layer {
  name: "ReLU129"
  type: "ReLU"
  bottom: "InnerProduct129"
  top: "InnerProduct129"
}
layer {
  name: "InnerProduct130"
  type: "InnerProduct"
  bottom: "Slice130"
  top: "InnerProduct130"
  param {
    lr_mult: 1
    decay_mult: 1
  }
  param {
    lr_mult: 2
    decay_mult: 0
  }
  inner_product_param {
    num_output: 1
    weight_filler {
      type: "xavier"
    }
    bias_filler {
      type: "constant"
      value: 0
    }
  }
}
layer {
  name: "ReLU130"
  type: "ReLU"
  bottom: "InnerProduct130"
  top: "InnerProduct130"
}
layer {
  name: "InnerProduct131"
  type: "InnerProduct"
  bottom: "Slice131"
  top: "InnerProduct131"
  param {
    lr_mult: 1
    decay_mult: 1
  }
  param {
    lr_mult: 2
    decay_mult: 0
  }
  inner_product_param {
    num_output: 1
    weight_filler {
      type: "xavier"
    }
    bias_filler {
      type: "constant"
      value: 0
    }
  }
}
layer {
  name: "ReLU131"
  type: "ReLU"
  bottom: "InnerProduct131"
  top: "InnerProduct131"
}
layer {
  name: "InnerProduct132"
  type: "InnerProduct"
  bottom: "Slice132"
  top: "InnerProduct132"
  param {
    lr_mult: 1
    decay_mult: 1
  }
  param {
    lr_mult: 2
    decay_mult: 0
  }
  inner_product_param {
    num_output: 1
    weight_filler {
      type: "xavier"
    }
    bias_filler {
      type: "constant"
      value: 0
    }
  }
}
layer {
  name: "ReLU132"
  type: "ReLU"
  bottom: "InnerProduct132"
  top: "InnerProduct132"
}
layer {
  name: "InnerProduct133"
  type: "InnerProduct"
  bottom: "Slice133"
  top: "InnerProduct133"
  param {
    lr_mult: 1
    decay_mult: 1
  }
  param {
    lr_mult: 2
    decay_mult: 0
  }
  inner_product_param {
    num_output: 1
    weight_filler {
      type: "xavier"
    }
    bias_filler {
      type: "constant"
      value: 0
    }
  }
}
layer {
  name: "ReLU133"
  type: "ReLU"
  bottom: "InnerProduct133"
  top: "InnerProduct133"
}
layer {
  name: "InnerProduct134"
  type: "InnerProduct"
  bottom: "Slice134"
  top: "InnerProduct134"
  param {
    lr_mult: 1
    decay_mult: 1
  }
  param {
    lr_mult: 2
    decay_mult: 0
  }
  inner_product_param {
    num_output: 1
    weight_filler {
      type: "xavier"
    }
    bias_filler {
      type: "constant"
      value: 0
    }
  }
}
layer {
  name: "ReLU134"
  type: "ReLU"
  bottom: "InnerProduct134"
  top: "InnerProduct134"
}
layer {
  name: "InnerProduct135"
  type: "InnerProduct"
  bottom: "Slice135"
  top: "InnerProduct135"
  param {
    lr_mult: 1
    decay_mult: 1
  }
  param {
    lr_mult: 2
    decay_mult: 0
  }
  inner_product_param {
    num_output: 1
    weight_filler {
      type: "xavier"
    }
    bias_filler {
      type: "constant"
      value: 0
    }
  }
}
layer {
  name: "ReLU135"
  type: "ReLU"
  bottom: "InnerProduct135"
  top: "InnerProduct135"
}
layer {
  name: "InnerProduct136"
  type: "InnerProduct"
  bottom: "Slice136"
  top: "InnerProduct136"
  param {
    lr_mult: 1
    decay_mult: 1
  }
  param {
    lr_mult: 2
    decay_mult: 0
  }
  inner_product_param {
    num_output: 1
    weight_filler {
      type: "xavier"
    }
    bias_filler {
      type: "constant"
      value: 0
    }
  }
}
layer {
  name: "ReLU136"
  type: "ReLU"
  bottom: "InnerProduct136"
  top: "InnerProduct136"
}
layer {
  name: "InnerProduct137"
  type: "InnerProduct"
  bottom: "Slice137"
  top: "InnerProduct137"
  param {
    lr_mult: 1
    decay_mult: 1
  }
  param {
    lr_mult: 2
    decay_mult: 0
  }
  inner_product_param {
    num_output: 1
    weight_filler {
      type: "xavier"
    }
    bias_filler {
      type: "constant"
      value: 0
    }
  }
}
layer {
  name: "ReLU137"
  type: "ReLU"
  bottom: "InnerProduct137"
  top: "InnerProduct137"
}
layer {
  name: "InnerProduct138"
  type: "InnerProduct"
  bottom: "Slice138"
  top: "InnerProduct138"
  param {
    lr_mult: 1
    decay_mult: 1
  }
  param {
    lr_mult: 2
    decay_mult: 0
  }
  inner_product_param {
    num_output: 1
    weight_filler {
      type: "xavier"
    }
    bias_filler {
      type: "constant"
      value: 0
    }
  }
}
layer {
  name: "ReLU138"
  type: "ReLU"
  bottom: "InnerProduct138"
  top: "InnerProduct138"
}
layer {
  name: "InnerProduct139"
  type: "InnerProduct"
  bottom: "Slice139"
  top: "InnerProduct139"
  param {
    lr_mult: 1
    decay_mult: 1
  }
  param {
    lr_mult: 2
    decay_mult: 0
  }
  inner_product_param {
    num_output: 1
    weight_filler {
      type: "xavier"
    }
    bias_filler {
      type: "constant"
      value: 0
    }
  }
}
layer {
  name: "ReLU139"
  type: "ReLU"
  bottom: "InnerProduct139"
  top: "InnerProduct139"
}
layer {
  name: "InnerProduct140"
  type: "InnerProduct"
  bottom: "Slice140"
  top: "InnerProduct140"
  param {
    lr_mult: 1
    decay_mult: 1
  }
  param {
    lr_mult: 2
    decay_mult: 0
  }
  inner_product_param {
    num_output: 1
    weight_filler {
      type: "xavier"
    }
    bias_filler {
      type: "constant"
      value: 0
    }
  }
}
layer {
  name: "ReLU140"
  type: "ReLU"
  bottom: "InnerProduct140"
  top: "InnerProduct140"
}
layer {
  name: "InnerProduct141"
  type: "InnerProduct"
  bottom: "Slice141"
  top: "InnerProduct141"
  param {
    lr_mult: 1
    decay_mult: 1
  }
  param {
    lr_mult: 2
    decay_mult: 0
  }
  inner_product_param {
    num_output: 1
    weight_filler {
      type: "xavier"
    }
    bias_filler {
      type: "constant"
      value: 0
    }
  }
}
layer {
  name: "ReLU141"
  type: "ReLU"
  bottom: "InnerProduct141"
  top: "InnerProduct141"
}
layer {
  name: "InnerProduct142"
  type: "InnerProduct"
  bottom: "Slice142"
  top: "InnerProduct142"
  param {
    lr_mult: 1
    decay_mult: 1
  }
  param {
    lr_mult: 2
    decay_mult: 0
  }
  inner_product_param {
    num_output: 1
    weight_filler {
      type: "xavier"
    }
    bias_filler {
      type: "constant"
      value: 0
    }
  }
}
layer {
  name: "ReLU142"
  type: "ReLU"
  bottom: "InnerProduct142"
  top: "InnerProduct142"
}
layer {
  name: "InnerProduct143"
  type: "InnerProduct"
  bottom: "Slice143"
  top: "InnerProduct143"
  param {
    lr_mult: 1
    decay_mult: 1
  }
  param {
    lr_mult: 2
    decay_mult: 0
  }
  inner_product_param {
    num_output: 1
    weight_filler {
      type: "xavier"
    }
    bias_filler {
      type: "constant"
      value: 0
    }
  }
}
layer {
  name: "ReLU143"
  type: "ReLU"
  bottom: "InnerProduct143"
  top: "InnerProduct143"
}
layer {
  name: "InnerProduct144"
  type: "InnerProduct"
  bottom: "Slice144"
  top: "InnerProduct144"
  param {
    lr_mult: 1
    decay_mult: 1
  }
  param {
    lr_mult: 2
    decay_mult: 0
  }
  inner_product_param {
    num_output: 1
    weight_filler {
      type: "xavier"
    }
    bias_filler {
      type: "constant"
      value: 0
    }
  }
}
layer {
  name: "ReLU144"
  type: "ReLU"
  bottom: "InnerProduct144"
  top: "InnerProduct144"
}
layer {
  name: "InnerProduct145"
  type: "InnerProduct"
  bottom: "Slice145"
  top: "InnerProduct145"
  param {
    lr_mult: 1
    decay_mult: 1
  }
  param {
    lr_mult: 2
    decay_mult: 0
  }
  inner_product_param {
    num_output: 1
    weight_filler {
      type: "xavier"
    }
    bias_filler {
      type: "constant"
      value: 0
    }
  }
}
layer {
  name: "ReLU145"
  type: "ReLU"
  bottom: "InnerProduct145"
  top: "InnerProduct145"
}
layer {
  name: "InnerProduct146"
  type: "InnerProduct"
  bottom: "Slice146"
  top: "InnerProduct146"
  param {
    lr_mult: 1
    decay_mult: 1
  }
  param {
    lr_mult: 2
    decay_mult: 0
  }
  inner_product_param {
    num_output: 1
    weight_filler {
      type: "xavier"
    }
    bias_filler {
      type: "constant"
      value: 0
    }
  }
}
layer {
  name: "ReLU146"
  type: "ReLU"
  bottom: "InnerProduct146"
  top: "InnerProduct146"
}
layer {
  name: "InnerProduct147"
  type: "InnerProduct"
  bottom: "Slice147"
  top: "InnerProduct147"
  param {
    lr_mult: 1
    decay_mult: 1
  }
  param {
    lr_mult: 2
    decay_mult: 0
  }
  inner_product_param {
    num_output: 1
    weight_filler {
      type: "xavier"
    }
    bias_filler {
      type: "constant"
      value: 0
    }
  }
}
layer {
  name: "ReLU147"
  type: "ReLU"
  bottom: "InnerProduct147"
  top: "InnerProduct147"
}
layer {
  name: "InnerProduct148"
  type: "InnerProduct"
  bottom: "Slice148"
  top: "InnerProduct148"
  param {
    lr_mult: 1
    decay_mult: 1
  }
  param {
    lr_mult: 2
    decay_mult: 0
  }
  inner_product_param {
    num_output: 1
    weight_filler {
      type: "xavier"
    }
    bias_filler {
      type: "constant"
      value: 0
    }
  }
}
layer {
  name: "ReLU148"
  type: "ReLU"
  bottom: "InnerProduct148"
  top: "InnerProduct148"
}
layer {
  name: "InnerProduct149"
  type: "InnerProduct"
  bottom: "Slice149"
  top: "InnerProduct149"
  param {
    lr_mult: 1
    decay_mult: 1
  }
  param {
    lr_mult: 2
    decay_mult: 0
  }
  inner_product_param {
    num_output: 1
    weight_filler {
      type: "xavier"
    }
    bias_filler {
      type: "constant"
      value: 0
    }
  }
}
layer {
  name: "ReLU149"
  type: "ReLU"
  bottom: "InnerProduct149"
  top: "InnerProduct149"
}
layer {
  name: "InnerProduct150"
  type: "InnerProduct"
  bottom: "Slice150"
  top: "InnerProduct150"
  param {
    lr_mult: 1
    decay_mult: 1
  }
  param {
    lr_mult: 2
    decay_mult: 0
  }
  inner_product_param {
    num_output: 1
    weight_filler {
      type: "xavier"
    }
    bias_filler {
      type: "constant"
      value: 0
    }
  }
}
layer {
  name: "ReLU150"
  type: "ReLU"
  bottom: "InnerProduct150"
  top: "InnerProduct150"
}
layer {
  name: "InnerProduct151"
  type: "InnerProduct"
  bottom: "Slice151"
  top: "InnerProduct151"
  param {
    lr_mult: 1
    decay_mult: 1
  }
  param {
    lr_mult: 2
    decay_mult: 0
  }
  inner_product_param {
    num_output: 1
    weight_filler {
      type: "xavier"
    }
    bias_filler {
      type: "constant"
      value: 0
    }
  }
}
layer {
  name: "ReLU151"
  type: "ReLU"
  bottom: "InnerProduct151"
  top: "InnerProduct151"
}
layer {
  name: "InnerProduct152"
  type: "InnerProduct"
  bottom: "Slice152"
  top: "InnerProduct152"
  param {
    lr_mult: 1
    decay_mult: 1
  }
  param {
    lr_mult: 2
    decay_mult: 0
  }
  inner_product_param {
    num_output: 1
    weight_filler {
      type: "xavier"
    }
    bias_filler {
      type: "constant"
      value: 0
    }
  }
}
layer {
  name: "ReLU152"
  type: "ReLU"
  bottom: "InnerProduct152"
  top: "InnerProduct152"
}
layer {
  name: "InnerProduct153"
  type: "InnerProduct"
  bottom: "Slice153"
  top: "InnerProduct153"
  param {
    lr_mult: 1
    decay_mult: 1
  }
  param {
    lr_mult: 2
    decay_mult: 0
  }
  inner_product_param {
    num_output: 1
    weight_filler {
      type: "xavier"
    }
    bias_filler {
      type: "constant"
      value: 0
    }
  }
}
layer {
  name: "ReLU153"
  type: "ReLU"
  bottom: "InnerProduct153"
  top: "InnerProduct153"
}
layer {
  name: "InnerProduct154"
  type: "InnerProduct"
  bottom: "Slice154"
  top: "InnerProduct154"
  param {
    lr_mult: 1
    decay_mult: 1
  }
  param {
    lr_mult: 2
    decay_mult: 0
  }
  inner_product_param {
    num_output: 1
    weight_filler {
      type: "xavier"
    }
    bias_filler {
      type: "constant"
      value: 0
    }
  }
}
layer {
  name: "ReLU154"
  type: "ReLU"
  bottom: "InnerProduct154"
  top: "InnerProduct154"
}
layer {
  name: "InnerProduct155"
  type: "InnerProduct"
  bottom: "Slice155"
  top: "InnerProduct155"
  param {
    lr_mult: 1
    decay_mult: 1
  }
  param {
    lr_mult: 2
    decay_mult: 0
  }
  inner_product_param {
    num_output: 1
    weight_filler {
      type: "xavier"
    }
    bias_filler {
      type: "constant"
      value: 0
    }
  }
}
layer {
  name: "ReLU155"
  type: "ReLU"
  bottom: "InnerProduct155"
  top: "InnerProduct155"
}
layer {
  name: "InnerProduct156"
  type: "InnerProduct"
  bottom: "Slice156"
  top: "InnerProduct156"
  param {
    lr_mult: 1
    decay_mult: 1
  }
  param {
    lr_mult: 2
    decay_mult: 0
  }
  inner_product_param {
    num_output: 1
    weight_filler {
      type: "xavier"
    }
    bias_filler {
      type: "constant"
      value: 0
    }
  }
}
layer {
  name: "ReLU156"
  type: "ReLU"
  bottom: "InnerProduct156"
  top: "InnerProduct156"
}
layer {
  name: "InnerProduct157"
  type: "InnerProduct"
  bottom: "Slice157"
  top: "InnerProduct157"
  param {
    lr_mult: 1
    decay_mult: 1
  }
  param {
    lr_mult: 2
    decay_mult: 0
  }
  inner_product_param {
    num_output: 1
    weight_filler {
      type: "xavier"
    }
    bias_filler {
      type: "constant"
      value: 0
    }
  }
}
layer {
  name: "ReLU157"
  type: "ReLU"
  bottom: "InnerProduct157"
  top: "InnerProduct157"
}
layer {
  name: "InnerProduct158"
  type: "InnerProduct"
  bottom: "Slice158"
  top: "InnerProduct158"
  param {
    lr_mult: 1
    decay_mult: 1
  }
  param {
    lr_mult: 2
    decay_mult: 0
  }
  inner_product_param {
    num_output: 1
    weight_filler {
      type: "xavier"
    }
    bias_filler {
      type: "constant"
      value: 0
    }
  }
}
layer {
  name: "ReLU158"
  type: "ReLU"
  bottom: "InnerProduct158"
  top: "InnerProduct158"
}
layer {
  name: "InnerProduct159"
  type: "InnerProduct"
  bottom: "Slice159"
  top: "InnerProduct159"
  param {
    lr_mult: 1
    decay_mult: 1
  }
  param {
    lr_mult: 2
    decay_mult: 0
  }
  inner_product_param {
    num_output: 1
    weight_filler {
      type: "xavier"
    }
    bias_filler {
      type: "constant"
      value: 0
    }
  }
}
layer {
  name: "ReLU159"
  type: "ReLU"
  bottom: "InnerProduct159"
  top: "InnerProduct159"
}
layer {
  name: "InnerProduct160"
  type: "InnerProduct"
  bottom: "Slice160"
  top: "InnerProduct160"
  param {
    lr_mult: 1
    decay_mult: 1
  }
  param {
    lr_mult: 2
    decay_mult: 0
  }
  inner_product_param {
    num_output: 1
    weight_filler {
      type: "xavier"
    }
    bias_filler {
      type: "constant"
      value: 0
    }
  }
}
layer {
  name: "ReLU160"
  type: "ReLU"
  bottom: "InnerProduct160"
  top: "InnerProduct160"
}
layer {
  name: "InnerProduct161"
  type: "InnerProduct"
  bottom: "Slice161"
  top: "InnerProduct161"
  param {
    lr_mult: 1
    decay_mult: 1
  }
  param {
    lr_mult: 2
    decay_mult: 0
  }
  inner_product_param {
    num_output: 1
    weight_filler {
      type: "xavier"
    }
    bias_filler {
      type: "constant"
      value: 0
    }
  }
}
layer {
  name: "ReLU161"
  type: "ReLU"
  bottom: "InnerProduct161"
  top: "InnerProduct161"
}
layer {
  name: "InnerProduct162"
  type: "InnerProduct"
  bottom: "Slice162"
  top: "InnerProduct162"
  param {
    lr_mult: 1
    decay_mult: 1
  }
  param {
    lr_mult: 2
    decay_mult: 0
  }
  inner_product_param {
    num_output: 1
    weight_filler {
      type: "xavier"
    }
    bias_filler {
      type: "constant"
      value: 0
    }
  }
}
layer {
  name: "ReLU162"
  type: "ReLU"
  bottom: "InnerProduct162"
  top: "InnerProduct162"
}
layer {
  name: "InnerProduct163"
  type: "InnerProduct"
  bottom: "Slice163"
  top: "InnerProduct163"
  param {
    lr_mult: 1
    decay_mult: 1
  }
  param {
    lr_mult: 2
    decay_mult: 0
  }
  inner_product_param {
    num_output: 1
    weight_filler {
      type: "xavier"
    }
    bias_filler {
      type: "constant"
      value: 0
    }
  }
}
layer {
  name: "ReLU163"
  type: "ReLU"
  bottom: "InnerProduct163"
  top: "InnerProduct163"
}
layer {
  name: "InnerProduct164"
  type: "InnerProduct"
  bottom: "Slice164"
  top: "InnerProduct164"
  param {
    lr_mult: 1
    decay_mult: 1
  }
  param {
    lr_mult: 2
    decay_mult: 0
  }
  inner_product_param {
    num_output: 1
    weight_filler {
      type: "xavier"
    }
    bias_filler {
      type: "constant"
      value: 0
    }
  }
}
layer {
  name: "ReLU164"
  type: "ReLU"
  bottom: "InnerProduct164"
  top: "InnerProduct164"
}
layer {
  name: "InnerProduct165"
  type: "InnerProduct"
  bottom: "Slice165"
  top: "InnerProduct165"
  param {
    lr_mult: 1
    decay_mult: 1
  }
  param {
    lr_mult: 2
    decay_mult: 0
  }
  inner_product_param {
    num_output: 1
    weight_filler {
      type: "xavier"
    }
    bias_filler {
      type: "constant"
      value: 0
    }
  }
}
…
    decay_mult: 1
  }
  param {
    lr_mult: 2
    decay_mult: 0
  }
  inner_product_param {
    num_output: 878
    weight_filler {
      type: "xavier"
    }
    bias_filler {
      type: "constant"
      value: 0
    }
  }
}
layer {
  name: "InnerProduct2775"
  type: "InnerProduct"
  bottom: "Slice2770"
  top: "InnerProduct2775"
  param {
    lr_mult: 1
    decay_mult: 1
  }
  param {
    lr_mult: 2
    decay_mult: 0
  }
  inner_product_param {
    num_output: 878
    weight_filler {
      type: "xavier"
    }
    bias_filler {
      type: "constant"
      value: 0
    }
  }
}
layer {
  name: "InnerProduct2776"
  type: "InnerProduct"
  bottom: "Slice2771"
  top: "InnerProduct2776"
  param {
    lr_mult: 1
    decay_mult: 1
  }
  param {
    lr_mult: 2
    decay_mult: 0
  }
  inner_product_param {
    num_output: 878
    weight_filler {
      type: "xavier"
    }
    bias_filler {
      type: "constant"
      value: 0
    }
  }
}
layer {
  name: "InnerProduct2777"
  type: "InnerProduct"
  bottom: "Slice2772"
  top: "InnerProduct2777"
  param {
    lr_mult: 1
    decay_mult: 1
  }
  param {
    lr_mult: 2
    decay_mult: 0
  }
  inner_product_param {
    num_output: 878
    weight_filler {
      type: "xavier"
    }
    bias_filler {
      type: "constant"
      value: 0
    }
  }
}
layer {
  name: "InnerProduct2778"
  type: "InnerProduct"
  bottom: "Slice2773"
  top: "InnerProduct2778"
  param {
    lr_mult: 1
    decay_mult: 1
  }
  param {
    lr_mult: 2
    decay_mult: 0
  }
  inner_product_param {
    num_output: 878
    weight_filler {
      type: "xavier"
    }
    bias_filler {
      type: "constant"
      value: 0
    }
  }
}
layer {
  name: "InnerProduct2779"
  type: "InnerProduct"
  bottom: "Slice2774"
  top: "InnerProduct2779"
  param {
    lr_mult: 1
    decay_mult: 1
  }
  param {
    lr_mult: 2
    decay_mult: 0
  }
  inner_product_param {
    num_output: 878
    weight_filler {
      type: "xavier"
    }
    bias_filler {
      type: "constant"
      value: 0
    }
  }
}
layer {
  name: "InnerProduct2780"
  type: "InnerProduct"
  bottom: "Slice2775"
  top: "InnerProduct2780"
  param {
    lr_mult: 1
    decay_mult: 1
  }
  param {
    lr_mult: 2
    decay_mult: 0
  }
  inner_product_param {
    num_output: 878
    weight_filler {
      type: "xavier"
    }
    bias_filler {
      type: "constant"
      value: 0
    }
  }
}
layer {
  name: "InnerProduct2781"
  type: "InnerProduct"
  bottom: "Slice2776"
  top: "InnerProduct2781"
  param {
    lr_mult: 1
    decay_mult: 1
  }
  param {
    lr_mult: 2
    decay_mult: 0
  }
  inner_product_param {
    num_output: 878
    weight_filler {
      type: "xavier"
    }
    bias_filler {
      type: "constant"
      value: 0
    }
  }
}
layer {
  name: "InnerProduct2782"
  type: "InnerProduct"
  bottom: "Slice2777"
  top: "InnerProduct2782"
  param {
    lr_mult: 1
    decay_mult: 1
  }
  param {
    lr_mult: 2
    decay_mult: 0
  }
  inner_product_param {
    num_output: 878
    weight_filler {
      type: "xavier"
    }
    bias_filler {
      type: "constant"
      value: 0
    }
  }
}
layer {
  name: "InnerProduct2783"
  type: "InnerProduct"
  bottom: "Slice2778"
  top: "InnerProduct2783"
  param {
    lr_mult: 1
    decay_mult: 1
  }
  param {
    lr_mult: 2
    decay_mult: 0
  }
  inner_product_param {
    num_output: 878
    weight_filler {
      type: "xavier"
    }
    bias_filler {
      type: "constant"
      value: 0
    }
  }
}
layer {
  name: "InnerProduct2784"
  type: "InnerProduct"
  bottom: "Slice2779"
  top: "InnerProduct2784"
  param {
    lr_mult: 1
    decay_mult: 1
  }
  param {
    lr_mult: 2
    decay_mult: 0
  }
  inner_product_param {
    num_output: 878
    weight_filler {
      type: "xavier"
    }
    bias_filler {
      type: "constant"
      value: 0
    }
  }
}
layer {
  name: "InnerProduct2785"
  type: "InnerProduct"
  bottom: "Slice2780"
  top: "InnerProduct2785"
  param {
    lr_mult: 1
    decay_mult: 1
  }
  param {
    lr_mult: 2
    decay_mult: 0
  }
  inner_product_param {
    num_output: 878
    weight_filler {
      type: "xavier"
    }
    bias_filler {
      type: "constant"
      value: 0
    }
  }
}
layer {
  name: "InnerProduct2786"
  type: "InnerProduct"
  bottom: "Slice2781"
  top: "InnerProduct2786"
  param {
    lr_mult: 1
    decay_mult: 1
  }
  param {
    lr_mult: 2
    decay_mult: 0
  }
  inner_product_param {
    num_output: 878
    weight_filler {
      type: "xavier"
    }
    bias_filler {
      type: "constant"
      value: 0
    }
  }
}
layer {
  name: "InnerProduct2787"
  type: "InnerProduct"
  bottom: "Slice2782"
  top: "InnerProduct2787"
  param {
    lr_mult: 1
    decay_mult: 1
  }
  param {
    lr_mult: 2
    decay_mult: 0
  }
  inner_product_param {
    num_output: 878
    weight_filler {
      type: "xavier"
    }
    bias_filler {
      type: "constant"
      value: 0
    }
  }
}
layer {
  name: "InnerProduct2788"
  type: "InnerProduct"
  bottom: "Slice2783"
  top: "InnerProduct2788"
  param {
    lr_mult: 1
    decay_mult: 1
  }
  param {
    lr_mult: 2
    decay_mult: 0
  }
  inner_product_param {
    num_output: 878
    weight_filler {
      type: "xavier"
    }
    bias_filler {
      type: "constant"
      value: 0
    }
  }
}
layer {
  name: "InnerProduct2789"
  type: "InnerProduct"
  bottom: "Slice2784"
  top: "InnerProduct2789"
  param {
    lr_mult: 1
    decay_mult: 1
  }
  param {
    lr_mult: 2
    decay_mult: 0
  }
  inner_product_param {
    num_output: 878
    weight_filler {
      type: "xavier"
    }
    bias_filler {
      type: "constant"
      value: 0
    }
  }
}
layer {
  name: "InnerProduct2790"
  type: "InnerProduct"
  bottom: "Slice2785"
  top: "InnerProduct2790"
  param {
    lr_mult: 1
    decay_mult: 1
  }
  param {
    lr_mult: 2
    decay_mult: 0
  }
  inner_product_param {
    num_output: 878
    weight_filler {
      type: "xavier"
    }
    bias_filler {
      type: "constant"
      value: 0
    }
  }
}
layer {
  name: "InnerProduct2791"
  type: "InnerProduct"
  bottom: "Slice2786"
  top: "InnerProduct2791"
  param {
    lr_mult: 1
    decay_mult: 1
  }
  param {
    lr_mult: 2
    decay_mult: 0
  }
  inner_product_param {
    num_output: 878
    weight_filler {
      type: "xavier"
    }
    bias_filler {
      type: "constant"
      value: 0
    }
  }
}
layer {
  name: "InnerProduct2792"
  type: "InnerProduct"
  bottom: "Slice2787"
  top: "InnerProduct2792"
  param {
    lr_mult: 1
    decay_mult: 1
  }
  param {
    lr_mult: 2
    decay_mult: 0
  }
  inner_product_param {
    num_output: 878
    weight_filler {
      type: "xavier"
    }
    bias_filler {
      type: "constant"
      value: 0
    }
  }
}
layer {
  name: "InnerProduct2793"
  type: "InnerProduct"
  bottom: "Slice2788"
  top: "InnerProduct2793"
  param {
    lr_mult: 1
    decay_mult: 1
  }
  param {
    lr_mult: 2
    decay_mult: 0
  }
  inner_product_param {
    num_output: 878
    weight_filler {
      type: "xavier"
    }
    bias_filler {
      type: "constant"
      value: 0
    }
  }
}
layer {
  name: "InnerProduct2794"
  type: "InnerProduct"
  bottom: "Slice2789"
  top: "InnerProduct2794"
  param {
    lr_mult: 1
    decay_mult: 1
  }
  param {
    lr_mult: 2
    decay_mult: 0
  }
  inner_product_param {
    num_output: 878
    weight_filler {
      type: "xavier"
    }
    bias_filler {
      type: "constant"
      value: 0
    }
  }
}
layer {
  name: "InnerProduct2795"
  type: "InnerProduct"
  bottom: "Slice2790"
  top: "InnerProduct2795"
  param {
    lr_mult: 1
    decay_mult: 1
  }
  param {
    lr_mult: 2
    decay_mult: 0
  }
  inner_product_param {
    num_output: 878
    weight_filler {
      type: "xavier"
    }
    bias_filler {
      type: "constant"
      value: 0
    }
  }
}
layer {
  name: "InnerProduct2796"
  type: "InnerProduct"
  bottom: "Slice2791"
  top: "InnerProduct2796"
  param {
    lr_mult: 1
    decay_mult: 1
  }
  param {
    lr_mult: 2
    decay_mult: 0
  }
  inner_product_param {
    num_output: 878
    weight_filler {
      type: "xavier"
    }
    bias_filler {
      type: "constant"
      value: 0
    }
  }
}
layer {
  name: "InnerProduct2797"
  type: "InnerProduct"
  bottom: "Slice2792"
  top: "InnerProduct2797"
  param {
    lr_mult: 1
    decay_mult: 1
  }
  param {
    lr_mult: 2
    decay_mult: 0
  }
  inner_product_param {
    num_output: 878
    weight_filler {
      type: "xavier"
    }
    bias_filler {
      type: "constant"
      value: 0
    }
  }
}
layer {
  name: "InnerProduct2798"
  type: "InnerProduct"
  bottom: "Slice2793"
  top: "InnerProduct2798"
  param {
    lr_mult: 1
    decay_mult: 1
  }
  param {
    lr_mult: 2
    decay_mult: 0
  }
  inner_product_param {
    num_output: 878
    weight_filler {
      type: "xavier"
    }
    bias_filler {
      type: "constant"
      value: 0
    }
  }
}
layer {
  name: "InnerProduct2799"
  type: "InnerProduct"
  bottom: "Slice2794"
  top: "InnerProduct2799"
  param {
    lr_mult: 1
    decay_mult: 1
  }
  param {
    lr_mult: 2
    decay_mult: 0
  }
  inner_product_param {
    num_output: 878
    weight_filler {
      type: "xavier"
    }
    bias_filler {
      type: "constant"
      value: 0
    }
  }
}
layer {
  name: "InnerProduct2800"
  type: "InnerProduct"
  bottom: "Slice2795"
  top: "InnerProduct2800"
  param {
    lr_mult: 1
    decay_mult: 1
  }
  param {
    lr_mult: 2
    decay_mult: 0
  }
  inner_product_param {
    num_output: 878
    weight_filler {
      type: "xavier"
    }
    bias_filler {
      type: "constant"
      value: 0
    }
  }
}
layer {
  name: "InnerProduct2801"
  type: "InnerProduct"
  bottom: "Slice2796"
  top: "InnerProduct2801"
  param {
    lr_mult: 1
    decay_mult: 1
  }
  param {
    lr_mult: 2
    decay_mult: 0
  }
  inner_product_param {
    num_output: 878
    weight_filler {
      type: "xavier"
    }
    bias_filler {
      type: "constant"
      value: 0
    }
  }
}
layer {
  name: "InnerProduct2802"
  type: "InnerProduct"
  bottom: "Slice2797"
  top: "InnerProduct2802"
  param {
    lr_mult: 1
    decay_mult: 1
  }
  param {
    lr_mult: 2
    decay_mult: 0
  }
  inner_product_param {
    num_output: 878
    weight_filler {
      type: "xavier"
    }
    bias_filler {
      type: "constant"
      value: 0
    }
  }
}
layer {
  name: "InnerProduct2803"
  type: "InnerProduct"
  bottom: "Slice2798"
  top: "InnerProduct2803"
  param {
    lr_mult: 1
    decay_mult: 1
  }
  param {
    lr_mult: 2
    decay_mult: 0
  }
  inner_product_param {
    num_output: 878
    weight_filler {
      type: "xavier"
    }
    bias_filler {
      type: "constant"
      value: 0
    }
  }
}
layer {
  name: "InnerProduct2804"
  type: "InnerProduct"
  bottom: "Slice2799"
  top: "InnerProduct2804"
  param {
    lr_mult: 1
    decay_mult: 1
  }
  param {
    lr_mult: 2
    decay_mult: 0
  }
  inner_product_param {
    num_output: 878
    weight_filler {
      type: "xavier"
    }
    bias_filler {
      type: "constant"
      value: 0
    }
  }
}
layer {
  name: "InnerProduct2805"
  type: "InnerProduct"
  bottom: "Slice2800"
  top: "InnerProduct2805"
  param {
    lr_mult: 1
    decay_mult: 1
  }
  param {
    lr_mult: 2
    decay_mult: 0
  }
  inner_product_param {
    num_output: 878
    weight_filler {
      type: "xavier"
    }
    bias_filler {
      type: "constant"
      value: 0
    }
  }
}
layer {
  name: "InnerProduct2806"
  type: "InnerProduct"
  bottom: "Slice2801"
  top: "InnerProduct2806"
  param {
    lr_mult: 1
    decay_mult: 1
  }
  param {
    lr_mult: 2
    decay_mult: 0
  }
  inner_product_param {
    num_output: 878
    weight_filler {
      type: "xavier"
    }
    bias_filler {
      type: "constant"
      value: 0
    }
  }
}
layer {
  name: "InnerProduct2807"
  type: "InnerProduct"
  bottom: "Slice2802"
  top: "InnerProduct2807"
  param {
    lr_mult: 1
    decay_mult: 1
  }
  param {
    lr_mult: 2
    decay_mult: 0
  }
  inner_product_param {
    num_output: 878
    weight_filler {
      type: "xavier"
    }
    bias_filler {
      type: "constant"
      value: 0
    }
  }
}
layer {
  name: "InnerProduct2808"
  type: "InnerProduct"
  bottom: "Slice2803"
  top: "InnerProduct2808"
  param {
    lr_mult: 1
    decay_mult: 1
  }
  param {
    lr_mult: 2
    decay_mult: 0
  }
  inner_product_param {
    num_output: 878
    weight_filler {
      type: "xavier"
    }
    bias_filler {
      type: "constant"
      value: 0
    }
  }
}
layer {
  name: "InnerProduct2809"
  type: "InnerProduct"
  bottom: "Slice2804"
  top: "InnerProduct2809"
  param {
    lr_mult: 1
    decay_mult: 1
  }
  param {
    lr_mult: 2
    decay_mult: 0
  }
  inner_product_param {
    num_output: 878
    weight_filler {
      type: "xavier"
    }
    bias_filler {
      type: "constant"
      value: 0
    }
  }
}
layer {
  name: "InnerProduct2810"
  type: "InnerProduct"
  bottom: "Slice2805"
  top: "InnerProduct2810"
  param {
    lr_mult: 1
    decay_mult: 1
  }
  param {
    lr_mult: 2
    decay_mult: 0
  }
  inner_product_param {
    num_output: 878
    weight_filler {
      type: "xavier"
    }
    bias_filler {
      type: "constant"
      value: 0
    }
  }
}
layer {
  name: "InnerProduct2811"
  type: "InnerProduct"
  bottom: "Slice2806"
  top: "InnerProduct2811"
  param {
    lr_mult: 1
    decay_mult: 1
  }
  param {
    lr_mult: 2
    decay_mult: 0
  }
  inner_product_param {
    num_output: 878
    weight_filler {
      type: "xavier"
    }
    bias_filler {
      type: "constant"
      value: 0
    }
  }
}
layer {
  name: "InnerProduct2812"
  type: "InnerProduct"
  bottom: "Slice2807"
  top: "InnerProduct2812"
  param {
    lr_mult: 1
    decay_mult: 1
  }
  param {
    lr_mult: 2
    decay_mult: 0
  }
  inner_product_param {
    num_output: 878
    weight_filler {
      type: "xavier"
    }
    bias_filler {
      type: "constant"
      value: 0
    }
  }
}
layer {
  name: "InnerProduct2813"
  type: "InnerProduct"
  bottom: "Slice2808"
  top: "InnerProduct2813"
  param {
    lr_mult: 1
    decay_mult: 1
  }
  param {
    lr_mult: 2
    decay_mult: 0
  }
  inner_product_param {
    num_output: 878
    weight_filler {
      type: "xavier"
    }
    bias_filler {
      type: "constant"
      value: 0
    }
  }
}
layer {
  name: "InnerProduct2814"
  type: "InnerProduct"
  bottom: "Slice2809"
  top: "InnerProduct2814"
  param {
    lr_mult: 1
    decay_mult: 1
  }
  param {
    lr_mult: 2
    decay_mult: 0
  }
  inner_product_param {
    num_output: 878
    weight_filler {
      type: "xavier"
    }
    bias_filler {
      type: "constant"
      value: 0
    }
  }
}
layer {
  name: "InnerProduct2815"
  type: "InnerProduct"
  bottom: "Slice2810"
  top: "InnerProduct2815"
  param {
    lr_mult: 1
    decay_mult: 1
  }
  param {
    lr_mult: 2
    decay_mult: 0
  }
  inner_product_param {
    num_output: 878
    weight_filler {
      type: "xavier"
    }
    bias_filler {
      type: "constant"
      value: 0
    }
  }
}
layer {
  name: "InnerProduct2816"
  type: "InnerProduct"
  bottom: "Slice2811"
  top: "InnerProduct2816"
  param {
    lr_mult: 1
    decay_mult: 1
  }
  param {
    lr_mult: 2
    decay_mult: 0
  }
  inner_product_param {
    num_output: 878
    weight_filler {
      type: "xavier"
    }
    bias_filler {
      type: "constant"
      value: 0
    }
  }
}
layer {
  name: "InnerProduct2817"
  type: "InnerProduct"
  bottom: "Slice2812"
  top: "InnerProduct2817"
  param {
    lr_mult: 1
    decay_mult: 1
  }
  param {
    lr_mult: 2
    decay_mult: 0
  }
  inner_product_param {
    num_output: 878
    weight_filler {
      type: "xavier"
    }
    bias_filler {
      type: "constant"
      value: 0
    }
  }
}
layer {
  name: "InnerProduct2818"
  type: "InnerProduct"
  bottom: "Slice2813"
  top: "InnerProduct2818"
  param {
    lr_mult: 1
    decay_mult: 1
  }
  param {
    lr_mult: 2
    decay_mult: 0
  }
  inner_product_param {
    num_output: 878
    weight_filler {
      type: "xavier"
    }
    bias_filler {
      type: "constant"
      value: 0
    }
  }
}
layer {
  name: "InnerProduct2819"
  type: "InnerProduct"
  bottom: "Slice2814"
  top: "InnerProduct2819"
  param {
    lr_mult: 1
    decay_mult: 1
  }
  param {
    lr_mult: 2
    decay_mult: 0
  }
  inner_product_param {
    num_output: 878
    weight_filler {
      type: "xavier"
    }
    bias_filler {
      type: "constant"
      value: 0
    }
  }
}
layer {
  name: "InnerProduct2820"
  type: "InnerProduct"
  bottom: "Slice2815"
  top: "InnerProduct2820"
  param {
    lr_mult: 1
    decay_mult: 1
  }
  param {
    lr_mult: 2
    decay_mult: 0
  }
  inner_product_param {
    num_output: 878
    weight_filler {
      type: "xavier"
    }
    bias_filler {
      type: "constant"
      value: 0
    }
  }
}
layer {
  name: "InnerProduct2821"
  type: "InnerProduct"
  bottom: "Slice2816"
  top: "InnerProduct2821"
  param {
    lr_mult: 1
    decay_mult: 1
  }
  param {
    lr_mult: 2
    decay_mult: 0
  }
  inner_product_param {
    num_output: 878
    weight_filler {
      type: "xavier"
    }
    bias_filler {
      type: "constant"
      value: 0
    }
  }
}
layer {
  name: "InnerProduct2822"
  type: "InnerProduct"
  bottom: "Slice2817"
  top: "InnerProduct2822"
  param {
    lr_mult: 1
    decay_mult: 1
  }
  param {
    lr_mult: 2
    decay_mult: 0
  }
  inner_product_param {
    num_output: 878
    weight_filler {
      type: "xavier"
    }
    bias_filler {
      type: "constant"
      value: 0
    }
  }
}
layer {
  name: "InnerProduct2823"
  type: "InnerProduct"
  bottom: "Slice2818"
  top: "InnerProduct2823"
  param {
    lr_mult: 1
    decay_mult: 1
  }
  param {
    lr_mult: 2
    decay_mult: 0
  }
  inner_product_param {
    num_output: 878
    weight_filler {
      type: "xavier"
    }
    bias_filler {
      type: "constant"
      value: 0
    }
  }
}
layer {
  name: "InnerProduct2824"
  type: "InnerProduct"
  bottom: "Slice2819"
  top: "InnerProduct2824"
  param {
    lr_mult: 1
    decay_mult: 1
  }
  param {
    lr_mult: 2
    decay_mult: 0
  }
  inner_product_param {
    num_output: 878
    weight_filler {
      type: "xavier"
    }
    bias_filler {
      type: "constant"
      value: 0
    }
  }
}
layer {
  name: "InnerProduct2825"
  type: "InnerProduct"
  bottom: "Slice2820"
  top: "InnerProduct2825"
  param {
    lr_mult: 1
    decay_mult: 1
  }
  param {
    lr_mult: 2
    decay_mult: 0
  }
  inner_product_param {
    num_output: 878
    weight_filler {
      type: "xavier"
    }
    bias_filler {
      type: "constant"
      value: 0
    }
  }
}
layer {
  name: "InnerProduct2826"
  type: "InnerProduct"
  bottom: "Slice2821"
  top: "InnerProduct2826"
  param {
    lr_mult: 1
    decay_mult: 1
  }
  param {
    lr_mult: 2
    decay_mult: 0
  }
  inner_product_param {
    num_output: 878
    weight_filler {
      type: "xavier"
    }
    bias_filler {
      type: "constant"
      value: 0
    }
  }
}
layer {
  name: "InnerProduct2827"
  type: "InnerProduct"
  bottom: "Slice2822"
  top: "InnerProduct2827"
  param {
    lr_mult: 1
    decay_mult: 1
  }
  param {
    lr_mult: 2
    decay_mult: 0
  }
  inner_product_param {
    num_output: 878
    weight_filler {
      type: "xavier"
    }
    bias_filler {
      type: "constant"
      value: 0
    }
  }
}
layer {
  name: "InnerProduct2828"
  type: "InnerProduct"
  bottom: "Slice2823"
  top: "InnerProduct2828"
  param {
    lr_mult: 1
    decay_mult: 1
  }
  param {
    lr_mult: 2
    decay_mult: 0
  }
  inner_product_param {
    num_output: 878
    weight_filler {
      type: "xavier"
    }
    bias_filler {
      type: "constant"
      value: 0
    }
  }
}
layer {
  name: "InnerProduct2829"
  type: "InnerProduct"
  bottom: "Slice2824"
  top: "InnerProduct2829"
  param {
    lr_mult: 1
    decay_mult: 1
  }
  param {
    lr_mult: 2
    decay_mult: 0
  }
  inner_product_param {
    num_output: 878
    weight_filler {
      type: "xavier"
    }
    bias_filler {
      type: "constant"
      value: 0
    }
  }
}
layer {
  name: "Concat2"
  type: "Concat"
  bottom: "InnerProduct1806"
  bottom: "InnerProduct1807"
  bottom: "InnerProduct1808"
  bottom: "InnerProduct1809"
  bottom: "InnerProduct1810"
  bottom: "InnerProduct1811"
  bottom: "InnerProduct1812"
  bottom: "InnerProduct1813"
  bottom: "InnerProduct1814"
  bottom: "InnerProduct1815"
  bottom: "InnerProduct1816"
  bottom: "InnerProduct1817"
  bottom: "InnerProduct1818"
  bottom: "InnerProduct1819"
  bottom: "InnerProduct1820"
  bottom: "InnerProduct1821"
  bottom: "InnerProduct1822"
  bottom: "InnerProduct1823"
  bottom: "InnerProduct1824"
  bottom: "InnerProduct1825"
  bottom: "InnerProduct1826"
  bottom: "InnerProduct1827"
  bottom: "InnerProduct1828"
  bottom: "InnerProduct1829"
  bottom: "InnerProduct1830"
  bottom: "InnerProduct1831"
  bottom: "InnerProduct1832"
  bottom: "InnerProduct1833"
  bottom: "InnerProduct1834"
  bottom: "InnerProduct1835"
  bottom: "InnerProduct1836"
  bottom: "InnerProduct1837"
  bottom: "InnerProduct1838"
  bottom: "InnerProduct1839"
  bottom: "InnerProduct1840"
  bottom: "InnerProduct1841"
  bottom: "InnerProduct1842"
  bottom: "InnerProduct1843"
  bottom: "InnerProduct1844"
  bottom: "InnerProduct1845"
  bottom: "InnerProduct1846"
  bottom: "InnerProduct1847"
  bottom: "InnerProduct1848"
  bottom: "InnerProduct1849"
  bottom: "InnerProduct1850"
  bottom: "InnerProduct1851"
  bottom: "InnerProduct1852"
  bottom: "InnerProduct1853"
  bottom: "InnerProduct1854"
  bottom: "InnerProduct1855"
  bottom: "InnerProduct1856"
  bottom: "InnerProduct1857"
  bottom: "InnerProduct1858"
  bottom: "InnerProduct1859"
  bottom: "InnerProduct1860"
  bottom: "InnerProduct1861"
  bottom: "InnerProduct1862"
  bottom: "InnerProduct1863"
  bottom: "InnerProduct1864"
  bottom: "InnerProduct1865"
  bottom: "InnerProduct1866"
  bottom: "InnerProduct1867"
  bottom: "InnerProduct1868"
  bottom: "InnerProduct1869"
  bottom: "InnerProduct1870"
  bottom: "InnerProduct1871"
  bottom: "InnerProduct1872"
  bottom: "InnerProduct1873"
  bottom: "InnerProduct1874"
  bottom: "InnerProduct1875"
  bottom: "InnerProduct1876"
  bottom: "InnerProduct1877"
  bottom: "InnerProduct1878"
  bottom: "InnerProduct1879"
  bottom: "InnerProduct1880"
  bottom: "InnerProduct1881"
  bottom: "InnerProduct1882"
  bottom: "InnerProduct1883"
  bottom: "InnerProduct1884"
  bottom: "InnerProduct1885"
  bottom: "InnerProduct1886"
  bottom: "InnerProduct1887"
  bottom: "InnerProduct1888"
  bottom: "InnerProduct1889"
  bottom: "InnerProduct1890"
  bottom: "InnerProduct1891"
  bottom: "InnerProduct1892"
  bottom: "InnerProduct1893"
  bottom: "InnerProduct1894"
  bottom: "InnerProduct1895"
  bottom: "InnerProduct1896"
  bottom: "InnerProduct1897"
  bottom: "InnerProduct1898"
  bottom: "InnerProduct1899"
  bottom: "InnerProduct1900"
  bottom: "InnerProduct1901"
  bottom: "InnerProduct1902"
  bottom: "InnerProduct1903"
  bottom: "InnerProduct1904"
  bottom: "InnerProduct1905"
  bottom: "InnerProduct1906"
  bottom: "InnerProduct1907"
  bottom: "InnerProduct1908"
  bottom: "InnerProduct1909"
  bottom: "InnerProduct1910"
  bottom: "InnerProduct1911"
  bottom: "InnerProduct1912"
  bottom: "InnerProduct1913"
  bottom: "InnerProduct1914"
  bottom: "InnerProduct1915"
  bottom: "InnerProduct1916"
  bottom: "InnerProduct1917"
  bottom: "InnerProduct1918"
  bottom: "InnerProduct1919"
  bottom: "InnerProduct1920"
  bottom: "InnerProduct1921"
  bottom: "InnerProduct1922"
  bottom: "InnerProduct1923"
  bottom: "InnerProduct1924"
  bottom: "InnerProduct1925"
  bottom: "InnerProduct1926"
  bottom: "InnerProduct1927"
  bottom: "InnerProduct1928"
  bottom: "InnerProduct1929"
  bottom: "InnerProduct1930"
  bottom: "InnerProduct1931"
  bottom: "InnerProduct1932"
  bottom: "InnerProduct1933"
  bottom: "InnerProduct1934"
  bottom: "InnerProduct1935"
  bottom: "InnerProduct1936"
  bottom: "InnerProduct1937"
  bottom: "InnerProduct1938"
  bottom: "InnerProduct1939"
  bottom: "InnerProduct1940"
  bottom: "InnerProduct1941"
  bottom: "InnerProduct1942"
  bottom: "InnerProduct1943"
  bottom: "InnerProduct1944"
  bottom: "InnerProduct1945"
  bottom: "InnerProduct1946"
  bottom: "InnerProduct1947"
  bottom: "InnerProduct1948"
  bottom: "InnerProduct1949"
  bottom: "InnerProduct1950"
  bottom: "InnerProduct1951"
  bottom: "InnerProduct1952"
  bottom: "InnerProduct1953"
  bottom: "InnerProduct1954"
  bottom: "InnerProduct1955"
  bottom: "InnerProduct1956"
  bottom: "InnerProduct1957"
  bottom: "InnerProduct1958"
  bottom: "InnerProduct1959"
  bottom: "InnerProduct1960"
  bottom: "InnerProduct1961"
  bottom: "InnerProduct1962"
  bottom: "InnerProduct1963"
  bottom: "InnerProduct1964"
  bottom: "InnerProduct1965"
  bottom: "InnerProduct1966"
  bottom: "InnerProduct1967"
  bottom: "InnerProduct1968"
  bottom: "InnerProduct1969"
  bottom: "InnerProduct1970"
  bottom: "InnerProduct1971"
  bottom: "InnerProduct1972"
  bottom: "InnerProduct1973"
  bottom: "InnerProduct1974"
  bottom: "InnerProduct1975"
  bottom: "InnerProduct1976"
  bottom: "InnerProduct1977"
  bottom: "InnerProduct1978"
  bottom: "InnerProduct1979"
  bottom: "InnerProduct1980"
  bottom: "InnerProduct1981"
  bottom: "InnerProduct1982"
  bottom: "InnerProduct1983"
  bottom: "InnerProduct1984"
  bottom: "InnerProduct1985"
  bottom: "InnerProduct1986"
  bottom: "InnerProduct1987"
  bottom: "InnerProduct1988"
  bottom: "InnerProduct1989"
  bottom: "InnerProduct1990"
  bottom: "InnerProduct1991"
  bottom: "InnerProduct1992"
  bottom: "InnerProduct1993"
  bottom: "InnerProduct1994"
  bottom: "InnerProduct1995"
  bottom: "InnerProduct1996"
  bottom: "InnerProduct1997"
  bottom: "InnerProduct1998"
  bottom: "InnerProduct1999"
  bottom: "InnerProduct2000"
  bottom: "InnerProduct2001"
  bottom: "InnerProduct2002"
  bottom: "InnerProduct2003"
  bottom: "InnerProduct2004"
  bottom: "InnerProduct2005"
  bottom: "InnerProduct2006"
  bottom: "InnerProduct2007"
  bottom: "InnerProduct2008"
  bottom: "InnerProduct2009"
  bottom: "InnerProduct2010"
  bottom: "InnerProduct2011"
  bottom: "InnerProduct2012"
  bottom: "InnerProduct2013"
  bottom: "InnerProduct2014"
  bottom: "InnerProduct2015"
  bottom: "InnerProduct2016"
  bottom: "InnerProduct2017"
  bottom: "InnerProduct2018"
  bottom: "InnerProduct2019"
  bottom: "InnerProduct2020"
  bottom: "InnerProduct2021"
  bottom: "InnerProduct2022"
  bottom: "InnerProduct2023"
  bottom: "InnerProduct2024"
  bottom: "InnerProduct2025"
  bottom: "InnerProduct2026"
  bottom: "InnerProduct2027"
  bottom: "InnerProduct2028"
  bottom: "InnerProduct2029"
  bottom: "InnerProduct2030"
  bottom: "InnerProduct2031"
  bottom: "InnerProduct2032"
  bottom: "InnerProduct2033"
  bottom: "InnerProduct2034"
  bottom: "InnerProduct2035"
  bottom: "InnerProduct2036"
  bottom: "InnerProduct2037"
  bottom: "InnerProduct2038"
  bottom: "InnerProduct2039"
  bottom: "InnerProduct2040"
  bottom: "InnerProduct2041"
  bottom: "InnerProduct2042"
  bottom: "InnerProduct2043"
  bottom: "InnerProduct2044"
  bottom: "InnerProduct2045"
  bottom: "InnerProduct2046"
  bottom: "InnerProduct2047"
  bottom: "InnerProduct2048"
  bottom: "InnerProduct2049"
  bottom: "InnerProduct2050"
  bottom: "InnerProduct2051"
  bottom: "InnerProduct2052"
  bottom: "InnerProduct2053"
  bottom: "InnerProduct2054"
  bottom: "InnerProduct2055"
  bottom: "InnerProduct2056"
  bottom: "InnerProduct2057"
  bottom: "InnerProduct2058"
  bottom: "InnerProduct2059"
  bottom: "InnerProduct2060"
  bottom: "InnerProduct2061"
  bottom: "InnerProduct2062"
  bottom: "InnerProduct2063"
  bottom: "InnerProduct2064"
  bottom: "InnerProduct2065"
  bottom: "InnerProduct2066"
  bottom: "InnerProduct2067"
  bottom: "InnerProduct2068"
  bottom: "InnerProduct2069"
  bottom: "InnerProduct2070"
  bottom: "InnerProduct2071"
  bottom: "InnerProduct2072"
  bottom: "InnerProduct2073"
  bottom: "InnerProduct2074"
  bottom: "InnerProduct2075"
  bottom: "InnerProduct2076"
  bottom: "InnerProduct2077"
  bottom: "InnerProduct2078"
  bottom: "InnerProduct2079"
  bottom: "InnerProduct2080"
  bottom: "InnerProduct2081"
  bottom: "InnerProduct2082"
  bottom: "InnerProduct2083"
  bottom: "InnerProduct2084"
  bottom: "InnerProduct2085"
  bottom: "InnerProduct2086"
  bottom: "InnerProduct2087"
  bottom: "InnerProduct2088"
  bottom: "InnerProduct2089"
  bottom: "InnerProduct2090"
  bottom: "InnerProduct2091"
  bottom: "InnerProduct2092"
  bottom: "InnerProduct2093"
  bottom: "InnerProduct2094"
  bottom: "InnerProduct2095"
  bottom: "InnerProduct2096"
  bottom: "InnerProduct2097"
  bottom: "InnerProduct2098"
  bottom: "InnerProduct2099"
  bottom: "InnerProduct2100"
  bottom: "InnerProduct2101"
  bottom: "InnerProduct2102"
  bottom: "InnerProduct2103"
  bottom: "InnerProduct2104"
  bottom: "InnerProduct2105"
  bottom: "InnerProduct2106"
  bottom: "InnerProduct2107"
  bottom: "InnerProduct2108"
  bottom: "InnerProduct2109"
  bottom: "InnerProduct2110"
  bottom: "InnerProduct2111"
  bottom: "InnerProduct2112"
  bottom: "InnerProduct2113"
  bottom: "InnerProduct2114"
  bottom: "InnerProduct2115"
  bottom: "InnerProduct2116"
  bottom: "InnerProduct2117"
  bottom: "InnerProduct2118"
  bottom: "InnerProduct2119"
  bottom: "InnerProduct2120"
  bottom: "InnerProduct2121"
  bottom: "InnerProduct2122"
  bottom: "InnerProduct2123"
  bottom: "InnerProduct2124"
  bottom: "InnerProduct2125"
  bottom: "InnerProduct2126"
  bottom: "InnerProduct2127"
  bottom: "InnerProduct2128"
  bottom: "InnerProduct2129"
  bottom: "InnerProduct2130"
  bottom: "InnerProduct2131"
  bottom: "InnerProduct2132"
  bottom: "InnerProduct2133"
  bottom: "InnerProduct2134"
  bottom: "InnerProduct2135"
  bottom: "InnerProduct2136"
  bottom: "InnerProduct2137"
  bottom: "InnerProduct2138"
  bottom: "InnerProduct2139"
  bottom: "InnerProduct2140"
  bottom: "InnerProduct2141"
  bottom: "InnerProduct2142"
  bottom: "InnerProduct2143"
  bottom: "InnerProduct2144"
  bottom: "InnerProduct2145"
  bottom: "InnerProduct2146"
  bottom: "InnerProduct2147"
  bottom: "InnerProduct2148"
  bottom: "InnerProduct2149"
  bottom: "InnerProduct2150"
  bottom: "InnerProduct2151"
  bottom: "InnerProduct2152"
  bottom: "InnerProduct2153"
  bottom: "InnerProduct2154"
  bottom: "InnerProduct2155"
  bottom: "InnerProduct2156"
  bottom: "InnerProduct2157"
  bottom: "InnerProduct2158"
  bottom: "InnerProduct2159"
  bottom: "InnerProduct2160"
  bottom: "InnerProduct2161"
  bottom: "InnerProduct2162"
  bottom: "InnerProduct2163"
  bottom: "InnerProduct2164"
  bottom: "InnerProduct2165"
  bottom: "InnerProduct2166"
  bottom: "InnerProduct2167"
  bottom: "InnerProduct2168"
  bottom: "InnerProduct2169"
  bottom: "InnerProduct2170"
  bottom: "InnerProduct2171"
  bottom: "InnerProduct2172"
  bottom: "InnerProduct2173"
  bottom: "InnerProduct2174"
  bottom: "InnerProduct2175"
  bottom: "InnerProduct2176"
  bottom: "InnerProduct2177"
  bottom: "InnerProduct2178"
  bottom: "InnerProduct2179"
  bottom: "InnerProduct2180"
  bottom: "InnerProduct2181"
  bottom: "InnerProduct2182"
  bottom: "InnerProduct2183"
  bottom: "InnerProduct2184"
  bottom: "InnerProduct2185"
  bottom: "InnerProduct2186"
  bottom: "InnerProduct2187"
  bottom: "InnerProduct2188"
  bottom: "InnerProduct2189"
  bottom: "InnerProduct2190"
  bottom: "InnerProduct2191"
  bottom: "InnerProduct2192"
  bottom: "InnerProduct2193"
  bottom: "InnerProduct2194"
  bottom: "InnerProduct2195"
  bottom: "InnerProduct2196"
  bottom: "InnerProduct2197"
  bottom: "InnerProduct2198"
  bottom: "InnerProduct2199"
  bottom: "InnerProduct2200"
  bottom: "InnerProduct2201"
  bottom: "InnerProduct2202"
  bottom: "InnerProduct2203"
  bottom: "InnerProduct2204"
  bottom: "InnerProduct2205"
  bottom: "InnerProduct2206"
  bottom: "InnerProduct2207"
  bottom: "InnerProduct2208"
  bottom: "InnerProduct2209"
  bottom: "InnerProduct2210"
  bottom: "InnerProduct2211"
  bottom: "InnerProduct2212"
  bottom: "InnerProduct2213"
  bottom: "InnerProduct2214"
  bottom: "InnerProduct2215"
  bottom: "InnerProduct2216"
  bottom: "InnerProduct2217"
  bottom: "InnerProduct2218"
  bottom: "InnerProduct2219"
  bottom: "InnerProduct2220"
  bottom: "InnerProduct2221"
  bottom: "InnerProduct2222"
  bottom: "InnerProduct2223"
  bottom: "InnerProduct2224"
  bottom: "InnerProduct2225"
  bottom: "InnerProduct2226"
  bottom: "InnerProduct2227"
  bottom: "InnerProduct2228"
  bottom: "InnerProduct2229"
  bottom: "InnerProduct2230"
  bottom: "InnerProduct2231"
  bottom: "InnerProduct2232"
  bottom: "InnerProduct2233"
  bottom: "InnerProduct2234"
  bottom: "InnerProduct2235"
  bottom: "InnerProduct2236"
  bottom: "InnerProduct2237"
  bottom: "InnerProduct2238"
  bottom: "InnerProduct2239"
  bottom: "InnerProduct2240"
  bottom: "InnerProduct2241"
  bottom: "InnerProduct2242"
  bottom: "InnerProduct2243"
  bottom: "InnerProduct2244"
  bottom: "InnerProduct2245"
  bottom: "InnerProduct2246"
  bottom: "InnerProduct2247"
  bottom: "InnerProduct2248"
  bottom: "InnerProduct2249"
  bottom: "InnerProduct2250"
  bottom: "InnerProduct2251"
  bottom: "InnerProduct2252"
  bottom: "InnerProduct2253"
  bottom: "InnerProduct2254"
  bottom: "InnerProduct2255"
  bottom: "InnerProduct2256"
  bottom: "InnerProduct2257"
  bottom: "InnerProduct2258"
  bottom: "InnerProduct2259"
  bottom: "InnerProduct2260"
  bottom: "InnerProduct2261"
  bottom: "InnerProduct2262"
  bottom: "InnerProduct2263"
  bottom: "InnerProduct2264"
  bottom: "InnerProduct2265"
  bottom: "InnerProduct2266"
  bottom: "InnerProduct2267"
  bottom: "InnerProduct2268"
  bottom: "InnerProduct2269"
  bottom: "InnerProduct2270"
  bottom: "InnerProduct2271"
  bottom: "InnerProduct2272"
  bottom: "InnerProduct2273"
  bottom: "InnerProduct2274"
  bottom: "InnerProduct2275"
  bottom: "InnerProduct2276"
  bottom: "InnerProduct2277"
  bottom: "InnerProduct2278"
  bottom: "InnerProduct2279"
  bottom: "InnerProduct2280"
  bottom: "InnerProduct2281"
  bottom: "InnerProduct2282"
  bottom: "InnerProduct2283"
  bottom: "InnerProduct2284"
  bottom: "InnerProduct2285"
  bottom: "InnerProduct2286"
  bottom: "InnerProduct2287"
  bottom: "InnerProduct2288"
  bottom: "InnerProduct2289"
  bottom: "InnerProduct2290"
  bottom: "InnerProduct2291"
  bottom: "InnerProduct2292"
  bottom: "InnerProduct2293"
  bottom: "InnerProduct2294"
  bottom: "InnerProduct2295"
  bottom: "InnerProduct2296"
  bottom: "InnerProduct2297"
  bottom: "InnerProduct2298"
  bottom: "InnerProduct2299"
  bottom: "InnerProduct2300"
  bottom: "InnerProduct2301"
  bottom: "InnerProduct2302"
  bottom: "InnerProduct2303"
  bottom: "InnerProduct2304"
  bottom: "InnerProduct2305"
  bottom: "InnerProduct2306"
  bottom: "InnerProduct2307"
  bottom: "InnerProduct2308"
  bottom: "InnerProduct2309"
  bottom: "InnerProduct2310"
  bottom: "InnerProduct2311"
  bottom: "InnerProduct2312"
  bottom: "InnerProduct2313"
  bottom: "InnerProduct2314"
  bottom: "InnerProduct2315"
  bottom: "InnerProduct2316"
  bottom: "InnerProduct2317"
  bottom: "InnerProduct2318"
  bottom: "InnerProduct2319"
  bottom: "InnerProduct2320"
  bottom: "InnerProduct2321"
  bottom: "InnerProduct2322"
  bottom: "InnerProduct2323"
  bottom: "InnerProduct2324"
  bottom: "InnerProduct2325"
  bottom: "InnerProduct2326"
  bottom: "InnerProduct2327"
  bottom: "InnerProduct2328"
  bottom: "InnerProduct2329"
  bottom: "InnerProduct2330"
  bottom: "InnerProduct2331"
  bottom: "InnerProduct2332"
  bottom: "InnerProduct2333"
  bottom: "InnerProduct2334"
  bottom: "InnerProduct2335"
  bottom: "InnerProduct2336"
  bottom: "InnerProduct2337"
  bottom: "InnerProduct2338"
  bottom: "InnerProduct2339"
  bottom: "InnerProduct2340"
  bottom: "InnerProduct2341"
  bottom: "InnerProduct2342"
  bottom: "InnerProduct2343"
  bottom: "InnerProduct2344"
  bottom: "InnerProduct2345"
  bottom: "InnerProduct2346"
  bottom: "InnerProduct2347"
  bottom: "InnerProduct2348"
  bottom: "InnerProduct2349"
  bottom: "InnerProduct2350"
  bottom: "InnerProduct2351"
  bottom: "InnerProduct2352"
  bottom: "InnerProduct2353"
  bottom: "InnerProduct2354"
  bottom: "InnerProduct2355"
  bottom: "InnerProduct2356"
  bottom: "InnerProduct2357"
  bottom: "InnerProduct2358"
  bottom: "InnerProduct2359"
  bottom: "InnerProduct2360"
  bottom: "InnerProduct2361"
  bottom: "InnerProduct2362"
  bottom: "InnerProduct2363"
  bottom: "InnerProduct2364"
  bottom: "InnerProduct2365"
  bottom: "InnerProduct2366"
  bottom: "InnerProduct2367"
  bottom: "InnerProduct2368"
  bottom: "InnerProduct2369"
  bottom: "InnerProduct2370"
  bottom: "InnerProduct2371"
  bottom: "InnerProduct2372"
  bottom: "InnerProduct2373"
  bottom: "InnerProduct2374"
  bottom: "InnerProduct2375"
  bottom: "InnerProduct2376"
  bottom: "InnerProduct2377"
  bottom: "InnerProduct2378"
  bottom: "InnerProduct2379"
  bottom: "InnerProduct2380"
  bottom: "InnerProduct2381"
  bottom: "InnerProduct2382"
  bottom: "InnerProduct2383"
  bottom: "InnerProduct2384"
  bottom: "InnerProduct2385"
  bottom: "InnerProduct2386"
  bottom: "InnerProduct2387"
  bottom: "InnerProduct2388"
  bottom: "InnerProduct2389"
  bottom: "InnerProduct2390"
  bottom: "InnerProduct2391"
  bottom: "InnerProduct2392"
  bottom: "InnerProduct2393"
  bottom: "InnerProduct2394"
  bottom: "InnerProduct2395"
  bottom: "InnerProduct2396"
  bottom: "InnerProduct2397"
  bottom: "InnerProduct2398"
  bottom: "InnerProduct2399"
  bottom: "InnerProduct2400"
  bottom: "InnerProduct2401"
  bottom: "InnerProduct2402"
  bottom: "InnerProduct2403"
  bottom: "InnerProduct2404"
  bottom: "InnerProduct2405"
  bottom: "InnerProduct2406"
  bottom: "InnerProduct2407"
  bottom: "InnerProduct2408"
  bottom: "InnerProduct2409"
  bottom: "InnerProduct2410"
  bottom: "InnerProduct2411"
  bottom: "InnerProduct2412"
  bottom: "InnerProduct2413"
  bottom: "InnerProduct2414"
  bottom: "InnerProduct2415"
  bottom: "InnerProduct2416"
  bottom: "InnerProduct2417"
  bottom: "InnerProduct2418"
  bottom: "InnerProduct2419"
  bottom: "InnerProduct2420"
  bottom: "InnerProduct2421"
  bottom: "InnerProduct2422"
  bottom: "InnerProduct2423"
  bottom: "InnerProduct2424"
  bottom: "InnerProduct2425"
  bottom: "InnerProduct2426"
  bottom: "InnerProduct2427"
  bottom: "InnerProduct2428"
  bottom: "InnerProduct2429"
  bottom: "InnerProduct2430"
  bottom: "InnerProduct2431"
  bottom: "InnerProduct2432"
  bottom: "InnerProduct2433"
  bottom: "InnerProduct2434"
  bottom: "InnerProduct2435"
  bottom: "InnerProduct2436"
  bottom: "InnerProduct2437"
  bottom: "InnerProduct2438"
  bottom: "InnerProduct2439"
  bottom: "InnerProduct2440"
  bottom: "InnerProduct2441"
  bottom: "InnerProduct2442"
  bottom: "InnerProduct2443"
  bottom: "InnerProduct2444"
  bottom: "InnerProduct2445"
  bottom: "InnerProduct2446"
  bottom: "InnerProduct2447"
  bottom: "InnerProduct2448"
  bottom: "InnerProduct2449"
  bottom: "InnerProduct2450"
  bottom: "InnerProduct2451"
  bottom: "InnerProduct2452"
  bottom: "InnerProduct2453"
  bottom: "InnerProduct2454"
  bottom: "InnerProduct2455"
  bottom: "InnerProduct2456"
  bottom: "InnerProduct2457"
  bottom: "InnerProduct2458"
  bottom: "InnerProduct2459"
  bottom: "InnerProduct2460"
  bottom: "InnerProduct2461"
  bottom: "InnerProduct2462"
  bottom: "InnerProduct2463"
  bottom: "InnerProduct2464"
  bottom: "InnerProduct2465"
  bottom: "InnerProduct2466"
  bottom: "InnerProduct2467"
  bottom: "InnerProduct2468"
  bottom: "InnerProduct2469"
  bottom: "InnerProduct2470"
  bottom: "InnerProduct2471"
  bottom: "InnerProduct2472"
  bottom: "InnerProduct2473"
  bottom: "InnerProduct2474"
  bottom: "InnerProduct2475"
  bottom: "InnerProduct2476"
  bottom: "InnerProduct2477"
  bottom: "InnerProduct2478"
  bottom: "InnerProduct2479"
  bottom: "InnerProduct2480"
  bottom: "InnerProduct2481"
  bottom: "InnerProduct2482"
  bottom: "InnerProduct2483"
  bottom: "InnerProduct2484"
  bottom: "InnerProduct2485"
  bottom: "InnerProduct2486"
  bottom: "InnerProduct2487"
  bottom: "InnerProduct2488"
  bottom: "InnerProduct2489"
  bottom: "InnerProduct2490"
  bottom: "InnerProduct2491"
  bottom: "InnerProduct2492"
  bottom: "InnerProduct2493"
  bottom: "InnerProduct2494"
  bottom: "InnerProduct2495"
  bottom: "InnerProduct2496"
  bottom: "InnerProduct2497"
  bottom: "InnerProduct2498"
  bottom: "InnerProduct2499"
  bottom: "InnerProduct2500"
  bottom: "InnerProduct2501"
  bottom: "InnerProduct2502"
  bottom: "InnerProduct2503"
  bottom: "InnerProduct2504"
  bottom: "InnerProduct2505"
  bottom: "InnerProduct2506"
  bottom: "InnerProduct2507"
  bottom: "InnerProduct2508"
  bottom: "InnerProduct2509"
  bottom: "InnerProduct2510"
  bottom: "InnerProduct2511"
  bottom: "InnerProduct2512"
  bottom: "InnerProduct2513"
  bottom: "InnerProduct2514"
  bottom: "InnerProduct2515"
  bottom: "InnerProduct2516"
  bottom: "InnerProduct2517"
  bottom: "InnerProduct2518"
  bottom: "InnerProduct2519"
  bottom: "InnerProduct2520"
  bottom: "InnerProduct2521"
  bottom: "InnerProduct2522"
  bottom: "InnerProduct2523"
  bottom: "InnerProduct2524"
  bottom: "InnerProduct2525"
  bottom: "InnerProduct2526"
  bottom: "InnerProduct2527"
  bottom: "InnerProduct2528"
  bottom: "InnerProduct2529"
  bottom: "InnerProduct2530"
  bottom: "InnerProduct2531"
  bottom: "InnerProduct2532"
  bottom: "InnerProduct2533"
  bottom: "InnerProduct2534"
  bottom: "InnerProduct2535"
  bottom: "InnerProduct2536"
  bottom: "InnerProduct2537"
  bottom: "InnerProduct2538"
  bottom: "InnerProduct2539"
  bottom: "InnerProduct2540"
  bottom: "InnerProduct2541"
  bottom: "InnerProduct2542"
  bottom: "InnerProduct2543"
  bottom: "InnerProduct2544"
  bottom: "InnerProduct2545"
  bottom: "InnerProduct2546"
  bottom: "InnerProduct2547"
  bottom: "InnerProduct2548"
  bottom: "InnerProduct2549"
  bottom: "InnerProduct2550"
  bottom: "InnerProduct2551"
  bottom: "InnerProduct2552"
  bottom: "InnerProduct2553"
  bottom: "InnerProduct2554"
  bottom: "InnerProduct2555"
  bottom: "InnerProduct2556"
  bottom: "InnerProduct2557"
  bottom: "InnerProduct2558"
  bottom: "InnerProduct2559"
  bottom: "InnerProduct2560"
  bottom: "InnerProduct2561"
  bottom: "InnerProduct2562"
  bottom: "InnerProduct2563"
  bottom: "InnerProduct2564"
  bottom: "InnerProduct2565"
  bottom: "InnerProduct2566"
  bottom: "InnerProduct2567"
  bottom: "InnerProduct2568"
  bottom: "InnerProduct2569"
  bottom: "InnerProduct2570"
  bottom: "InnerProduct2571"
  bottom: "InnerProduct2572"
  bottom: "InnerProduct2573"
  bottom: "InnerProduct2574"
  bottom: "InnerProduct2575"
  bottom: "InnerProduct2576"
  bottom: "InnerProduct2577"
  bottom: "InnerProduct2578"
  bottom: "InnerProduct2579"
  bottom: "InnerProduct2580"
  bottom: "InnerProduct2581"
  bottom: "InnerProduct2582"
  bottom: "InnerProduct2583"
  bottom: "InnerProduct2584"
  bottom: "InnerProduct2585"
  bottom: "InnerProduct2586"
  bottom: "InnerProduct2587"
  bottom: "InnerProduct2588"
  bottom: "InnerProduct2589"
  bottom: "InnerProduct2590"
  bottom: "InnerProduct2591"
  bottom: "InnerProduct2592"
  bottom: "InnerProduct2593"
  bottom: "InnerProduct2594"
  bottom: "InnerProduct2595"
  bottom: "InnerProduct2596"
  bottom: "InnerProduct2597"
  bottom: "InnerProduct2598"
  bottom: "InnerProduct2599"
  bottom: "InnerProduct2600"
  bottom: "InnerProduct2601"
  bottom: "InnerProduct2602"
  bottom: "InnerProduct2603"
  bottom: "InnerProduct2604"
  bottom: "InnerProduct2605"
  bottom: "InnerProduct2606"
  bottom: "InnerProduct2607"
  bottom: "InnerProduct2608"
  bottom: "InnerProduct2609"
  bottom: "InnerProduct2610"
  bottom: "InnerProduct2611"
  bottom: "InnerProduct2612"
  bottom: "InnerProduct2613"
  bottom: "InnerProduct2614"
  bottom: "InnerProduct2615"
  bottom: "InnerProduct2616"
  bottom: "InnerProduct2617"
  bottom: "InnerProduct2618"
  bottom: "InnerProduct2619"
  bottom: "InnerProduct2620"
  bottom: "InnerProduct2621"
  bottom: "InnerProduct2622"
  bottom: "InnerProduct2623"
  bottom: "InnerProduct2624"
  bottom: "InnerProduct2625"
  bottom: "InnerProduct2626"
  bottom: "InnerProduct2627"
  bottom: "InnerProduct2628"
  bottom: "InnerProduct2629"
  bottom: "InnerProduct2630"
  bottom: "InnerProduct2631"
  bottom: "InnerProduct2632"
  bottom: "InnerProduct2633"
  bottom: "InnerProduct2634"
  bottom: "InnerProduct2635"
  bottom: "InnerProduct2636"
  bottom: "InnerProduct2637"
  bottom: "InnerProduct2638"
  bottom: "InnerProduct2639"
  bottom: "InnerProduct2640"
  bottom: "InnerProduct2641"
  bottom: "InnerProduct2642"
  bottom: "InnerProduct2643"
  bottom: "InnerProduct2644"
  bottom: "InnerProduct2645"
  bottom: "InnerProduct2646"
  bottom: "InnerProduct2647"
  bottom: "InnerProduct2648"
  bottom: "InnerProduct2649"
  bottom: "InnerProduct2650"
  bottom: "InnerProduct2651"
  bottom: "InnerProduct2652"
  bottom: "InnerProduct2653"
  bottom: "InnerProduct2654"
  bottom: "InnerProduct2655"
  bottom: "InnerProduct2656"
  bottom: "InnerProduct2657"
  bottom: "InnerProduct2658"
  bottom: "InnerProduct2659"
  bottom: "InnerProduct2660"
  bottom: "InnerProduct2661"
  bottom: "InnerProduct2662"
  bottom: "InnerProduct2663"
  bottom: "InnerProduct2664"
  bottom: "InnerProduct2665"
  bottom: "InnerProduct2666"
  bottom: "InnerProduct2667"
  bottom: "InnerProduct2668"
  bottom: "InnerProduct2669"
  bottom: "InnerProduct2670"
  bottom: "InnerProduct2671"
  bottom: "InnerProduct2672"
  bottom: "InnerProduct2673"
  bottom: "InnerProduct2674"
  bottom: "InnerProduct2675"
  bottom: "InnerProduct2676"
  bottom: "InnerProduct2677"
  bottom: "InnerProduct2678"
  bottom: "InnerProduct2679"
  bottom: "InnerProduct2680"
  bottom: "InnerProduct2681"
  bottom: "InnerProduct2682"
  bottom: "InnerProduct2683"
  bottom: "InnerProduct2684"
  bottom: "InnerProduct2685"
  bottom: "InnerProduct2686"
  bottom: "InnerProduct2687"
  bottom: "InnerProduct2688"
  bottom: "InnerProduct2689"
  bottom: "InnerProduct2690"
  bottom: "InnerProduct2691"
  bottom: "InnerProduct2692"
  bottom: "InnerProduct2693"
  bottom: "InnerProduct2694"
  bottom: "InnerProduct2695"
  bottom: "InnerProduct2696"
  bottom: "InnerProduct2697"
  bottom: "InnerProduct2698"
  bottom: "InnerProduct2699"
  bottom: "InnerProduct2700"
  bottom: "InnerProduct2701"
  bottom: "InnerProduct2702"
  bottom: "InnerProduct2703"
  bottom: "InnerProduct2704"
  bottom: "InnerProduct2705"
  bottom: "InnerProduct2706"
  bottom: "InnerProduct2707"
  bottom: "InnerProduct2708"
  bottom: "InnerProduct2709"
  bottom: "InnerProduct2710"
  bottom: "InnerProduct2711"
  bottom: "InnerProduct2712"
  bottom: "InnerProduct2713"
  bottom: "InnerProduct2714"
  bottom: "InnerProduct2715"
  bottom: "InnerProduct2716"
  bottom: "InnerProduct2717"
  bottom: "InnerProduct2718"
  bottom: "InnerProduct2719"
  bottom: "InnerProduct2720"
  bottom: "InnerProduct2721"
  bottom: "InnerProduct2722"
  bottom: "InnerProduct2723"
  bottom: "InnerProduct2724"
  bottom: "InnerProduct2725"
  bottom: "InnerProduct2726"
  bottom: "InnerProduct2727"
  bottom: "InnerProduct2728"
  bottom: "InnerProduct2729"
  bottom: "InnerProduct2730"
  bottom: "InnerProduct2731"
  bottom: "InnerProduct2732"
  bottom: "InnerProduct2733"
  bottom: "InnerProduct2734"
  bottom: "InnerProduct2735"
  bottom: "InnerProduct2736"
  bottom: "InnerProduct2737"
  bottom: "InnerProduct2738"
  bottom: "InnerProduct2739"
  bottom: "InnerProduct2740"
  bottom: "InnerProduct2741"
  bottom: "InnerProduct2742"
  bottom: "InnerProduct2743"
  bottom: "InnerProduct2744"
  bottom: "InnerProduct2745"
  bottom: "InnerProduct2746"
  bottom: "InnerProduct2747"
  bottom: "InnerProduct2748"
  bottom: "InnerProduct2749"
  bottom: "InnerProduct2750"
  bottom: "InnerProduct2751"
  bottom: "InnerProduct2752"
  bottom: "InnerProduct2753"
  bottom: "InnerProduct2754"
  bottom: "InnerProduct2755"
  bottom: "InnerProduct2756"
  bottom: "InnerProduct2757"
  bottom: "InnerProduct2758"
  bottom: "InnerProduct2759"
  bottom: "InnerProduct2760"
  bottom: "InnerProduct2761"
  bottom: "InnerProduct2762"
  bottom: "InnerProduct2763"
  bottom: "InnerProduct2764"
  bottom: "InnerProduct2765"
  bottom: "InnerProduct2766"
  bottom: "InnerProduct2767"
  bottom: "InnerProduct2768"
  bottom: "InnerProduct2769"
  bottom: "InnerProduct2770"
  bottom: "InnerProduct2771"
  bottom: "InnerProduct2772"
  bottom: "InnerProduct2773"
  bottom: "InnerProduct2774"
  bottom: "InnerProduct2775"
  bottom: "InnerProduct2776"
  bottom: "InnerProduct2777"
  bottom: "InnerProduct2778"
  bottom: "InnerProduct2779"
  bottom: "InnerProduct2780"
  bottom: "InnerProduct2781"
  bottom: "InnerProduct2782"
  bottom: "InnerProduct2783"
  bottom: "InnerProduct2784"
  bottom: "InnerProduct2785"
  bottom: "InnerProduct2786"
  bottom: "InnerProduct2787"
  bottom: "InnerProduct2788"
  bottom: "InnerProduct2789"
  bottom: "InnerProduct2790"
  bottom: "InnerProduct2791"
  bottom: "InnerProduct2792"
  bottom: "InnerProduct2793"
  bottom: "InnerProduct2794"
  bottom: "InnerProduct2795"
  bottom: "InnerProduct2796"
  bottom: "InnerProduct2797"
  bottom: "InnerProduct2798"
  bottom: "InnerProduct2799"
  bottom: "InnerProduct2800"
  bottom: "InnerProduct2801"
  bottom: "InnerProduct2802"
  bottom: "InnerProduct2803"
  bottom: "InnerProduct2804"
  bottom: "InnerProduct2805"
  bottom: "InnerProduct2806"
  bottom: "InnerProduct2807"
  bottom: "InnerProduct2808"
  bottom: "InnerProduct2809"
  bottom: "InnerProduct2810"
  bottom: "InnerProduct2811"
  bottom: "InnerProduct2812"
  bottom: "InnerProduct2813"
  bottom: "InnerProduct2814"
  bottom: "InnerProduct2815"
  bottom: "InnerProduct2816"
  bottom: "InnerProduct2817"
  bottom: "InnerProduct2818"
  bottom: "InnerProduct2819"
  bottom: "InnerProduct2820"
  bottom: "InnerProduct2821"
  bottom: "InnerProduct2822"
  bottom: "InnerProduct2823"
  bottom: "InnerProduct2824"
  bottom: "InnerProduct2825"
  bottom: "InnerProduct2826"
  bottom: "InnerProduct2827"
  bottom: "InnerProduct2828"
  bottom: "InnerProduct2829"
  top: "Concat2"
}
layer {
  name: "EuclideanLoss1"
  type: "EuclideanLoss"
  bottom: "Concat2"
  bottom: "data"
  top: "EuclideanLoss1"
  loss_weight: 1.0
}
layer {
  name: "EuclideanLoss2"
  type: "EuclideanLoss"
  bottom: "label"
  bottom: "label"
  top: "EuclideanLoss2"
  loss_weight: 0
}
