name: "Sauron Tree V0.15"
layer {
  name: "data"
  type: "HDF5Data"
  top: "data"
  top: "label"
  include {
    phase: TRAIN
  }
  hdf5_data_param {
    source: "train.txt"
    batch_size: 64
  }
}
layer {
  name: "data"
  type: "HDF5Data"
  top: "data"
  top: "label"
  include {
    phase: TEST
  }
  hdf5_data_param {
    source: "test.txt"
    batch_size: 4
  }
}
layer {
  name: "slice_data"
  type: "Slice"
  bottom: "data"
  top: "data_r"
  top: "data_g"
  top: "data_b"
  slice_param {
    slice_dim: 1
    slice_point: 1
    slice_point: 2
  }
}
layer {
  name: "flat_data"
  type: "Flatten"
  bottom: "data_r"
  top: "flat_data"
}
layer {
  name: "flat_data_middle"
  type: "Flatten"
  bottom: "data_g"
  top: "flat_data_middle"
}
layer {
  name: "flat_data_p"
  type: "Flatten"
  bottom: "data_b"
  top: "flat_data_p"
}
layer {
  name: "slice_middle"
  type: "Slice"
  bottom: "flat_data_middle"
  top: "sim"
  top: "label_p"
  top: "else"
  slice_param {
    slice_dim: 1
    slice_point: 1
    slice_point: 2
  }
}
layer {
  name: "loss-else"
  type: "EuclideanLoss"
  bottom: "else"
  bottom: "else"
  top: "loss-else"
  loss_weight: 0
}
layer {
  name: "data-split1-slice"
  type: "Slice"
  bottom: "flat_data"
    top: "flat_data-0"
  top: "flat_data-1"
  top: "flat_data-2"
  top: "flat_data-3"
  top: "flat_data-4"
  top: "flat_data-5"
  top: "flat_data-6"
  top: "flat_data-7"
  top: "flat_data-8"
  top: "flat_data-9"
  top: "flat_data-10"
  top: "flat_data-11"
  top: "flat_data-12"
  top: "flat_data-13"
  top: "flat_data-14"
  top: "flat_data-15"
  top: "flat_data-16"
  top: "flat_data-17"
  top: "flat_data-18"
  top: "flat_data-19"
  top: "flat_data-20"
  top: "flat_data-21"
  top: "flat_data-22"
  top: "flat_data-23"
  top: "flat_data-24"
  top: "flat_data-25"
  top: "flat_data-26"
  top: "flat_data-27"
  top: "flat_data-28"
  top: "flat_data-29"
  top: "flat_data-30"
  top: "flat_data-31"
  top: "flat_data-32"
  top: "flat_data-33"
  top: "flat_data-34"
  top: "flat_data-35"
  top: "flat_data-36"
  top: "flat_data-37"
  top: "flat_data-38"
  top: "flat_data-39"
  top: "flat_data-40"
  top: "flat_data-41"
  top: "flat_data-42"
  top: "flat_data-43"
  top: "flat_data-44"
  top: "flat_data-45"
  top: "flat_data-46"
  top: "flat_data-47"
  top: "flat_data-48"
  top: "flat_data-49"
  top: "flat_data-50"
  top: "flat_data-51"
  top: "flat_data-52"
  top: "flat_data-53"
  top: "flat_data-54"
  top: "flat_data-55"
  top: "flat_data-56"
  top: "flat_data-57"
  top: "flat_data-58"
  top: "flat_data-59"
  top: "flat_data-60"
  top: "flat_data-61"
  top: "flat_data-62"
  top: "flat_data-63"
  top: "flat_data-64"
  top: "flat_data-65"
  top: "flat_data-66"
  top: "flat_data-67"
  top: "flat_data-68"
  top: "flat_data-69"
  top: "flat_data-70"
  top: "flat_data-71"
  top: "flat_data-72"
  top: "flat_data-73"
  top: "flat_data-74"
  top: "flat_data-75"
  top: "flat_data-76"
  top: "flat_data-77"
  top: "flat_data-78"
  top: "flat_data-79"
  top: "flat_data-80"
  top: "flat_data-81"
  top: "flat_data-82"
  top: "flat_data-83"
  top: "flat_data-84"
  top: "flat_data-85"
  top: "flat_data-86"
  top: "flat_data-87"
  top: "flat_data-88"
  top: "flat_data-89"
  top: "flat_data-90"
  top: "flat_data-91"
  top: "flat_data-92"
  top: "flat_data-93"
  top: "flat_data-94"
  top: "flat_data-95"
  top: "flat_data-96"
  top: "flat_data-97"
  top: "flat_data-98"
  top: "flat_data-99"
  top: "flat_data-100"
  top: "flat_data-101"
  top: "flat_data-102"
  top: "flat_data-103"
  top: "flat_data-104"
  top: "flat_data-105"
  top: "flat_data-106"
  top: "flat_data-107"
  top: "flat_data-108"
  top: "flat_data-109"
  top: "flat_data-110"
  top: "flat_data-111"
  top: "flat_data-112"
  top: "flat_data-113"
  top: "flat_data-114"
  top: "flat_data-115"
  top: "flat_data-116"
  top: "flat_data-117"
  top: "flat_data-118"
  top: "flat_data-119"
  top: "flat_data-120"
  top: "flat_data-121"
  top: "flat_data-122"
  top: "flat_data-123"
  top: "flat_data-124"
  top: "flat_data-125"
  top: "flat_data-126"
  top: "flat_data-127"
  top: "flat_data-128"
  top: "flat_data-129"
  top: "flat_data-130"
  top: "flat_data-131"
  top: "flat_data-132"
  top: "flat_data-133"
  top: "flat_data-134"
  top: "flat_data-135"
  top: "flat_data-136"
  top: "flat_data-137"
  top: "flat_data-138"
  top: "flat_data-139"
  top: "flat_data-140"
  top: "flat_data-141"
  top: "flat_data-142"
  top: "flat_data-143"
  top: "flat_data-144"
  top: "flat_data-145"
  top: "flat_data-146"
  top: "flat_data-147"
  top: "flat_data-148"
  top: "flat_data-149"
  top: "flat_data-150"
  top: "flat_data-151"
  top: "flat_data-152"
  top: "flat_data-153"
  top: "flat_data-154"
  top: "flat_data-155"
  top: "flat_data-156"
  top: "flat_data-157"
  top: "flat_data-158"
  top: "flat_data-159"
  top: "flat_data-160"
  top: "flat_data-161"
  top: "flat_data-162"
  top: "flat_data-163"
  top: "flat_data-164"
  top: "flat_data-165"
  top: "flat_data-166"
  top: "flat_data-167"
  top: "flat_data-168"
  top: "flat_data-169"
  top: "flat_data-170"
  top: "flat_data-171"
  top: "flat_data-172"
  top: "flat_data-173"
  top: "flat_data-174"
  top: "flat_data-175"
  top: "flat_data-176"
  top: "flat_data-177"
  top: "flat_data-178"
  top: "flat_data-179"
  top: "flat_data-180"
  top: "flat_data-181"
  top: "flat_data-182"
  top: "flat_data-183"
  top: "flat_data-184"
  top: "flat_data-185"
  top: "flat_data-186"
  top: "flat_data-187"
  top: "flat_data-188"
  top: "flat_data-189"
  top: "flat_data-190"
  top: "flat_data-191"
  top: "flat_data-192"
  top: "flat_data-193"
  top: "flat_data-194"
  top: "flat_data-195"
  top: "flat_data-196"
  top: "flat_data-197"
  top: "flat_data-198"
  top: "flat_data-199"
  top: "flat_data-200"
  top: "flat_data-201"
  top: "flat_data-202"
  top: "flat_data-203"
  top: "flat_data-204"
  top: "flat_data-205"
  top: "flat_data-206"
  top: "flat_data-207"
  top: "flat_data-208"
  top: "flat_data-209"
  top: "flat_data-210"
  top: "flat_data-211"
  top: "flat_data-212"
  top: "flat_data-213"
  top: "flat_data-214"
  top: "flat_data-215"
  top: "flat_data-216"
  top: "flat_data-217"
  top: "flat_data-218"
  top: "flat_data-219"
  top: "flat_data-220"
  top: "flat_data-221"
  top: "flat_data-222"
  top: "flat_data-223"
  top: "flat_data-224"
  top: "flat_data-225"
  top: "flat_data-226"

  slice_param {
    slice_dim: 1
        slice_point: 227
    slice_point: 454
    slice_point: 681
    slice_point: 908
    slice_point: 1135
    slice_point: 1362
    slice_point: 1589
    slice_point: 1816
    slice_point: 2043
    slice_point: 2270
    slice_point: 2497
    slice_point: 2724
    slice_point: 2951
    slice_point: 3178
    slice_point: 3405
    slice_point: 3632
    slice_point: 3859
    slice_point: 4086
    slice_point: 4313
    slice_point: 4540
    slice_point: 4767
    slice_point: 4994
    slice_point: 5221
    slice_point: 5448
    slice_point: 5675
    slice_point: 5902
    slice_point: 6129
    slice_point: 6356
    slice_point: 6583
    slice_point: 6810
    slice_point: 7037
    slice_point: 7264
    slice_point: 7491
    slice_point: 7718
    slice_point: 7945
    slice_point: 8172
    slice_point: 8399
    slice_point: 8626
    slice_point: 8853
    slice_point: 9080
    slice_point: 9307
    slice_point: 9534
    slice_point: 9761
    slice_point: 9988
    slice_point: 10215
    slice_point: 10442
    slice_point: 10669
    slice_point: 10896
    slice_point: 11123
    slice_point: 11350
    slice_point: 11577
    slice_point: 11804
    slice_point: 12031
    slice_point: 12258
    slice_point: 12485
    slice_point: 12712
    slice_point: 12939
    slice_point: 13166
    slice_point: 13393
    slice_point: 13620
    slice_point: 13847
    slice_point: 14074
    slice_point: 14301
    slice_point: 14528
    slice_point: 14755
    slice_point: 14982
    slice_point: 15209
    slice_point: 15436
    slice_point: 15663
    slice_point: 15890
    slice_point: 16117
    slice_point: 16344
    slice_point: 16571
    slice_point: 16798
    slice_point: 17025
    slice_point: 17252
    slice_point: 17479
    slice_point: 17706
    slice_point: 17933
    slice_point: 18160
    slice_point: 18387
    slice_point: 18614
    slice_point: 18841
    slice_point: 19068
    slice_point: 19295
    slice_point: 19522
    slice_point: 19749
    slice_point: 19976
    slice_point: 20203
    slice_point: 20430
    slice_point: 20657
    slice_point: 20884
    slice_point: 21111
    slice_point: 21338
    slice_point: 21565
    slice_point: 21792
    slice_point: 22019
    slice_point: 22246
    slice_point: 22473
    slice_point: 22700
    slice_point: 22927
    slice_point: 23154
    slice_point: 23381
    slice_point: 23608
    slice_point: 23835
    slice_point: 24062
    slice_point: 24289
    slice_point: 24516
    slice_point: 24743
    slice_point: 24970
    slice_point: 25197
    slice_point: 25424
    slice_point: 25651
    slice_point: 25878
    slice_point: 26105
    slice_point: 26332
    slice_point: 26559
    slice_point: 26786
    slice_point: 27013
    slice_point: 27240
    slice_point: 27467
    slice_point: 27694
    slice_point: 27921
    slice_point: 28148
    slice_point: 28375
    slice_point: 28602
    slice_point: 28829
    slice_point: 29056
    slice_point: 29283
    slice_point: 29510
    slice_point: 29737
    slice_point: 29964
    slice_point: 30191
    slice_point: 30418
    slice_point: 30645
    slice_point: 30872
    slice_point: 31099
    slice_point: 31326
    slice_point: 31553
    slice_point: 31780
    slice_point: 32007
    slice_point: 32234
    slice_point: 32461
    slice_point: 32688
    slice_point: 32915
    slice_point: 33142
    slice_point: 33369
    slice_point: 33596
    slice_point: 33823
    slice_point: 34050
    slice_point: 34277
    slice_point: 34504
    slice_point: 34731
    slice_point: 34958
    slice_point: 35185
    slice_point: 35412
    slice_point: 35639
    slice_point: 35866
    slice_point: 36093
    slice_point: 36320
    slice_point: 36547
    slice_point: 36774
    slice_point: 37001
    slice_point: 37228
    slice_point: 37455
    slice_point: 37682
    slice_point: 37909
    slice_point: 38136
    slice_point: 38363
    slice_point: 38590
    slice_point: 38817
    slice_point: 39044
    slice_point: 39271
    slice_point: 39498
    slice_point: 39725
    slice_point: 39952
    slice_point: 40179
    slice_point: 40406
    slice_point: 40633
    slice_point: 40860
    slice_point: 41087
    slice_point: 41314
    slice_point: 41541
    slice_point: 41768
    slice_point: 41995
    slice_point: 42222
    slice_point: 42449
    slice_point: 42676
    slice_point: 42903
    slice_point: 43130
    slice_point: 43357
    slice_point: 43584
    slice_point: 43811
    slice_point: 44038
    slice_point: 44265
    slice_point: 44492
    slice_point: 44719
    slice_point: 44946
    slice_point: 45173
    slice_point: 45400
    slice_point: 45627
    slice_point: 45854
    slice_point: 46081
    slice_point: 46308
    slice_point: 46535
    slice_point: 46762
    slice_point: 46989
    slice_point: 47216
    slice_point: 47443
    slice_point: 47670
    slice_point: 47897
    slice_point: 48124
    slice_point: 48351
    slice_point: 48578
    slice_point: 48805
    slice_point: 49032
    slice_point: 49259
    slice_point: 49486
    slice_point: 49713
    slice_point: 49940
    slice_point: 50167
    slice_point: 50394
    slice_point: 50621
    slice_point: 50848
    slice_point: 51075
    slice_point: 51302

  }
}
layer {
  name: "data-split1-slice_p"
  type: "Slice"
  bottom: "flat_data_p"
    top: "flat_data_p-0"
  top: "flat_data_p-1"
  top: "flat_data_p-2"
  top: "flat_data_p-3"
  top: "flat_data_p-4"
  top: "flat_data_p-5"
  top: "flat_data_p-6"
  top: "flat_data_p-7"
  top: "flat_data_p-8"
  top: "flat_data_p-9"
  top: "flat_data_p-10"
  top: "flat_data_p-11"
  top: "flat_data_p-12"
  top: "flat_data_p-13"
  top: "flat_data_p-14"
  top: "flat_data_p-15"
  top: "flat_data_p-16"
  top: "flat_data_p-17"
  top: "flat_data_p-18"
  top: "flat_data_p-19"
  top: "flat_data_p-20"
  top: "flat_data_p-21"
  top: "flat_data_p-22"
  top: "flat_data_p-23"
  top: "flat_data_p-24"
  top: "flat_data_p-25"
  top: "flat_data_p-26"
  top: "flat_data_p-27"
  top: "flat_data_p-28"
  top: "flat_data_p-29"
  top: "flat_data_p-30"
  top: "flat_data_p-31"
  top: "flat_data_p-32"
  top: "flat_data_p-33"
  top: "flat_data_p-34"
  top: "flat_data_p-35"
  top: "flat_data_p-36"
  top: "flat_data_p-37"
  top: "flat_data_p-38"
  top: "flat_data_p-39"
  top: "flat_data_p-40"
  top: "flat_data_p-41"
  top: "flat_data_p-42"
  top: "flat_data_p-43"
  top: "flat_data_p-44"
  top: "flat_data_p-45"
  top: "flat_data_p-46"
  top: "flat_data_p-47"
  top: "flat_data_p-48"
  top: "flat_data_p-49"
  top: "flat_data_p-50"
  top: "flat_data_p-51"
  top: "flat_data_p-52"
  top: "flat_data_p-53"
  top: "flat_data_p-54"
  top: "flat_data_p-55"
  top: "flat_data_p-56"
  top: "flat_data_p-57"
  top: "flat_data_p-58"
  top: "flat_data_p-59"
  top: "flat_data_p-60"
  top: "flat_data_p-61"
  top: "flat_data_p-62"
  top: "flat_data_p-63"
  top: "flat_data_p-64"
  top: "flat_data_p-65"
  top: "flat_data_p-66"
  top: "flat_data_p-67"
  top: "flat_data_p-68"
  top: "flat_data_p-69"
  top: "flat_data_p-70"
  top: "flat_data_p-71"
  top: "flat_data_p-72"
  top: "flat_data_p-73"
  top: "flat_data_p-74"
  top: "flat_data_p-75"
  top: "flat_data_p-76"
  top: "flat_data_p-77"
  top: "flat_data_p-78"
  top: "flat_data_p-79"
  top: "flat_data_p-80"
  top: "flat_data_p-81"
  top: "flat_data_p-82"
  top: "flat_data_p-83"
  top: "flat_data_p-84"
  top: "flat_data_p-85"
  top: "flat_data_p-86"
  top: "flat_data_p-87"
  top: "flat_data_p-88"
  top: "flat_data_p-89"
  top: "flat_data_p-90"
  top: "flat_data_p-91"
  top: "flat_data_p-92"
  top: "flat_data_p-93"
  top: "flat_data_p-94"
  top: "flat_data_p-95"
  top: "flat_data_p-96"
  top: "flat_data_p-97"
  top: "flat_data_p-98"
  top: "flat_data_p-99"
  top: "flat_data_p-100"
  top: "flat_data_p-101"
  top: "flat_data_p-102"
  top: "flat_data_p-103"
  top: "flat_data_p-104"
  top: "flat_data_p-105"
  top: "flat_data_p-106"
  top: "flat_data_p-107"
  top: "flat_data_p-108"
  top: "flat_data_p-109"
  top: "flat_data_p-110"
  top: "flat_data_p-111"
  top: "flat_data_p-112"
  top: "flat_data_p-113"
  top: "flat_data_p-114"
  top: "flat_data_p-115"
  top: "flat_data_p-116"
  top: "flat_data_p-117"
  top: "flat_data_p-118"
  top: "flat_data_p-119"
  top: "flat_data_p-120"
  top: "flat_data_p-121"
  top: "flat_data_p-122"
  top: "flat_data_p-123"
  top: "flat_data_p-124"
  top: "flat_data_p-125"
  top: "flat_data_p-126"
  top: "flat_data_p-127"
  top: "flat_data_p-128"
  top: "flat_data_p-129"
  top: "flat_data_p-130"
  top: "flat_data_p-131"
  top: "flat_data_p-132"
  top: "flat_data_p-133"
  top: "flat_data_p-134"
  top: "flat_data_p-135"
  top: "flat_data_p-136"
  top: "flat_data_p-137"
  top: "flat_data_p-138"
  top: "flat_data_p-139"
  top: "flat_data_p-140"
  top: "flat_data_p-141"
  top: "flat_data_p-142"
  top: "flat_data_p-143"
  top: "flat_data_p-144"
  top: "flat_data_p-145"
  top: "flat_data_p-146"
  top: "flat_data_p-147"
  top: "flat_data_p-148"
  top: "flat_data_p-149"
  top: "flat_data_p-150"
  top: "flat_data_p-151"
  top: "flat_data_p-152"
  top: "flat_data_p-153"
  top: "flat_data_p-154"
  top: "flat_data_p-155"
  top: "flat_data_p-156"
  top: "flat_data_p-157"
  top: "flat_data_p-158"
  top: "flat_data_p-159"
  top: "flat_data_p-160"
  top: "flat_data_p-161"
  top: "flat_data_p-162"
  top: "flat_data_p-163"
  top: "flat_data_p-164"
  top: "flat_data_p-165"
  top: "flat_data_p-166"
  top: "flat_data_p-167"
  top: "flat_data_p-168"
  top: "flat_data_p-169"
  top: "flat_data_p-170"
  top: "flat_data_p-171"
  top: "flat_data_p-172"
  top: "flat_data_p-173"
  top: "flat_data_p-174"
  top: "flat_data_p-175"
  top: "flat_data_p-176"
  top: "flat_data_p-177"
  top: "flat_data_p-178"
  top: "flat_data_p-179"
  top: "flat_data_p-180"
  top: "flat_data_p-181"
  top: "flat_data_p-182"
  top: "flat_data_p-183"
  top: "flat_data_p-184"
  top: "flat_data_p-185"
  top: "flat_data_p-186"
  top: "flat_data_p-187"
  top: "flat_data_p-188"
  top: "flat_data_p-189"
  top: "flat_data_p-190"
  top: "flat_data_p-191"
  top: "flat_data_p-192"
  top: "flat_data_p-193"
  top: "flat_data_p-194"
  top: "flat_data_p-195"
  top: "flat_data_p-196"
  top: "flat_data_p-197"
  top: "flat_data_p-198"
  top: "flat_data_p-199"
  top: "flat_data_p-200"
  top: "flat_data_p-201"
  top: "flat_data_p-202"
  top: "flat_data_p-203"
  top: "flat_data_p-204"
  top: "flat_data_p-205"
  top: "flat_data_p-206"
  top: "flat_data_p-207"
  top: "flat_data_p-208"
  top: "flat_data_p-209"
  top: "flat_data_p-210"
  top: "flat_data_p-211"
  top: "flat_data_p-212"
  top: "flat_data_p-213"
  top: "flat_data_p-214"
  top: "flat_data_p-215"
  top: "flat_data_p-216"
  top: "flat_data_p-217"
  top: "flat_data_p-218"
  top: "flat_data_p-219"
  top: "flat_data_p-220"
  top: "flat_data_p-221"
  top: "flat_data_p-222"
  top: "flat_data_p-223"
  top: "flat_data_p-224"
  top: "flat_data_p-225"
  top: "flat_data_p-226"

  slice_param {
    slice_dim: 1
        slice_point: 227
    slice_point: 454
    slice_point: 681
    slice_point: 908
    slice_point: 1135
    slice_point: 1362
    slice_point: 1589
    slice_point: 1816
    slice_point: 2043
    slice_point: 2270
    slice_point: 2497
    slice_point: 2724
    slice_point: 2951
    slice_point: 3178
    slice_point: 3405
    slice_point: 3632
    slice_point: 3859
    slice_point: 4086
    slice_point: 4313
    slice_point: 4540
    slice_point: 4767
    slice_point: 4994
    slice_point: 5221
    slice_point: 5448
    slice_point: 5675
    slice_point: 5902
    slice_point: 6129
    slice_point: 6356
    slice_point: 6583
    slice_point: 6810
    slice_point: 7037
    slice_point: 7264
    slice_point: 7491
    slice_point: 7718
    slice_point: 7945
    slice_point: 8172
    slice_point: 8399
    slice_point: 8626
    slice_point: 8853
    slice_point: 9080
    slice_point: 9307
    slice_point: 9534
    slice_point: 9761
    slice_point: 9988
    slice_point: 10215
    slice_point: 10442
    slice_point: 10669
    slice_point: 10896
    slice_point: 11123
    slice_point: 11350
    slice_point: 11577
    slice_point: 11804
    slice_point: 12031
    slice_point: 12258
    slice_point: 12485
    slice_point: 12712
    slice_point: 12939
    slice_point: 13166
    slice_point: 13393
    slice_point: 13620
    slice_point: 13847
    slice_point: 14074
    slice_point: 14301
    slice_point: 14528
    slice_point: 14755
    slice_point: 14982
    slice_point: 15209
    slice_point: 15436
    slice_point: 15663
    slice_point: 15890
    slice_point: 16117
    slice_point: 16344
    slice_point: 16571
    slice_point: 16798
    slice_point: 17025
    slice_point: 17252
    slice_point: 17479
    slice_point: 17706
    slice_point: 17933
    slice_point: 18160
    slice_point: 18387
    slice_point: 18614
    slice_point: 18841
    slice_point: 19068
    slice_point: 19295
    slice_point: 19522
    slice_point: 19749
    slice_point: 19976
    slice_point: 20203
    slice_point: 20430
    slice_point: 20657
    slice_point: 20884
    slice_point: 21111
    slice_point: 21338
    slice_point: 21565
    slice_point: 21792
    slice_point: 22019
    slice_point: 22246
    slice_point: 22473
    slice_point: 22700
    slice_point: 22927
    slice_point: 23154
    slice_point: 23381
    slice_point: 23608
    slice_point: 23835
    slice_point: 24062
    slice_point: 24289
    slice_point: 24516
    slice_point: 24743
    slice_point: 24970
    slice_point: 25197
    slice_point: 25424
    slice_point: 25651
    slice_point: 25878
    slice_point: 26105
    slice_point: 26332
    slice_point: 26559
    slice_point: 26786
    slice_point: 27013
    slice_point: 27240
    slice_point: 27467
    slice_point: 27694
    slice_point: 27921
    slice_point: 28148
    slice_point: 28375
    slice_point: 28602
    slice_point: 28829
    slice_point: 29056
    slice_point: 29283
    slice_point: 29510
    slice_point: 29737
    slice_point: 29964
    slice_point: 30191
    slice_point: 30418
    slice_point: 30645
    slice_point: 30872
    slice_point: 31099
    slice_point: 31326
    slice_point: 31553
    slice_point: 31780
    slice_point: 32007
    slice_point: 32234
    slice_point: 32461
    slice_point: 32688
    slice_point: 32915
    slice_point: 33142
    slice_point: 33369
    slice_point: 33596
    slice_point: 33823
    slice_point: 34050
    slice_point: 34277
    slice_point: 34504
    slice_point: 34731
    slice_point: 34958
    slice_point: 35185
    slice_point: 35412
    slice_point: 35639
    slice_point: 35866
    slice_point: 36093
    slice_point: 36320
    slice_point: 36547
    slice_point: 36774
    slice_point: 37001
    slice_point: 37228
    slice_point: 37455
    slice_point: 37682
    slice_point: 37909
    slice_point: 38136
    slice_point: 38363
    slice_point: 38590
    slice_point: 38817
    slice_point: 39044
    slice_point: 39271
    slice_point: 39498
    slice_point: 39725
    slice_point: 39952
    slice_point: 40179
    slice_point: 40406
    slice_point: 40633
    slice_point: 40860
    slice_point: 41087
    slice_point: 41314
    slice_point: 41541
    slice_point: 41768
    slice_point: 41995
    slice_point: 42222
    slice_point: 42449
    slice_point: 42676
    slice_point: 42903
    slice_point: 43130
    slice_point: 43357
    slice_point: 43584
    slice_point: 43811
    slice_point: 44038
    slice_point: 44265
    slice_point: 44492
    slice_point: 44719
    slice_point: 44946
    slice_point: 45173
    slice_point: 45400
    slice_point: 45627
    slice_point: 45854
    slice_point: 46081
    slice_point: 46308
    slice_point: 46535
    slice_point: 46762
    slice_point: 46989
    slice_point: 47216
    slice_point: 47443
    slice_point: 47670
    slice_point: 47897
    slice_point: 48124
    slice_point: 48351
    slice_point: 48578
    slice_point: 48805
    slice_point: 49032
    slice_point: 49259
    slice_point: 49486
    slice_point: 49713
    slice_point: 49940
    slice_point: 50167
    slice_point: 50394
    slice_point: 50621
    slice_point: 50848
    slice_point: 51075
    slice_point: 51302

  }
}
layer {
  name: "data-split1-slice-ip_0-0"
  type: "InnerProduct"
  bottom: "flat_data-0"
  top: "data-split1-slice-ip_0-0"
  param {
    name: "data-split1-slice-ip_0-0_w"
    lr_mult: 1
    decay_mult: 1
  }
  param {
    name: "data-split1-slice-ip_0-0_b"
    lr_mult: 2
    decay_mult: 0
  }
  inner_product_param {
    num_output: 200
    weight_filler {
      type: "xavier"
      std:0.01
    }
    bias_filler {
      type: "constant"
      value: 0
    }
  }
}
layer {
  name: "relu-data-split1-slice-ip_0-0"
  type: "ReLU"
  bottom: "data-split1-slice-ip_0-0"
  top: "data-split1-slice-ip_0-0"
}
layer {
  name: "data-split1-slice-ip_0-0_p"
  type: "InnerProduct"
  bottom: "flat_data_p-0"
  top: "data-split1-slice-ip_0-0_p"
  param {
    name: "data-split1-slice-ip_0-0_w"
    lr_mult: 1
    decay_mult: 1
  }
  param {
    name: "data-split1-slice-ip_0-0_b"
    lr_mult: 2
    decay_mult: 0
  }
  inner_product_param {
    num_output: 200
    weight_filler {
      type: "xavier"
      std:0.01
    }
    bias_filler {
      type: "constant"
      value: 0
    }
  }
}
layer {
  name: "relu-data-split1-slice-ip_0-0_p"
  type: "ReLU"
  bottom: "data-split1-slice-ip_0-0_p"
  top: "data-split1-slice-ip_0-0_p"
}
layer {
  name: "data-split1-slice-ip_0-1"
  type: "InnerProduct"
  bottom: "data-split1-slice-ip_0-0"
  top: "data-split1-slice-ip_0-1"
  param {
    name: "data-split1-slice-ip_0-1_w"
    lr_mult: 1
    decay_mult: 1
  }
  param {
    name: "data-split1-slice-ip_0-1_b"
    lr_mult: 2
    decay_mult: 0
  }
  inner_product_param {
    num_output: 168
    weight_filler {
      type: "xavier"
      std:0.01
    }
    bias_filler {
      type: "constant"
      value: 0
    }
  }
}
layer {
  name: "relu-data-split1-slice-ip_0-1"
  type: "ReLU"
  bottom: "data-split1-slice-ip_0-1"
  top: "data-split1-slice-ip_0-1"
}
layer {
  name: "data-split1-slice-ip_0-1_p"
  type: "InnerProduct"
  bottom: "data-split1-slice-ip_0-0_p"
  top: "data-split1-slice-ip_0-1_p"
  param {
    name: "data-split1-slice-ip_0-1_w"
    lr_mult: 1
    decay_mult: 1
  }
  param {
    name: "data-split1-slice-ip_0-1_b"
    lr_mult: 2
    decay_mult: 0
  }
  inner_product_param {
    num_output: 168
    weight_filler {
      type: "xavier"
      std:0.01
    }
    bias_filler {
      type: "constant"
      value: 0
    }
  }
}
layer {
  name: "relu-data-split1-slice-ip_0-1_p"
  type: "ReLU"
  bottom: "data-split1-slice-ip_0-1_p"
  top: "data-split1-slice-ip_0-1_p"
}
layer {
  name: "data-split1-slice-ip_1-0"
  type: "InnerProduct"
  bottom: "flat_data-1"
  top: "data-split1-slice-ip_1-0"
  param {
    name: "data-split1-slice-ip_1-0_w"
    lr_mult: 1
    decay_mult: 1
  }
  param {
    name: "data-split1-slice-ip_1-0_b"
    lr_mult: 2
    decay_mult: 0
  }
  inner_product_param {
    num_output: 200
    weight_filler {
      type: "xavier"
      std:0.01
    }
    bias_filler {
      type: "constant"
      value: 0
    }
  }
}
layer {
  name: "relu-data-split1-slice-ip_1-0"
  type: "ReLU"
  bottom: "data-split1-slice-ip_1-0"
  top: "data-split1-slice-ip_1-0"
}
layer {
  name: "data-split1-slice-ip_1-0_p"
  type: "InnerProduct"
  bottom: "flat_data_p-1"
  top: "data-split1-slice-ip_1-0_p"
  param {
    name: "data-split1-slice-ip_1-0_w"
    lr_mult: 1
    decay_mult: 1
  }
  param {
    name: "data-split1-slice-ip_1-0_b"
    lr_mult: 2
    decay_mult: 0
  }
  inner_product_param {
    num_output: 200
    weight_filler {
      type: "xavier"
      std:0.01
    }
    bias_filler {
      type: "constant"
      value: 0
    }
  }
}
layer {
  name: "relu-data-split1-slice-ip_1-0_p"
  type: "ReLU"
  bottom: "data-split1-slice-ip_1-0_p"
  top: "data-split1-slice-ip_1-0_p"
}
layer {
  name: "data-split1-slice-ip_1-1"
  type: "InnerProduct"
  bottom: "data-split1-slice-ip_1-0"
  top: "data-split1-slice-ip_1-1"
  param {
    name: "data-split1-slice-ip_1-1_w"
    lr_mult: 1
    decay_mult: 1
  }
  param {
    name: "data-split1-slice-ip_1-1_b"
    lr_mult: 2
    decay_mult: 0
  }
  inner_product_param {
    num_output: 168
    weight_filler {
      type: "xavier"
      std:0.01
    }
    bias_filler {
      type: "constant"
      value: 0
    }
  }
}
layer {
  name: "relu-data-split1-slice-ip_1-1"
  type: "ReLU"
  bottom: "data-split1-slice-ip_1-1"
  top: "data-split1-slice-ip_1-1"
}
layer {
  name: "data-split1-slice-ip_1-1_p"
  type: "InnerProduct"
  bottom: "data-split1-slice-ip_1-0_p"
  top: "data-split1-slice-ip_1-1_p"
  param {
    name: "data-split1-slice-ip_1-1_w"
    lr_mult: 1
    decay_mult: 1
  }
  param {
    name: "data-split1-slice-ip_1-1_b"
    lr_mult: 2
    decay_mult: 0
  }
  inner_product_param {
    num_output: 168
    weight_filler {
      type: "xavier"
      std:0.01
    }
    bias_filler {
      type: "constant"
      value: 0
    }
  }
}
layer {
  name: "relu-data-split1-slice-ip_1-1_p"
  type: "ReLU"
  bottom: "data-split1-slice-ip_1-1_p"
  top: "data-split1-slice-ip_1-1_p"
}
layer {
  name: "data-split1-slice-ip_2-0"
  type: "InnerProduct"
  bottom: "flat_data-2"
  top: "data-split1-slice-ip_2-0"
  param {
    name: "data-split1-slice-ip_2-0_w"
    lr_mult: 1
    decay_mult: 1
  }
  param {
    name: "data-split1-slice-ip_2-0_b"
    lr_mult: 2
    decay_mult: 0
  }
  inner_product_param {
    num_output: 200
    weight_filler {
      type: "xavier"
      std:0.01
    }
    bias_filler {
      type: "constant"
      value: 0
    }
  }
}
layer {
  name: "relu-data-split1-slice-ip_2-0"
  type: "ReLU"
  bottom: "data-split1-slice-ip_2-0"
  top: "data-split1-slice-ip_2-0"
}
layer {
  name: "data-split1-slice-ip_2-0_p"
  type: "InnerProduct"
  bottom: "flat_data_p-2"
  top: "data-split1-slice-ip_2-0_p"
  param {
    name: "data-split1-slice-ip_2-0_w"
    lr_mult: 1
    decay_mult: 1
  }
  param {
    name: "data-split1-slice-ip_2-0_b"
    lr_mult: 2
    decay_mult: 0
  }
  inner_product_param {
    num_output: 200
    weight_filler {
      type: "xavier"
      std:0.01
    }
    bias_filler {
      type: "constant"
      value: 0
    }
  }
}
layer {
  name: "relu-data-split1-slice-ip_2-0_p"
  type: "ReLU"
  bottom: "data-split1-slice-ip_2-0_p"
  top: "data-split1-slice-ip_2-0_p"
}
layer {
  name: "data-split1-slice-ip_2-1"
  type: "InnerProduct"
  bottom: "data-split1-slice-ip_2-0"
  top: "data-split1-slice-ip_2-1"
  param {
    name: "data-split1-slice-ip_2-1_w"
    lr_mult: 1
    decay_mult: 1
  }
  param {
    name: "data-split1-slice-ip_2-1_b"
    lr_mult: 2
    decay_mult: 0
  }
  inner_product_param {
    num_output: 168
    weight_filler {
      type: "xavier"
      std:0.01
    }
    bias_filler {
      type: "constant"
      value: 0
    }
  }
}
layer {
  name: "relu-data-split1-slice-ip_2-1"
  type: "ReLU"
  bottom: "data-split1-slice-ip_2-1"
  top: "data-split1-slice-ip_2-1"
}
layer {
  name: "data-split1-slice-ip_2-1_p"
  type: "InnerProduct"
  bottom: "data-split1-slice-ip_2-0_p"
  top: "data-split1-slice-ip_2-1_p"
  param {
    name: "data-split1-slice-ip_2-1_w"
    lr_mult: 1
    decay_mult: 1
  }
  param {
    name: "data-split1-slice-ip_2-1_b"
    lr_mult: 2
    decay_mult: 0
  }
  inner_product_param {
    num_output: 168
    weight_filler {
      type: "xavier"
      std:0.01
    }
    bias_filler {
      type: "constant"
      value: 0
    }
  }
}
layer {
  name: "relu-data-split1-slice-ip_2-1_p"
  type: "ReLU"
  bottom: "data-split1-slice-ip_2-1_p"
  top: "data-split1-slice-ip_2-1_p"
}
layer {
  name: "data-split1-slice-ip_3-0"
  type: "InnerProduct"
  bottom: "flat_data-3"
  top: "data-split1-slice-ip_3-0"
  param {
    name: "data-split1-slice-ip_3-0_w"
    lr_mult: 1
    decay_mult: 1
  }
  param {
    name: "data-split1-slice-ip_3-0_b"
    lr_mult: 2
    decay_mult: 0
  }
  inner_product_param {
    num_output: 200
    weight_filler {
      type: "xavier"
      std:0.01
    }
    bias_filler {
      type: "constant"
      value: 0
    }
  }
}
layer {
  name: "relu-data-split1-slice-ip_3-0"
  type: "ReLU"
  bottom: "data-split1-slice-ip_3-0"
  top: "data-split1-slice-ip_3-0"
}
layer {
  name: "data-split1-slice-ip_3-0_p"
  type: "InnerProduct"
  bottom: "flat_data_p-3"
  top: "data-split1-slice-ip_3-0_p"
  param {
    name: "data-split1-slice-ip_3-0_w"
    lr_mult: 1
    decay_mult: 1
  }
  param {
    name: "data-split1-slice-ip_3-0_b"
    lr_mult: 2
    decay_mult: 0
  }
  inner_product_param {
    num_output: 200
    weight_filler {
      type: "xavier"
      std:0.01
    }
    bias_filler {
      type: "constant"
      value: 0
    }
  }
}
layer {
  name: "relu-data-split1-slice-ip_3-0_p"
  type: "ReLU"
  bottom: "data-split1-slice-ip_3-0_p"
  top: "data-split1-slice-ip_3-0_p"
}
layer {
  name: "data-split1-slice-ip_3-1"
  type: "InnerProduct"
  bottom: "data-split1-slice-ip_3-0"
  top: "data-split1-slice-ip_3-1"
  param {
    name: "data-split1-slice-ip_3-1_w"
    lr_mult: 1
    decay_mult: 1
  }
  param {
    name: "data-split1-slice-ip_3-1_b"
    lr_mult: 2
    decay_mult: 0
  }
  inner_product_param {
    num_output: 168
    weight_filler {
      type: "xavier"
      std:0.01
    }
    bias_filler {
      type: "constant"
      value: 0
    }
  }
}
layer {
  name: "relu-data-split1-slice-ip_3-1"
  type: "ReLU"
  bottom: "data-split1-slice-ip_3-1"
  top: "data-split1-slice-ip_3-1"
}
layer {
  name: "data-split1-slice-ip_3-1_p"
  type: "InnerProduct"
  bottom: "data-split1-slice-ip_3-0_p"
  top: "data-split1-slice-ip_3-1_p"
  param {
    name: "data-split1-slice-ip_3-1_w"
    lr_mult: 1
    decay_mult: 1
  }
  param {
    name: "data-split1-slice-ip_3-1_b"
    lr_mult: 2
    decay_mult: 0
  }
  inner_product_param {
    num_output: 168
    weight_filler {
      type: "xavier"
      std:0.01
    }
    bias_filler {
      type: "constant"
      value: 0
    }
  }
}
layer {
  name: "relu-data-split1-slice-ip_3-1_p"
  type: "ReLU"
  bottom: "data-split1-slice-ip_3-1_p"
  top: "data-split1-slice-ip_3-1_p"
}
layer {
  name: "data-split1-slice-ip_4-0"
  type: "InnerProduct"
  bottom: "flat_data-4"
  top: "data-split1-slice-ip_4-0"
  param {
    name: "data-split1-slice-ip_4-0_w"
    lr_mult: 1
    decay_mult: 1
  }
  param {
    name: "data-split1-slice-ip_4-0_b"
    lr_mult: 2
    decay_mult: 0
  }
  inner_product_param {
    num_output: 200
    weight_filler {
      type: "xavier"
      std:0.01
    }
    bias_filler {
      type: "constant"
      value: 0
    }
  }
}
layer {
  name: "relu-data-split1-slice-ip_4-0"
  type: "ReLU"
  bottom: "data-split1-slice-ip_4-0"
  top: "data-split1-slice-ip_4-0"
}
layer {
  name: "data-split1-slice-ip_4-0_p"
  type: "InnerProduct"
  bottom: "flat_data_p-4"
  top: "data-split1-slice-ip_4-0_p"
  param {
    name: "data-split1-slice-ip_4-0_w"
    lr_mult: 1
    decay_mult: 1
  }
  param {
    name: "data-split1-slice-ip_4-0_b"
    lr_mult: 2
    decay_mult: 0
  }
  inner_product_param {
    num_output: 200
    weight_filler {
      type: "xavier"
      std:0.01
    }
    bias_filler {
      type: "constant"
      value: 0
    }
  }
}
layer {
  name: "relu-data-split1-slice-ip_4-0_p"
  type: "ReLU"
  bottom: "data-split1-slice-ip_4-0_p"
  top: "data-split1-slice-ip_4-0_p"
}
layer {
  name: "data-split1-slice-ip_4-1"
  type: "InnerProduct"
  bottom: "data-split1-slice-ip_4-0"
  top: "data-split1-slice-ip_4-1"
  param {
    name: "data-split1-slice-ip_4-1_w"
    lr_mult: 1
    decay_mult: 1
  }
  param {
    name: "data-split1-slice-ip_4-1_b"
    lr_mult: 2
    decay_mult: 0
  }
  inner_product_param {
    num_output: 168
    weight_filler {
      type: "xavier"
      std:0.01
    }
    bias_filler {
      type: "constant"
      value: 0
    }
  }
}
layer {
  name: "relu-data-split1-slice-ip_4-1"
  type: "ReLU"
  bottom: "data-split1-slice-ip_4-1"
  top: "data-split1-slice-ip_4-1"
}
layer {
  name: "data-split1-slice-ip_4-1_p"
  type: "InnerProduct"
  bottom: "data-split1-slice-ip_4-0_p"
  top: "data-split1-slice-ip_4-1_p"
  param {
    name: "data-split1-slice-ip_4-1_w"
    lr_mult: 1
    decay_mult: 1
  }
  param {
    name: "data-split1-slice-ip_4-1_b"
    lr_mult: 2
    decay_mult: 0
  }
  inner_product_param {
    num_output: 168
    weight_filler {
      type: "xavier"
      std:0.01
    }
    bias_filler {
      type: "constant"
      value: 0
    }
  }
}
layer {
  name: "relu-data-split1-slice-ip_4-1_p"
  type: "ReLU"
  bottom: "data-split1-slice-ip_4-1_p"
  top: "data-split1-slice-ip_4-1_p"
}
layer {
  name: "data-split1-slice-ip_5-0"
  type: "InnerProduct"
  bottom: "flat_data-5"
  top: "data-split1-slice-ip_5-0"
  param {
    name: "data-split1-slice-ip_5-0_w"
    lr_mult: 1
    decay_mult: 1
  }
  param {
    name: "data-split1-slice-ip_5-0_b"
    lr_mult: 2
    decay_mult: 0
  }
  inner_product_param {
    num_output: 200
    weight_filler {
      type: "xavier"
      std:0.01
    }
    bias_filler {
      type: "constant"
      value: 0
    }
  }
}
layer {
  name: "relu-data-split1-slice-ip_5-0"
  type: "ReLU"
  bottom: "data-split1-slice-ip_5-0"
  top: "data-split1-slice-ip_5-0"
}
layer {
  name: "data-split1-slice-ip_5-0_p"
  type: "InnerProduct"
  bottom: "flat_data_p-5"
  top: "data-split1-slice-ip_5-0_p"
  param {
    name: "data-split1-slice-ip_5-0_w"
    lr_mult: 1
    decay_mult: 1
  }
  param {
    name: "data-split1-slice-ip_5-0_b"
    lr_mult: 2
    decay_mult: 0
  }
  inner_product_param {
    num_output: 200
    weight_filler {
      type: "xavier"
      std:0.01
    }
    bias_filler {
      type: "constant"
      value: 0
    }
  }
}
layer {
  name: "relu-data-split1-slice-ip_5-0_p"
  type: "ReLU"
  bottom: "data-split1-slice-ip_5-0_p"
  top: "data-split1-slice-ip_5-0_p"
}
layer {
  name: "data-split1-slice-ip_5-1"
  type: "InnerProduct"
  bottom: "data-split1-slice-ip_5-0"
  top: "data-split1-slice-ip_5-1"
  param {
    name: "data-split1-slice-ip_5-1_w"
    lr_mult: 1
    decay_mult: 1
  }
  param {
    name: "data-split1-slice-ip_5-1_b"
    lr_mult: 2
    decay_mult: 0
  }
  inner_product_param {
    num_output: 168
    weight_filler {
      type: "xavier"
      std:0.01
    }
    bias_filler {
      type: "constant"
      value: 0
    }
  }
}
layer {
  name: "relu-data-split1-slice-ip_5-1"
  type: "ReLU"
  bottom: "data-split1-slice-ip_5-1"
  top: "data-split1-slice-ip_5-1"
}
layer {
  name: "data-split1-slice-ip_5-1_p"
  type: "InnerProduct"
  bottom: "data-split1-slice-ip_5-0_p"
  top: "data-split1-slice-ip_5-1_p"
  param {
    name: "data-split1-slice-ip_5-1_w"
    lr_mult: 1
    decay_mult: 1
  }
  param {
    name: "data-split1-slice-ip_5-1_b"
    lr_mult: 2
    decay_mult: 0
  }
  inner_product_param {
    num_output: 168
    weight_filler {
      type: "xavier"
      std:0.01
    }
    bias_filler {
      type: "constant"
      value: 0
    }
  }
}
layer {
  name: "relu-data-split1-slice-ip_5-1_p"
  type: "ReLU"
  bottom: "data-split1-slice-ip_5-1_p"
  top: "data-split1-slice-ip_5-1_p"
}
layer {
  name: "data-split1-slice-ip_6-0"
  type: "InnerProduct"
  bottom: "flat_data-6"
  top: "data-split1-slice-ip_6-0"
  param {
    name: "data-split1-slice-ip_6-0_w"
    lr_mult: 1
    decay_mult: 1
  }
  param {
    name: "data-split1-slice-ip_6-0_b"
    lr_mult: 2
    decay_mult: 0
  }
  inner_product_param {
    num_output: 200
    weight_filler {
      type: "xavier"
      std:0.01
    }
    bias_filler {
      type: "constant"
      value: 0
    }
  }
}
layer {
  name: "relu-data-split1-slice-ip_6-0"
  type: "ReLU"
  bottom: "data-split1-slice-ip_6-0"
  top: "data-split1-slice-ip_6-0"
}
layer {
  name: "data-split1-slice-ip_6-0_p"
  type: "InnerProduct"
  bottom: "flat_data_p-6"
  top: "data-split1-slice-ip_6-0_p"
  param {
    name: "data-split1-slice-ip_6-0_w"
    lr_mult: 1
    decay_mult: 1
  }
  param {
    name: "data-split1-slice-ip_6-0_b"
    lr_mult: 2
    decay_mult: 0
  }
  inner_product_param {
    num_output: 200
    weight_filler {
      type: "xavier"
      std:0.01
    }
    bias_filler {
      type: "constant"
      value: 0
    }
  }
}
layer {
  name: "relu-data-split1-slice-ip_6-0_p"
  type: "ReLU"
  bottom: "data-split1-slice-ip_6-0_p"
  top: "data-split1-slice-ip_6-0_p"
}
layer {
  name: "data-split1-slice-ip_6-1"
  type: "InnerProduct"
  bottom: "data-split1-slice-ip_6-0"
  top: "data-split1-slice-ip_6-1"
  param {
    name: "data-split1-slice-ip_6-1_w"
    lr_mult: 1
    decay_mult: 1
  }
  param {
    name: "data-split1-slice-ip_6-1_b"
    lr_mult: 2
    decay_mult: 0
  }
  inner_product_param {
    num_output: 168
    weight_filler {
      type: "xavier"
      std:0.01
    }
    bias_filler {
      type: "constant"
      value: 0
    }
  }
}
layer {
  name: "relu-data-split1-slice-ip_6-1"
  type: "ReLU"
  bottom: "data-split1-slice-ip_6-1"
  top: "data-split1-slice-ip_6-1"
}
layer {
  name: "data-split1-slice-ip_6-1_p"
  type: "InnerProduct"
  bottom: "data-split1-slice-ip_6-0_p"
  top: "data-split1-slice-ip_6-1_p"
  param {
    name: "data-split1-slice-ip_6-1_w"
    lr_mult: 1
    decay_mult: 1
  }
  param {
    name: "data-split1-slice-ip_6-1_b"
    lr_mult: 2
    decay_mult: 0
  }
  inner_product_param {
    num_output: 168
    weight_filler {
      type: "xavier"
      std:0.01
    }
    bias_filler {
      type: "constant"
      value: 0
    }
  }
}
layer {
  name: "relu-data-split1-slice-ip_6-1_p"
  type: "ReLU"
  bottom: "data-split1-slice-ip_6-1_p"
  top: "data-split1-slice-ip_6-1_p"
}
layer {
  name: "data-split1-slice-ip_7-0"
  type: "InnerProduct"
  bottom: "flat_data-7"
  top: "data-split1-slice-ip_7-0"
  param {
    name: "data-split1-slice-ip_7-0_w"
    lr_mult: 1
    decay_mult: 1
  }
  param {
    name: "data-split1-slice-ip_7-0_b"
    lr_mult: 2
    decay_mult: 0
  }
  inner_product_param {
    num_output: 200
    weight_filler {
      type: "xavier"
      std:0.01
    }
    bias_filler {
      type: "constant"
      value: 0
    }
  }
}
layer {
  name: "relu-data-split1-slice-ip_7-0"
  type: "ReLU"
  bottom: "data-split1-slice-ip_7-0"
  top: "data-split1-slice-ip_7-0"
}
layer {
  name: "data-split1-slice-ip_7-0_p"
  type: "InnerProduct"
  bottom: "flat_data_p-7"
  top: "data-split1-slice-ip_7-0_p"
  param {
    name: "data-split1-slice-ip_7-0_w"
    lr_mult: 1
    decay_mult: 1
  }
  param {
    name: "data-split1-slice-ip_7-0_b"
    lr_mult: 2
    decay_mult: 0
  }
  inner_product_param {
    num_output: 200
    weight_filler {
      type: "xavier"
      std:0.01
    }
    bias_filler {
      type: "constant"
      value: 0
    }
  }
}
layer {
  name: "relu-data-split1-slice-ip_7-0_p"
  type: "ReLU"
  bottom: "data-split1-slice-ip_7-0_p"
  top: "data-split1-slice-ip_7-0_p"
}
layer {
  name: "data-split1-slice-ip_7-1"
  type: "InnerProduct"
  bottom: "data-split1-slice-ip_7-0"
  top: "data-split1-slice-ip_7-1"
  param {
    name: "data-split1-slice-ip_7-1_w"
    lr_mult: 1
    decay_mult: 1
  }
  param {
    name: "data-split1-slice-ip_7-1_b"
    lr_mult: 2
    decay_mult: 0
  }
  inner_product_param {
    num_output: 168
    weight_filler {
      type: "xavier"
      std:0.01
    }
    bias_filler {
      type: "constant"
      value: 0
    }
  }
}
layer {
  name: "relu-data-split1-slice-ip_7-1"
  type: "ReLU"
  bottom: "data-split1-slice-ip_7-1"
  top: "data-split1-slice-ip_7-1"
}
layer {
  name: "data-split1-slice-ip_7-1_p"
  type: "InnerProduct"
  bottom: "data-split1-slice-ip_7-0_p"
  top: "data-split1-slice-ip_7-1_p"
  param {
    name: "data-split1-slice-ip_7-1_w"
    lr_mult: 1
    decay_mult: 1
  }
  param {
    name: "data-split1-slice-ip_7-1_b"
    lr_mult: 2
    decay_mult: 0
  }
  inner_product_param {
    num_output: 168
    weight_filler {
      type: "xavier"
      std:0.01
    }
    bias_filler {
      type: "constant"
      value: 0
    }
  }
}
layer {
  name: "relu-data-split1-slice-ip_7-1_p"
  type: "ReLU"
  bottom: "data-split1-slice-ip_7-1_p"
  top: "data-split1-slice-ip_7-1_p"
}
layer {
  name: "data-split1-slice-ip_8-0"
  type: "InnerProduct"
  bottom: "flat_data-8"
  top: "data-split1-slice-ip_8-0"
  param {
    name: "data-split1-slice-ip_8-0_w"
    lr_mult: 1
    decay_mult: 1
  }
  param {
    name: "data-split1-slice-ip_8-0_b"
    lr_mult: 2
    decay_mult: 0
  }
  inner_product_param {
    num_output: 200
    weight_filler {
      type: "xavier"
      std:0.01
    }
    bias_filler {
      type: "constant"
      value: 0
    }
  }
}
layer {
  name: "relu-data-split1-slice-ip_8-0"
  type: "ReLU"
  bottom: "data-split1-slice-ip_8-0"
  top: "data-split1-slice-ip_8-0"
}
layer {
  name: "data-split1-slice-ip_8-0_p"
  type: "InnerProduct"
  bottom: "flat_data_p-8"
  top: "data-split1-slice-ip_8-0_p"
  param {
    name: "data-split1-slice-ip_8-0_w"
    lr_mult: 1
    decay_mult: 1
  }
  param {
    name: "data-split1-slice-ip_8-0_b"
    lr_mult: 2
    decay_mult: 0
  }
  inner_product_param {
    num_output: 200
    weight_filler {
      type: "xavier"
      std:0.01
    }
    bias_filler {
      type: "constant"
      value: 0
    }
  }
}
layer {
  name: "relu-data-split1-slice-ip_8-0_p"
  type: "ReLU"
  bottom: "data-split1-slice-ip_8-0_p"
  top: "data-split1-slice-ip_8-0_p"
}
layer {
  name: "data-split1-slice-ip_8-1"
  type: "InnerProduct"
  bottom: "data-split1-slice-ip_8-0"
  top: "data-split1-slice-ip_8-1"
  param {
    name: "data-split1-slice-ip_8-1_w"
    lr_mult: 1
    decay_mult: 1
  }
  param {
    name: "data-split1-slice-ip_8-1_b"
    lr_mult: 2
    decay_mult: 0
  }
  inner_product_param {
    num_output: 168
    weight_filler {
      type: "xavier"
      std:0.01
    }
    bias_filler {
      type: "constant"
      value: 0
    }
  }
}
layer {
  name: "relu-data-split1-slice-ip_8-1"
  type: "ReLU"
  bottom: "data-split1-slice-ip_8-1"
  top: "data-split1-slice-ip_8-1"
}
layer {
  name: "data-split1-slice-ip_8-1_p"
  type: "InnerProduct"
  bottom: "data-split1-slice-ip_8-0_p"
  top: "data-split1-slice-ip_8-1_p"
  param {
    name: "data-split1-slice-ip_8-1_w"
    lr_mult: 1
    decay_mult: 1
  }
  param {
    name: "data-split1-slice-ip_8-1_b"
    lr_mult: 2
    decay_mult: 0
  }
  inner_product_param {
    num_output: 168
    weight_filler {
      type: "xavier"
      std:0.01
    }
    bias_filler {
      type: "constant"
      value: 0
    }
  }
}
layer {
  name: "relu-data-split1-slice-ip_8-1_p"
  type: "ReLU"
  bottom: "data-split1-slice-ip_8-1_p"
  top: "data-split1-slice-ip_8-1_p"
}
layer {
  name: "data-split1-slice-ip_9-0"
  type: "InnerProduct"
  bottom: "flat_data-9"
  top: "data-split1-slice-ip_9-0"
  param {
    name: "data-split1-slice-ip_9-0_w"
    lr_mult: 1
    decay_mult: 1
  }
  param {
    name: "data-split1-slice-ip_9-0_b"
    lr_mult: 2
    decay_mult: 0
  }
  inner_product_param {
    num_output: 200
    weight_filler {
      type: "xavier"
      std:0.01
    }
    bias_filler {
      type: "constant"
      value: 0
    }
  }
}
layer {
  name: "relu-data-split1-slice-ip_9-0"
  type: "ReLU"
  bottom: "data-split1-slice-ip_9-0"
  top: "data-split1-slice-ip_9-0"
}
layer {
  name: "data-split1-slice-ip_9-0_p"
  type: "InnerProduct"
  bottom: "flat_data_p-9"
  top: "data-split1-slice-ip_9-0_p"
  param {
    name: "data-split1-slice-ip_9-0_w"
    lr_mult: 1
    decay_mult: 1
  }
  param {
    name: "data-split1-slice-ip_9-0_b"
    lr_mult: 2
    decay_mult: 0
  }
  inner_product_param {
    num_output: 200
    weight_filler {
      type: "xavier"
      std:0.01
    }
    bias_filler {
      type: "constant"
      value: 0
    }
  }
}
layer {
  name: "relu-data-split1-slice-ip_9-0_p"
  type: "ReLU"
  bottom: "data-split1-slice-ip_9-0_p"
  top: "data-split1-slice-ip_9-0_p"
}
layer {
  name: "data-split1-slice-ip_9-1"
  type: "InnerProduct"
  bottom: "data-split1-slice-ip_9-0"
  top: "data-split1-slice-ip_9-1"
  param {
    name: "data-split1-slice-ip_9-1_w"
    lr_mult: 1
    decay_mult: 1
  }
  param {
    name: "data-split1-slice-ip_9-1_b"
    lr_mult: 2
    decay_mult: 0
  }
  inner_product_param {
    num_output: 168
    weight_filler {
      type: "xavier"
      std:0.01
    }
    bias_filler {
      type: "constant"
      value: 0
    }
  }
}
layer {
  name: "relu-data-split1-slice-ip_9-1"
  type: "ReLU"
  bottom: "data-split1-slice-ip_9-1"
  top: "data-split1-slice-ip_9-1"
}
layer {
  name: "data-split1-slice-ip_9-1_p"
  type: "InnerProduct"
  bottom: "data-split1-slice-ip_9-0_p"
  top: "data-split1-slice-ip_9-1_p"
  param {
    name: "data-split1-slice-ip_9-1_w"
    lr_mult: 1
    decay_mult: 1
  }
  param {
    name: "data-split1-slice-ip_9-1_b"
    lr_mult: 2
    decay_mult: 0
  }
  inner_product_param {
    num_output: 168
    weight_filler {
      type: "xavier"
      std:0.01
    }
    bias_filler {
      type: "constant"
      value: 0
    }
  }
}
layer {
  name: "relu-data-split1-slice-ip_9-1_p"
  type: "ReLU"
  bottom: "data-split1-slice-ip_9-1_p"
  top: "data-split1-slice-ip_9-1_p"
}
layer {
  name: "data-split1-slice-ip_10-0"
  type: "InnerProduct"
  bottom: "flat_data-10"
  top: "data-split1-slice-ip_10-0"
  param {
    name: "data-split1-slice-ip_10-0_w"
    lr_mult: 1
    decay_mult: 1
  }
  param {
    name: "data-split1-slice-ip_10-0_b"
    lr_mult: 2
    decay_mult: 0
  }
  inner_product_param {
    num_output: 200
    weight_filler {
      type: "xavier"
      std:0.01
    }
    bias_filler {
      type: "constant"
      value: 0
    }
  }
}
layer {
  name: "relu-data-split1-slice-ip_10-0"
  type: "ReLU"
  bottom: "data-split1-slice-ip_10-0"
  top: "data-split1-slice-ip_10-0"
}
layer {
  name: "data-split1-slice-ip_10-0_p"
  type: "InnerProduct"
  bottom: "flat_data_p-10"
  top: "data-split1-slice-ip_10-0_p"
  param {
    name: "data-split1-slice-ip_10-0_w"
    lr_mult: 1
    decay_mult: 1
  }
  param {
    name: "data-split1-slice-ip_10-0_b"
    lr_mult: 2
    decay_mult: 0
  }
  inner_product_param {
    num_output: 200
    weight_filler {
      type: "xavier"
      std:0.01
    }
    bias_filler {
      type: "constant"
      value: 0
    }
  }
}
layer {
  name: "relu-data-split1-slice-ip_10-0_p"
  type: "ReLU"
  bottom: "data-split1-slice-ip_10-0_p"
  top: "data-split1-slice-ip_10-0_p"
}
layer {
  name: "data-split1-slice-ip_10-1"
  type: "InnerProduct"
  bottom: "data-split1-slice-ip_10-0"
  top: "data-split1-slice-ip_10-1"
  param {
    name: "data-split1-slice-ip_10-1_w"
    lr_mult: 1
    decay_mult: 1
  }
  param {
    name: "data-split1-slice-ip_10-1_b"
    lr_mult: 2
    decay_mult: 0
  }
  inner_product_param {
    num_output: 168
    weight_filler {
      type: "xavier"
      std:0.01
    }
    bias_filler {
      type: "constant"
      value: 0
    }
  }
}
layer {
  name: "relu-data-split1-slice-ip_10-1"
  type: "ReLU"
  bottom: "data-split1-slice-ip_10-1"
  top: "data-split1-slice-ip_10-1"
}
layer {
  name: "data-split1-slice-ip_10-1_p"
  type: "InnerProduct"
  bottom: "data-split1-slice-ip_10-0_p"
  top: "data-split1-slice-ip_10-1_p"
  param {
    name: "data-split1-slice-ip_10-1_w"
    lr_mult: 1
    decay_mult: 1
  }
  param {
    name: "data-split1-slice-ip_10-1_b"
    lr_mult: 2
    decay_mult: 0
  }
  inner_product_param {
    num_output: 168
    weight_filler {
      type: "xavier"
      std:0.01
    }
    bias_filler {
      type: "constant"
      value: 0
    }
  }
}
layer {
  name: "relu-data-split1-slice-ip_10-1_p"
  type: "ReLU"
  bottom: "data-split1-slice-ip_10-1_p"
  top: "data-split1-slice-ip_10-1_p"
}
layer {
  name: "data-split1-slice-ip_11-0"
  type: "InnerProduct"
  bottom: "flat_data-11"
  top: "data-split1-slice-ip_11-0"
  param {
    name: "data-split1-slice-ip_11-0_w"
    lr_mult: 1
    decay_mult: 1
  }
  param {
    name: "data-split1-slice-ip_11-0_b"
    lr_mult: 2
    decay_mult: 0
  }
  inner_product_param {
    num_output: 200
    weight_filler {
      type: "xavier"
      std:0.01
    }
    bias_filler {
      type: "constant"
      value: 0
    }
  }
}
layer {
  name: "relu-data-split1-slice-ip_11-0"
  type: "ReLU"
  bottom: "data-split1-slice-ip_11-0"
  top: "data-split1-slice-ip_11-0"
}
layer {
  name: "data-split1-slice-ip_11-0_p"
  type: "InnerProduct"
  bottom: "flat_data_p-11"
  top: "data-split1-slice-ip_11-0_p"
  param {
    name: "data-split1-slice-ip_11-0_w"
    lr_mult: 1
    decay_mult: 1
  }
  param {
    name: "data-split1-slice-ip_11-0_b"
    lr_mult: 2
    decay_mult: 0
  }
  inner_product_param {
    num_output: 200
    weight_filler {
      type: "xavier"
      std:0.01
    }
    bias_filler {
      type: "constant"
      value: 0
    }
  }
}
layer {
  name: "relu-data-split1-slice-ip_11-0_p"
  type: "ReLU"
  bottom: "data-split1-slice-ip_11-0_p"
  top: "data-split1-slice-ip_11-0_p"
}
layer {
  name: "data-split1-slice-ip_11-1"
  type: "InnerProduct"
  bottom: "data-split1-slice-ip_11-0"
  top: "data-split1-slice-ip_11-1"
  param {
    name: "data-split1-slice-ip_11-1_w"
    lr_mult: 1
    decay_mult: 1
  }
  param {
    name: "data-split1-slice-ip_11-1_b"
    lr_mult: 2
    decay_mult: 0
  }
  inner_product_param {
    num_output: 168
    weight_filler {
      type: "xavier"
      std:0.01
    }
    bias_filler {
      type: "constant"
      value: 0
    }
  }
}
layer {
  name: "relu-data-split1-slice-ip_11-1"
  type: "ReLU"
  bottom: "data-split1-slice-ip_11-1"
  top: "data-split1-slice-ip_11-1"
}
layer {
  name: "data-split1-slice-ip_11-1_p"
  type: "InnerProduct"
  bottom: "data-split1-slice-ip_11-0_p"
  top: "data-split1-slice-ip_11-1_p"
  param {
    name: "data-split1-slice-ip_11-1_w"
    lr_mult: 1
    decay_mult: 1
  }
  param {
    name: "data-split1-slice-ip_11-1_b"
    lr_mult: 2
    decay_mult: 0
  }
  inner_product_param {
    num_output: 168
    weight_filler {
      type: "xavier"
      std:0.01
    }
    bias_filler {
      type: "constant"
      value: 0
    }
  }
}
layer {
  name: "relu-data-split1-slice-ip_11-1_p"
  type: "ReLU"
  bottom: "data-split1-slice-ip_11-1_p"
  top: "data-split1-slice-ip_11-1_p"
}
layer {
  name: "data-split1-slice-ip_12-0"
  type: "InnerProduct"
  bottom: "flat_data-12"
  top: "data-split1-slice-ip_12-0"
  param {
    name: "data-split1-slice-ip_12-0_w"
    lr_mult: 1
    decay_mult: 1
  }
  param {
    name: "data-split1-slice-ip_12-0_b"
    lr_mult: 2
    decay_mult: 0
  }
  inner_product_param {
    num_output: 200
    weight_filler {
      type: "xavier"
      std:0.01
    }
    bias_filler {
      type: "constant"
      value: 0
    }
  }
}
layer {
  name: "relu-data-split1-slice-ip_12-0"
  type: "ReLU"
  bottom: "data-split1-slice-ip_12-0"
  top: "data-split1-slice-ip_12-0"
}
layer {
  name: "data-split1-slice-ip_12-0_p"
  type: "InnerProduct"
  bottom: "flat_data_p-12"
  top: "data-split1-slice-ip_12-0_p"
  param {
    name: "data-split1-slice-ip_12-0_w"
    lr_mult: 1
    decay_mult: 1
  }
  param {
    name: "data-split1-slice-ip_12-0_b"
    lr_mult: 2
    decay_mult: 0
  }
  inner_product_param {
    num_output: 200
    weight_filler {
      type: "xavier"
      std:0.01
    }
    bias_filler {
      type: "constant"
      value: 0
    }
  }
}
layer {
  name: "relu-data-split1-slice-ip_12-0_p"
  type: "ReLU"
  bottom: "data-split1-slice-ip_12-0_p"
  top: "data-split1-slice-ip_12-0_p"
}
layer {
  name: "data-split1-slice-ip_12-1"
  type: "InnerProduct"
  bottom: "data-split1-slice-ip_12-0"
  top: "data-split1-slice-ip_12-1"
  param {
    name: "data-split1-slice-ip_12-1_w"
    lr_mult: 1
    decay_mult: 1
  }
  param {
    name: "data-split1-slice-ip_12-1_b"
    lr_mult: 2
    decay_mult: 0
  }
  inner_product_param {
    num_output: 168
    weight_filler {
      type: "xavier"
      std:0.01
    }
    bias_filler {
      type: "constant"
      value: 0
    }
  }
}
layer {
  name: "relu-data-split1-slice-ip_12-1"
  type: "ReLU"
  bottom: "data-split1-slice-ip_12-1"
  top: "data-split1-slice-ip_12-1"
}
layer {
  name: "data-split1-slice-ip_12-1_p"
  type: "InnerProduct"
  bottom: "data-split1-slice-ip_12-0_p"
  top: "data-split1-slice-ip_12-1_p"
  param {
    name: "data-split1-slice-ip_12-1_w"
    lr_mult: 1
    decay_mult: 1
  }
  param {
    name: "data-split1-slice-ip_12-1_b"
    lr_mult: 2
    decay_mult: 0
  }
  inner_product_param {
    num_output: 168
    weight_filler {
      type: "xavier"
      std:0.01
    }
    bias_filler {
      type: "constant"
      value: 0
    }
  }
}
layer {
  name: "relu-data-split1-slice-ip_12-1_p"
  type: "ReLU"
  bottom: "data-split1-slice-ip_12-1_p"
  top: "data-split1-slice-ip_12-1_p"
}
layer {
  name: "data-split1-slice-ip_13-0"
  type: "InnerProduct"
  bottom: "flat_data-13"
  top: "data-split1-slice-ip_13-0"
  param {
    name: "data-split1-slice-ip_13-0_w"
    lr_mult: 1
    decay_mult: 1
  }
  param {
    name: "data-split1-slice-ip_13-0_b"
    lr_mult: 2
    decay_mult: 0
  }
  inner_product_param {
    num_output: 200
    weight_filler {
      type: "xavier"
      std:0.01
    }
    bias_filler {
      type: "constant"
      value: 0
    }
  }
}
layer {
  name: "relu-data-split1-slice-ip_13-0"
  type: "ReLU"
  bottom: "data-split1-slice-ip_13-0"
  top: "data-split1-slice-ip_13-0"
}
layer {
  name: "data-split1-slice-ip_13-0_p"
  type: "InnerProduct"
  bottom: "flat_data_p-13"
  top: "data-split1-slice-ip_13-0_p"
  param {
    name: "data-split1-slice-ip_13-0_w"
    lr_mult: 1
    decay_mult: 1
  }
  param {
    name: "data-split1-slice-ip_13-0_b"
    lr_mult: 2
    decay_mult: 0
  }
  inner_product_param {
    num_output: 200
    weight_filler {
      type: "xavier"
      std:0.01
    }
    bias_filler {
      type: "constant"
      value: 0
    }
  }
}
layer {
  name: "relu-data-split1-slice-ip_13-0_p"
  type: "ReLU"
  bottom: "data-split1-slice-ip_13-0_p"
  top: "data-split1-slice-ip_13-0_p"
}
layer {
  name: "data-split1-slice-ip_13-1"
  type: "InnerProduct"
  bottom: "data-split1-slice-ip_13-0"
  top: "data-split1-slice-ip_13-1"
  param {
    name: "data-split1-slice-ip_13-1_w"
    lr_mult: 1
    decay_mult: 1
  }
  param {
    name: "data-split1-slice-ip_13-1_b"
    lr_mult: 2
    decay_mult: 0
  }
  inner_product_param {
    num_output: 168
    weight_filler {
      type: "xavier"
      std:0.01
    }
    bias_filler {
      type: "constant"
      value: 0
    }
  }
}
layer {
  name: "relu-data-split1-slice-ip_13-1"
  type: "ReLU"
  bottom: "data-split1-slice-ip_13-1"
  top: "data-split1-slice-ip_13-1"
}
layer {
  name: "data-split1-slice-ip_13-1_p"
  type: "InnerProduct"
  bottom: "data-split1-slice-ip_13-0_p"
  top: "data-split1-slice-ip_13-1_p"
  param {
    name: "data-split1-slice-ip_13-1_w"
    lr_mult: 1
    decay_mult: 1
  }
  param {
    name: "data-split1-slice-ip_13-1_b"
    lr_mult: 2
    decay_mult: 0
  }
  inner_product_param {
    num_output: 168
    weight_filler {
      type: "xavier"
      std:0.01
    }
    bias_filler {
      type: "constant"
      value: 0
    }
  }
}
layer {
  name: "relu-data-split1-slice-ip_13-1_p"
  type: "ReLU"
  bottom: "data-split1-slice-ip_13-1_p"
  top: "data-split1-slice-ip_13-1_p"
}
layer {
  name: "data-split1-slice-ip_14-0"
  type: "InnerProduct"
  bottom: "flat_data-14"
  top: "data-split1-slice-ip_14-0"
  param {
    name: "data-split1-slice-ip_14-0_w"
    lr_mult: 1
    decay_mult: 1
  }
  param {
    name: "data-split1-slice-ip_14-0_b"
    lr_mult: 2
    decay_mult: 0
  }
  inner_product_param {
    num_output: 200
    weight_filler {
      type: "xavier"
      std:0.01
    }
    bias_filler {
      type: "constant"
      value: 0
    }
  }
}
layer {
  name: "relu-data-split1-slice-ip_14-0"
  type: "ReLU"
  bottom: "data-split1-slice-ip_14-0"
  top: "data-split1-slice-ip_14-0"
}
layer {
  name: "data-split1-slice-ip_14-0_p"
  type: "InnerProduct"
  bottom: "flat_data_p-14"
  top: "data-split1-slice-ip_14-0_p"
  param {
    name: "data-split1-slice-ip_14-0_w"
    lr_mult: 1
    decay_mult: 1
  }
  param {
    name: "data-split1-slice-ip_14-0_b"
    lr_mult: 2
    decay_mult: 0
  }
  inner_product_param {
    num_output: 200
    weight_filler {
      type: "xavier"
      std:0.01
    }
    bias_filler {
      type: "constant"
      value: 0
    }
  }
}
layer {
  name: "relu-data-split1-slice-ip_14-0_p"
  type: "ReLU"
  bottom: "data-split1-slice-ip_14-0_p"
  top: "data-split1-slice-ip_14-0_p"
}
layer {
  name: "data-split1-slice-ip_14-1"
  type: "InnerProduct"
  bottom: "data-split1-slice-ip_14-0"
  top: "data-split1-slice-ip_14-1"
  param {
    name: "data-split1-slice-ip_14-1_w"
    lr_mult: 1
    decay_mult: 1
  }
  param {
    name: "data-split1-slice-ip_14-1_b"
    lr_mult: 2
    decay_mult: 0
  }
  inner_product_param {
    num_output: 168
    weight_filler {
      type: "xavier"
      std:0.01
    }
    bias_filler {
      type: "constant"
      value: 0
    }
  }
}
layer {
  name: "relu-data-split1-slice-ip_14-1"
  type: "ReLU"
  bottom: "data-split1-slice-ip_14-1"
  top: "data-split1-slice-ip_14-1"
}
layer {
  name: "data-split1-slice-ip_14-1_p"
  type: "InnerProduct"
  bottom: "data-split1-slice-ip_14-0_p"
  top: "data-split1-slice-ip_14-1_p"
  param {
    name: "data-split1-slice-ip_14-1_w"
    lr_mult: 1
    decay_mult: 1
  }
  param {
    name: "data-split1-slice-ip_14-1_b"
    lr_mult: 2
    decay_mult: 0
  }
  inner_product_param {
    num_output: 168
    weight_filler {
      type: "xavier"
      std:0.01
    }
    bias_filler {
      type: "constant"
      value: 0
    }
  }
}
layer {
  name: "relu-data-split1-slice-ip_14-1_p"
  type: "ReLU"
  bottom: "data-split1-slice-ip_14-1_p"
  top: "data-split1-slice-ip_14-1_p"
}
layer {
  name: "data-split1-slice-ip_15-0"
  type: "InnerProduct"
  bottom: "flat_data-15"
  top: "data-split1-slice-ip_15-0"
  param {
    name: "data-split1-slice-ip_15-0_w"
    lr_mult: 1
    decay_mult: 1
  }
  param {
    name: "data-split1-slice-ip_15-0_b"
    lr_mult: 2
    decay_mult: 0
  }
  inner_product_param {
    num_output: 200
    weight_filler {
      type: "xavier"
      std:0.01
    }
    bias_filler {
      type: "constant"
      value: 0
    }
  }
}
layer {
  name: "relu-data-split1-slice-ip_15-0"
  type: "ReLU"
  bottom: "data-split1-slice-ip_15-0"
  top: "data-split1-slice-ip_15-0"
}
layer {
  name: "data-split1-slice-ip_15-0_p"
  type: "InnerProduct"
  bottom: "flat_data_p-15"
  top: "data-split1-slice-ip_15-0_p"
  param {
    name: "data-split1-slice-ip_15-0_w"
    lr_mult: 1
    decay_mult: 1
  }
  param {
    name: "data-split1-slice-ip_15-0_b"
    lr_mult: 2
    decay_mult: 0
  }
  inner_product_param {
    num_output: 200
    weight_filler {
      type: "xavier"
      std:0.01
    }
    bias_filler {
      type: "constant"
      value: 0
    }
  }
}
layer {
  name: "relu-data-split1-slice-ip_15-0_p"
  type: "ReLU"
  bottom: "data-split1-slice-ip_15-0_p"
  top: "data-split1-slice-ip_15-0_p"
}
layer {
  name: "data-split1-slice-ip_15-1"
  type: "InnerProduct"
  bottom: "data-split1-slice-ip_15-0"
  top: "data-split1-slice-ip_15-1"
  param {
    name: "data-split1-slice-ip_15-1_w"
    lr_mult: 1
    decay_mult: 1
  }
  param {
    name: "data-split1-slice-ip_15-1_b"
    lr_mult: 2
    decay_mult: 0
  }
  inner_product_param {
    num_output: 168
    weight_filler {
      type: "xavier"
      std:0.01
    }
    bias_filler {
      type: "constant"
      value: 0
    }
  }
}
layer {
  name: "relu-data-split1-slice-ip_15-1"
  type: "ReLU"
  bottom: "data-split1-slice-ip_15-1"
  top: "data-split1-slice-ip_15-1"
}
layer {
  name: "data-split1-slice-ip_15-1_p"
  type: "InnerProduct"
  bottom: "data-split1-slice-ip_15-0_p"
  top: "data-split1-slice-ip_15-1_p"
  param {
    name: "data-split1-slice-ip_15-1_w"
    lr_mult: 1
    decay_mult: 1
  }
  param {
    name: "data-split1-slice-ip_15-1_b"
    lr_mult: 2
    decay_mult: 0
  }
  inner_product_param {
    num_output: 168
    weight_filler {
      type: "xavier"
      std:0.01
    }
    bias_filler {
      type: "constant"
      value: 0
    }
  }
}
layer {
  name: "relu-data-split1-slice-ip_15-1_p"
  type: "ReLU"
  bottom: "data-split1-slice-ip_15-1_p"
  top: "data-split1-slice-ip_15-1_p"
}
layer {
  name: "data-split1-slice-ip_16-0"
  type: "InnerProduct"
  bottom: "flat_data-16"
  top: "data-split1-slice-ip_16-0"
  param {
    name: "data-split1-slice-ip_16-0_w"
    lr_mult: 1
    decay_mult: 1
  }
  param {
    name: "data-split1-slice-ip_16-0_b"
    lr_mult: 2
    decay_mult: 0
  }
  inner_product_param {
    num_output: 200
    weight_filler {
      type: "xavier"
      std:0.01
    }
    bias_filler {
      type: "constant"
      value: 0
    }
  }
}
layer {
  name: "relu-data-split1-slice-ip_16-0"
  type: "ReLU"
  bottom: "data-split1-slice-ip_16-0"
  top: "data-split1-slice-ip_16-0"
}
layer {
  name: "data-split1-slice-ip_16-0_p"
  type: "InnerProduct"
  bottom: "flat_data_p-16"
  top: "data-split1-slice-ip_16-0_p"
  param {
    name: "data-split1-slice-ip_16-0_w"
    lr_mult: 1
    decay_mult: 1
  }
  param {
    name: "data-split1-slice-ip_16-0_b"
    lr_mult: 2
    decay_mult: 0
  }
  inner_product_param {
    num_output: 200
    weight_filler {
      type: "xavier"
      std:0.01
    }
    bias_filler {
      type: "constant"
      value: 0
    }
  }
}
layer {
  name: "relu-data-split1-slice-ip_16-0_p"
  type: "ReLU"
  bottom: "data-split1-slice-ip_16-0_p"
  top: "data-split1-slice-ip_16-0_p"
}
layer {
  name: "data-split1-slice-ip_16-1"
  type: "InnerProduct"
  bottom: "data-split1-slice-ip_16-0"
  top: "data-split1-slice-ip_16-1"
  param {
    name: "data-split1-slice-ip_16-1_w"
    lr_mult: 1
    decay_mult: 1
  }
  param {
    name: "data-split1-slice-ip_16-1_b"
    lr_mult: 2
    decay_mult: 0
  }
  inner_product_param {
    num_output: 168
    weight_filler {
      type: "xavier"
      std:0.01
    }
    bias_filler {
      type: "constant"
      value: 0
    }
  }
}
layer {
  name: "relu-data-split1-slice-ip_16-1"
  type: "ReLU"
  bottom: "data-split1-slice-ip_16-1"
  top: "data-split1-slice-ip_16-1"
}
layer {
  name: "data-split1-slice-ip_16-1_p"
  type: "InnerProduct"
  bottom: "data-split1-slice-ip_16-0_p"
  top: "data-split1-slice-ip_16-1_p"
  param {
    name: "data-split1-slice-ip_16-1_w"
    lr_mult: 1
    decay_mult: 1
  }
  param {
    name: "data-split1-slice-ip_16-1_b"
    lr_mult: 2
    decay_mult: 0
  }
  inner_product_param {
    num_output: 168
    weight_filler {
      type: "xavier"
      std:0.01
    }
    bias_filler {
      type: "constant"
      value: 0
    }
  }
}
layer {
  name: "relu-data-split1-slice-ip_16-1_p"
  type: "ReLU"
  bottom: "data-split1-slice-ip_16-1_p"
  top: "data-split1-slice-ip_16-1_p"
}
layer {
  name: "data-split1-slice-ip_17-0"
  type: "InnerProduct"
  bottom: "flat_data-17"
  top: "data-split1-slice-ip_17-0"
  param {
    name: "data-split1-slice-ip_17-0_w"
    lr_mult: 1
    decay_mult: 1
  }
  param {
    name: "data-split1-slice-ip_17-0_b"
    lr_mult: 2
    decay_mult: 0
  }
  inner_product_param {
    num_output: 200
    weight_filler {
      type: "xavier"
      std:0.01
    }
    bias_filler {
      type: "constant"
      value: 0
    }
  }
}
layer {
  name: "relu-data-split1-slice-ip_17-0"
  type: "ReLU"
  bottom: "data-split1-slice-ip_17-0"
  top: "data-split1-slice-ip_17-0"
}
layer {
  name: "data-split1-slice-ip_17-0_p"
  type: "InnerProduct"
  bottom: "flat_data_p-17"
  top: "data-split1-slice-ip_17-0_p"
  param {
    name: "data-split1-slice-ip_17-0_w"
    lr_mult: 1
    decay_mult: 1
  }
  param {
    name: "data-split1-slice-ip_17-0_b"
    lr_mult: 2
    decay_mult: 0
  }
  inner_product_param {
    num_output: 200
    weight_filler {
      type: "xavier"
      std:0.01
    }
    bias_filler {
      type: "constant"
      value: 0
    }
  }
}
layer {
  name: "relu-data-split1-slice-ip_17-0_p"
  type: "ReLU"
  bottom: "data-split1-slice-ip_17-0_p"
  top: "data-split1-slice-ip_17-0_p"
}
layer {
  name: "data-split1-slice-ip_17-1"
  type: "InnerProduct"
  bottom: "data-split1-slice-ip_17-0"
  top: "data-split1-slice-ip_17-1"
  param {
    name: "data-split1-slice-ip_17-1_w"
    lr_mult: 1
    decay_mult: 1
  }
  param {
    name: "data-split1-slice-ip_17-1_b"
    lr_mult: 2
    decay_mult: 0
  }
  inner_product_param {
    num_output: 168
    weight_filler {
      type: "xavier"
      std:0.01
    }
    bias_filler {
      type: "constant"
      value: 0
    }
  }
}
layer {
  name: "relu-data-split1-slice-ip_17-1"
  type: "ReLU"
  bottom: "data-split1-slice-ip_17-1"
  top: "data-split1-slice-ip_17-1"
}
layer {
  name: "data-split1-slice-ip_17-1_p"
  type: "InnerProduct"
  bottom: "data-split1-slice-ip_17-0_p"
  top: "data-split1-slice-ip_17-1_p"
  param {
    name: "data-split1-slice-ip_17-1_w"
    lr_mult: 1
    decay_mult: 1
  }
  param {
    name: "data-split1-slice-ip_17-1_b"
    lr_mult: 2
    decay_mult: 0
  }
  inner_product_param {
    num_output: 168
    weight_filler {
      type: "xavier"
      std:0.01
    }
    bias_filler {
      type: "constant"
      value: 0
    }
  }
}
layer {
  name: "relu-data-split1-slice-ip_17-1_p"
  type: "ReLU"
  bottom: "data-split1-slice-ip_17-1_p"
  top: "data-split1-slice-ip_17-1_p"
}
layer {
  name: "data-split1-slice-ip_18-0"
  type: "InnerProduct"
  bottom: "flat_data-18"
  top: "data-split1-slice-ip_18-0"
  param {
    name: "data-split1-slice-ip_18-0_w"
    lr_mult: 1
    decay_mult: 1
  }
  param {
    name: "data-split1-slice-ip_18-0_b"
    lr_mult: 2
    decay_mult: 0
  }
  inner_product_param {
    num_output: 200
    weight_filler {
      type: "xavier"
      std:0.01
    }
    bias_filler {
      type: "constant"
      value: 0
    }
  }
}
layer {
  name: "relu-data-split1-slice-ip_18-0"
  type: "ReLU"
  bottom: "data-split1-slice-ip_18-0"
  top: "data-split1-slice-ip_18-0"
}
layer {
  name: "data-split1-slice-ip_18-0_p"
  type: "InnerProduct"
  bottom: "flat_data_p-18"
  top: "data-split1-slice-ip_18-0_p"
  param {
    name: "data-split1-slice-ip_18-0_w"
    lr_mult: 1
    decay_mult: 1
  }
  param {
    name: "data-split1-slice-ip_18-0_b"
    lr_mult: 2
    decay_mult: 0
  }
  inner_product_param {
    num_output: 200
    weight_filler {
      type: "xavier"
      std:0.01
    }
    bias_filler {
      type: "constant"
      value: 0
    }
  }
}
layer {
  name: "relu-data-split1-slice-ip_18-0_p"
  type: "ReLU"
  bottom: "data-split1-slice-ip_18-0_p"
  top: "data-split1-slice-ip_18-0_p"
}
layer {
  name: "data-split1-slice-ip_18-1"
  type: "InnerProduct"
  bottom: "data-split1-slice-ip_18-0"
  top: "data-split1-slice-ip_18-1"
  param {
    name: "data-split1-slice-ip_18-1_w"
    lr_mult: 1
    decay_mult: 1
  }
  param {
    name: "data-split1-slice-ip_18-1_b"
    lr_mult: 2
    decay_mult: 0
  }
  inner_product_param {
    num_output: 168
    weight_filler {
      type: "xavier"
      std:0.01
    }
    bias_filler {
      type: "constant"
      value: 0
    }
  }
}
layer {
  name: "relu-data-split1-slice-ip_18-1"
  type: "ReLU"
  bottom: "data-split1-slice-ip_18-1"
  top: "data-split1-slice-ip_18-1"
}
layer {
  name: "data-split1-slice-ip_18-1_p"
  type: "InnerProduct"
  bottom: "data-split1-slice-ip_18-0_p"
  top: "data-split1-slice-ip_18-1_p"
  param {
    name: "data-split1-slice-ip_18-1_w"
    lr_mult: 1
    decay_mult: 1
  }
  param {
    name: "data-split1-slice-ip_18-1_b"
    lr_mult: 2
    decay_mult: 0
  }
  inner_product_param {
    num_output: 168
    weight_filler {
      type: "xavier"
      std:0.01
    }
    bias_filler {
      type: "constant"
      value: 0
    }
  }
}
layer {
  name: "relu-data-split1-slice-ip_18-1_p"
  type: "ReLU"
  bottom: "data-split1-slice-ip_18-1_p"
  top: "data-split1-slice-ip_18-1_p"
}
layer {
  name: "data-split1-slice-ip_19-0"
  type: "InnerProduct"
  bottom: "flat_data-19"
  top: "data-split1-slice-ip_19-0"
  param {
    name: "data-split1-slice-ip_19-0_w"
    lr_mult: 1
    decay_mult: 1
  }
  param {
    name: "data-split1-slice-ip_19-0_b"
    lr_mult: 2
    decay_mult: 0
  }
  inner_product_param {
    num_output: 200
    weight_filler {
      type: "xavier"
      std:0.01
    }
    bias_filler {
      type: "constant"
      value: 0
    }
  }
}
layer {
  name: "relu-data-split1-slice-ip_19-0"
  type: "ReLU"
  bottom: "data-split1-slice-ip_19-0"
  top: "data-split1-slice-ip_19-0"
}
layer {
  name: "data-split1-slice-ip_19-0_p"
  type: "InnerProduct"
  bottom: "flat_data_p-19"
  top: "data-split1-slice-ip_19-0_p"
  param {
    name: "data-split1-slice-ip_19-0_w"
    lr_mult: 1
    decay_mult: 1
  }
  param {
    name: "data-split1-slice-ip_19-0_b"
    lr_mult: 2
    decay_mult: 0
  }
  inner_product_param {
    num_output: 200
    weight_filler {
      type: "xavier"
      std:0.01
    }
    bias_filler {
      type: "constant"
      value: 0
    }
  }
}
layer {
  name: "relu-data-split1-slice-ip_19-0_p"
  type: "ReLU"
  bottom: "data-split1-slice-ip_19-0_p"
  top: "data-split1-slice-ip_19-0_p"
}
layer {
  name: "data-split1-slice-ip_19-1"
  type: "InnerProduct"
  bottom: "data-split1-slice-ip_19-0"
  top: "data-split1-slice-ip_19-1"
  param {
    name: "data-split1-slice-ip_19-1_w"
    lr_mult: 1
    decay_mult: 1
  }
  param {
    name: "data-split1-slice-ip_19-1_b"
    lr_mult: 2
    decay_mult: 0
  }
  inner_product_param {
    num_output: 168
    weight_filler {
      type: "xavier"
      std:0.01
    }
    bias_filler {
      type: "constant"
      value: 0
    }
  }
}
layer {
  name: "relu-data-split1-slice-ip_19-1"
  type: "ReLU"
  bottom: "data-split1-slice-ip_19-1"
  top: "data-split1-slice-ip_19-1"
}
layer {
  name: "data-split1-slice-ip_19-1_p"
  type: "InnerProduct"
  bottom: "data-split1-slice-ip_19-0_p"
  top: "data-split1-slice-ip_19-1_p"
  param {
    name: "data-split1-slice-ip_19-1_w"
    lr_mult: 1
    decay_mult: 1
  }
  param {
    name: "data-split1-slice-ip_19-1_b"
    lr_mult: 2
    decay_mult: 0
  }
  inner_product_param {
    num_output: 168
    weight_filler {
      type: "xavier"
      std:0.01
    }
    bias_filler {
      type: "constant"
      value: 0
    }
  }
}
layer {
  name: "relu-data-split1-slice-ip_19-1_p"
  type: "ReLU"
  bottom: "data-split1-slice-ip_19-1_p"
  top: "data-split1-slice-ip_19-1_p"
}
layer {
  name: "data-split1-slice-ip_20-0"
  type: "InnerProduct"
  bottom: "flat_data-20"
  top: "data-split1-slice-ip_20-0"
  param {
    name: "data-split1-slice-ip_20-0_w"
    lr_mult: 1
    decay_mult: 1
  }
  param {
    name: "data-split1-slice-ip_20-0_b"
    lr_mult: 2
    decay_mult: 0
  }
  inner_product_param {
    num_output: 200
    weight_filler {
      type: "xavier"
      std:0.01
    }
    bias_filler {
      type: "constant"
      value: 0
    }
  }
}
layer {
  name: "relu-data-split1-slice-ip_20-0"
  type: "ReLU"
  bottom: "data-split1-slice-ip_20-0"
  top: "data-split1-slice-ip_20-0"
}
layer {
  name: "data-split1-slice-ip_20-0_p"
  type: "InnerProduct"
  bottom: "flat_data_p-20"
  top: "data-split1-slice-ip_20-0_p"
  param {
    name: "data-split1-slice-ip_20-0_w"
    lr_mult: 1
    decay_mult: 1
  }
  param {
    name: "data-split1-slice-ip_20-0_b"
    lr_mult: 2
    decay_mult: 0
  }
  inner_product_param {
    num_output: 200
    weight_filler {
      type: "xavier"
      std:0.01
    }
    bias_filler {
      type: "constant"
      value: 0
    }
  }
}
layer {
  name: "relu-data-split1-slice-ip_20-0_p"
  type: "ReLU"
  bottom: "data-split1-slice-ip_20-0_p"
  top: "data-split1-slice-ip_20-0_p"
}
layer {
  name: "data-split1-slice-ip_20-1"
  type: "InnerProduct"
  bottom: "data-split1-slice-ip_20-0"
  top: "data-split1-slice-ip_20-1"
  param {
    name: "data-split1-slice-ip_20-1_w"
    lr_mult: 1
    decay_mult: 1
  }
  param {
    name: "data-split1-slice-ip_20-1_b"
    lr_mult: 2
    decay_mult: 0
  }
  inner_product_param {
    num_output: 168
    weight_filler {
      type: "xavier"
      std:0.01
    }
    bias_filler {
      type: "constant"
      value: 0
    }
  }
}
layer {
  name: "relu-data-split1-slice-ip_20-1"
  type: "ReLU"
  bottom: "data-split1-slice-ip_20-1"
  top: "data-split1-slice-ip_20-1"
}
layer {
  name: "data-split1-slice-ip_20-1_p"
  type: "InnerProduct"
  bottom: "data-split1-slice-ip_20-0_p"
  top: "data-split1-slice-ip_20-1_p"
  param {
    name: "data-split1-slice-ip_20-1_w"
    lr_mult: 1
    decay_mult: 1
  }
  param {
    name: "data-split1-slice-ip_20-1_b"
    lr_mult: 2
    decay_mult: 0
  }
  inner_product_param {
    num_output: 168
    weight_filler {
      type: "xavier"
      std:0.01
    }
    bias_filler {
      type: "constant"
      value: 0
    }
  }
}
layer {
  name: "relu-data-split1-slice-ip_20-1_p"
  type: "ReLU"
  bottom: "data-split1-slice-ip_20-1_p"
  top: "data-split1-slice-ip_20-1_p"
}
layer {
  name: "data-split1-slice-ip_21-0"
  type: "InnerProduct"
  bottom: "flat_data-21"
  top: "data-split1-slice-ip_21-0"
  param {
    name: "data-split1-slice-ip_21-0_w"
    lr_mult: 1
    decay_mult: 1
  }
  param {
    name: "data-split1-slice-ip_21-0_b"
    lr_mult: 2
    decay_mult: 0
  }
  inner_product_param {
    num_output: 200
    weight_filler {
      type: "xavier"
      std:0.01
    }
    bias_filler {
      type: "constant"
      value: 0
    }
  }
}
layer {
  name: "relu-data-split1-slice-ip_21-0"
  type: "ReLU"
  bottom: "data-split1-slice-ip_21-0"
  top: "data-split1-slice-ip_21-0"
}
layer {
  name: "data-split1-slice-ip_21-0_p"
  type: "InnerProduct"
  bottom: "flat_data_p-21"
  top: "data-split1-slice-ip_21-0_p"
  param {
    name: "data-split1-slice-ip_21-0_w"
    lr_mult: 1
    decay_mult: 1
  }
  param {
    name: "data-split1-slice-ip_21-0_b"
    lr_mult: 2
    decay_mult: 0
  }
  inner_product_param {
    num_output: 200
    weight_filler {
      type: "xavier"
      std:0.01
    }
    bias_filler {
      type: "constant"
      value: 0
    }
  }
}
layer {
  name: "relu-data-split1-slice-ip_21-0_p"
  type: "ReLU"
  bottom: "data-split1-slice-ip_21-0_p"
  top: "data-split1-slice-ip_21-0_p"
}
layer {
  name: "data-split1-slice-ip_21-1"
  type: "InnerProduct"
  bottom: "data-split1-slice-ip_21-0"
  top: "data-split1-slice-ip_21-1"
  param {
    name: "data-split1-slice-ip_21-1_w"
    lr_mult: 1
    decay_mult: 1
  }
  param {
    name: "data-split1-slice-ip_21-1_b"
    lr_mult: 2
    decay_mult: 0
  }
  inner_product_param {
    num_output: 168
    weight_filler {
      type: "xavier"
      std:0.01
    }
    bias_filler {
      type: "constant"
      value: 0
    }
  }
}
layer {
  name: "relu-data-split1-slice-ip_21-1"
  type: "ReLU"
  bottom: "data-split1-slice-ip_21-1"
  top: "data-split1-slice-ip_21-1"
}
layer {
  name: "data-split1-slice-ip_21-1_p"
  type: "InnerProduct"
  bottom: "data-split1-slice-ip_21-0_p"
  top: "data-split1-slice-ip_21-1_p"
  param {
    name: "data-split1-slice-ip_21-1_w"
    lr_mult: 1
    decay_mult: 1
  }
  param {
    name: "data-split1-slice-ip_21-1_b"
    lr_mult: 2
    decay_mult: 0
  }
  inner_product_param {
    num_output: 168
    weight_filler {
      type: "xavier"
      std:0.01
    }
    bias_filler {
      type: "constant"
      value: 0
    }
  }
}
layer {
  name: "relu-data-split1-slice-ip_21-1_p"
  type: "ReLU"
  bottom: "data-split1-slice-ip_21-1_p"
  top: "data-split1-slice-ip_21-1_p"
}
layer {
  name: "data-split1-slice-ip_22-0"
  type: "InnerProduct"
  bottom: "flat_data-22"
  top: "data-split1-slice-ip_22-0"
  param {
    name: "data-split1-slice-ip_22-0_w"
    lr_mult: 1
    decay_mult: 1
  }
  param {
    name: "data-split1-slice-ip_22-0_b"
    lr_mult: 2
    decay_mult: 0
  }
  inner_product_param {
    num_output: 200
    weight_filler {
      type: "xavier"
      std:0.01
    }
    bias_filler {
      type: "constant"
      value: 0
    }
  }
}
layer {
  name: "relu-data-split1-slice-ip_22-0"
  type: "ReLU"
  bottom: "data-split1-slice-ip_22-0"
  top: "data-split1-slice-ip_22-0"
}
layer {
  name: "data-split1-slice-ip_22-0_p"
  type: "InnerProduct"
  bottom: "flat_data_p-22"
  top: "data-split1-slice-ip_22-0_p"
  param {
    name: "data-split1-slice-ip_22-0_w"
    lr_mult: 1
    decay_mult: 1
  }
  param {
    name: "data-split1-slice-ip_22-0_b"
    lr_mult: 2
    decay_mult: 0
  }
  inner_product_param {
    num_output: 200
    weight_filler {
      type: "xavier"
      std:0.01
    }
    bias_filler {
      type: "constant"
      value: 0
    }
  }
}
layer {
  name: "relu-data-split1-slice-ip_22-0_p"
  type: "ReLU"
  bottom: "data-split1-slice-ip_22-0_p"
  top: "data-split1-slice-ip_22-0_p"
}
layer {
  name: "data-split1-slice-ip_22-1"
  type: "InnerProduct"
  bottom: "data-split1-slice-ip_22-0"
  top: "data-split1-slice-ip_22-1"
  param {
    name: "data-split1-slice-ip_22-1_w"
    lr_mult: 1
    decay_mult: 1
  }
  param {
    name: "data-split1-slice-ip_22-1_b"
    lr_mult: 2
    decay_mult: 0
  }
  inner_product_param {
    num_output: 168
    weight_filler {
      type: "xavier"
      std:0.01
    }
    bias_filler {
      type: "constant"
      value: 0
    }
  }
}
layer {
  name: "relu-data-split1-slice-ip_22-1"
  type: "ReLU"
  bottom: "data-split1-slice-ip_22-1"
  top: "data-split1-slice-ip_22-1"
}
layer {
  name: "data-split1-slice-ip_22-1_p"
  type: "InnerProduct"
  bottom: "data-split1-slice-ip_22-0_p"
  top: "data-split1-slice-ip_22-1_p"
  param {
    name: "data-split1-slice-ip_22-1_w"
    lr_mult: 1
    decay_mult: 1
  }
  param {
    name: "data-split1-slice-ip_22-1_b"
    lr_mult: 2
    decay_mult: 0
  }
  inner_product_param {
    num_output: 168
    weight_filler {
      type: "xavier"
      std:0.01
    }
    bias_filler {
      type: "constant"
      value: 0
    }
  }
}
layer {
  name: "relu-data-split1-slice-ip_22-1_p"
  type: "ReLU"
  bottom: "data-split1-slice-ip_22-1_p"
  top: "data-split1-slice-ip_22-1_p"
}
layer {
  name: "data-split1-slice-ip_23-0"
  type: "InnerProduct"
  bottom: "flat_data-23"
  top: "data-split1-slice-ip_23-0"
  param {
    name: "data-split1-slice-ip_23-0_w"
    lr_mult: 1
    decay_mult: 1
  }
  param {
    name: "data-split1-slice-ip_23-0_b"
    lr_mult: 2
    decay_mult: 0
  }
  inner_product_param {
    num_output: 200
    weight_filler {
      type: "xavier"
      std:0.01
    }
    bias_filler {
      type: "constant"
      value: 0
    }
  }
}
layer {
  name: "relu-data-split1-slice-ip_23-0"
  type: "ReLU"
  bottom: "data-split1-slice-ip_23-0"
  top: "data-split1-slice-ip_23-0"
}
layer {
  name: "data-split1-slice-ip_23-0_p"
  type: "InnerProduct"
  bottom: "flat_data_p-23"
  top: "data-split1-slice-ip_23-0_p"
  param {
    name: "data-split1-slice-ip_23-0_w"
    lr_mult: 1
    decay_mult: 1
  }
  param {
    name: "data-split1-slice-ip_23-0_b"
    lr_mult: 2
    decay_mult: 0
  }
  inner_product_param {
    num_output: 200
    weight_filler {
      type: "xavier"
      std:0.01
    }
    bias_filler {
      type: "constant"
      value: 0
    }
  }
}
layer {
  name: "relu-data-split1-slice-ip_23-0_p"
  type: "ReLU"
  bottom: "data-split1-slice-ip_23-0_p"
  top: "data-split1-slice-ip_23-0_p"
}
layer {
  name: "data-split1-slice-ip_23-1"
  type: "InnerProduct"
  bottom: "data-split1-slice-ip_23-0"
  top: "data-split1-slice-ip_23-1"
  param {
    name: "data-split1-slice-ip_23-1_w"
    lr_mult: 1
    decay_mult: 1
  }
  param {
    name: "data-split1-slice-ip_23-1_b"
    lr_mult: 2
    decay_mult: 0
  }
  inner_product_param {
    num_output: 168
    weight_filler {
      type: "xavier"
      std:0.01
    }
    bias_filler {
      type: "constant"
      value: 0
    }
  }
}
layer {
  name: "relu-data-split1-slice-ip_23-1"
  type: "ReLU"
  bottom: "data-split1-slice-ip_23-1"
  top: "data-split1-slice-ip_23-1"
}
layer {
  name: "data-split1-slice-ip_23-1_p"
  type: "InnerProduct"
  bottom: "data-split1-slice-ip_23-0_p"
  top: "data-split1-slice-ip_23-1_p"
  param {
    name: "data-split1-slice-ip_23-1_w"
    lr_mult: 1
    decay_mult: 1
  }
  param {
    name: "data-split1-slice-ip_23-1_b"
    lr_mult: 2
    decay_mult: 0
  }
  inner_product_param {
    num_output: 168
    weight_filler {
      type: "xavier"
      std:0.01
    }
    bias_filler {
      type: "constant"
      value: 0
    }
  }
}
layer {
  name: "relu-data-split1-slice-ip_23-1_p"
  type: "ReLU"
  bottom: "data-split1-slice-ip_23-1_p"
  top: "data-split1-slice-ip_23-1_p"
}
layer {
  name: "data-split1-slice-ip_24-0"
  type: "InnerProduct"
  bottom: "flat_data-24"
  top: "data-split1-slice-ip_24-0"
  param {
    name: "data-split1-slice-ip_24-0_w"
    lr_mult: 1
    decay_mult: 1
  }
  param {
    name: "data-split1-slice-ip_24-0_b"
    lr_mult: 2
    decay_mult: 0
  }
  inner_product_param {
    num_output: 200
    weight_filler {
      type: "xavier"
      std:0.01
    }
    bias_filler {
      type: "constant"
      value: 0
    }
  }
}
layer {
  name: "relu-data-split1-slice-ip_24-0"
  type: "ReLU"
  bottom: "data-split1-slice-ip_24-0"
  top: "data-split1-slice-ip_24-0"
}
layer {
  name: "data-split1-slice-ip_24-0_p"
  type: "InnerProduct"
  bottom: "flat_data_p-24"
  top: "data-split1-slice-ip_24-0_p"
  param {
    name: "data-split1-slice-ip_24-0_w"
    lr_mult: 1
    decay_mult: 1
  }
  param {
    name: "data-split1-slice-ip_24-0_b"
    lr_mult: 2
    decay_mult: 0
  }
  inner_product_param {
    num_output: 200
    weight_filler {
      type: "xavier"
      std:0.01
    }
    bias_filler {
      type: "constant"
      value: 0
    }
  }
}
layer {
  name: "relu-data-split1-slice-ip_24-0_p"
  type: "ReLU"
  bottom: "data-split1-slice-ip_24-0_p"
  top: "data-split1-slice-ip_24-0_p"
}
layer {
  name: "data-split1-slice-ip_24-1"
  type: "InnerProduct"
  bottom: "data-split1-slice-ip_24-0"
  top: "data-split1-slice-ip_24-1"
  param {
    name: "data-split1-slice-ip_24-1_w"
    lr_mult: 1
    decay_mult: 1
  }
  param {
    name: "data-split1-slice-ip_24-1_b"
    lr_mult: 2
    decay_mult: 0
  }
  inner_product_param {
    num_output: 168
    weight_filler {
      type: "xavier"
      std:0.01
    }
    bias_filler {
      type: "constant"
      value: 0
    }
  }
}
layer {
  name: "relu-data-split1-slice-ip_24-1"
  type: "ReLU"
  bottom: "data-split1-slice-ip_24-1"
  top: "data-split1-slice-ip_24-1"
}
layer {
  name: "data-split1-slice-ip_24-1_p"
  type: "InnerProduct"
  bottom: "data-split1-slice-ip_24-0_p"
  top: "data-split1-slice-ip_24-1_p"
  param {
    name: "data-split1-slice-ip_24-1_w"
    lr_mult: 1
    decay_mult: 1
  }
  param {
    name: "data-split1-slice-ip_24-1_b"
    lr_mult: 2
    decay_mult: 0
  }
  inner_product_param {
    num_output: 168
    weight_filler {
      type: "xavier"
      std:0.01
    }
    bias_filler {
      type: "constant"
      value: 0
    }
  }
}
layer {
  name: "relu-data-split1-slice-ip_24-1_p"
  type: "ReLU"
  bottom: "data-split1-slice-ip_24-1_p"
  top: "data-split1-slice-ip_24-1_p"
}
layer {
  name: "data-split1-slice-ip_25-0"
  type: "InnerProduct"
  bottom: "flat_data-25"
  top: "data-split1-slice-ip_25-0"
  param {
    name: "data-split1-slice-ip_25-0_w"
    lr_mult: 1
    decay_mult: 1
  }
  param {
    name: "data-split1-slice-ip_25-0_b"
    lr_mult: 2
    decay_mult: 0
  }
  inner_product_param {
    num_output: 200
    weight_filler {
      type: "xavier"
      std:0.01
    }
    bias_filler {
      type: "constant"
      value: 0
    }
  }
}
layer {
  name: "relu-data-split1-slice-ip_25-0"
  type: "ReLU"
  bottom: "data-split1-slice-ip_25-0"
  top: "data-split1-slice-ip_25-0"
}
layer {
  name: "data-split1-slice-ip_25-0_p"
  type: "InnerProduct"
  bottom: "flat_data_p-25"
  top: "data-split1-slice-ip_25-0_p"
  param {
    name: "data-split1-slice-ip_25-0_w"
    lr_mult: 1
    decay_mult: 1
  }
  param {
    name: "data-split1-slice-ip_25-0_b"
    lr_mult: 2
    decay_mult: 0
  }
  inner_product_param {
    num_output: 200
    weight_filler {
      type: "xavier"
      std:0.01
    }
    bias_filler {
      type: "constant"
      value: 0
    }
  }
}
layer {
  name: "relu-data-split1-slice-ip_25-0_p"
  type: "ReLU"
  bottom: "data-split1-slice-ip_25-0_p"
  top: "data-split1-slice-ip_25-0_p"
}
layer {
  name: "data-split1-slice-ip_25-1"
  type: "InnerProduct"
  bottom: "data-split1-slice-ip_25-0"
  top: "data-split1-slice-ip_25-1"
  param {
    name: "data-split1-slice-ip_25-1_w"
    lr_mult: 1
    decay_mult: 1
  }
  param {
    name: "data-split1-slice-ip_25-1_b"
    lr_mult: 2
    decay_mult: 0
  }
  inner_product_param {
    num_output: 168
    weight_filler {
      type: "xavier"
      std:0.01
    }
    bias_filler {
      type: "constant"
      value: 0
    }
  }
}
layer {
  name: "relu-data-split1-slice-ip_25-1"
  type: "ReLU"
  bottom: "data-split1-slice-ip_25-1"
  top: "data-split1-slice-ip_25-1"
}
layer {
  name: "data-split1-slice-ip_25-1_p"
  type: "InnerProduct"
  bottom: "data-split1-slice-ip_25-0_p"
  top: "data-split1-slice-ip_25-1_p"
  param {
    name: "data-split1-slice-ip_25-1_w"
    lr_mult: 1
    decay_mult: 1
  }
  param {
    name: "data-split1-slice-ip_25-1_b"
    lr_mult: 2
    decay_mult: 0
  }
  inner_product_param {
    num_output: 168
    weight_filler {
      type: "xavier"
      std:0.01
    }
    bias_filler {
      type: "constant"
      value: 0
    }
  }
}
layer {
  name: "relu-data-split1-slice-ip_25-1_p"
  type: "ReLU"
  bottom: "data-split1-slice-ip_25-1_p"
  top: "data-split1-slice-ip_25-1_p"
}
layer {
  name: "data-split1-slice-ip_26-0"
  type: "InnerProduct"
  bottom: "flat_data-26"
  top: "data-split1-slice-ip_26-0"
  param {
    name: "data-split1-slice-ip_26-0_w"
    lr_mult: 1
    decay_mult: 1
  }
  param {
    name: "data-split1-slice-ip_26-0_b"
    lr_mult: 2
    decay_mult: 0
  }
  inner_product_param {
    num_output: 200
    weight_filler {
      type: "xavier"
      std:0.01
    }
    bias_filler {
      type: "constant"
      value: 0
    }
  }
}
layer {
  name: "relu-data-split1-slice-ip_26-0"
  type: "ReLU"
  bottom: "data-split1-slice-ip_26-0"
  top: "data-split1-slice-ip_26-0"
}
layer {
  name: "data-split1-slice-ip_26-0_p"
  type: "InnerProduct"
  bottom: "flat_data_p-26"
  top: "data-split1-slice-ip_26-0_p"
  param {
    name: "data-split1-slice-ip_26-0_w"
    lr_mult: 1
    decay_mult: 1
  }
  param {
    name: "data-split1-slice-ip_26-0_b"
    lr_mult: 2
    decay_mult: 0
  }
  inner_product_param {
    num_output: 200
    weight_filler {
      type: "xavier"
      std:0.01
    }
    bias_filler {
      type: "constant"
      value: 0
    }
  }
}
layer {
  name: "relu-data-split1-slice-ip_26-0_p"
  type: "ReLU"
  bottom: "data-split1-slice-ip_26-0_p"
  top: "data-split1-slice-ip_26-0_p"
}
layer {
  name: "data-split1-slice-ip_26-1"
  type: "InnerProduct"
  bottom: "data-split1-slice-ip_26-0"
  top: "data-split1-slice-ip_26-1"
  param {
    name: "data-split1-slice-ip_26-1_w"
    lr_mult: 1
    decay_mult: 1
  }
  param {
    name: "data-split1-slice-ip_26-1_b"
    lr_mult: 2
    decay_mult: 0
  }
  inner_product_param {
    num_output: 168
    weight_filler {
      type: "xavier"
      std:0.01
    }
    bias_filler {
      type: "constant"
      value: 0
    }
  }
}
layer {
  name: "relu-data-split1-slice-ip_26-1"
  type: "ReLU"
  bottom: "data-split1-slice-ip_26-1"
  top: "data-split1-slice-ip_26-1"
}
layer {
  name: "data-split1-slice-ip_26-1_p"
  type: "InnerProduct"
  bottom: "data-split1-slice-ip_26-0_p"
  top: "data-split1-slice-ip_26-1_p"
  param {
    name: "data-split1-slice-ip_26-1_w"
    lr_mult: 1
    decay_mult: 1
  }
  param {
    name: "data-split1-slice-ip_26-1_b"
    lr_mult: 2
    decay_mult: 0
  }
  inner_product_param {
    num_output: 168
    weight_filler {
      type: "xavier"
      std:0.01
    }
    bias_filler {
      type: "constant"
      value: 0
    }
  }
}
layer {
  name: "relu-data-split1-slice-ip_26-1_p"
  type: "ReLU"
  bottom: "data-split1-slice-ip_26-1_p"
  top: "data-split1-slice-ip_26-1_p"
}
layer {
  name: "data-split1-slice-ip_27-0"
  type: "InnerProduct"
  bottom: "flat_data-27"
  top: "data-split1-slice-ip_27-0"
  param {
    name: "data-split1-slice-ip_27-0_w"
    lr_mult: 1
    decay_mult: 1
  }
  param {
    name: "data-split1-slice-ip_27-0_b"
    lr_mult: 2
    decay_mult: 0
  }
  inner_product_param {
    num_output: 200
    weight_filler {
      type: "xavier"
      std:0.01
    }
    bias_filler {
      type: "constant"
      value: 0
    }
  }
}
layer {
  name: "relu-data-split1-slice-ip_27-0"
  type: "ReLU"
  bottom: "data-split1-slice-ip_27-0"
  top: "data-split1-slice-ip_27-0"
}
layer {
  name: "data-split1-slice-ip_27-0_p"
  type: "InnerProduct"
  bottom: "flat_data_p-27"
  top: "data-split1-slice-ip_27-0_p"
  param {
    name: "data-split1-slice-ip_27-0_w"
    lr_mult: 1
    decay_mult: 1
  }
  param {
    name: "data-split1-slice-ip_27-0_b"
    lr_mult: 2
    decay_mult: 0
  }
  inner_product_param {
    num_output: 200
    weight_filler {
      type: "xavier"
      std:0.01
    }
    bias_filler {
      type: "constant"
      value: 0
    }
  }
}
layer {
  name: "relu-data-split1-slice-ip_27-0_p"
  type: "ReLU"
  bottom: "data-split1-slice-ip_27-0_p"
  top: "data-split1-slice-ip_27-0_p"
}
layer {
  name: "data-split1-slice-ip_27-1"
  type: "InnerProduct"
  bottom: "data-split1-slice-ip_27-0"
  top: "data-split1-slice-ip_27-1"
  param {
    name: "data-split1-slice-ip_27-1_w"
    lr_mult: 1
    decay_mult: 1
  }
  param {
    name: "data-split1-slice-ip_27-1_b"
    lr_mult: 2
    decay_mult: 0
  }
  inner_product_param {
    num_output: 168
    weight_filler {
      type: "xavier"
      std:0.01
    }
    bias_filler {
      type: "constant"
      value: 0
    }
  }
}
layer {
  name: "relu-data-split1-slice-ip_27-1"
  type: "ReLU"
  bottom: "data-split1-slice-ip_27-1"
  top: "data-split1-slice-ip_27-1"
}
layer {
  name: "data-split1-slice-ip_27-1_p"
  type: "InnerProduct"
  bottom: "data-split1-slice-ip_27-0_p"
  top: "data-split1-slice-ip_27-1_p"
  param {
    name: "data-split1-slice-ip_27-1_w"
    lr_mult: 1
    decay_mult: 1
  }
  param {
    name: "data-split1-slice-ip_27-1_b"
    lr_mult: 2
    decay_mult: 0
  }
  inner_product_param {
    num_output: 168
    weight_filler {
      type: "xavier"
      std:0.01
    }
    bias_filler {
      type: "constant"
      value: 0
    }
  }
}
layer {
  name: "relu-data-split1-slice-ip_27-1_p"
  type: "ReLU"
  bottom: "data-split1-slice-ip_27-1_p"
  top: "data-split1-slice-ip_27-1_p"
}
layer {
  name: "data-split1-slice-ip_28-0"
  type: "InnerProduct"
  bottom: "flat_data-28"
  top: "data-split1-slice-ip_28-0"
  param {
    name: "data-split1-slice-ip_28-0_w"
    lr_mult: 1
    decay_mult: 1
  }
  param {
    name: "data-split1-slice-ip_28-0_b"
    lr_mult: 2
    decay_mult: 0
  }
  inner_product_param {
    num_output: 200
    weight_filler {
      type: "xavier"
      std:0.01
    }
    bias_filler {
      type: "constant"
      value: 0
    }
  }
}
layer {
  name: "relu-data-split1-slice-ip_28-0"
  type: "ReLU"
  bottom: "data-split1-slice-ip_28-0"
  top: "data-split1-slice-ip_28-0"
}
layer {
  name: "data-split1-slice-ip_28-0_p"
  type: "InnerProduct"
  bottom: "flat_data_p-28"
  top: "data-split1-slice-ip_28-0_p"
  param {
    name: "data-split1-slice-ip_28-0_w"
    lr_mult: 1
    decay_mult: 1
  }
  param {
    name: "data-split1-slice-ip_28-0_b"
    lr_mult: 2
    decay_mult: 0
  }
  inner_product_param {
    num_output: 200
    weight_filler {
      type: "xavier"
      std:0.01
    }
    bias_filler {
      type: "constant"
      value: 0
    }
  }
}
layer {
  name: "relu-data-split1-slice-ip_28-0_p"
  type: "ReLU"
  bottom: "data-split1-slice-ip_28-0_p"
  top: "data-split1-slice-ip_28-0_p"
}
layer {
  name: "data-split1-slice-ip_28-1"
  type: "InnerProduct"
  bottom: "data-split1-slice-ip_28-0"
  top: "data-split1-slice-ip_28-1"
  param {
    name: "data-split1-slice-ip_28-1_w"
    lr_mult: 1
    decay_mult: 1
  }
  param {
    name: "data-split1-slice-ip_28-1_b"
    lr_mult: 2
    decay_mult: 0
  }
  inner_product_param {
    num_output: 168
    weight_filler {
      type: "xavier"
      std:0.01
    }
    bias_filler {
      type: "constant"
      value: 0
    }
  }
}
layer {
  name: "relu-data-split1-slice-ip_28-1"
  type: "ReLU"
  bottom: "data-split1-slice-ip_28-1"
  top: "data-split1-slice-ip_28-1"
}
layer {
  name: "data-split1-slice-ip_28-1_p"
  type: "InnerProduct"
  bottom: "data-split1-slice-ip_28-0_p"
  top: "data-split1-slice-ip_28-1_p"
  param {
    name: "data-split1-slice-ip_28-1_w"
    lr_mult: 1
    decay_mult: 1
  }
  param {
    name: "data-split1-slice-ip_28-1_b"
    lr_mult: 2
    decay_mult: 0
  }
  inner_product_param {
    num_output: 168
    weight_filler {
      type: "xavier"
      std:0.01
    }
    bias_filler {
      type: "constant"
      value: 0
    }
  }
}
layer {
  name: "relu-data-split1-slice-ip_28-1_p"
  type: "ReLU"
  bottom: "data-split1-slice-ip_28-1_p"
  top: "data-split1-slice-ip_28-1_p"
}
layer {
  name: "data-split1-slice-ip_29-0"
  type: "InnerProduct"
  bottom: "flat_data-29"
  top: "data-split1-slice-ip_29-0"
  param {
    name: "data-split1-slice-ip_29-0_w"
    lr_mult: 1
    decay_mult: 1
  }
  param {
    name: "data-split1-slice-ip_29-0_b"
    lr_mult: 2
    decay_mult: 0
  }
  inner_product_param {
    num_output: 200
    weight_filler {
      type: "xavier"
      std:0.01
    }
    bias_filler {
      type: "constant"
      value: 0
    }
  }
}
layer {
  name: "relu-data-split1-slice-ip_29-0"
  type: "ReLU"
  bottom: "data-split1-slice-ip_29-0"
  top: "data-split1-slice-ip_29-0"
}
layer {
  name: "data-split1-slice-ip_29-0_p"
  type: "InnerProduct"
  bottom: "flat_data_p-29"
  top: "data-split1-slice-ip_29-0_p"
  param {
    name: "data-split1-slice-ip_29-0_w"
    lr_mult: 1
    decay_mult: 1
  }
  param {
    name: "data-split1-slice-ip_29-0_b"
    lr_mult: 2
    decay_mult: 0
  }
  inner_product_param {
    num_output: 200
    weight_filler {
      type: "xavier"
      std:0.01
    }
    bias_filler {
      type: "constant"
      value: 0
    }
  }
}
layer {
  name: "relu-data-split1-slice-ip_29-0_p"
  type: "ReLU"
  bottom: "data-split1-slice-ip_29-0_p"
  top: "data-split1-slice-ip_29-0_p"
}
layer {
  name: "data-split1-slice-ip_29-1"
  type: "InnerProduct"
  bottom: "data-split1-slice-ip_29-0"
  top: "data-split1-slice-ip_29-1"
  param {
    name: "data-split1-slice-ip_29-1_w"
    lr_mult: 1
    decay_mult: 1
  }
  param {
    name: "data-split1-slice-ip_29-1_b"
    lr_mult: 2
    decay_mult: 0
  }
  inner_product_param {
    num_output: 168
    weight_filler {
      type: "xavier"
      std:0.01
    }
    bias_filler {
      type: "constant"
      value: 0
    }
  }
}
layer {
  name: "relu-data-split1-slice-ip_29-1"
  type: "ReLU"
  bottom: "data-split1-slice-ip_29-1"
  top: "data-split1-slice-ip_29-1"
}
layer {
  name: "data-split1-slice-ip_29-1_p"
  type: "InnerProduct"
  bottom: "data-split1-slice-ip_29-0_p"
  top: "data-split1-slice-ip_29-1_p"
  param {
    name: "data-split1-slice-ip_29-1_w"
    lr_mult: 1
    decay_mult: 1
  }
  param {
    name: "data-split1-slice-ip_29-1_b"
    lr_mult: 2
    decay_mult: 0
  }
  inner_product_param {
    num_output: 168
    weight_filler {
      type: "xavier"
      std:0.01
    }
    bias_filler {
      type: "constant"
      value: 0
    }
  }
}
layer {
  name: "relu-data-split1-slice-ip_29-1_p"
  type: "ReLU"
  bottom: "data-split1-slice-ip_29-1_p"
  top: "data-split1-slice-ip_29-1_p"
}
layer {
  name: "data-split1-slice-ip_30-0"
  type: "InnerProduct"
  bottom: "flat_data-30"
  top: "data-split1-slice-ip_30-0"
  param {
    name: "data-split1-slice-ip_30-0_w"
    lr_mult: 1
    decay_mult: 1
  }
  param {
    name: "data-split1-slice-ip_30-0_b"
    lr_mult: 2
    decay_mult: 0
  }
  inner_product_param {
    num_output: 200
    weight_filler {
      type: "xavier"
      std:0.01
    }
    bias_filler {
      type: "constant"
      value: 0
    }
  }
}
layer {
  name: "relu-data-split1-slice-ip_30-0"
  type: "ReLU"
  bottom: "data-split1-slice-ip_30-0"
  top: "data-split1-slice-ip_30-0"
}
layer {
  name: "data-split1-slice-ip_30-0_p"
  type: "InnerProduct"
  bottom: "flat_data_p-30"
  top: "data-split1-slice-ip_30-0_p"
  param {
    name: "data-split1-slice-ip_30-0_w"
    lr_mult: 1
    decay_mult: 1
  }
  param {
    name: "data-split1-slice-ip_30-0_b"
    lr_mult: 2
    decay_mult: 0
  }
  inner_product_param {
    num_output: 200
    weight_filler {
      type: "xavier"
      std:0.01
    }
    bias_filler {
      type: "constant"
      value: 0
    }
  }
}
layer {
  name: "relu-data-split1-slice-ip_30-0_p"
  type: "ReLU"
  bottom: "data-split1-slice-ip_30-0_p"
  top: "data-split1-slice-ip_30-0_p"
}
layer {
  name: "data-split1-slice-ip_30-1"
  type: "InnerProduct"
  bottom: "data-split1-slice-ip_30-0"
  top: "data-split1-slice-ip_30-1"
  param {
    name: "data-split1-slice-ip_30-1_w"
    lr_mult: 1
    decay_mult: 1
  }
  param {
    name: "data-split1-slice-ip_30-1_b"
    lr_mult: 2
    decay_mult: 0
  }
  inner_product_param {
    num_output: 168
    weight_filler {
      type: "xavier"
      std:0.01
    }
    bias_filler {
      type: "constant"
      value: 0
    }
  }
}
layer {
  name: "relu-data-split1-slice-ip_30-1"
  type: "ReLU"
  bottom: "data-split1-slice-ip_30-1"
  top: "data-split1-slice-ip_30-1"
}
layer {
  name: "data-split1-slice-ip_30-1_p"
  type: "InnerProduct"
  bottom: "data-split1-slice-ip_30-0_p"
  top: "data-split1-slice-ip_30-1_p"
  param {
    name: "data-split1-slice-ip_30-1_w"
    lr_mult: 1
    decay_mult: 1
  }
  param {
    name: "data-split1-slice-ip_30-1_b"
    lr_mult: 2
    decay_mult: 0
  }
  inner_product_param {
    num_output: 168
    weight_filler {
      type: "xavier"
      std:0.01
    }
    bias_filler {
      type: "constant"
      value: 0
    }
  }
}
layer {
  name: "relu-data-split1-slice-ip_30-1_p"
  type: "ReLU"
  bottom: "data-split1-slice-ip_30-1_p"
  top: "data-split1-slice-ip_30-1_p"
}
layer {
  name: "data-split1-slice-ip_31-0"
  type: "InnerProduct"
  bottom: "flat_data-31"
  top: "data-split1-slice-ip_31-0"
  param {
    name: "data-split1-slice-ip_31-0_w"
    lr_mult: 1
    decay_mult: 1
  }
  param {
    name: "data-split1-slice-ip_31-0_b"
    lr_mult: 2
    decay_mult: 0
  }
  inner_product_param {
    num_output: 200
    weight_filler {
      type: "xavier"
      std:0.01
    }
    bias_filler {
      type: "constant"
      value: 0
    }
  }
}
layer {
  name: "relu-data-split1-slice-ip_31-0"
  type: "ReLU"
  bottom: "data-split1-slice-ip_31-0"
  top: "data-split1-slice-ip_31-0"
}
layer {
  name: "data-split1-slice-ip_31-0_p"
  type: "InnerProduct"
  bottom: "flat_data_p-31"
  top: "data-split1-slice-ip_31-0_p"
  param {
    name: "data-split1-slice-ip_31-0_w"
    lr_mult: 1
    decay_mult: 1
  }
  param {
    name: "data-split1-slice-ip_31-0_b"
    lr_mult: 2
    decay_mult: 0
  }
  inner_product_param {
    num_output: 200
    weight_filler {
      type: "xavier"
      std:0.01
    }
    bias_filler {
      type: "constant"
      value: 0
    }
  }
}
layer {
  name: "relu-data-split1-slice-ip_31-0_p"
  type: "ReLU"
  bottom: "data-split1-slice-ip_31-0_p"
  top: "data-split1-slice-ip_31-0_p"
}
layer {
  name: "data-split1-slice-ip_31-1"
  type: "InnerProduct"
  bottom: "data-split1-slice-ip_31-0"
  top: "data-split1-slice-ip_31-1"
  param {
    name: "data-split1-slice-ip_31-1_w"
    lr_mult: 1
    decay_mult: 1
  }
  param {
    name: "data-split1-slice-ip_31-1_b"
    lr_mult: 2
    decay_mult: 0
  }
  inner_product_param {
    num_output: 168
    weight_filler {
      type: "xavier"
      std:0.01
    }
    bias_filler {
      type: "constant"
      value: 0
    }
  }
}
layer {
  name: "relu-data-split1-slice-ip_31-1"
  type: "ReLU"
  bottom: "data-split1-slice-ip_31-1"
  top: "data-split1-slice-ip_31-1"
}
layer {
  name: "data-split1-slice-ip_31-1_p"
  type: "InnerProduct"
  bottom: "data-split1-slice-ip_31-0_p"
  top: "data-split1-slice-ip_31-1_p"
  param {
    name: "data-split1-slice-ip_31-1_w"
    lr_mult: 1
    decay_mult: 1
  }
  param {
    name: "data-split1-slice-ip_31-1_b"
    lr_mult: 2
    decay_mult: 0
  }
  inner_product_param {
    num_output: 168
    weight_filler {
      type: "xavier"
      std:0.01
    }
    bias_filler {
      type: "constant"
      value: 0
    }
  }
}
layer {
  name: "relu-data-split1-slice-ip_31-1_p"
  type: "ReLU"
  bottom: "data-split1-slice-ip_31-1_p"
  top: "data-split1-slice-ip_31-1_p"
}
layer {
  name: "data-split1-slice-ip_32-0"
  type: "InnerProduct"
  bottom: "flat_data-32"
  top: "data-split1-slice-ip_32-0"
  param {
    name: "data-split1-slice-ip_32-0_w"
    lr_mult: 1
    decay_mult: 1
  }
  param {
    name: "data-split1-slice-ip_32-0_b"
    lr_mult: 2
    decay_mult: 0
  }
  inner_product_param {
    num_output: 200
    weight_filler {
      type: "xavier"
      std:0.01
    }
    bias_filler {
      type: "constant"
      value: 0
    }
  }
}
layer {
  name: "relu-data-split1-slice-ip_32-0"
  type: "ReLU"
  bottom: "data-split1-slice-ip_32-0"
  top: "data-split1-slice-ip_32-0"
}
layer {
  name: "data-split1-slice-ip_32-0_p"
  type: "InnerProduct"
  bottom: "flat_data_p-32"
  top: "data-split1-slice-ip_32-0_p"
  param {
    name: "data-split1-slice-ip_32-0_w"
    lr_mult: 1
    decay_mult: 1
  }
  param {
    name: "data-split1-slice-ip_32-0_b"
    lr_mult: 2
    decay_mult: 0
  }
  inner_product_param {
    num_output: 200
    weight_filler {
      type: "xavier"
      std:0.01
    }
    bias_filler {
      type: "constant"
      value: 0
    }
  }
}
layer {
  name: "relu-data-split1-slice-ip_32-0_p"
  type: "ReLU"
  bottom: "data-split1-slice-ip_32-0_p"
  top: "data-split1-slice-ip_32-0_p"
}
layer {
  name: "data-split1-slice-ip_32-1"
  type: "InnerProduct"
  bottom: "data-split1-slice-ip_32-0"
  top: "data-split1-slice-ip_32-1"
  param {
    name: "data-split1-slice-ip_32-1_w"
    lr_mult: 1
    decay_mult: 1
  }
  param {
    name: "data-split1-slice-ip_32-1_b"
    lr_mult: 2
    decay_mult: 0
  }
  inner_product_param {
    num_output: 168
    weight_filler {
      type: "xavier"
      std:0.01
    }
    bias_filler {
      type: "constant"
      value: 0
    }
  }
}
layer {
  name: "relu-data-split1-slice-ip_32-1"
  type: "ReLU"
  bottom: "data-split1-slice-ip_32-1"
  top: "data-split1-slice-ip_32-1"
}
layer {
  name: "data-split1-slice-ip_32-1_p"
  type: "InnerProduct"
  bottom: "data-split1-slice-ip_32-0_p"
  top: "data-split1-slice-ip_32-1_p"
  param {
    name: "data-split1-slice-ip_32-1_w"
    lr_mult: 1
    decay_mult: 1
  }
  param {
    name: "data-split1-slice-ip_32-1_b"
    lr_mult: 2
    decay_mult: 0
  }
  inner_product_param {
    num_output: 168
    weight_filler {
      type: "xavier"
      std:0.01
    }
    bias_filler {
      type: "constant"
      value: 0
    }
  }
}
layer {
  name: "relu-data-split1-slice-ip_32-1_p"
  type: "ReLU"
  bottom: "data-split1-slice-ip_32-1_p"
  top: "data-split1-slice-ip_32-1_p"
}
layer {
  name: "data-split1-slice-ip_33-0"
  type: "InnerProduct"
  bottom: "flat_data-33"
  top: "data-split1-slice-ip_33-0"
  param {
    name: "data-split1-slice-ip_33-0_w"
    lr_mult: 1
    decay_mult: 1
  }
  param {
    name: "data-split1-slice-ip_33-0_b"
    lr_mult: 2
    decay_mult: 0
  }
  inner_product_param {
    num_output: 200
    weight_filler {
      type: "xavier"
      std:0.01
    }
    bias_filler {
      type: "constant"
      value: 0
    }
  }
}
layer {
  name: "relu-data-split1-slice-ip_33-0"
  type: "ReLU"
  bottom: "data-split1-slice-ip_33-0"
  top: "data-split1-slice-ip_33-0"
}
layer {
  name: "data-split1-slice-ip_33-0_p"
  type: "InnerProduct"
  bottom: "flat_data_p-33"
  top: "data-split1-slice-ip_33-0_p"
  param {
    name: "data-split1-slice-ip_33-0_w"
    lr_mult: 1
    decay_mult: 1
  }
  param {
    name: "data-split1-slice-ip_33-0_b"
    lr_mult: 2
    decay_mult: 0
  }
  inner_product_param {
    num_output: 200
    weight_filler {
      type: "xavier"
      std:0.01
    }
    bias_filler {
      type: "constant"
      value: 0
    }
  }
}
layer {
  name: "relu-data-split1-slice-ip_33-0_p"
  type: "ReLU"
  bottom: "data-split1-slice-ip_33-0_p"
  top: "data-split1-slice-ip_33-0_p"
}
layer {
  name: "data-split1-slice-ip_33-1"
  type: "InnerProduct"
  bottom: "data-split1-slice-ip_33-0"
  top: "data-split1-slice-ip_33-1"
  param {
    name: "data-split1-slice-ip_33-1_w"
    lr_mult: 1
    decay_mult: 1
  }
  param {
    name: "data-split1-slice-ip_33-1_b"
    lr_mult: 2
    decay_mult: 0
  }
  inner_product_param {
    num_output: 168
    weight_filler {
      type: "xavier"
      std:0.01
    }
    bias_filler {
      type: "constant"
      value: 0
    }
  }
}
layer {
  name: "relu-data-split1-slice-ip_33-1"
  type: "ReLU"
  bottom: "data-split1-slice-ip_33-1"
  top: "data-split1-slice-ip_33-1"
}
layer {
  name: "data-split1-slice-ip_33-1_p"
  type: "InnerProduct"
  bottom: "data-split1-slice-ip_33-0_p"
  top: "data-split1-slice-ip_33-1_p"
  param {
    name: "data-split1-slice-ip_33-1_w"
    lr_mult: 1
    decay_mult: 1
  }
  param {
    name: "data-split1-slice-ip_33-1_b"
    lr_mult: 2
    decay_mult: 0
  }
  inner_product_param {
    num_output: 168
    weight_filler {
      type: "xavier"
      std:0.01
    }
    bias_filler {
      type: "constant"
      value: 0
    }
  }
}
layer {
  name: "relu-data-split1-slice-ip_33-1_p"
  type: "ReLU"
  bottom: "data-split1-slice-ip_33-1_p"
  top: "data-split1-slice-ip_33-1_p"
}
layer {
  name: "data-split1-slice-ip_34-0"
  type: "InnerProduct"
  bottom: "flat_data-34"
  top: "data-split1-slice-ip_34-0"
  param {
    name: "data-split1-slice-ip_34-0_w"
    lr_mult: 1
    decay_mult: 1
  }
  param {
    name: "data-split1-slice-ip_34-0_b"
    lr_mult: 2
    decay_mult: 0
  }
  inner_product_param {
    num_output: 200
    weight_filler {
      type: "xavier"
      std:0.01
    }
    bias_filler {
      type: "constant"
      value: 0
    }
  }
}
layer {
  name: "relu-data-split1-slice-ip_34-0"
  type: "ReLU"
  bottom: "data-split1-slice-ip_34-0"
  top: "data-split1-slice-ip_34-0"
}
layer {
  name: "data-split1-slice-ip_34-0_p"
  type: "InnerProduct"
  bottom: "flat_data_p-34"
  top: "data-split1-slice-ip_34-0_p"
  param {
    name: "data-split1-slice-ip_34-0_w"
    lr_mult: 1
    decay_mult: 1
  }
  param {
    name: "data-split1-slice-ip_34-0_b"
    lr_mult: 2
    decay_mult: 0
  }
  inner_product_param {
    num_output: 200
    weight_filler {
      type: "xavier"
      std:0.01
    }
    bias_filler {
      type: "constant"
      value: 0
    }
  }
}
layer {
  name: "relu-data-split1-slice-ip_34-0_p"
  type: "ReLU"
  bottom: "data-split1-slice-ip_34-0_p"
  top: "data-split1-slice-ip_34-0_p"
}
layer {
  name: "data-split1-slice-ip_34-1"
  type: "InnerProduct"
  bottom: "data-split1-slice-ip_34-0"
  top: "data-split1-slice-ip_34-1"
  param {
    name: "data-split1-slice-ip_34-1_w"
    lr_mult: 1
    decay_mult: 1
  }
  param {
    name: "data-split1-slice-ip_34-1_b"
    lr_mult: 2
    decay_mult: 0
  }
  inner_product_param {
    num_output: 168
    weight_filler {
      type: "xavier"
      std:0.01
    }
    bias_filler {
      type: "constant"
      value: 0
    }
  }
}
layer {
  name: "relu-data-split1-slice-ip_34-1"
  type: "ReLU"
  bottom: "data-split1-slice-ip_34-1"
  top: "data-split1-slice-ip_34-1"
}
layer {
  name: "data-split1-slice-ip_34-1_p"
  type: "InnerProduct"
  bottom: "data-split1-slice-ip_34-0_p"
  top: "data-split1-slice-ip_34-1_p"
  param {
    name: "data-split1-slice-ip_34-1_w"
    lr_mult: 1
    decay_mult: 1
  }
  param {
    name: "data-split1-slice-ip_34-1_b"
    lr_mult: 2
    decay_mult: 0
  }
  inner_product_param {
    num_output: 168
    weight_filler {
      type: "xavier"
      std:0.01
    }
    bias_filler {
      type: "constant"
      value: 0
    }
  }
}
layer {
  name: "relu-data-split1-slice-ip_34-1_p"
  type: "ReLU"
  bottom: "data-split1-slice-ip_34-1_p"
  top: "data-split1-slice-ip_34-1_p"
}
layer {
  name: "data-split1-slice-ip_35-0"
  type: "InnerProduct"
  bottom: "flat_data-35"
  top: "data-split1-slice-ip_35-0"
  param {
    name: "data-split1-slice-ip_35-0_w"
    lr_mult: 1
    decay_mult: 1
  }
  param {
    name: "data-split1-slice-ip_35-0_b"
    lr_mult: 2
    decay_mult: 0
  }
  inner_product_param {
    num_output: 200
    weight_filler {
      type: "xavier"
      std:0.01
    }
    bias_filler {
      type: "constant"
      value: 0
    }
  }
}
layer {
  name: "relu-data-split1-slice-ip_35-0"
  type: "ReLU"
  bottom: "data-split1-slice-ip_35-0"
  top: "data-split1-slice-ip_35-0"
}
layer {
  name: "data-split1-slice-ip_35-0_p"
  type: "InnerProduct"
  bottom: "flat_data_p-35"
  top: "data-split1-slice-ip_35-0_p"
  param {
    name: "data-split1-slice-ip_35-0_w"
    lr_mult: 1
    decay_mult: 1
  }
  param {
    name: "data-split1-slice-ip_35-0_b"
    lr_mult: 2
    decay_mult: 0
  }
  inner_product_param {
    num_output: 200
    weight_filler {
      type: "xavier"
      std:0.01
    }
    bias_filler {
      type: "constant"
      value: 0
    }
  }
}
layer {
  name: "relu-data-split1-slice-ip_35-0_p"
  type: "ReLU"
  bottom: "data-split1-slice-ip_35-0_p"
  top: "data-split1-slice-ip_35-0_p"
}
layer {
  name: "data-split1-slice-ip_35-1"
  type: "InnerProduct"
  bottom: "data-split1-slice-ip_35-0"
  top: "data-split1-slice-ip_35-1"
  param {
    name: "data-split1-slice-ip_35-1_w"
    lr_mult: 1
    decay_mult: 1
  }
  param {
    name: "data-split1-slice-ip_35-1_b"
    lr_mult: 2
    decay_mult: 0
  }
  inner_product_param {
    num_output: 168
    weight_filler {
      type: "xavier"
      std:0.01
    }
    bias_filler {
      type: "constant"
      value: 0
    }
  }
}
layer {
  name: "relu-data-split1-slice-ip_35-1"
  type: "ReLU"
  bottom: "data-split1-slice-ip_35-1"
  top: "data-split1-slice-ip_35-1"
}
layer {
  name: "data-split1-slice-ip_35-1_p"
  type: "InnerProduct"
  bottom: "data-split1-slice-ip_35-0_p"
  top: "data-split1-slice-ip_35-1_p"
  param {
    name: "data-split1-slice-ip_35-1_w"
    lr_mult: 1
    decay_mult: 1
  }
  param {
    name: "data-split1-slice-ip_35-1_b"
    lr_mult: 2
    decay_mult: 0
  }
  inner_product_param {
    num_output: 168
    weight_filler {
      type: "xavier"
      std:0.01
    }
    bias_filler {
      type: "constant"
      value: 0
    }
  }
}
layer {
  name: "relu-data-split1-slice-ip_35-1_p"
  type: "ReLU"
  bottom: "data-split1-slice-ip_35-1_p"
  top: "data-split1-slice-ip_35-1_p"
}
layer {
  name: "data-split1-slice-ip_36-0"
  type: "InnerProduct"
  bottom: "flat_data-36"
  top: "data-split1-slice-ip_36-0"
  param {
    name: "data-split1-slice-ip_36-0_w"
    lr_mult: 1
    decay_mult: 1
  }
  param {
    name: "data-split1-slice-ip_36-0_b"
    lr_mult: 2
    decay_mult: 0
  }
  inner_product_param {
    num_output: 200
    weight_filler {
      type: "xavier"
      std:0.01
    }
    bias_filler {
      type: "constant"
      value: 0
    }
  }
}
layer {
  name: "relu-data-split1-slice-ip_36-0"
  type: "ReLU"
  bottom: "data-split1-slice-ip_36-0"
  top: "data-split1-slice-ip_36-0"
}
layer {
  name: "data-split1-slice-ip_36-0_p"
  type: "InnerProduct"
  bottom: "flat_data_p-36"
  top: "data-split1-slice-ip_36-0_p"
  param {
    name: "data-split1-slice-ip_36-0_w"
    lr_mult: 1
    decay_mult: 1
  }
  param {
    name: "data-split1-slice-ip_36-0_b"
    lr_mult: 2
    decay_mult: 0
  }
  inner_product_param {
    num_output: 200
    weight_filler {
      type: "xavier"
      std:0.01
    }
    bias_filler {
      type: "constant"
      value: 0
    }
  }
}
layer {
  name: "relu-data-split1-slice-ip_36-0_p"
  type: "ReLU"
  bottom: "data-split1-slice-ip_36-0_p"
  top: "data-split1-slice-ip_36-0_p"
}
layer {
  name: "data-split1-slice-ip_36-1"
  type: "InnerProduct"
  bottom: "data-split1-slice-ip_36-0"
  top: "data-split1-slice-ip_36-1"
  param {
    name: "data-split1-slice-ip_36-1_w"
    lr_mult: 1
    decay_mult: 1
  }
  param {
    name: "data-split1-slice-ip_36-1_b"
    lr_mult: 2
    decay_mult: 0
  }
  inner_product_param {
    num_output: 168
    weight_filler {
      type: "xavier"
      std:0.01
    }
    bias_filler {
      type: "constant"
      value: 0
    }
  }
}
layer {
  name: "relu-data-split1-slice-ip_36-1"
  type: "ReLU"
  bottom: "data-split1-slice-ip_36-1"
  top: "data-split1-slice-ip_36-1"
}
layer {
  name: "data-split1-slice-ip_36-1_p"
  type: "InnerProduct"
  bottom: "data-split1-slice-ip_36-0_p"
  top: "data-split1-slice-ip_36-1_p"
  param {
    name: "data-split1-slice-ip_36-1_w"
    lr_mult: 1
    decay_mult: 1
  }
  param {
    name: "data-split1-slice-ip_36-1_b"
    lr_mult: 2
    decay_mult: 0
  }
  inner_product_param {
    num_output: 168
    weight_filler {
      type: "xavier"
      std:0.01
    }
    bias_filler {
      type: "constant"
      value: 0
    }
  }
}
layer {
  name: "relu-data-split1-slice-ip_36-1_p"
  type: "ReLU"
  bottom: "data-split1-slice-ip_36-1_p"
  top: "data-split1-slice-ip_36-1_p"
}
layer {
  name: "data-split1-slice-ip_37-0"
  type: "InnerProduct"
  bottom: "flat_data-37"
  top: "data-split1-slice-ip_37-0"
  param {
    name: "data-split1-slice-ip_37-0_w"
    lr_mult: 1
    decay_mult: 1
  }
  param {
    name: "data-split1-slice-ip_37-0_b"
    lr_mult: 2
    decay_mult: 0
  }
  inner_product_param {
    num_output: 200
    weight_filler {
      type: "xavier"
      std:0.01
    }
    bias_filler {
      type: "constant"
      value: 0
    }
  }
}
layer {
  name: "relu-data-split1-slice-ip_37-0"
  type: "ReLU"
  bottom: "data-split1-slice-ip_37-0"
  top: "data-split1-slice-ip_37-0"
}
layer {
  name: "data-split1-slice-ip_37-0_p"
  type: "InnerProduct"
  bottom: "flat_data_p-37"
  top: "data-split1-slice-ip_37-0_p"
  param {
    name: "data-split1-slice-ip_37-0_w"
    lr_mult: 1
    decay_mult: 1
  }
  param {
    name: "data-split1-slice-ip_37-0_b"
    lr_mult: 2
    decay_mult: 0
  }
  inner_product_param {
    num_output: 200
    weight_filler {
      type: "xavier"
      std:0.01
    }
    bias_filler {
      type: "constant"
      value: 0
    }
  }
}
layer {
  name: "relu-data-split1-slice-ip_37-0_p"
  type: "ReLU"
  bottom: "data-split1-slice-ip_37-0_p"
  top: "data-split1-slice-ip_37-0_p"
}
layer {
  name: "data-split1-slice-ip_37-1"
  type: "InnerProduct"
  bottom: "data-split1-slice-ip_37-0"
  top: "data-split1-slice-ip_37-1"
  param {
    name: "data-split1-slice-ip_37-1_w"
    lr_mult: 1
    decay_mult: 1
  }
  param {
    name: "data-split1-slice-ip_37-1_b"
    lr_mult: 2
    decay_mult: 0
  }
  inner_product_param {
    num_output: 168
    weight_filler {
      type: "xavier"
      std:0.01
    }
    bias_filler {
      type: "constant"
      value: 0
    }
  }
}
layer {
  name: "relu-data-split1-slice-ip_37-1"
  type: "ReLU"
  bottom: "data-split1-slice-ip_37-1"
  top: "data-split1-slice-ip_37-1"
}
layer {
  name: "data-split1-slice-ip_37-1_p"
  type: "InnerProduct"
  bottom: "data-split1-slice-ip_37-0_p"
  top: "data-split1-slice-ip_37-1_p"
  param {
    name: "data-split1-slice-ip_37-1_w"
    lr_mult: 1
    decay_mult: 1
  }
  param {
    name: "data-split1-slice-ip_37-1_b"
    lr_mult: 2
    decay_mult: 0
  }
  inner_product_param {
    num_output: 168
    weight_filler {
      type: "xavier"
      std:0.01
    }
    bias_filler {
      type: "constant"
      value: 0
    }
  }
}
layer {
  name: "relu-data-split1-slice-ip_37-1_p"
  type: "ReLU"
  bottom: "data-split1-slice-ip_37-1_p"
  top: "data-split1-slice-ip_37-1_p"
}
layer {
  name: "data-split1-slice-ip_38-0"
  type: "InnerProduct"
  bottom: "flat_data-38"
  top: "data-split1-slice-ip_38-0"
  param {
    name: "data-split1-slice-ip_38-0_w"
    lr_mult: 1
    decay_mult: 1
  }
  param {
    name: "data-split1-slice-ip_38-0_b"
    lr_mult: 2
    decay_mult: 0
  }
  inner_product_param {
    num_output: 200
    weight_filler {
      type: "xavier"
      std:0.01
    }
    bias_filler {
      type: "constant"
      value: 0
    }
  }
}
layer {
  name: "relu-data-split1-slice-ip_38-0"
  type: "ReLU"
  bottom: "data-split1-slice-ip_38-0"
  top: "data-split1-slice-ip_38-0"
}
layer {
  name: "data-split1-slice-ip_38-0_p"
  type: "InnerProduct"
  bottom: "flat_data_p-38"
  top: "data-split1-slice-ip_38-0_p"
  param {
    name: "data-split1-slice-ip_38-0_w"
    lr_mult: 1
    decay_mult: 1
  }
  param {
    name: "data-split1-slice-ip_38-0_b"
    lr_mult: 2
    decay_mult: 0
  }
  inner_product_param {
    num_output: 200
    weight_filler {
      type: "xavier"
      std:0.01
    }
    bias_filler {
      type: "constant"
      value: 0
    }
  }
}
layer {
  name: "relu-data-split1-slice-ip_38-0_p"
  type: "ReLU"
  bottom: "data-split1-slice-ip_38-0_p"
  top: "data-split1-slice-ip_38-0_p"
}
layer {
  name: "data-split1-slice-ip_38-1"
  type: "InnerProduct"
  bottom: "data-split1-slice-ip_38-0"
  top: "data-split1-slice-ip_38-1"
  param {
    name: "data-split1-slice-ip_38-1_w"
    lr_mult: 1
    decay_mult: 1
  }
  param {
    name: "data-split1-slice-ip_38-1_b"
    lr_mult: 2
    decay_mult: 0
  }
  inner_product_param {
    num_output: 168
    weight_filler {
      type: "xavier"
      std:0.01
    }
    bias_filler {
      type: "constant"
      value: 0
    }
  }
}
layer {
  name: "relu-data-split1-slice-ip_38-1"
  type: "ReLU"
  bottom: "data-split1-slice-ip_38-1"
  top: "data-split1-slice-ip_38-1"
}
layer {
  name: "data-split1-slice-ip_38-1_p"
  type: "InnerProduct"
  bottom: "data-split1-slice-ip_38-0_p"
  top: "data-split1-slice-ip_38-1_p"
  param {
    name: "data-split1-slice-ip_38-1_w"
    lr_mult: 1
    decay_mult: 1
  }
  param {
    name: "data-split1-slice-ip_38-1_b"
    lr_mult: 2
    decay_mult: 0
  }
  inner_product_param {
    num_output: 168
    weight_filler {
      type: "xavier"
      std:0.01
    }
    bias_filler {
      type: "constant"
      value: 0
    }
  }
}
layer {
  name: "relu-data-split1-slice-ip_38-1_p"
  type: "ReLU"
  bottom: "data-split1-slice-ip_38-1_p"
  top: "data-split1-slice-ip_38-1_p"
}
layer {
  name: "data-split1-slice-ip_39-0"
  type: "InnerProduct"
  bottom: "flat_data-39"
  top: "data-split1-slice-ip_39-0"
  param {
    name: "data-split1-slice-ip_39-0_w"
    lr_mult: 1
    decay_mult: 1
  }
  param {
    name: "data-split1-slice-ip_39-0_b"
    lr_mult: 2
    decay_mult: 0
  }
  inner_product_param {
    num_output: 200
    weight_filler {
      type: "xavier"
      std:0.01
    }
    bias_filler {
      type: "constant"
      value: 0
    }
  }
}
layer {
  name: "relu-data-split1-slice-ip_39-0"
  type: "ReLU"
  bottom: "data-split1-slice-ip_39-0"
  top: "data-split1-slice-ip_39-0"
}
layer {
  name: "data-split1-slice-ip_39-0_p"
  type: "InnerProduct"
  bottom: "flat_data_p-39"
  top: "data-split1-slice-ip_39-0_p"
  param {
    name: "data-split1-slice-ip_39-0_w"
    lr_mult: 1
    decay_mult: 1
  }
  param {
    name: "data-split1-slice-ip_39-0_b"
    lr_mult: 2
    decay_mult: 0
  }
  inner_product_param {
    num_output: 200
    weight_filler {
      type: "xavier"
      std:0.01
    }
    bias_filler {
      type: "constant"
      value: 0
    }
  }
}
layer {
  name: "relu-data-split1-slice-ip_39-0_p"
  type: "ReLU"
  bottom: "data-split1-slice-ip_39-0_p"
  top: "data-split1-slice-ip_39-0_p"
}
layer {
  name: "data-split1-slice-ip_39-1"
  type: "InnerProduct"
  bottom: "data-split1-slice-ip_39-0"
  top: "data-split1-slice-ip_39-1"
  param {
    name: "data-split1-slice-ip_39-1_w"
    lr_mult: 1
    decay_mult: 1
  }
  param {
    name: "data-split1-slice-ip_39-1_b"
    lr_mult: 2
    decay_mult: 0
  }
  inner_product_param {
    num_output: 168
    weight_filler {
      type: "xavier"
      std:0.01
    }
    bias_filler {
      type: "constant"
      value: 0
    }
  }
}
layer {
  name: "relu-data-split1-slice-ip_39-1"
  type: "ReLU"
  bottom: "data-split1-slice-ip_39-1"
  top: "data-split1-slice-ip_39-1"
}
layer {
  name: "data-split1-slice-ip_39-1_p"
  type: "InnerProduct"
  bottom: "data-split1-slice-ip_39-0_p"
  top: "data-split1-slice-ip_39-1_p"
  param {
    name: "data-split1-slice-ip_39-1_w"
    lr_mult: 1
    decay_mult: 1
  }
  param {
    name: "data-split1-slice-ip_39-1_b"
    lr_mult: 2
    decay_mult: 0
  }
  inner_product_param {
    num_output: 168
    weight_filler {
      type: "xavier"
      std:0.01
    }
    bias_filler {
      type: "constant"
      value: 0
    }
  }
}
layer {
  name: "relu-data-split1-slice-ip_39-1_p"
  type: "ReLU"
  bottom: "data-split1-slice-ip_39-1_p"
  top: "data-split1-slice-ip_39-1_p"
}
layer {
  name: "data-split1-slice-ip_40-0"
  type: "InnerProduct"
  bottom: "flat_data-40"
  top: "data-split1-slice-ip_40-0"
  param {
    name: "data-split1-slice-ip_40-0_w"
    lr_mult: 1
    decay_mult: 1
  }
  param {
    name: "data-split1-slice-ip_40-0_b"
    lr_mult: 2
    decay_mult: 0
  }
  inner_product_param {
    num_output: 200
    weight_filler {
      type: "xavier"
      std:0.01
    }
    bias_filler {
      type: "constant"
      value: 0
    }
  }
}
layer {
  name: "relu-data-split1-slice-ip_40-0"
  type: "ReLU"
  bottom: "data-split1-slice-ip_40-0"
  top: "data-split1-slice-ip_40-0"
}
layer {
  name: "data-split1-slice-ip_40-0_p"
  type: "InnerProduct"
  bottom: "flat_data_p-40"
  top: "data-split1-slice-ip_40-0_p"
  param {
    name: "data-split1-slice-ip_40-0_w"
    lr_mult: 1
    decay_mult: 1
  }
  param {
    name: "data-split1-slice-ip_40-0_b"
    lr_mult: 2
    decay_mult: 0
  }
  inner_product_param {
    num_output: 200
    weight_filler {
      type: "xavier"
      std:0.01
    }
    bias_filler {
      type: "constant"
      value: 0
    }
  }
}
layer {
  name: "relu-data-split1-slice-ip_40-0_p"
  type: "ReLU"
  bottom: "data-split1-slice-ip_40-0_p"
  top: "data-split1-slice-ip_40-0_p"
}
layer {
  name: "data-split1-slice-ip_40-1"
  type: "InnerProduct"
  bottom: "data-split1-slice-ip_40-0"
  top: "data-split1-slice-ip_40-1"
  param {
    name: "data-split1-slice-ip_40-1_w"
    lr_mult: 1
    decay_mult: 1
  }
  param {
    name: "data-split1-slice-ip_40-1_b"
    lr_mult: 2
    decay_mult: 0
  }
  inner_product_param {
    num_output: 168
    weight_filler {
      type: "xavier"
      std:0.01
    }
    bias_filler {
      type: "constant"
      value: 0
    }
  }
}
layer {
  name: "relu-data-split1-slice-ip_40-1"
  type: "ReLU"
  bottom: "data-split1-slice-ip_40-1"
  top: "data-split1-slice-ip_40-1"
}
layer {
  name: "data-split1-slice-ip_40-1_p"
  type: "InnerProduct"
  bottom: "data-split1-slice-ip_40-0_p"
  top: "data-split1-slice-ip_40-1_p"
  param {
    name: "data-split1-slice-ip_40-1_w"
    lr_mult: 1
    decay_mult: 1
  }
  param {
    name: "data-split1-slice-ip_40-1_b"
    lr_mult: 2
    decay_mult: 0
  }
  inner_product_param {
    num_output: 168
    weight_filler {
      type: "xavier"
      std:0.01
    }
    bias_filler {
      type: "constant"
      value: 0
    }
  }
}
layer {
  name: "relu-data-split1-slice-ip_40-1_p"
  type: "ReLU"
  bottom: "data-split1-slice-ip_40-1_p"
  top: "data-split1-slice-ip_40-1_p"
}
layer {
  name: "data-split1-slice-ip_41-0"
  type: "InnerProduct"
  bottom: "flat_data-41"
  top: "data-split1-slice-ip_41-0"
  param {
    name: "data-split1-slice-ip_41-0_w"
    lr_mult: 1
    decay_mult: 1
  }
  param {
    name: "data-split1-slice-ip_41-0_b"
    lr_mult: 2
    decay_mult: 0
  }
  inner_product_param {
    num_output: 200
    weight_filler {
      type: "xavier"
      std:0.01
    }
    bias_filler {
      type: "constant"
      value: 0
    }
  }
}
layer {
  name: "relu-data-split1-slice-ip_41-0"
  type: "ReLU"
  bottom: "data-split1-slice-ip_41-0"
  top: "data-split1-slice-ip_41-0"
}
layer {
  name: "data-split1-slice-ip_41-0_p"
  type: "InnerProduct"
  bottom: "flat_data_p-41"
  top: "data-split1-slice-ip_41-0_p"
  param {
    name: "data-split1-slice-ip_41-0_w"
    lr_mult: 1
    decay_mult: 1
  }
  param {
    name: "data-split1-slice-ip_41-0_b"
    lr_mult: 2
    decay_mult: 0
  }
  inner_product_param {
    num_output: 200
    weight_filler {
      type: "xavier"
      std:0.01
    }
    bias_filler {
      type: "constant"
      value: 0
    }
  }
}
layer {
  name: "relu-data-split1-slice-ip_41-0_p"
  type: "ReLU"
  bottom: "data-split1-slice-ip_41-0_p"
  top: "data-split1-slice-ip_41-0_p"
}
layer {
  name: "data-split1-slice-ip_41-1"
  type: "InnerProduct"
  bottom: "data-split1-slice-ip_41-0"
  top: "data-split1-slice-ip_41-1"
  param {
    name: "data-split1-slice-ip_41-1_w"
    lr_mult: 1
    decay_mult: 1
  }
  param {
    name: "data-split1-slice-ip_41-1_b"
    lr_mult: 2
    decay_mult: 0
  }
  inner_product_param {
    num_output: 168
    weight_filler {
      type: "xavier"
      std:0.01
    }
    bias_filler {
      type: "constant"
      value: 0
    }
  }
}
layer {
  name: "relu-data-split1-slice-ip_41-1"
  type: "ReLU"
  bottom: "data-split1-slice-ip_41-1"
  top: "data-split1-slice-ip_41-1"
}
layer {
  name: "data-split1-slice-ip_41-1_p"
  type: "InnerProduct"
  bottom: "data-split1-slice-ip_41-0_p"
  top: "data-split1-slice-ip_41-1_p"
  param {
    name: "data-split1-slice-ip_41-1_w"
    lr_mult: 1
    decay_mult: 1
  }
  param {
    name: "data-split1-slice-ip_41-1_b"
    lr_mult: 2
    decay_mult: 0
  }
  inner_product_param {
    num_output: 168
    weight_filler {
      type: "xavier"
      std:0.01
    }
    bias_filler {
      type: "constant"
      value: 0
    }
  }
}
layer {
  name: "relu-data-split1-slice-ip_41-1_p"
  type: "ReLU"
  bottom: "data-split1-slice-ip_41-1_p"
  top: "data-split1-slice-ip_41-1_p"
}
layer {
  name: "data-split1-slice-ip_42-0"
  type: "InnerProduct"
  bottom: "flat_data-42"
  top: "data-split1-slice-ip_42-0"
  param {
    name: "data-split1-slice-ip_42-0_w"
    lr_mult: 1
    decay_mult: 1
  }
  param {
    name: "data-split1-slice-ip_42-0_b"
    lr_mult: 2
    decay_mult: 0
  }
  inner_product_param {
    num_output: 200
    weight_filler {
      type: "xavier"
      std:0.01
    }
    bias_filler {
      type: "constant"
      value: 0
    }
  }
}
layer {
  name: "relu-data-split1-slice-ip_42-0"
  type: "ReLU"
  bottom: "data-split1-slice-ip_42-0"
  top: "data-split1-slice-ip_42-0"
}
layer {
  name: "data-split1-slice-ip_42-0_p"
  type: "InnerProduct"
  bottom: "flat_data_p-42"
  top: "data-split1-slice-ip_42-0_p"
  param {
    name: "data-split1-slice-ip_42-0_w"
    lr_mult: 1
    decay_mult: 1
  }
  param {
    name: "data-split1-slice-ip_42-0_b"
    lr_mult: 2
    decay_mult: 0
  }
  inner_product_param {
    num_output: 200
    weight_filler {
      type: "xavier"
      std:0.01
    }
    bias_filler {
      type: "constant"
      value: 0
    }
  }
}
layer {
  name: "relu-data-split1-slice-ip_42-0_p"
  type: "ReLU"
  bottom: "data-split1-slice-ip_42-0_p"
  top: "data-split1-slice-ip_42-0_p"
}
layer {
  name: "data-split1-slice-ip_42-1"
  type: "InnerProduct"
  bottom: "data-split1-slice-ip_42-0"
  top: "data-split1-slice-ip_42-1"
  param {
    name: "data-split1-slice-ip_42-1_w"
    lr_mult: 1
    decay_mult: 1
  }
  param {
    name: "data-split1-slice-ip_42-1_b"
    lr_mult: 2
    decay_mult: 0
  }
  inner_product_param {
    num_output: 168
    weight_filler {
      type: "xavier"
      std:0.01
    }
    bias_filler {
      type: "constant"
      value: 0
    }
  }
}
layer {
  name: "relu-data-split1-slice-ip_42-1"
  type: "ReLU"
  bottom: "data-split1-slice-ip_42-1"
  top: "data-split1-slice-ip_42-1"
}
layer {
  name: "data-split1-slice-ip_42-1_p"
  type: "InnerProduct"
  bottom: "data-split1-slice-ip_42-0_p"
  top: "data-split1-slice-ip_42-1_p"
  param {
    name: "data-split1-slice-ip_42-1_w"
    lr_mult: 1
    decay_mult: 1
  }
  param {
    name: "data-split1-slice-ip_42-1_b"
    lr_mult: 2
    decay_mult: 0
  }
  inner_product_param {
    num_output: 168
    weight_filler {
      type: "xavier"
      std:0.01
    }
    bias_filler {
      type: "constant"
      value: 0
    }
  }
}
layer {
  name: "relu-data-split1-slice-ip_42-1_p"
  type: "ReLU"
  bottom: "data-split1-slice-ip_42-1_p"
  top: "data-split1-slice-ip_42-1_p"
}
layer {
  name: "data-split1-slice-ip_43-0"
  type: "InnerProduct"
  bottom: "flat_data-43"
  top: "data-split1-slice-ip_43-0"
  param {
    name: "data-split1-slice-ip_43-0_w"
    lr_mult: 1
    decay_mult: 1
  }
  param {
    name: "data-split1-slice-ip_43-0_b"
    lr_mult: 2
    decay_mult: 0
  }
  inner_product_param {
    num_output: 200
    weight_filler {
      type: "xavier"
      std:0.01
    }
    bias_filler {
      type: "constant"
      value: 0
    }
  }
}
layer {
  name: "relu-data-split1-slice-ip_43-0"
  type: "ReLU"
  bottom: "data-split1-slice-ip_43-0"
  top: "data-split1-slice-ip_43-0"
}
layer {
  name: "data-split1-slice-ip_43-0_p"
  type: "InnerProduct"
  bottom: "flat_data_p-43"
  top: "data-split1-slice-ip_43-0_p"
  param {
    name: "data-split1-slice-ip_43-0_w"
    lr_mult: 1
    decay_mult: 1
  }
  param {
    name: "data-split1-slice-ip_43-0_b"
    lr_mult: 2
    decay_mult: 0
  }
  inner_product_param {
    num_output: 200
    weight_filler {
      type: "xavier"
      std:0.01
    }
    bias_filler {
      type: "constant"
      value: 0
    }
  }
}
layer {
  name: "relu-data-split1-slice-ip_43-0_p"
  type: "ReLU"
  bottom: "data-split1-slice-ip_43-0_p"
  top: "data-split1-slice-ip_43-0_p"
}
layer {
  name: "data-split1-slice-ip_43-1"
  type: "InnerProduct"
  bottom: "data-split1-slice-ip_43-0"
  top: "data-split1-slice-ip_43-1"
  param {
    name: "data-split1-slice-ip_43-1_w"
    lr_mult: 1
    decay_mult: 1
  }
  param {
    name: "data-split1-slice-ip_43-1_b"
    lr_mult: 2
    decay_mult: 0
  }
  inner_product_param {
    num_output: 168
    weight_filler {
      type: "xavier"
      std:0.01
    }
    bias_filler {
      type: "constant"
      value: 0
    }
  }
}
layer {
  name: "relu-data-split1-slice-ip_43-1"
  type: "ReLU"
  bottom: "data-split1-slice-ip_43-1"
  top: "data-split1-slice-ip_43-1"
}
layer {
  name: "data-split1-slice-ip_43-1_p"
  type: "InnerProduct"
  bottom: "data-split1-slice-ip_43-0_p"
  top: "data-split1-slice-ip_43-1_p"
  param {
    name: "data-split1-slice-ip_43-1_w"
    lr_mult: 1
    decay_mult: 1
  }
  param {
    name: "data-split1-slice-ip_43-1_b"
    lr_mult: 2
    decay_mult: 0
  }
  inner_product_param {
    num_output: 168
    weight_filler {
      type: "xavier"
      std:0.01
    }
    bias_filler {
      type: "constant"
      value: 0
    }
  }
}
layer {
  name: "relu-data-split1-slice-ip_43-1_p"
  type: "ReLU"
  bottom: "data-split1-slice-ip_43-1_p"
  top: "data-split1-slice-ip_43-1_p"
}
layer {
  name: "data-split1-slice-ip_44-0"
  type: "InnerProduct"
  bottom: "flat_data-44"
  top: "data-split1-slice-ip_44-0"
  param {
    name: "data-split1-slice-ip_44-0_w"
    lr_mult: 1
    decay_mult: 1
  }
  param {
    name: "data-split1-slice-ip_44-0_b"
    lr_mult: 2
    decay_mult: 0
  }
  inner_product_param {
    num_output: 200
    weight_filler {
      type: "xavier"
      std:0.01
    }
    bias_filler {
      type: "constant"
      value: 0
    }
  }
}
layer {
  name: "relu-data-split1-slice-ip_44-0"
  type: "ReLU"
  bottom: "data-split1-slice-ip_44-0"
  top: "data-split1-slice-ip_44-0"
}
layer {
  name: "data-split1-slice-ip_44-0_p"
  type: "InnerProduct"
  bottom: "flat_data_p-44"
  top: "data-split1-slice-ip_44-0_p"
  param {
    name: "data-split1-slice-ip_44-0_w"
    lr_mult: 1
    decay_mult: 1
  }
  param {
    name: "data-split1-slice-ip_44-0_b"
    lr_mult: 2
    decay_mult: 0
  }
  inner_product_param {
    num_output: 200
    weight_filler {
      type: "xavier"
      std:0.01
    }
    bias_filler {
      type: "constant"
      value: 0
    }
  }
}
layer {
  name: "relu-data-split1-slice-ip_44-0_p"
  type: "ReLU"
  bottom: "data-split1-slice-ip_44-0_p"
  top: "data-split1-slice-ip_44-0_p"
}
layer {
  name: "data-split1-slice-ip_44-1"
  type: "InnerProduct"
  bottom: "data-split1-slice-ip_44-0"
  top: "data-split1-slice-ip_44-1"
  param {
    name: "data-split1-slice-ip_44-1_w"
    lr_mult: 1
    decay_mult: 1
  }
  param {
    name: "data-split1-slice-ip_44-1_b"
    lr_mult: 2
    decay_mult: 0
  }
  inner_product_param {
    num_output: 168
    weight_filler {
      type: "xavier"
      std:0.01
    }
    bias_filler {
      type: "constant"
      value: 0
    }
  }
}
layer {
  name: "relu-data-split1-slice-ip_44-1"
  type: "ReLU"
  bottom: "data-split1-slice-ip_44-1"
  top: "data-split1-slice-ip_44-1"
}
layer {
  name: "data-split1-slice-ip_44-1_p"
  type: "InnerProduct"
  bottom: "data-split1-slice-ip_44-0_p"
  top: "data-split1-slice-ip_44-1_p"
  param {
    name: "data-split1-slice-ip_44-1_w"
    lr_mult: 1
    decay_mult: 1
  }
  param {
    name: "data-split1-slice-ip_44-1_b"
    lr_mult: 2
    decay_mult: 0
  }
  inner_product_param {
    num_output: 168
    weight_filler {
      type: "xavier"
      std:0.01
    }
    bias_filler {
      type: "constant"
      value: 0
    }
  }
}
layer {
  name: "relu-data-split1-slice-ip_44-1_p"
  type: "ReLU"
  bottom: "data-split1-slice-ip_44-1_p"
  top: "data-split1-slice-ip_44-1_p"
}
layer {
  name: "data-split1-slice-ip_45-0"
  type: "InnerProduct"
  bottom: "flat_data-45"
  top: "data-split1-slice-ip_45-0"
  param {
    name: "data-split1-slice-ip_45-0_w"
    lr_mult: 1
    decay_mult: 1
  }
  param {
    name: "data-split1-slice-ip_45-0_b"
    lr_mult: 2
    decay_mult: 0
  }
  inner_product_param {
    num_output: 200
    weight_filler {
      type: "xavier"
      std:0.01
    }
    bias_filler {
      type: "constant"
      value: 0
    }
  }
}
layer {
  name: "relu-data-split1-slice-ip_45-0"
  type: "ReLU"
  bottom: "data-split1-slice-ip_45-0"
  top: "data-split1-slice-ip_45-0"
}
layer {
  name: "data-split1-slice-ip_45-0_p"
  type: "InnerProduct"
  bottom: "flat_data_p-45"
  top: "data-split1-slice-ip_45-0_p"
  param {
    name: "data-split1-slice-ip_45-0_w"
    lr_mult: 1
    decay_mult: 1
  }
  param {
    name: "data-split1-slice-ip_45-0_b"
    lr_mult: 2
    decay_mult: 0
  }
  inner_product_param {
    num_output: 200
    weight_filler {
      type: "xavier"
      std:0.01
    }
    bias_filler {
      type: "constant"
      value: 0
    }
  }
}
layer {
  name: "relu-data-split1-slice-ip_45-0_p"
  type: "ReLU"
  bottom: "data-split1-slice-ip_45-0_p"
  top: "data-split1-slice-ip_45-0_p"
}
layer {
  name: "data-split1-slice-ip_45-1"
  type: "InnerProduct"
  bottom: "data-split1-slice-ip_45-0"
  top: "data-split1-slice-ip_45-1"
  param {
    name: "data-split1-slice-ip_45-1_w"
    lr_mult: 1
    decay_mult: 1
  }
  param {
    name: "data-split1-slice-ip_45-1_b"
    lr_mult: 2
    decay_mult: 0
  }
  inner_product_param {
    num_output: 168
    weight_filler {
      type: "xavier"
      std:0.01
    }
    bias_filler {
      type: "constant"
      value: 0
    }
  }
}
layer {
  name: "relu-data-split1-slice-ip_45-1"
  type: "ReLU"
  bottom: "data-split1-slice-ip_45-1"
  top: "data-split1-slice-ip_45-1"
}
layer {
  name: "data-split1-slice-ip_45-1_p"
  type: "InnerProduct"
  bottom: "data-split1-slice-ip_45-0_p"
  top: "data-split1-slice-ip_45-1_p"
  param {
    name: "data-split1-slice-ip_45-1_w"
    lr_mult: 1
    decay_mult: 1
  }
  param {
    name: "data-split1-slice-ip_45-1_b"
    lr_mult: 2
    decay_mult: 0
  }
  inner_product_param {
    num_output: 168
    weight_filler {
      type: "xavier"
      std:0.01
    }
    bias_filler {
      type: "constant"
      value: 0
    }
  }
}
layer {
  name: "relu-data-split1-slice-ip_45-1_p"
  type: "ReLU"
  bottom: "data-split1-slice-ip_45-1_p"
  top: "data-split1-slice-ip_45-1_p"
}
layer {
  name: "data-split1-slice-ip_46-0"
  type: "InnerProduct"
  bottom: "flat_data-46"
  top: "data-split1-slice-ip_46-0"
  param {
    name: "data-split1-slice-ip_46-0_w"
    lr_mult: 1
    decay_mult: 1
  }
  param {
    name: "data-split1-slice-ip_46-0_b"
    lr_mult: 2
    decay_mult: 0
  }
  inner_product_param {
    num_output: 200
    weight_filler {
      type: "xavier"
      std:0.01
    }
    bias_filler {
      type: "constant"
      value: 0
    }
  }
}
layer {
  name: "relu-data-split1-slice-ip_46-0"
  type: "ReLU"
  bottom: "data-split1-slice-ip_46-0"
  top: "data-split1-slice-ip_46-0"
}
layer {
  name: "data-split1-slice-ip_46-0_p"
  type: "InnerProduct"
  bottom: "flat_data_p-46"
  top: "data-split1-slice-ip_46-0_p"
  param {
    name: "data-split1-slice-ip_46-0_w"
    lr_mult: 1
    decay_mult: 1
  }
  param {
    name: "data-split1-slice-ip_46-0_b"
    lr_mult: 2
    decay_mult: 0
  }
  inner_product_param {
    num_output: 200
    weight_filler {
      type: "xavier"
      std:0.01
    }
    bias_filler {
      type: "constant"
      value: 0
    }
  }
}
layer {
  name: "relu-data-split1-slice-ip_46-0_p"
  type: "ReLU"
  bottom: "data-split1-slice-ip_46-0_p"
  top: "data-split1-slice-ip_46-0_p"
}
layer {
  name: "data-split1-slice-ip_46-1"
  type: "InnerProduct"
  bottom: "data-split1-slice-ip_46-0"
  top: "data-split1-slice-ip_46-1"
  param {
    name: "data-split1-slice-ip_46-1_w"
    lr_mult: 1
    decay_mult: 1
  }
  param {
    name: "data-split1-slice-ip_46-1_b"
    lr_mult: 2
    decay_mult: 0
  }
  inner_product_param {
    num_output: 168
    weight_filler {
      type: "xavier"
      std:0.01
    }
    bias_filler {
      type: "constant"
      value: 0
    }
  }
}
layer {
  name: "relu-data-split1-slice-ip_46-1"
  type: "ReLU"
  bottom: "data-split1-slice-ip_46-1"
  top: "data-split1-slice-ip_46-1"
}
layer {
  name: "data-split1-slice-ip_46-1_p"
  type: "InnerProduct"
  bottom: "data-split1-slice-ip_46-0_p"
  top: "data-split1-slice-ip_46-1_p"
  param {
    name: "data-split1-slice-ip_46-1_w"
    lr_mult: 1
    decay_mult: 1
  }
  param {
    name: "data-split1-slice-ip_46-1_b"
    lr_mult: 2
    decay_mult: 0
  }
  inner_product_param {
    num_output: 168
    weight_filler {
      type: "xavier"
      std:0.01
    }
    bias_filler {
      type: "constant"
      value: 0
    }
  }
}
layer {
  name: "relu-data-split1-slice-ip_46-1_p"
  type: "ReLU"
  bottom: "data-split1-slice-ip_46-1_p"
  top: "data-split1-slice-ip_46-1_p"
}
layer {
  name: "data-split1-slice-ip_47-0"
  type: "InnerProduct"
  bottom: "flat_data-47"
  top: "data-split1-slice-ip_47-0"
  param {
    name: "data-split1-slice-ip_47-0_w"
    lr_mult: 1
    decay_mult: 1
  }
  param {
    name: "data-split1-slice-ip_47-0_b"
    lr_mult: 2
    decay_mult: 0
  }
  inner_product_param {
    num_output: 200
    weight_filler {
      type: "xavier"
      std:0.01
    }
    bias_filler {
      type: "constant"
      value: 0
    }
  }
}
layer {
  name: "relu-data-split1-slice-ip_47-0"
  type: "ReLU"
  bottom: "data-split1-slice-ip_47-0"
  top: "data-split1-slice-ip_47-0"
}
layer {
  name: "data-split1-slice-ip_47-0_p"
  type: "InnerProduct"
  bottom: "flat_data_p-47"
  top: "data-split1-slice-ip_47-0_p"
  param {
    name: "data-split1-slice-ip_47-0_w"
    lr_mult: 1
    decay_mult: 1
  }
  param {
    name: "data-split1-slice-ip_47-0_b"
    lr_mult: 2
    decay_mult: 0
  }
  inner_product_param {
    num_output: 200
    weight_filler {
      type: "xavier"
      std:0.01
    }
    bias_filler {
      type: "constant"
      value: 0
    }
  }
}
layer {
  name: "relu-data-split1-slice-ip_47-0_p"
  type: "ReLU"
  bottom: "data-split1-slice-ip_47-0_p"
  top: "data-split1-slice-ip_47-0_p"
}
layer {
  name: "data-split1-slice-ip_47-1"
  type: "InnerProduct"
  bottom: "data-split1-slice-ip_47-0"
  top: "data-split1-slice-ip_47-1"
  param {
    name: "data-split1-slice-ip_47-1_w"
    lr_mult: 1
    decay_mult: 1
  }
  param {
    name: "data-split1-slice-ip_47-1_b"
    lr_mult: 2
    decay_mult: 0
  }
  inner_product_param {
    num_output: 168
    weight_filler {
      type: "xavier"
      std:0.01
    }
    bias_filler {
      type: "constant"
      value: 0
    }
  }
}
layer {
  name: "relu-data-split1-slice-ip_47-1"
  type: "ReLU"
  bottom: "data-split1-slice-ip_47-1"
  top: "data-split1-slice-ip_47-1"
}
layer {
  name: "data-split1-slice-ip_47-1_p"
  type: "InnerProduct"
  bottom: "data-split1-slice-ip_47-0_p"
  top: "data-split1-slice-ip_47-1_p"
  param {
    name: "data-split1-slice-ip_47-1_w"
    lr_mult: 1
    decay_mult: 1
  }
  param {
    name: "data-split1-slice-ip_47-1_b"
    lr_mult: 2
    decay_mult: 0
  }
  inner_product_param {
    num_output: 168
    weight_filler {
      type: "xavier"
      std:0.01
    }
    bias_filler {
      type: "constant"
      value: 0
    }
  }
}
layer {
  name: "relu-data-split1-slice-ip_47-1_p"
  type: "ReLU"
  bottom: "data-split1-slice-ip_47-1_p"
  top: "data-split1-slice-ip_47-1_p"
}
layer {
  name: "data-split1-slice-ip_48-0"
  type: "InnerProduct"
  bottom: "flat_data-48"
  top: "data-split1-slice-ip_48-0"
  param {
    name: "data-split1-slice-ip_48-0_w"
    lr_mult: 1
    decay_mult: 1
  }
  param {
    name: "data-split1-slice-ip_48-0_b"
    lr_mult: 2
    decay_mult: 0
  }
  inner_product_param {
    num_output: 200
    weight_filler {
      type: "xavier"
      std:0.01
    }
    bias_filler {
      type: "constant"
      value: 0
    }
  }
}
layer {
  name: "relu-data-split1-slice-ip_48-0"
  type: "ReLU"
  bottom: "data-split1-slice-ip_48-0"
  top: "data-split1-slice-ip_48-0"
}
layer {
  name: "data-split1-slice-ip_48-0_p"
  type: "InnerProduct"
  bottom: "flat_data_p-48"
  top: "data-split1-slice-ip_48-0_p"
  param {
    name: "data-split1-slice-ip_48-0_w"
    lr_mult: 1
    decay_mult: 1
  }
  param {
    name: "data-split1-slice-ip_48-0_b"
    lr_mult: 2
    decay_mult: 0
  }
  inner_product_param {
    num_output: 200
    weight_filler {
      type: "xavier"
      std:0.01
    }
    bias_filler {
      type: "constant"
      value: 0
    }
  }
}
layer {
  name: "relu-data-split1-slice-ip_48-0_p"
  type: "ReLU"
  bottom: "data-split1-slice-ip_48-0_p"
  top: "data-split1-slice-ip_48-0_p"
}
layer {
  name: "data-split1-slice-ip_48-1"
  type: "InnerProduct"
  bottom: "data-split1-slice-ip_48-0"
  top: "data-split1-slice-ip_48-1"
  param {
    name: "data-split1-slice-ip_48-1_w"
    lr_mult: 1
    decay_mult: 1
  }
  param {
    name: "data-split1-slice-ip_48-1_b"
    lr_mult: 2
…
    name: "help-out-126_w"
    lr_mult: 1
    decay_mult: 1
  }
  param {
    name: "help-out-126_b"
    lr_mult: 2
    decay_mult: 0
  }
  inner_product_param {
    num_output: 227
    weight_filler {
      type: "xavier"
      
    }
    bias_filler {
      type: "constant"
      value: 0
    }
  }
}
layer {
  name: "help-out-127"
  type: "InnerProduct"
  bottom: "help-2-127"
  top: "help-out-127"
  param {
    name: "help-out-127_w"
    lr_mult: 1
    decay_mult: 1
  }
  param {
    name: "help-out-127_b"
    lr_mult: 2
    decay_mult: 0
  }
  inner_product_param {
    num_output: 227
    weight_filler {
      type: "xavier"
      
    }
    bias_filler {
      type: "constant"
      value: 0
    }
  }
}
layer {
  name: "help-out-128"
  type: "InnerProduct"
  bottom: "help-2-128"
  top: "help-out-128"
  param {
    name: "help-out-128_w"
    lr_mult: 1
    decay_mult: 1
  }
  param {
    name: "help-out-128_b"
    lr_mult: 2
    decay_mult: 0
  }
  inner_product_param {
    num_output: 227
    weight_filler {
      type: "xavier"
      
    }
    bias_filler {
      type: "constant"
      value: 0
    }
  }
}
layer {
  name: "help-out-129"
  type: "InnerProduct"
  bottom: "help-2-129"
  top: "help-out-129"
  param {
    name: "help-out-129_w"
    lr_mult: 1
    decay_mult: 1
  }
  param {
    name: "help-out-129_b"
    lr_mult: 2
    decay_mult: 0
  }
  inner_product_param {
    num_output: 227
    weight_filler {
      type: "xavier"
      
    }
    bias_filler {
      type: "constant"
      value: 0
    }
  }
}
layer {
  name: "help-out-130"
  type: "InnerProduct"
  bottom: "help-2-130"
  top: "help-out-130"
  param {
    name: "help-out-130_w"
    lr_mult: 1
    decay_mult: 1
  }
  param {
    name: "help-out-130_b"
    lr_mult: 2
    decay_mult: 0
  }
  inner_product_param {
    num_output: 227
    weight_filler {
      type: "xavier"
      
    }
    bias_filler {
      type: "constant"
      value: 0
    }
  }
}
layer {
  name: "help-out-131"
  type: "InnerProduct"
  bottom: "help-2-131"
  top: "help-out-131"
  param {
    name: "help-out-131_w"
    lr_mult: 1
    decay_mult: 1
  }
  param {
    name: "help-out-131_b"
    lr_mult: 2
    decay_mult: 0
  }
  inner_product_param {
    num_output: 227
    weight_filler {
      type: "xavier"
      
    }
    bias_filler {
      type: "constant"
      value: 0
    }
  }
}
layer {
  name: "help-out-132"
  type: "InnerProduct"
  bottom: "help-2-132"
  top: "help-out-132"
  param {
    name: "help-out-132_w"
    lr_mult: 1
    decay_mult: 1
  }
  param {
    name: "help-out-132_b"
    lr_mult: 2
    decay_mult: 0
  }
  inner_product_param {
    num_output: 227
    weight_filler {
      type: "xavier"
      
    }
    bias_filler {
      type: "constant"
      value: 0
    }
  }
}
layer {
  name: "help-out-133"
  type: "InnerProduct"
  bottom: "help-2-133"
  top: "help-out-133"
  param {
    name: "help-out-133_w"
    lr_mult: 1
    decay_mult: 1
  }
  param {
    name: "help-out-133_b"
    lr_mult: 2
    decay_mult: 0
  }
  inner_product_param {
    num_output: 227
    weight_filler {
      type: "xavier"
      
    }
    bias_filler {
      type: "constant"
      value: 0
    }
  }
}
layer {
  name: "help-out-134"
  type: "InnerProduct"
  bottom: "help-2-134"
  top: "help-out-134"
  param {
    name: "help-out-134_w"
    lr_mult: 1
    decay_mult: 1
  }
  param {
    name: "help-out-134_b"
    lr_mult: 2
    decay_mult: 0
  }
  inner_product_param {
    num_output: 227
    weight_filler {
      type: "xavier"
      
    }
    bias_filler {
      type: "constant"
      value: 0
    }
  }
}
layer {
  name: "help-out-135"
  type: "InnerProduct"
  bottom: "help-2-135"
  top: "help-out-135"
  param {
    name: "help-out-135_w"
    lr_mult: 1
    decay_mult: 1
  }
  param {
    name: "help-out-135_b"
    lr_mult: 2
    decay_mult: 0
  }
  inner_product_param {
    num_output: 227
    weight_filler {
      type: "xavier"
      
    }
    bias_filler {
      type: "constant"
      value: 0
    }
  }
}
layer {
  name: "help-out-136"
  type: "InnerProduct"
  bottom: "help-2-136"
  top: "help-out-136"
  param {
    name: "help-out-136_w"
    lr_mult: 1
    decay_mult: 1
  }
  param {
    name: "help-out-136_b"
    lr_mult: 2
    decay_mult: 0
  }
  inner_product_param {
    num_output: 227
    weight_filler {
      type: "xavier"
      
    }
    bias_filler {
      type: "constant"
      value: 0
    }
  }
}
layer {
  name: "help-out-137"
  type: "InnerProduct"
  bottom: "help-2-137"
  top: "help-out-137"
  param {
    name: "help-out-137_w"
    lr_mult: 1
    decay_mult: 1
  }
  param {
    name: "help-out-137_b"
    lr_mult: 2
    decay_mult: 0
  }
  inner_product_param {
    num_output: 227
    weight_filler {
      type: "xavier"
      
    }
    bias_filler {
      type: "constant"
      value: 0
    }
  }
}
layer {
  name: "help-out-138"
  type: "InnerProduct"
  bottom: "help-2-138"
  top: "help-out-138"
  param {
    name: "help-out-138_w"
    lr_mult: 1
    decay_mult: 1
  }
  param {
    name: "help-out-138_b"
    lr_mult: 2
    decay_mult: 0
  }
  inner_product_param {
    num_output: 227
    weight_filler {
      type: "xavier"
      
    }
    bias_filler {
      type: "constant"
      value: 0
    }
  }
}
layer {
  name: "help-out-139"
  type: "InnerProduct"
  bottom: "help-2-139"
  top: "help-out-139"
  param {
    name: "help-out-139_w"
    lr_mult: 1
    decay_mult: 1
  }
  param {
    name: "help-out-139_b"
    lr_mult: 2
    decay_mult: 0
  }
  inner_product_param {
    num_output: 227
    weight_filler {
      type: "xavier"
      
    }
    bias_filler {
      type: "constant"
      value: 0
    }
  }
}
layer {
  name: "help-out-140"
  type: "InnerProduct"
  bottom: "help-2-140"
  top: "help-out-140"
  param {
    name: "help-out-140_w"
    lr_mult: 1
    decay_mult: 1
  }
  param {
    name: "help-out-140_b"
    lr_mult: 2
    decay_mult: 0
  }
  inner_product_param {
    num_output: 227
    weight_filler {
      type: "xavier"
      
    }
    bias_filler {
      type: "constant"
      value: 0
    }
  }
}
layer {
  name: "help-out-141"
  type: "InnerProduct"
  bottom: "help-2-141"
  top: "help-out-141"
  param {
    name: "help-out-141_w"
    lr_mult: 1
    decay_mult: 1
  }
  param {
    name: "help-out-141_b"
    lr_mult: 2
    decay_mult: 0
  }
  inner_product_param {
    num_output: 227
    weight_filler {
      type: "xavier"
      
    }
    bias_filler {
      type: "constant"
      value: 0
    }
  }
}
layer {
  name: "help-out-142"
  type: "InnerProduct"
  bottom: "help-2-142"
  top: "help-out-142"
  param {
    name: "help-out-142_w"
    lr_mult: 1
    decay_mult: 1
  }
  param {
    name: "help-out-142_b"
    lr_mult: 2
    decay_mult: 0
  }
  inner_product_param {
    num_output: 227
    weight_filler {
      type: "xavier"
      
    }
    bias_filler {
      type: "constant"
      value: 0
    }
  }
}
layer {
  name: "help-out-143"
  type: "InnerProduct"
  bottom: "help-2-143"
  top: "help-out-143"
  param {
    name: "help-out-143_w"
    lr_mult: 1
    decay_mult: 1
  }
  param {
    name: "help-out-143_b"
    lr_mult: 2
    decay_mult: 0
  }
  inner_product_param {
    num_output: 227
    weight_filler {
      type: "xavier"
      
    }
    bias_filler {
      type: "constant"
      value: 0
    }
  }
}
layer {
  name: "help-out-144"
  type: "InnerProduct"
  bottom: "help-2-144"
  top: "help-out-144"
  param {
    name: "help-out-144_w"
    lr_mult: 1
    decay_mult: 1
  }
  param {
    name: "help-out-144_b"
    lr_mult: 2
    decay_mult: 0
  }
  inner_product_param {
    num_output: 227
    weight_filler {
      type: "xavier"
      
    }
    bias_filler {
      type: "constant"
      value: 0
    }
  }
}
layer {
  name: "help-out-145"
  type: "InnerProduct"
  bottom: "help-2-145"
  top: "help-out-145"
  param {
    name: "help-out-145_w"
    lr_mult: 1
    decay_mult: 1
  }
  param {
    name: "help-out-145_b"
    lr_mult: 2
    decay_mult: 0
  }
  inner_product_param {
    num_output: 227
    weight_filler {
      type: "xavier"
      
    }
    bias_filler {
      type: "constant"
      value: 0
    }
  }
}
layer {
  name: "help-out-146"
  type: "InnerProduct"
  bottom: "help-2-146"
  top: "help-out-146"
  param {
    name: "help-out-146_w"
    lr_mult: 1
    decay_mult: 1
  }
  param {
    name: "help-out-146_b"
    lr_mult: 2
    decay_mult: 0
  }
  inner_product_param {
    num_output: 227
    weight_filler {
      type: "xavier"
      
    }
    bias_filler {
      type: "constant"
      value: 0
    }
  }
}
layer {
  name: "help-out-147"
  type: "InnerProduct"
  bottom: "help-2-147"
  top: "help-out-147"
  param {
    name: "help-out-147_w"
    lr_mult: 1
    decay_mult: 1
  }
  param {
    name: "help-out-147_b"
    lr_mult: 2
    decay_mult: 0
  }
  inner_product_param {
    num_output: 227
    weight_filler {
      type: "xavier"
      
    }
    bias_filler {
      type: "constant"
      value: 0
    }
  }
}
layer {
  name: "help-out-148"
  type: "InnerProduct"
  bottom: "help-2-148"
  top: "help-out-148"
  param {
    name: "help-out-148_w"
    lr_mult: 1
    decay_mult: 1
  }
  param {
    name: "help-out-148_b"
    lr_mult: 2
    decay_mult: 0
  }
  inner_product_param {
    num_output: 227
    weight_filler {
      type: "xavier"
      
    }
    bias_filler {
      type: "constant"
      value: 0
    }
  }
}
layer {
  name: "help-out-149"
  type: "InnerProduct"
  bottom: "help-2-149"
  top: "help-out-149"
  param {
    name: "help-out-149_w"
    lr_mult: 1
    decay_mult: 1
  }
  param {
    name: "help-out-149_b"
    lr_mult: 2
    decay_mult: 0
  }
  inner_product_param {
    num_output: 227
    weight_filler {
      type: "xavier"
      
    }
    bias_filler {
      type: "constant"
      value: 0
    }
  }
}
layer {
  name: "help-out-150"
  type: "InnerProduct"
  bottom: "help-2-150"
  top: "help-out-150"
  param {
    name: "help-out-150_w"
    lr_mult: 1
    decay_mult: 1
  }
  param {
    name: "help-out-150_b"
    lr_mult: 2
    decay_mult: 0
  }
  inner_product_param {
    num_output: 227
    weight_filler {
      type: "xavier"
      
    }
    bias_filler {
      type: "constant"
      value: 0
    }
  }
}
layer {
  name: "help-out-151"
  type: "InnerProduct"
  bottom: "help-2-151"
  top: "help-out-151"
  param {
    name: "help-out-151_w"
    lr_mult: 1
    decay_mult: 1
  }
  param {
    name: "help-out-151_b"
    lr_mult: 2
    decay_mult: 0
  }
  inner_product_param {
    num_output: 227
    weight_filler {
      type: "xavier"
      
    }
    bias_filler {
      type: "constant"
      value: 0
    }
  }
}
layer {
  name: "help-out-152"
  type: "InnerProduct"
  bottom: "help-2-152"
  top: "help-out-152"
  param {
    name: "help-out-152_w"
    lr_mult: 1
    decay_mult: 1
  }
  param {
    name: "help-out-152_b"
    lr_mult: 2
    decay_mult: 0
  }
  inner_product_param {
    num_output: 227
    weight_filler {
      type: "xavier"
      
    }
    bias_filler {
      type: "constant"
      value: 0
    }
  }
}
layer {
  name: "help-out-153"
  type: "InnerProduct"
  bottom: "help-2-153"
  top: "help-out-153"
  param {
    name: "help-out-153_w"
    lr_mult: 1
    decay_mult: 1
  }
  param {
    name: "help-out-153_b"
    lr_mult: 2
    decay_mult: 0
  }
  inner_product_param {
    num_output: 227
    weight_filler {
      type: "xavier"
      
    }
    bias_filler {
      type: "constant"
      value: 0
    }
  }
}
layer {
  name: "help-out-154"
  type: "InnerProduct"
  bottom: "help-2-154"
  top: "help-out-154"
  param {
    name: "help-out-154_w"
    lr_mult: 1
    decay_mult: 1
  }
  param {
    name: "help-out-154_b"
    lr_mult: 2
    decay_mult: 0
  }
  inner_product_param {
    num_output: 227
    weight_filler {
      type: "xavier"
      
    }
    bias_filler {
      type: "constant"
      value: 0
    }
  }
}
layer {
  name: "help-out-155"
  type: "InnerProduct"
  bottom: "help-2-155"
  top: "help-out-155"
  param {
    name: "help-out-155_w"
    lr_mult: 1
    decay_mult: 1
  }
  param {
    name: "help-out-155_b"
    lr_mult: 2
    decay_mult: 0
  }
  inner_product_param {
    num_output: 227
    weight_filler {
      type: "xavier"
      
    }
    bias_filler {
      type: "constant"
      value: 0
    }
  }
}
layer {
  name: "help-out-156"
  type: "InnerProduct"
  bottom: "help-2-156"
  top: "help-out-156"
  param {
    name: "help-out-156_w"
    lr_mult: 1
    decay_mult: 1
  }
  param {
    name: "help-out-156_b"
    lr_mult: 2
    decay_mult: 0
  }
  inner_product_param {
    num_output: 227
    weight_filler {
      type: "xavier"
      
    }
    bias_filler {
      type: "constant"
      value: 0
    }
  }
}
layer {
  name: "help-out-157"
  type: "InnerProduct"
  bottom: "help-2-157"
  top: "help-out-157"
  param {
    name: "help-out-157_w"
    lr_mult: 1
    decay_mult: 1
  }
  param {
    name: "help-out-157_b"
    lr_mult: 2
    decay_mult: 0
  }
  inner_product_param {
    num_output: 227
    weight_filler {
      type: "xavier"
      
    }
    bias_filler {
      type: "constant"
      value: 0
    }
  }
}
layer {
  name: "help-out-158"
  type: "InnerProduct"
  bottom: "help-2-158"
  top: "help-out-158"
  param {
    name: "help-out-158_w"
    lr_mult: 1
    decay_mult: 1
  }
  param {
    name: "help-out-158_b"
    lr_mult: 2
    decay_mult: 0
  }
  inner_product_param {
    num_output: 227
    weight_filler {
      type: "xavier"
      
    }
    bias_filler {
      type: "constant"
      value: 0
    }
  }
}
layer {
  name: "help-out-159"
  type: "InnerProduct"
  bottom: "help-2-159"
  top: "help-out-159"
  param {
    name: "help-out-159_w"
    lr_mult: 1
    decay_mult: 1
  }
  param {
    name: "help-out-159_b"
    lr_mult: 2
    decay_mult: 0
  }
  inner_product_param {
    num_output: 227
    weight_filler {
      type: "xavier"
      
    }
    bias_filler {
      type: "constant"
      value: 0
    }
  }
}
layer {
  name: "help-out-160"
  type: "InnerProduct"
  bottom: "help-2-160"
  top: "help-out-160"
  param {
    name: "help-out-160_w"
    lr_mult: 1
    decay_mult: 1
  }
  param {
    name: "help-out-160_b"
    lr_mult: 2
    decay_mult: 0
  }
  inner_product_param {
    num_output: 227
    weight_filler {
      type: "xavier"
      
    }
    bias_filler {
      type: "constant"
      value: 0
    }
  }
}
layer {
  name: "help-out-161"
  type: "InnerProduct"
  bottom: "help-2-161"
  top: "help-out-161"
  param {
    name: "help-out-161_w"
    lr_mult: 1
    decay_mult: 1
  }
  param {
    name: "help-out-161_b"
    lr_mult: 2
    decay_mult: 0
  }
  inner_product_param {
    num_output: 227
    weight_filler {
      type: "xavier"
      
    }
    bias_filler {
      type: "constant"
      value: 0
    }
  }
}
layer {
  name: "help-out-162"
  type: "InnerProduct"
  bottom: "help-2-162"
  top: "help-out-162"
  param {
    name: "help-out-162_w"
    lr_mult: 1
    decay_mult: 1
  }
  param {
    name: "help-out-162_b"
    lr_mult: 2
    decay_mult: 0
  }
  inner_product_param {
    num_output: 227
    weight_filler {
      type: "xavier"
      
    }
    bias_filler {
      type: "constant"
      value: 0
    }
  }
}
layer {
  name: "help-out-163"
  type: "InnerProduct"
  bottom: "help-2-163"
  top: "help-out-163"
  param {
    name: "help-out-163_w"
    lr_mult: 1
    decay_mult: 1
  }
  param {
    name: "help-out-163_b"
    lr_mult: 2
    decay_mult: 0
  }
  inner_product_param {
    num_output: 227
    weight_filler {
      type: "xavier"
      
    }
    bias_filler {
      type: "constant"
      value: 0
    }
  }
}
layer {
  name: "help-out-164"
  type: "InnerProduct"
  bottom: "help-2-164"
  top: "help-out-164"
  param {
    name: "help-out-164_w"
    lr_mult: 1
    decay_mult: 1
  }
  param {
    name: "help-out-164_b"
    lr_mult: 2
    decay_mult: 0
  }
  inner_product_param {
    num_output: 227
    weight_filler {
      type: "xavier"
      
    }
    bias_filler {
      type: "constant"
      value: 0
    }
  }
}
layer {
  name: "help-out-165"
  type: "InnerProduct"
  bottom: "help-2-165"
  top: "help-out-165"
  param {
    name: "help-out-165_w"
    lr_mult: 1
    decay_mult: 1
  }
  param {
    name: "help-out-165_b"
    lr_mult: 2
    decay_mult: 0
  }
  inner_product_param {
    num_output: 227
    weight_filler {
      type: "xavier"
      
    }
    bias_filler {
      type: "constant"
      value: 0
    }
  }
}
layer {
  name: "help-out-166"
  type: "InnerProduct"
  bottom: "help-2-166"
  top: "help-out-166"
  param {
    name: "help-out-166_w"
    lr_mult: 1
    decay_mult: 1
  }
  param {
    name: "help-out-166_b"
    lr_mult: 2
    decay_mult: 0
  }
  inner_product_param {
    num_output: 227
    weight_filler {
      type: "xavier"
      
    }
    bias_filler {
      type: "constant"
      value: 0
    }
  }
}
layer {
  name: "help-out-167"
  type: "InnerProduct"
  bottom: "help-2-167"
  top: "help-out-167"
  param {
    name: "help-out-167_w"
    lr_mult: 1
    decay_mult: 1
  }
  param {
    name: "help-out-167_b"
    lr_mult: 2
    decay_mult: 0
  }
  inner_product_param {
    num_output: 227
    weight_filler {
      type: "xavier"
      
    }
    bias_filler {
      type: "constant"
      value: 0
    }
  }
}
layer {
  name: "help-out-168"
  type: "InnerProduct"
  bottom: "help-2-168"
  top: "help-out-168"
  param {
    name: "help-out-168_w"
    lr_mult: 1
    decay_mult: 1
  }
  param {
    name: "help-out-168_b"
    lr_mult: 2
    decay_mult: 0
  }
  inner_product_param {
    num_output: 227
    weight_filler {
      type: "xavier"
      
    }
    bias_filler {
      type: "constant"
      value: 0
    }
  }
}
layer {
  name: "help-out-169"
  type: "InnerProduct"
  bottom: "help-2-169"
  top: "help-out-169"
  param {
    name: "help-out-169_w"
    lr_mult: 1
    decay_mult: 1
  }
  param {
    name: "help-out-169_b"
    lr_mult: 2
    decay_mult: 0
  }
  inner_product_param {
    num_output: 227
    weight_filler {
      type: "xavier"
      
    }
    bias_filler {
      type: "constant"
      value: 0
    }
  }
}
layer {
  name: "help-out-170"
  type: "InnerProduct"
  bottom: "help-2-170"
  top: "help-out-170"
  param {
    name: "help-out-170_w"
    lr_mult: 1
    decay_mult: 1
  }
  param {
    name: "help-out-170_b"
    lr_mult: 2
    decay_mult: 0
  }
  inner_product_param {
    num_output: 227
    weight_filler {
      type: "xavier"
      
    }
    bias_filler {
      type: "constant"
      value: 0
    }
  }
}
layer {
  name: "help-out-171"
  type: "InnerProduct"
  bottom: "help-2-171"
  top: "help-out-171"
  param {
    name: "help-out-171_w"
    lr_mult: 1
    decay_mult: 1
  }
  param {
    name: "help-out-171_b"
    lr_mult: 2
    decay_mult: 0
  }
  inner_product_param {
    num_output: 227
    weight_filler {
      type: "xavier"
      
    }
    bias_filler {
      type: "constant"
      value: 0
    }
  }
}
layer {
  name: "help-out-172"
  type: "InnerProduct"
  bottom: "help-2-172"
  top: "help-out-172"
  param {
    name: "help-out-172_w"
    lr_mult: 1
    decay_mult: 1
  }
  param {
    name: "help-out-172_b"
    lr_mult: 2
    decay_mult: 0
  }
  inner_product_param {
    num_output: 227
    weight_filler {
      type: "xavier"
      
    }
    bias_filler {
      type: "constant"
      value: 0
    }
  }
}
layer {
  name: "help-out-173"
  type: "InnerProduct"
  bottom: "help-2-173"
  top: "help-out-173"
  param {
    name: "help-out-173_w"
    lr_mult: 1
    decay_mult: 1
  }
  param {
    name: "help-out-173_b"
    lr_mult: 2
    decay_mult: 0
  }
  inner_product_param {
    num_output: 227
    weight_filler {
      type: "xavier"
      
    }
    bias_filler {
      type: "constant"
      value: 0
    }
  }
}
layer {
  name: "help-out-174"
  type: "InnerProduct"
  bottom: "help-2-174"
  top: "help-out-174"
  param {
    name: "help-out-174_w"
    lr_mult: 1
    decay_mult: 1
  }
  param {
    name: "help-out-174_b"
    lr_mult: 2
    decay_mult: 0
  }
  inner_product_param {
    num_output: 227
    weight_filler {
      type: "xavier"
      
    }
    bias_filler {
      type: "constant"
      value: 0
    }
  }
}
layer {
  name: "help-out-175"
  type: "InnerProduct"
  bottom: "help-2-175"
  top: "help-out-175"
  param {
    name: "help-out-175_w"
    lr_mult: 1
    decay_mult: 1
  }
  param {
    name: "help-out-175_b"
    lr_mult: 2
    decay_mult: 0
  }
  inner_product_param {
    num_output: 227
    weight_filler {
      type: "xavier"
      
    }
    bias_filler {
      type: "constant"
      value: 0
    }
  }
}
layer {
  name: "help-out-176"
  type: "InnerProduct"
  bottom: "help-2-176"
  top: "help-out-176"
  param {
    name: "help-out-176_w"
    lr_mult: 1
    decay_mult: 1
  }
  param {
    name: "help-out-176_b"
    lr_mult: 2
    decay_mult: 0
  }
  inner_product_param {
    num_output: 227
    weight_filler {
      type: "xavier"
      
    }
    bias_filler {
      type: "constant"
      value: 0
    }
  }
}
layer {
  name: "help-out-177"
  type: "InnerProduct"
  bottom: "help-2-177"
  top: "help-out-177"
  param {
    name: "help-out-177_w"
    lr_mult: 1
    decay_mult: 1
  }
  param {
    name: "help-out-177_b"
    lr_mult: 2
    decay_mult: 0
  }
  inner_product_param {
    num_output: 227
    weight_filler {
      type: "xavier"
      
    }
    bias_filler {
      type: "constant"
      value: 0
    }
  }
}
layer {
  name: "help-out-178"
  type: "InnerProduct"
  bottom: "help-2-178"
  top: "help-out-178"
  param {
    name: "help-out-178_w"
    lr_mult: 1
    decay_mult: 1
  }
  param {
    name: "help-out-178_b"
    lr_mult: 2
    decay_mult: 0
  }
  inner_product_param {
    num_output: 227
    weight_filler {
      type: "xavier"
      
    }
    bias_filler {
      type: "constant"
      value: 0
    }
  }
}
layer {
  name: "help-out-179"
  type: "InnerProduct"
  bottom: "help-2-179"
  top: "help-out-179"
  param {
    name: "help-out-179_w"
    lr_mult: 1
    decay_mult: 1
  }
  param {
    name: "help-out-179_b"
    lr_mult: 2
    decay_mult: 0
  }
  inner_product_param {
    num_output: 227
    weight_filler {
      type: "xavier"
      
    }
    bias_filler {
      type: "constant"
      value: 0
    }
  }
}
layer {
  name: "help-out-180"
  type: "InnerProduct"
  bottom: "help-2-180"
  top: "help-out-180"
  param {
    name: "help-out-180_w"
    lr_mult: 1
    decay_mult: 1
  }
  param {
    name: "help-out-180_b"
    lr_mult: 2
    decay_mult: 0
  }
  inner_product_param {
    num_output: 227
    weight_filler {
      type: "xavier"
      
    }
    bias_filler {
      type: "constant"
      value: 0
    }
  }
}
layer {
  name: "help-out-181"
  type: "InnerProduct"
  bottom: "help-2-181"
  top: "help-out-181"
  param {
    name: "help-out-181_w"
    lr_mult: 1
    decay_mult: 1
  }
  param {
    name: "help-out-181_b"
    lr_mult: 2
    decay_mult: 0
  }
  inner_product_param {
    num_output: 227
    weight_filler {
      type: "xavier"
      
    }
    bias_filler {
      type: "constant"
      value: 0
    }
  }
}
layer {
  name: "help-out-182"
  type: "InnerProduct"
  bottom: "help-2-182"
  top: "help-out-182"
  param {
    name: "help-out-182_w"
    lr_mult: 1
    decay_mult: 1
  }
  param {
    name: "help-out-182_b"
    lr_mult: 2
    decay_mult: 0
  }
  inner_product_param {
    num_output: 227
    weight_filler {
      type: "xavier"
      
    }
    bias_filler {
      type: "constant"
      value: 0
    }
  }
}
layer {
  name: "help-out-183"
  type: "InnerProduct"
  bottom: "help-2-183"
  top: "help-out-183"
  param {
    name: "help-out-183_w"
    lr_mult: 1
    decay_mult: 1
  }
  param {
    name: "help-out-183_b"
    lr_mult: 2
    decay_mult: 0
  }
  inner_product_param {
    num_output: 227
    weight_filler {
      type: "xavier"
      
    }
    bias_filler {
      type: "constant"
      value: 0
    }
  }
}
layer {
  name: "help-out-184"
  type: "InnerProduct"
  bottom: "help-2-184"
  top: "help-out-184"
  param {
    name: "help-out-184_w"
    lr_mult: 1
    decay_mult: 1
  }
  param {
    name: "help-out-184_b"
    lr_mult: 2
    decay_mult: 0
  }
  inner_product_param {
    num_output: 227
    weight_filler {
      type: "xavier"
      
    }
    bias_filler {
      type: "constant"
      value: 0
    }
  }
}
layer {
  name: "help-out-185"
  type: "InnerProduct"
  bottom: "help-2-185"
  top: "help-out-185"
  param {
    name: "help-out-185_w"
    lr_mult: 1
    decay_mult: 1
  }
  param {
    name: "help-out-185_b"
    lr_mult: 2
    decay_mult: 0
  }
  inner_product_param {
    num_output: 227
    weight_filler {
      type: "xavier"
      
    }
    bias_filler {
      type: "constant"
      value: 0
    }
  }
}
layer {
  name: "help-out-186"
  type: "InnerProduct"
  bottom: "help-2-186"
  top: "help-out-186"
  param {
    name: "help-out-186_w"
    lr_mult: 1
    decay_mult: 1
  }
  param {
    name: "help-out-186_b"
    lr_mult: 2
    decay_mult: 0
  }
  inner_product_param {
    num_output: 227
    weight_filler {
      type: "xavier"
      
    }
    bias_filler {
      type: "constant"
      value: 0
    }
  }
}
layer {
  name: "help-out-187"
  type: "InnerProduct"
  bottom: "help-2-187"
  top: "help-out-187"
  param {
    name: "help-out-187_w"
    lr_mult: 1
    decay_mult: 1
  }
  param {
    name: "help-out-187_b"
    lr_mult: 2
    decay_mult: 0
  }
  inner_product_param {
    num_output: 227
    weight_filler {
      type: "xavier"
      
    }
    bias_filler {
      type: "constant"
      value: 0
    }
  }
}
layer {
  name: "help-out-188"
  type: "InnerProduct"
  bottom: "help-2-188"
  top: "help-out-188"
  param {
    name: "help-out-188_w"
    lr_mult: 1
    decay_mult: 1
  }
  param {
    name: "help-out-188_b"
    lr_mult: 2
    decay_mult: 0
  }
  inner_product_param {
    num_output: 227
    weight_filler {
      type: "xavier"
      
    }
    bias_filler {
      type: "constant"
      value: 0
    }
  }
}
layer {
  name: "help-out-189"
  type: "InnerProduct"
  bottom: "help-2-189"
  top: "help-out-189"
  param {
    name: "help-out-189_w"
    lr_mult: 1
    decay_mult: 1
  }
  param {
    name: "help-out-189_b"
    lr_mult: 2
    decay_mult: 0
  }
  inner_product_param {
    num_output: 227
    weight_filler {
      type: "xavier"
      
    }
    bias_filler {
      type: "constant"
      value: 0
    }
  }
}
layer {
  name: "help-out-190"
  type: "InnerProduct"
  bottom: "help-2-190"
  top: "help-out-190"
  param {
    name: "help-out-190_w"
    lr_mult: 1
    decay_mult: 1
  }
  param {
    name: "help-out-190_b"
    lr_mult: 2
    decay_mult: 0
  }
  inner_product_param {
    num_output: 227
    weight_filler {
      type: "xavier"
      
    }
    bias_filler {
      type: "constant"
      value: 0
    }
  }
}
layer {
  name: "help-out-191"
  type: "InnerProduct"
  bottom: "help-2-191"
  top: "help-out-191"
  param {
    name: "help-out-191_w"
    lr_mult: 1
    decay_mult: 1
  }
  param {
    name: "help-out-191_b"
    lr_mult: 2
    decay_mult: 0
  }
  inner_product_param {
    num_output: 227
    weight_filler {
      type: "xavier"
      
    }
    bias_filler {
      type: "constant"
      value: 0
    }
  }
}
layer {
  name: "help-out-192"
  type: "InnerProduct"
  bottom: "help-2-192"
  top: "help-out-192"
  param {
    name: "help-out-192_w"
    lr_mult: 1
    decay_mult: 1
  }
  param {
    name: "help-out-192_b"
    lr_mult: 2
    decay_mult: 0
  }
  inner_product_param {
    num_output: 227
    weight_filler {
      type: "xavier"
      
    }
    bias_filler {
      type: "constant"
      value: 0
    }
  }
}
layer {
  name: "help-out-193"
  type: "InnerProduct"
  bottom: "help-2-193"
  top: "help-out-193"
  param {
    name: "help-out-193_w"
    lr_mult: 1
    decay_mult: 1
  }
  param {
    name: "help-out-193_b"
    lr_mult: 2
    decay_mult: 0
  }
  inner_product_param {
    num_output: 227
    weight_filler {
      type: "xavier"
      
    }
    bias_filler {
      type: "constant"
      value: 0
    }
  }
}
layer {
  name: "help-out-194"
  type: "InnerProduct"
  bottom: "help-2-194"
  top: "help-out-194"
  param {
    name: "help-out-194_w"
    lr_mult: 1
    decay_mult: 1
  }
  param {
    name: "help-out-194_b"
    lr_mult: 2
    decay_mult: 0
  }
  inner_product_param {
    num_output: 227
    weight_filler {
      type: "xavier"
      
    }
    bias_filler {
      type: "constant"
      value: 0
    }
  }
}
layer {
  name: "help-out-195"
  type: "InnerProduct"
  bottom: "help-2-195"
  top: "help-out-195"
  param {
    name: "help-out-195_w"
    lr_mult: 1
    decay_mult: 1
  }
  param {
    name: "help-out-195_b"
    lr_mult: 2
    decay_mult: 0
  }
  inner_product_param {
    num_output: 227
    weight_filler {
      type: "xavier"
      
    }
    bias_filler {
      type: "constant"
      value: 0
    }
  }
}
layer {
  name: "help-out-196"
  type: "InnerProduct"
  bottom: "help-2-196"
  top: "help-out-196"
  param {
    name: "help-out-196_w"
    lr_mult: 1
    decay_mult: 1
  }
  param {
    name: "help-out-196_b"
    lr_mult: 2
    decay_mult: 0
  }
  inner_product_param {
    num_output: 227
    weight_filler {
      type: "xavier"
      
    }
    bias_filler {
      type: "constant"
      value: 0
    }
  }
}
layer {
  name: "help-out-197"
  type: "InnerProduct"
  bottom: "help-2-197"
  top: "help-out-197"
  param {
    name: "help-out-197_w"
    lr_mult: 1
    decay_mult: 1
  }
  param {
    name: "help-out-197_b"
    lr_mult: 2
    decay_mult: 0
  }
  inner_product_param {
    num_output: 227
    weight_filler {
      type: "xavier"
      
    }
    bias_filler {
      type: "constant"
      value: 0
    }
  }
}
layer {
  name: "help-out-198"
  type: "InnerProduct"
  bottom: "help-2-198"
  top: "help-out-198"
  param {
    name: "help-out-198_w"
    lr_mult: 1
    decay_mult: 1
  }
  param {
    name: "help-out-198_b"
    lr_mult: 2
    decay_mult: 0
  }
  inner_product_param {
    num_output: 227
    weight_filler {
      type: "xavier"
      
    }
    bias_filler {
      type: "constant"
      value: 0
    }
  }
}
layer {
  name: "help-out-199"
  type: "InnerProduct"
  bottom: "help-2-199"
  top: "help-out-199"
  param {
    name: "help-out-199_w"
    lr_mult: 1
    decay_mult: 1
  }
  param {
    name: "help-out-199_b"
    lr_mult: 2
    decay_mult: 0
  }
  inner_product_param {
    num_output: 227
    weight_filler {
      type: "xavier"
      
    }
    bias_filler {
      type: "constant"
      value: 0
    }
  }
}
layer {
  name: "help-out-200"
  type: "InnerProduct"
  bottom: "help-2-200"
  top: "help-out-200"
  param {
    name: "help-out-200_w"
    lr_mult: 1
    decay_mult: 1
  }
  param {
    name: "help-out-200_b"
    lr_mult: 2
    decay_mult: 0
  }
  inner_product_param {
    num_output: 227
    weight_filler {
      type: "xavier"
      
    }
    bias_filler {
      type: "constant"
      value: 0
    }
  }
}
layer {
  name: "help-out-201"
  type: "InnerProduct"
  bottom: "help-2-201"
  top: "help-out-201"
  param {
    name: "help-out-201_w"
    lr_mult: 1
    decay_mult: 1
  }
  param {
    name: "help-out-201_b"
    lr_mult: 2
    decay_mult: 0
  }
  inner_product_param {
    num_output: 227
    weight_filler {
      type: "xavier"
      
    }
    bias_filler {
      type: "constant"
      value: 0
    }
  }
}
layer {
  name: "help-out-202"
  type: "InnerProduct"
  bottom: "help-2-202"
  top: "help-out-202"
  param {
    name: "help-out-202_w"
    lr_mult: 1
    decay_mult: 1
  }
  param {
    name: "help-out-202_b"
    lr_mult: 2
    decay_mult: 0
  }
  inner_product_param {
    num_output: 227
    weight_filler {
      type: "xavier"
      
    }
    bias_filler {
      type: "constant"
      value: 0
    }
  }
}
layer {
  name: "help-out-203"
  type: "InnerProduct"
  bottom: "help-2-203"
  top: "help-out-203"
  param {
    name: "help-out-203_w"
    lr_mult: 1
    decay_mult: 1
  }
  param {
    name: "help-out-203_b"
    lr_mult: 2
    decay_mult: 0
  }
  inner_product_param {
    num_output: 227
    weight_filler {
      type: "xavier"
      
    }
    bias_filler {
      type: "constant"
      value: 0
    }
  }
}
layer {
  name: "help-out-204"
  type: "InnerProduct"
  bottom: "help-2-204"
  top: "help-out-204"
  param {
    name: "help-out-204_w"
    lr_mult: 1
    decay_mult: 1
  }
  param {
    name: "help-out-204_b"
    lr_mult: 2
    decay_mult: 0
  }
  inner_product_param {
    num_output: 227
    weight_filler {
      type: "xavier"
      
    }
    bias_filler {
      type: "constant"
      value: 0
    }
  }
}
layer {
  name: "help-out-205"
  type: "InnerProduct"
  bottom: "help-2-205"
  top: "help-out-205"
  param {
    name: "help-out-205_w"
    lr_mult: 1
    decay_mult: 1
  }
  param {
    name: "help-out-205_b"
    lr_mult: 2
    decay_mult: 0
  }
  inner_product_param {
    num_output: 227
    weight_filler {
      type: "xavier"
      
    }
    bias_filler {
      type: "constant"
      value: 0
    }
  }
}
layer {
  name: "help-out-206"
  type: "InnerProduct"
  bottom: "help-2-206"
  top: "help-out-206"
  param {
    name: "help-out-206_w"
    lr_mult: 1
    decay_mult: 1
  }
  param {
    name: "help-out-206_b"
    lr_mult: 2
    decay_mult: 0
  }
  inner_product_param {
    num_output: 227
    weight_filler {
      type: "xavier"
      
    }
    bias_filler {
      type: "constant"
      value: 0
    }
  }
}
layer {
  name: "help-out-207"
  type: "InnerProduct"
  bottom: "help-2-207"
  top: "help-out-207"
  param {
    name: "help-out-207_w"
    lr_mult: 1
    decay_mult: 1
  }
  param {
    name: "help-out-207_b"
    lr_mult: 2
    decay_mult: 0
  }
  inner_product_param {
    num_output: 227
    weight_filler {
      type: "xavier"
      
    }
    bias_filler {
      type: "constant"
      value: 0
    }
  }
}
layer {
  name: "help-out-208"
  type: "InnerProduct"
  bottom: "help-2-208"
  top: "help-out-208"
  param {
    name: "help-out-208_w"
    lr_mult: 1
    decay_mult: 1
  }
  param {
    name: "help-out-208_b"
    lr_mult: 2
    decay_mult: 0
  }
  inner_product_param {
    num_output: 227
    weight_filler {
      type: "xavier"
      
    }
    bias_filler {
      type: "constant"
      value: 0
    }
  }
}
layer {
  name: "help-out-209"
  type: "InnerProduct"
  bottom: "help-2-209"
  top: "help-out-209"
  param {
    name: "help-out-209_w"
    lr_mult: 1
    decay_mult: 1
  }
  param {
    name: "help-out-209_b"
    lr_mult: 2
    decay_mult: 0
  }
  inner_product_param {
    num_output: 227
    weight_filler {
      type: "xavier"
      
    }
    bias_filler {
      type: "constant"
      value: 0
    }
  }
}
layer {
  name: "help-out-210"
  type: "InnerProduct"
  bottom: "help-2-210"
  top: "help-out-210"
  param {
    name: "help-out-210_w"
    lr_mult: 1
    decay_mult: 1
  }
  param {
    name: "help-out-210_b"
    lr_mult: 2
    decay_mult: 0
  }
  inner_product_param {
    num_output: 227
    weight_filler {
      type: "xavier"
      
    }
    bias_filler {
      type: "constant"
      value: 0
    }
  }
}
layer {
  name: "help-out-211"
  type: "InnerProduct"
  bottom: "help-2-211"
  top: "help-out-211"
  param {
    name: "help-out-211_w"
    lr_mult: 1
    decay_mult: 1
  }
  param {
    name: "help-out-211_b"
    lr_mult: 2
    decay_mult: 0
  }
  inner_product_param {
    num_output: 227
    weight_filler {
      type: "xavier"
      
    }
    bias_filler {
      type: "constant"
      value: 0
    }
  }
}
layer {
  name: "help-out-212"
  type: "InnerProduct"
  bottom: "help-2-212"
  top: "help-out-212"
  param {
    name: "help-out-212_w"
    lr_mult: 1
    decay_mult: 1
  }
  param {
    name: "help-out-212_b"
    lr_mult: 2
    decay_mult: 0
  }
  inner_product_param {
    num_output: 227
    weight_filler {
      type: "xavier"
      
    }
    bias_filler {
      type: "constant"
      value: 0
    }
  }
}
layer {
  name: "help-out-213"
  type: "InnerProduct"
  bottom: "help-2-213"
  top: "help-out-213"
  param {
    name: "help-out-213_w"
    lr_mult: 1
    decay_mult: 1
  }
  param {
    name: "help-out-213_b"
    lr_mult: 2
    decay_mult: 0
  }
  inner_product_param {
    num_output: 227
    weight_filler {
      type: "xavier"
      
    }
    bias_filler {
      type: "constant"
      value: 0
    }
  }
}
layer {
  name: "help-out-214"
  type: "InnerProduct"
  bottom: "help-2-214"
  top: "help-out-214"
  param {
    name: "help-out-214_w"
    lr_mult: 1
    decay_mult: 1
  }
  param {
    name: "help-out-214_b"
    lr_mult: 2
    decay_mult: 0
  }
  inner_product_param {
    num_output: 227
    weight_filler {
      type: "xavier"
      
    }
    bias_filler {
      type: "constant"
      value: 0
    }
  }
}
layer {
  name: "help-out-215"
  type: "InnerProduct"
  bottom: "help-2-215"
  top: "help-out-215"
  param {
    name: "help-out-215_w"
    lr_mult: 1
    decay_mult: 1
  }
  param {
    name: "help-out-215_b"
    lr_mult: 2
    decay_mult: 0
  }
  inner_product_param {
    num_output: 227
    weight_filler {
      type: "xavier"
      
    }
    bias_filler {
      type: "constant"
      value: 0
    }
  }
}
layer {
  name: "help-out-216"
  type: "InnerProduct"
  bottom: "help-2-216"
  top: "help-out-216"
  param {
    name: "help-out-216_w"
    lr_mult: 1
    decay_mult: 1
  }
  param {
    name: "help-out-216_b"
    lr_mult: 2
    decay_mult: 0
  }
  inner_product_param {
    num_output: 227
    weight_filler {
      type: "xavier"
      
    }
    bias_filler {
      type: "constant"
      value: 0
    }
  }
}
layer {
  name: "help-out-217"
  type: "InnerProduct"
  bottom: "help-2-217"
  top: "help-out-217"
  param {
    name: "help-out-217_w"
    lr_mult: 1
    decay_mult: 1
  }
  param {
    name: "help-out-217_b"
    lr_mult: 2
    decay_mult: 0
  }
  inner_product_param {
    num_output: 227
    weight_filler {
      type: "xavier"
      
    }
    bias_filler {
      type: "constant"
      value: 0
    }
  }
}
layer {
  name: "help-out-218"
  type: "InnerProduct"
  bottom: "help-2-218"
  top: "help-out-218"
  param {
    name: "help-out-218_w"
    lr_mult: 1
    decay_mult: 1
  }
  param {
    name: "help-out-218_b"
    lr_mult: 2
    decay_mult: 0
  }
  inner_product_param {
    num_output: 227
    weight_filler {
      type: "xavier"
      
    }
    bias_filler {
      type: "constant"
      value: 0
    }
  }
}
layer {
  name: "help-out-219"
  type: "InnerProduct"
  bottom: "help-2-219"
  top: "help-out-219"
  param {
    name: "help-out-219_w"
    lr_mult: 1
    decay_mult: 1
  }
  param {
    name: "help-out-219_b"
    lr_mult: 2
    decay_mult: 0
  }
  inner_product_param {
    num_output: 227
    weight_filler {
      type: "xavier"
      
    }
    bias_filler {
      type: "constant"
      value: 0
    }
  }
}
layer {
  name: "help-out-220"
  type: "InnerProduct"
  bottom: "help-2-220"
  top: "help-out-220"
  param {
    name: "help-out-220_w"
    lr_mult: 1
    decay_mult: 1
  }
  param {
    name: "help-out-220_b"
    lr_mult: 2
    decay_mult: 0
  }
  inner_product_param {
    num_output: 227
    weight_filler {
      type: "xavier"
      
    }
    bias_filler {
      type: "constant"
      value: 0
    }
  }
}
layer {
  name: "help-out-221"
  type: "InnerProduct"
  bottom: "help-2-221"
  top: "help-out-221"
  param {
    name: "help-out-221_w"
    lr_mult: 1
    decay_mult: 1
  }
  param {
    name: "help-out-221_b"
    lr_mult: 2
    decay_mult: 0
  }
  inner_product_param {
    num_output: 227
    weight_filler {
      type: "xavier"
      
    }
    bias_filler {
      type: "constant"
      value: 0
    }
  }
}
layer {
  name: "help-out-222"
  type: "InnerProduct"
  bottom: "help-2-222"
  top: "help-out-222"
  param {
    name: "help-out-222_w"
    lr_mult: 1
    decay_mult: 1
  }
  param {
    name: "help-out-222_b"
    lr_mult: 2
    decay_mult: 0
  }
  inner_product_param {
    num_output: 227
    weight_filler {
      type: "xavier"
      
    }
    bias_filler {
      type: "constant"
      value: 0
    }
  }
}
layer {
  name: "help-out-223"
  type: "InnerProduct"
  bottom: "help-2-223"
  top: "help-out-223"
  param {
    name: "help-out-223_w"
    lr_mult: 1
    decay_mult: 1
  }
  param {
    name: "help-out-223_b"
    lr_mult: 2
    decay_mult: 0
  }
  inner_product_param {
    num_output: 227
    weight_filler {
      type: "xavier"
      
    }
    bias_filler {
      type: "constant"
      value: 0
    }
  }
}
layer {
  name: "help-out-224"
  type: "InnerProduct"
  bottom: "help-2-224"
  top: "help-out-224"
  param {
    name: "help-out-224_w"
    lr_mult: 1
    decay_mult: 1
  }
  param {
    name: "help-out-224_b"
    lr_mult: 2
    decay_mult: 0
  }
  inner_product_param {
    num_output: 227
    weight_filler {
      type: "xavier"
      
    }
    bias_filler {
      type: "constant"
      value: 0
    }
  }
}
layer {
  name: "help-out-225"
  type: "InnerProduct"
  bottom: "help-2-225"
  top: "help-out-225"
  param {
    name: "help-out-225_w"
    lr_mult: 1
    decay_mult: 1
  }
  param {
    name: "help-out-225_b"
    lr_mult: 2
    decay_mult: 0
  }
  inner_product_param {
    num_output: 227
    weight_filler {
      type: "xavier"
      
    }
    bias_filler {
      type: "constant"
      value: 0
    }
  }
}
layer {
  name: "help-out-226"
  type: "InnerProduct"
  bottom: "help-2-226"
  top: "help-out-226"
  param {
    name: "help-out-226_w"
    lr_mult: 1
    decay_mult: 1
  }
  param {
    name: "help-out-226_b"
    lr_mult: 2
    decay_mult: 0
  }
  inner_product_param {
    num_output: 227
    weight_filler {
      type: "xavier"
      
    }
    bias_filler {
      type: "constant"
      value: 0
    }
  }
}
layer {
  name: "help-concat"
  type: "Concat"
    bottom: "help-out-0"
  bottom: "help-out-1"
  bottom: "help-out-2"
  bottom: "help-out-3"
  bottom: "help-out-4"
  bottom: "help-out-5"
  bottom: "help-out-6"
  bottom: "help-out-7"
  bottom: "help-out-8"
  bottom: "help-out-9"
  bottom: "help-out-10"
  bottom: "help-out-11"
  bottom: "help-out-12"
  bottom: "help-out-13"
  bottom: "help-out-14"
  bottom: "help-out-15"
  bottom: "help-out-16"
  bottom: "help-out-17"
  bottom: "help-out-18"
  bottom: "help-out-19"
  bottom: "help-out-20"
  bottom: "help-out-21"
  bottom: "help-out-22"
  bottom: "help-out-23"
  bottom: "help-out-24"
  bottom: "help-out-25"
  bottom: "help-out-26"
  bottom: "help-out-27"
  bottom: "help-out-28"
  bottom: "help-out-29"
  bottom: "help-out-30"
  bottom: "help-out-31"
  bottom: "help-out-32"
  bottom: "help-out-33"
  bottom: "help-out-34"
  bottom: "help-out-35"
  bottom: "help-out-36"
  bottom: "help-out-37"
  bottom: "help-out-38"
  bottom: "help-out-39"
  bottom: "help-out-40"
  bottom: "help-out-41"
  bottom: "help-out-42"
  bottom: "help-out-43"
  bottom: "help-out-44"
  bottom: "help-out-45"
  bottom: "help-out-46"
  bottom: "help-out-47"
  bottom: "help-out-48"
  bottom: "help-out-49"
  bottom: "help-out-50"
  bottom: "help-out-51"
  bottom: "help-out-52"
  bottom: "help-out-53"
  bottom: "help-out-54"
  bottom: "help-out-55"
  bottom: "help-out-56"
  bottom: "help-out-57"
  bottom: "help-out-58"
  bottom: "help-out-59"
  bottom: "help-out-60"
  bottom: "help-out-61"
  bottom: "help-out-62"
  bottom: "help-out-63"
  bottom: "help-out-64"
  bottom: "help-out-65"
  bottom: "help-out-66"
  bottom: "help-out-67"
  bottom: "help-out-68"
  bottom: "help-out-69"
  bottom: "help-out-70"
  bottom: "help-out-71"
  bottom: "help-out-72"
  bottom: "help-out-73"
  bottom: "help-out-74"
  bottom: "help-out-75"
  bottom: "help-out-76"
  bottom: "help-out-77"
  bottom: "help-out-78"
  bottom: "help-out-79"
  bottom: "help-out-80"
  bottom: "help-out-81"
  bottom: "help-out-82"
  bottom: "help-out-83"
  bottom: "help-out-84"
  bottom: "help-out-85"
  bottom: "help-out-86"
  bottom: "help-out-87"
  bottom: "help-out-88"
  bottom: "help-out-89"
  bottom: "help-out-90"
  bottom: "help-out-91"
  bottom: "help-out-92"
  bottom: "help-out-93"
  bottom: "help-out-94"
  bottom: "help-out-95"
  bottom: "help-out-96"
  bottom: "help-out-97"
  bottom: "help-out-98"
  bottom: "help-out-99"
  bottom: "help-out-100"
  bottom: "help-out-101"
  bottom: "help-out-102"
  bottom: "help-out-103"
  bottom: "help-out-104"
  bottom: "help-out-105"
  bottom: "help-out-106"
  bottom: "help-out-107"
  bottom: "help-out-108"
  bottom: "help-out-109"
  bottom: "help-out-110"
  bottom: "help-out-111"
  bottom: "help-out-112"
  bottom: "help-out-113"
  bottom: "help-out-114"
  bottom: "help-out-115"
  bottom: "help-out-116"
  bottom: "help-out-117"
  bottom: "help-out-118"
  bottom: "help-out-119"
  bottom: "help-out-120"
  bottom: "help-out-121"
  bottom: "help-out-122"
  bottom: "help-out-123"
  bottom: "help-out-124"
  bottom: "help-out-125"
  bottom: "help-out-126"
  bottom: "help-out-127"
  bottom: "help-out-128"
  bottom: "help-out-129"
  bottom: "help-out-130"
  bottom: "help-out-131"
  bottom: "help-out-132"
  bottom: "help-out-133"
  bottom: "help-out-134"
  bottom: "help-out-135"
  bottom: "help-out-136"
  bottom: "help-out-137"
  bottom: "help-out-138"
  bottom: "help-out-139"
  bottom: "help-out-140"
  bottom: "help-out-141"
  bottom: "help-out-142"
  bottom: "help-out-143"
  bottom: "help-out-144"
  bottom: "help-out-145"
  bottom: "help-out-146"
  bottom: "help-out-147"
  bottom: "help-out-148"
  bottom: "help-out-149"
  bottom: "help-out-150"
  bottom: "help-out-151"
  bottom: "help-out-152"
  bottom: "help-out-153"
  bottom: "help-out-154"
  bottom: "help-out-155"
  bottom: "help-out-156"
  bottom: "help-out-157"
  bottom: "help-out-158"
  bottom: "help-out-159"
  bottom: "help-out-160"
  bottom: "help-out-161"
  bottom: "help-out-162"
  bottom: "help-out-163"
  bottom: "help-out-164"
  bottom: "help-out-165"
  bottom: "help-out-166"
  bottom: "help-out-167"
  bottom: "help-out-168"
  bottom: "help-out-169"
  bottom: "help-out-170"
  bottom: "help-out-171"
  bottom: "help-out-172"
  bottom: "help-out-173"
  bottom: "help-out-174"
  bottom: "help-out-175"
  bottom: "help-out-176"
  bottom: "help-out-177"
  bottom: "help-out-178"
  bottom: "help-out-179"
  bottom: "help-out-180"
  bottom: "help-out-181"
  bottom: "help-out-182"
  bottom: "help-out-183"
  bottom: "help-out-184"
  bottom: "help-out-185"
  bottom: "help-out-186"
  bottom: "help-out-187"
  bottom: "help-out-188"
  bottom: "help-out-189"
  bottom: "help-out-190"
  bottom: "help-out-191"
  bottom: "help-out-192"
  bottom: "help-out-193"
  bottom: "help-out-194"
  bottom: "help-out-195"
  bottom: "help-out-196"
  bottom: "help-out-197"
  bottom: "help-out-198"
  bottom: "help-out-199"
  bottom: "help-out-200"
  bottom: "help-out-201"
  bottom: "help-out-202"
  bottom: "help-out-203"
  bottom: "help-out-204"
  bottom: "help-out-205"
  bottom: "help-out-206"
  bottom: "help-out-207"
  bottom: "help-out-208"
  bottom: "help-out-209"
  bottom: "help-out-210"
  bottom: "help-out-211"
  bottom: "help-out-212"
  bottom: "help-out-213"
  bottom: "help-out-214"
  bottom: "help-out-215"
  bottom: "help-out-216"
  bottom: "help-out-217"
  bottom: "help-out-218"
  bottom: "help-out-219"
  bottom: "help-out-220"
  bottom: "help-out-221"
  bottom: "help-out-222"
  bottom: "help-out-223"
  bottom: "help-out-224"
  bottom: "help-out-225"
  bottom: "help-out-226"

  top: "help-concat"
}
layer {
  name: "loss-help"
  type: "EuclideanLoss"
  bottom: "help-concat"
  bottom: "flat_data"
  top: "loss-help"
  loss_weight: 0.01
}
