…
net: "nn_sauron_train.prototxt"
type: "AdaGrad"
I0507 10:44:48.698483 25752 solver.cpp:91] Creating training net from net file: nn_sauron_train.prototxt
I0507 10:44:48.698999 25752 net.cpp:313] The NetState phase (0) differed from the phase (1) specified by a rule in layer data
I0507 10:44:48.699195 25752 net.cpp:49] Initializing net from parameters: 
state {
  phase: TRAIN
}
layer {
  name: "data"
  type: "MemoryData"
  top: "data"
  top: "label"
  include {
    phase: TRAIN
  }
  memory_data_param {
    batch_size: 32
    channels: 1
    height: 1
    width: 6001
  }
}
layer {
  name: "slice_1"
  type: "Slice"
  bottom: "data"
  top: "slice_1"
  top: "slice_2"
  top: "slice_3"
  slice_param {
    slice_point: 3000
    slice_point: 6000
    axis: 3
  }
}
layer {
  name: "fc_1"
  type: "InnerProduct"
  bottom: "slice_1"
  top: "fc_1"
  param {
    name: "w1"
    lr_mult: 1
    decay_mult: 1
  }
  param {
    name: "b1"
    lr_mult: 2
    decay_mult: 0
  }
  inner_product_param {
    num_output: 2048
    weight_filler {
      type: "gaussian"
      std: 0.0098765
    }
    bias_filler {
      type: "constant"
      value: 0
    }
  }
}
layer {
  name: "relu_1"
  type: "ReLU"
  bottom: "fc_1"
  top: "fc_1"
}
layer {
  name: "drop_1"
  type: "Dropout"
  bottom: "fc_1"
  top: "fc_1"
  dropout_param {
    dropout_ratio: 0.7
  }
}
layer {
  name: "fc_2"
  type: "InnerProduct"
  bottom: "fc_1"
  top: "fc_2"
  param {
    name: "w2"
    lr_mult: 1
    decay_mult: 1
  }
  param {
    name: "b2"
    lr_mult: 2
    decay_mult: 0
  }
  inner_product_param {
    num_output: 2048
    weight_filler {
      type: "gaussian"
      std: 0.0098765
    }
    bias_filler {
      type: "constant"
      value: 0
    }
  }
}
layer {
  name: "relu_2"
  type: "ReLU"
  bottom: "fc_2"
  top: "fc_2"
}
layer {
  name: "drop_2"
  type: "Dropout"
  bottom: "fc_2"
  top: "fc_2"
  dropout_param {
    dropout_ratio: 0.7
  }
}
layer {
  name: "fc_3"
  type: "InnerProduct"
  bottom: "fc_2"
  top: "fc_3"
  param {
    name: "w3"
    lr_mult: 1
    decay_mult: 1
  }
  param {
    name: "b3"
    lr_mult: 2
    decay_mult: 0
  }
  inner_product_param {
    num_output: 128
    weight_filler {
      type: "gaussian"
      std: 0.0098765
    }
    bias_filler {
      type: "constant"
      value: 0
    }
  }
}
layer {
  name: "sigmoid_1"
  type: "Sigmoid"
  bottom: "fc_3"
  top: "sigmoid_1"
}
layer {
  name: "fc_4"
  type: "InnerProduct"
  bottom: "sigmoid_1"
  top: "fc_4"
  param {
    name: "dw"
    lr_mult: 1
    decay_mult: 1
  }
  param {
    name: "db"
    lr_mult: 2
    decay_mult: 0
  }
  inner_product_param {
    num_output: 128
    weight_filler {
      type: "gaussian"
      std: 0.0098765
    }
    bias_filler {
      type: "constant"
      value: 0
    }
  }
}
layer {
  name: "sigmoid_2"
  type: "Sigmoid"
  bottom: "fc_4"
  top: "sigmoid_2"
}
layer {
  name: "fc_5"
  type: "InnerProduct"
  bottom: "slice_2"
  top: "fc_5"
  param {
    name: "w1"
    lr_mult: 1
    decay_mult: 1
  }
  param {
    name: "b1"
    lr_mult: 2
    decay_mult: 0
  }
  inner_product_param {
    num_output: 2048
    weight_filler {
      type: "gaussian"
      std: 0.0098765
    }
    bias_filler {
      type: "constant"
      value: 0
    }
  }
}
layer {
  name: "relu_3"
  type: "ReLU"
  bottom: "fc_5"
  top: "fc_5"
}
layer {
  name: "drop_3"
  type: "Dropout"
  bottom: "fc_5"
  top: "fc_5"
  dropout_param {
    dropout_ratio: 0.7
  }
}
layer {
  name: "fc_6"
  type: "InnerProduct"
  bottom: "fc_5"
  top: "fc_6"
  param {
    name: "w2"
    lr_mult: 1
    decay_mult: 1
  }
  param {
    name: "b2"
    lr_mult: 2
    decay_mult: 0
  }
  inner_product_param {
    num_output: 2048
    weight_filler {
      type: "gaussian"
      std: 0.0098765
    }
    bias_filler {
      type: "constant"
      value: 0
    }
  }
}
layer {
  name: "relu_4"
  type: "ReLU"
  bottom: "fc_6"
  top: "fc_6"
}
layer {
  name: "drop_4"
  type: "Dropout"
  bottom: "fc_6"
  top: "fc_6"
  dropout_param {
    dropout_ratio: 0.7
  }
}
layer {
  name: "fc_7"
  type: "InnerProduct"
  bottom: "fc_6"
  top: "fc_7"
  param {
    name: "w3"
    lr_mult: 1
    decay_mult: 1
  }
  param {
    name: "b3"
    lr_mult: 2
    decay_mult: 0
  }
  inner_product_param {
    num_output: 128
    weight_filler {
      type: "gaussian"
      std: 0.0098765
    }
    bias_filler {
      type: "constant"
      value: 0
    }
  }
}
layer {
  name: "sigmoid_3"
  type: "Sigmoid"
  bottom: "fc_7"
  top: "sigmoid_3"
}
layer {
  name: "fc_8"
  type: "InnerProduct"
  bottom: "sigmoid_3"
  top: "fc_8"
  param {
    name: "dw"
    lr_mult: 1
    decay_mult: 1
  }
  param {
    name: "db"
    lr_mult: 2
    decay_mult: 0
  }
  inner_product_param {
    num_output: 128
    weight_filler {
      type: "gaussian"
      std: 0.0098765
    }
    bias_filler {
      type: "constant"
      value: 0
    }
  }
}
layer {
  name: "sigmoid_4"
  type: "Sigmoid"
  bottom: "fc_8"
  top: "sigmoid_4"
}
layer {
  name: "out_1"
  type: "InnerProduct"
  bottom: "sigmoid_1"
  top: "out_1"
  param {
    lr_mult: 1
    decay_mult: 1
  }
  param {
    lr_mult: 2
    decay_mult: 0
  }
  inner_product_param {
    num_output: 10
    weight_filler {
      type: "gaussian"
      std: 0.0098765
    }
    bias_filler {
      type: "constant"
      value: 0
    }
  }
}
layer {
  name: "loss_1"
  type: "SoftmaxWithLoss"
  bottom: "out_1"
  bottom: "label"
  top: "loss_1"
  loss_weight: 0.1
}
layer {
  name: "loss_2"
  type: "ContrastiveLoss"
  bottom: "sigmoid_2"
  bottom: "sigmoid_4"
  bottom: "slice_3"
  top: "loss_2"
  loss_weight: 1
  contrastive_loss_param {
    margin: 10
  }
}
layer {
  name: "acc_1"
  type: "Accuracy"
  bottom: "out_1"
  bottom: "label"
  top: "acc_1"
}
I0507 10:44:48.699300 25752 layer_factory.hpp:77] Creating layer data
I0507 10:44:48.699333 25752 net.cpp:91] Creating Layer data
I0507 10:44:48.699338 25752 net.cpp:399] data -> data
I0507 10:44:48.699357 25752 net.cpp:399] data -> label
I0507 10:44:48.706442 25752 net.cpp:141] Setting up data
I0507 10:44:48.706475 25752 net.cpp:148] Top shape: 32 1 1 6001 (192032)
I0507 10:44:48.706481 25752 net.cpp:148] Top shape: 32 (32)
I0507 10:44:48.706485 25752 net.cpp:156] Memory required for data: 768256
I0507 10:44:48.706491 25752 layer_factory.hpp:77] Creating layer label_data_1_split
I0507 10:44:48.706502 25752 net.cpp:91] Creating Layer label_data_1_split
I0507 10:44:48.706509 25752 net.cpp:425] label_data_1_split <- label
I0507 10:44:48.706527 25752 net.cpp:399] label_data_1_split -> label_data_1_split_0
I0507 10:44:48.706537 25752 net.cpp:399] label_data_1_split -> label_data_1_split_1
I0507 10:44:48.706588 25752 net.cpp:141] Setting up label_data_1_split
I0507 10:44:48.706594 25752 net.cpp:148] Top shape: 32 (32)
I0507 10:44:48.706600 25752 net.cpp:148] Top shape: 32 (32)
I0507 10:44:48.706604 25752 net.cpp:156] Memory required for data: 768512
I0507 10:44:48.706609 25752 layer_factory.hpp:77] Creating layer slice_1
I0507 10:44:48.706619 25752 net.cpp:91] Creating Layer slice_1
I0507 10:44:48.706622 25752 net.cpp:425] slice_1 <- data
I0507 10:44:48.706636 25752 net.cpp:399] slice_1 -> slice_1
I0507 10:44:48.706642 25752 net.cpp:399] slice_1 -> slice_2
I0507 10:44:48.706657 25752 net.cpp:399] slice_1 -> slice_3
I0507 10:44:48.706697 25752 net.cpp:141] Setting up slice_1
I0507 10:44:48.706704 25752 net.cpp:148] Top shape: 32 1 1 3000 (96000)
I0507 10:44:48.706717 25752 net.cpp:148] Top shape: 32 1 1 3000 (96000)
I0507 10:44:48.706722 25752 net.cpp:148] Top shape: 32 1 1 1 (32)
I0507 10:44:48.706727 25752 net.cpp:156] Memory required for data: 1536640
I0507 10:44:48.706730 25752 layer_factory.hpp:77] Creating layer fc_1
I0507 10:44:48.706740 25752 net.cpp:91] Creating Layer fc_1
I0507 10:44:48.706744 25752 net.cpp:425] fc_1 <- slice_1
I0507 10:44:48.706750 25752 net.cpp:399] fc_1 -> fc_1
I0507 10:44:48.846806 25752 net.cpp:141] Setting up fc_1
I0507 10:44:48.846851 25752 net.cpp:148] Top shape: 32 2048 (65536)
I0507 10:44:48.846856 25752 net.cpp:156] Memory required for data: 1798784
I0507 10:44:48.846869 25752 layer_factory.hpp:77] Creating layer relu_1
I0507 10:44:48.846892 25752 net.cpp:91] Creating Layer relu_1
I0507 10:44:48.846897 25752 net.cpp:425] relu_1 <- fc_1
I0507 10:44:48.846902 25752 net.cpp:386] relu_1 -> fc_1 (in-place)
I0507 10:44:48.999387 25752 net.cpp:141] Setting up relu_1
I0507 10:44:48.999428 25752 net.cpp:148] Top shape: 32 2048 (65536)
I0507 10:44:48.999433 25752 net.cpp:156] Memory required for data: 2060928
I0507 10:44:48.999439 25752 layer_factory.hpp:77] Creating layer drop_1
I0507 10:44:48.999450 25752 net.cpp:91] Creating Layer drop_1
I0507 10:44:48.999456 25752 net.cpp:425] drop_1 <- fc_1
I0507 10:44:48.999474 25752 net.cpp:386] drop_1 -> fc_1 (in-place)
I0507 10:44:48.999505 25752 net.cpp:141] Setting up drop_1
I0507 10:44:48.999521 25752 net.cpp:148] Top shape: 32 2048 (65536)
I0507 10:44:48.999523 25752 net.cpp:156] Memory required for data: 2323072
I0507 10:44:48.999527 25752 layer_factory.hpp:77] Creating layer fc_2
I0507 10:44:48.999544 25752 net.cpp:91] Creating Layer fc_2
I0507 10:44:48.999548 25752 net.cpp:425] fc_2 <- fc_1
I0507 10:44:48.999553 25752 net.cpp:399] fc_2 -> fc_2
I0507 10:44:49.095132 25752 net.cpp:141] Setting up fc_2
I0507 10:44:49.095175 25752 net.cpp:148] Top shape: 32 2048 (65536)
I0507 10:44:49.095180 25752 net.cpp:156] Memory required for data: 2585216
I0507 10:44:49.095191 25752 layer_factory.hpp:77] Creating layer relu_2
I0507 10:44:49.095199 25752 net.cpp:91] Creating Layer relu_2
I0507 10:44:49.095217 25752 net.cpp:425] relu_2 <- fc_2
I0507 10:44:49.095224 25752 net.cpp:386] relu_2 -> fc_2 (in-place)
I0507 10:44:49.095639 25752 net.cpp:141] Setting up relu_2
I0507 10:44:49.095650 25752 net.cpp:148] Top shape: 32 2048 (65536)
I0507 10:44:49.095662 25752 net.cpp:156] Memory required for data: 2847360
I0507 10:44:49.095666 25752 layer_factory.hpp:77] Creating layer drop_2
I0507 10:44:49.095674 25752 net.cpp:91] Creating Layer drop_2
I0507 10:44:49.095690 25752 net.cpp:425] drop_2 <- fc_2
I0507 10:44:49.095695 25752 net.cpp:386] drop_2 -> fc_2 (in-place)
I0507 10:44:49.095734 25752 net.cpp:141] Setting up drop_2
I0507 10:44:49.095741 25752 net.cpp:148] Top shape: 32 2048 (65536)
I0507 10:44:49.095744 25752 net.cpp:156] Memory required for data: 3109504
I0507 10:44:49.095748 25752 layer_factory.hpp:77] Creating layer fc_3
I0507 10:44:49.095757 25752 net.cpp:91] Creating Layer fc_3
I0507 10:44:49.095760 25752 net.cpp:425] fc_3 <- fc_2
I0507 10:44:49.095767 25752 net.cpp:399] fc_3 -> fc_3
I0507 10:44:49.102139 25752 net.cpp:141] Setting up fc_3
I0507 10:44:49.102175 25752 net.cpp:148] Top shape: 32 128 (4096)
I0507 10:44:49.102180 25752 net.cpp:156] Memory required for data: 3125888
I0507 10:44:49.102200 25752 layer_factory.hpp:77] Creating layer sigmoid_1
I0507 10:44:49.102221 25752 net.cpp:91] Creating Layer sigmoid_1
I0507 10:44:49.102226 25752 net.cpp:425] sigmoid_1 <- fc_3
I0507 10:44:49.102231 25752 net.cpp:399] sigmoid_1 -> sigmoid_1
I0507 10:44:49.102645 25752 net.cpp:141] Setting up sigmoid_1
I0507 10:44:49.102656 25752 net.cpp:148] Top shape: 32 128 (4096)
I0507 10:44:49.102670 25752 net.cpp:156] Memory required for data: 3142272
I0507 10:44:49.102674 25752 layer_factory.hpp:77] Creating layer sigmoid_1_sigmoid_1_0_split
I0507 10:44:49.102681 25752 net.cpp:91] Creating Layer sigmoid_1_sigmoid_1_0_split
I0507 10:44:49.102686 25752 net.cpp:425] sigmoid_1_sigmoid_1_0_split <- sigmoid_1
I0507 10:44:49.102691 25752 net.cpp:399] sigmoid_1_sigmoid_1_0_split -> sigmoid_1_sigmoid_1_0_split_0
I0507 10:44:49.102697 25752 net.cpp:399] sigmoid_1_sigmoid_1_0_split -> sigmoid_1_sigmoid_1_0_split_1
I0507 10:44:49.102723 25752 net.cpp:141] Setting up sigmoid_1_sigmoid_1_0_split
I0507 10:44:49.102730 25752 net.cpp:148] Top shape: 32 128 (4096)
I0507 10:44:49.102733 25752 net.cpp:148] Top shape: 32 128 (4096)
I0507 10:44:49.102737 25752 net.cpp:156] Memory required for data: 3175040
I0507 10:44:49.102741 25752 layer_factory.hpp:77] Creating layer fc_4
I0507 10:44:49.102748 25752 net.cpp:91] Creating Layer fc_4
I0507 10:44:49.102752 25752 net.cpp:425] fc_4 <- sigmoid_1_sigmoid_1_0_split_0
I0507 10:44:49.102758 25752 net.cpp:399] fc_4 -> fc_4
I0507 10:44:49.103677 25752 net.cpp:141] Setting up fc_4
I0507 10:44:49.103710 25752 net.cpp:148] Top shape: 32 128 (4096)
I0507 10:44:49.103713 25752 net.cpp:156] Memory required for data: 3191424
I0507 10:44:49.103723 25752 layer_factory.hpp:77] Creating layer sigmoid_2
I0507 10:44:49.103730 25752 net.cpp:91] Creating Layer sigmoid_2
I0507 10:44:49.103749 25752 net.cpp:425] sigmoid_2 <- fc_4
I0507 10:44:49.103755 25752 net.cpp:399] sigmoid_2 -> sigmoid_2
I0507 10:44:49.104053 25752 net.cpp:141] Setting up sigmoid_2
I0507 10:44:49.104066 25752 net.cpp:148] Top shape: 32 128 (4096)
I0507 10:44:49.104071 25752 net.cpp:156] Memory required for data: 3207808
I0507 10:44:49.104075 25752 layer_factory.hpp:77] Creating layer fc_5
I0507 10:44:49.104085 25752 net.cpp:91] Creating Layer fc_5
I0507 10:44:49.104089 25752 net.cpp:425] fc_5 <- slice_2
I0507 10:44:49.104095 25752 net.cpp:399] fc_5 -> fc_5
I0507 10:44:49.245939 25752 net.cpp:141] Setting up fc_5
I0507 10:44:49.245986 25752 net.cpp:148] Top shape: 32 2048 (65536)
I0507 10:44:49.245991 25752 net.cpp:156] Memory required for data: 3469952
I0507 10:44:49.246001 25752 net.cpp:484] Sharing parameters 'w1' owned by layer 'fc_1', param index 0
I0507 10:44:49.246006 25752 net.cpp:484] Sharing parameters 'b1' owned by layer 'fc_1', param index 1
I0507 10:44:49.246011 25752 layer_factory.hpp:77] Creating layer relu_3
I0507 10:44:49.246033 25752 net.cpp:91] Creating Layer relu_3
I0507 10:44:49.246037 25752 net.cpp:425] relu_3 <- fc_5
I0507 10:44:49.246043 25752 net.cpp:386] relu_3 -> fc_5 (in-place)
I0507 10:44:49.246461 25752 net.cpp:141] Setting up relu_3
I0507 10:44:49.246474 25752 net.cpp:148] Top shape: 32 2048 (65536)
I0507 10:44:49.246486 25752 net.cpp:156] Memory required for data: 3732096
I0507 10:44:49.246491 25752 layer_factory.hpp:77] Creating layer drop_3
I0507 10:44:49.246500 25752 net.cpp:91] Creating Layer drop_3
I0507 10:44:49.246515 25752 net.cpp:425] drop_3 <- fc_5
I0507 10:44:49.246521 25752 net.cpp:386] drop_3 -> fc_5 (in-place)
I0507 10:44:49.246553 25752 net.cpp:141] Setting up drop_3
I0507 10:44:49.246570 25752 net.cpp:148] Top shape: 32 2048 (65536)
I0507 10:44:49.246573 25752 net.cpp:156] Memory required for data: 3994240
I0507 10:44:49.246577 25752 layer_factory.hpp:77] Creating layer fc_6
I0507 10:44:49.246584 25752 net.cpp:91] Creating Layer fc_6
I0507 10:44:49.246587 25752 net.cpp:425] fc_6 <- fc_5
I0507 10:44:49.246601 25752 net.cpp:399] fc_6 -> fc_6
I0507 10:44:49.343272 25752 net.cpp:141] Setting up fc_6
I0507 10:44:49.343320 25752 net.cpp:148] Top shape: 32 2048 (65536)
I0507 10:44:49.343332 25752 net.cpp:156] Memory required for data: 4256384
I0507 10:44:49.343339 25752 net.cpp:484] Sharing parameters 'w2' owned by layer 'fc_2', param index 0
I0507 10:44:49.343344 25752 net.cpp:484] Sharing parameters 'b2' owned by layer 'fc_2', param index 1
I0507 10:44:49.343349 25752 layer_factory.hpp:77] Creating layer relu_4
I0507 10:44:49.343369 25752 net.cpp:91] Creating Layer relu_4
I0507 10:44:49.343374 25752 net.cpp:425] relu_4 <- fc_6
I0507 10:44:49.343379 25752 net.cpp:386] relu_4 -> fc_6 (in-place)
I0507 10:44:49.343585 25752 net.cpp:141] Setting up relu_4
I0507 10:44:49.343592 25752 net.cpp:148] Top shape: 32 2048 (65536)
I0507 10:44:49.343605 25752 net.cpp:156] Memory required for data: 4518528
I0507 10:44:49.343610 25752 layer_factory.hpp:77] Creating layer drop_4
I0507 10:44:49.343616 25752 net.cpp:91] Creating Layer drop_4
I0507 10:44:49.343619 25752 net.cpp:425] drop_4 <- fc_6
I0507 10:44:49.343626 25752 net.cpp:386] drop_4 -> fc_6 (in-place)
I0507 10:44:49.343673 25752 net.cpp:141] Setting up drop_4
I0507 10:44:49.343689 25752 net.cpp:148] Top shape: 32 2048 (65536)
I0507 10:44:49.343693 25752 net.cpp:156] Memory required for data: 4780672
I0507 10:44:49.343698 25752 layer_factory.hpp:77] Creating layer fc_7
I0507 10:44:49.343705 25752 net.cpp:91] Creating Layer fc_7
I0507 10:44:49.343709 25752 net.cpp:425] fc_7 <- fc_6
I0507 10:44:49.343715 25752 net.cpp:399] fc_7 -> fc_7
I0507 10:44:49.350066 25752 net.cpp:141] Setting up fc_7
I0507 10:44:49.350126 25752 net.cpp:148] Top shape: 32 128 (4096)
I0507 10:44:49.350129 25752 net.cpp:156] Memory required for data: 4797056
I0507 10:44:49.350137 25752 net.cpp:484] Sharing parameters 'w3' owned by layer 'fc_3', param index 0
I0507 10:44:49.350143 25752 net.cpp:484] Sharing parameters 'b3' owned by layer 'fc_3', param index 1
I0507 10:44:49.350147 25752 layer_factory.hpp:77] Creating layer sigmoid_3
I0507 10:44:49.350158 25752 net.cpp:91] Creating Layer sigmoid_3
I0507 10:44:49.350164 25752 net.cpp:425] sigmoid_3 <- fc_7
I0507 10:44:49.350172 25752 net.cpp:399] sigmoid_3 -> sigmoid_3
I0507 10:44:49.350639 25752 net.cpp:141] Setting up sigmoid_3
I0507 10:44:49.350664 25752 net.cpp:148] Top shape: 32 128 (4096)
I0507 10:44:49.350668 25752 net.cpp:156] Memory required for data: 4813440
I0507 10:44:49.350672 25752 layer_factory.hpp:77] Creating layer fc_8
I0507 10:44:49.350682 25752 net.cpp:91] Creating Layer fc_8
I0507 10:44:49.350702 25752 net.cpp:425] fc_8 <- sigmoid_3
I0507 10:44:49.350710 25752 net.cpp:399] fc_8 -> fc_8
I0507 10:44:49.351183 25752 net.cpp:141] Setting up fc_8
I0507 10:44:49.351196 25752 net.cpp:148] Top shape: 32 128 (4096)
I0507 10:44:49.351208 25752 net.cpp:156] Memory required for data: 4829824
I0507 10:44:49.351212 25752 net.cpp:484] Sharing parameters 'dw' owned by layer 'fc_4', param index 0
I0507 10:44:49.351218 25752 net.cpp:484] Sharing parameters 'db' owned by layer 'fc_4', param index 1
I0507 10:44:49.351222 25752 layer_factory.hpp:77] Creating layer sigmoid_4
I0507 10:44:49.351240 25752 net.cpp:91] Creating Layer sigmoid_4
I0507 10:44:49.351244 25752 net.cpp:425] sigmoid_4 <- fc_8
I0507 10:44:49.351258 25752 net.cpp:399] sigmoid_4 -> sigmoid_4
I0507 10:44:49.351469 25752 net.cpp:141] Setting up sigmoid_4
I0507 10:44:49.351477 25752 net.cpp:148] Top shape: 32 128 (4096)
I0507 10:44:49.351490 25752 net.cpp:156] Memory required for data: 4846208
I0507 10:44:49.351493 25752 layer_factory.hpp:77] Creating layer out_1
I0507 10:44:49.351500 25752 net.cpp:91] Creating Layer out_1
I0507 10:44:49.351517 25752 net.cpp:425] out_1 <- sigmoid_1_sigmoid_1_0_split_1
I0507 10:44:49.351524 25752 net.cpp:399] out_1 -> out_1
I0507 10:44:49.351650 25752 net.cpp:141] Setting up out_1
I0507 10:44:49.351657 25752 net.cpp:148] Top shape: 32 10 (320)
I0507 10:44:49.351670 25752 net.cpp:156] Memory required for data: 4847488
I0507 10:44:49.351680 25752 layer_factory.hpp:77] Creating layer out_1_out_1_0_split
I0507 10:44:49.351686 25752 net.cpp:91] Creating Layer out_1_out_1_0_split
I0507 10:44:49.351691 25752 net.cpp:425] out_1_out_1_0_split <- out_1
I0507 10:44:49.351711 25752 net.cpp:399] out_1_out_1_0_split -> out_1_out_1_0_split_0
I0507 10:44:49.351718 25752 net.cpp:399] out_1_out_1_0_split -> out_1_out_1_0_split_1
I0507 10:44:49.351745 25752 net.cpp:141] Setting up out_1_out_1_0_split
I0507 10:44:49.351752 25752 net.cpp:148] Top shape: 32 10 (320)
I0507 10:44:49.351757 25752 net.cpp:148] Top shape: 32 10 (320)
I0507 10:44:49.351770 25752 net.cpp:156] Memory required for data: 4850048
I0507 10:44:49.351773 25752 layer_factory.hpp:77] Creating layer loss_1
I0507 10:44:49.351788 25752 net.cpp:91] Creating Layer loss_1
I0507 10:44:49.351793 25752 net.cpp:425] loss_1 <- out_1_out_1_0_split_0
I0507 10:44:49.351797 25752 net.cpp:425] loss_1 <- label_data_1_split_0
I0507 10:44:49.351804 25752 net.cpp:399] loss_1 -> loss_1
…
I0507 10:44:49.358911 25752 net.cpp:274] Network initialization done.
I0507 10:44:49.359591 25752 solver.cpp:181] Creating test net (#0) specified by net file: nn_sauron_train.prototxt
I0507 10:44:49.359654 25752 net.cpp:313] The NetState phase (1) differed from the phase (0) specified by a rule in layer data
I0507 10:44:49.359813 25752 net.cpp:49] Initializing net from parameters: 
state {
  phase: TEST
}
layer {
  name: "data"
  type: "MemoryData"
  top: "data"
  top: "label"
  include {
    phase: TEST
  }
  memory_data_param {
    batch_size: 10
    channels: 1
    height: 1
    width: 6001
  }
}
layer {
  name: "slice_1"
  type: "Slice"
  bottom: "data"
  top: "slice_1"
  top: "slice_2"
  top: "slice_3"
  slice_param {
    slice_point: 3000
    slice_point: 6000
    axis: 3
  }
}
layer {
  name: "fc_1"
  type: "InnerProduct"
  bottom: "slice_1"
  top: "fc_1"
  param {
    name: "w1"
    lr_mult: 1
    decay_mult: 1
  }
  param {
    name: "b1"
    lr_mult: 2
    decay_mult: 0
  }
  inner_product_param {
    num_output: 2048
    weight_filler {
      type: "gaussian"
      std: 0.0098765
    }
    bias_filler {
      type: "constant"
      value: 0
    }
  }
}
layer {
  name: "relu_1"
  type: "ReLU"
  bottom: "fc_1"
  top: "fc_1"
}
layer {
  name: "drop_1"
  type: "Dropout"
  bottom: "fc_1"
  top: "fc_1"
  dropout_param {
    dropout_ratio: 0.7
  }
}
layer {
  name: "fc_2"
  type: "InnerProduct"
  bottom: "fc_1"
  top: "fc_2"
  param {
    name: "w2"
    lr_mult: 1
    decay_mult: 1
  }
  param {
    name: "b2"
    lr_mult: 2
    decay_mult: 0
  }
  inner_product_param {
    num_output: 2048
    weight_filler {
      type: "gaussian"
      std: 0.0098765
    }
    bias_filler {
      type: "constant"
      value: 0
    }
  }
}
layer {
  name: "relu_2"
  type: "ReLU"
  bottom: "fc_2"
  top: "fc_2"
}
layer {
  name: "drop_2"
  type: "Dropout"
  bottom: "fc_2"
  top: "fc_2"
  dropout_param {
    dropout_ratio: 0.7
  }
}
layer {
  name: "fc_3"
  type: "InnerProduct"
  bottom: "fc_2"
  top: "fc_3"
  param {
    name: "w3"
    lr_mult: 1
    decay_mult: 1
  }
  param {
    name: "b3"
    lr_mult: 2
    decay_mult: 0
  }
  inner_product_param {
    num_output: 128
    weight_filler {
      type: "gaussian"
      std: 0.0098765
    }
    bias_filler {
      type: "constant"
      value: 0
    }
  }
}
layer {
  name: "sigmoid_1"
  type: "Sigmoid"
  bottom: "fc_3"
  top: "sigmoid_1"
}
layer {
  name: "fc_4"
  type: "InnerProduct"
  bottom: "sigmoid_1"
  top: "fc_4"
  param {
    name: "dw"
    lr_mult: 1
    decay_mult: 1
  }
  param {
    name: "db"
    lr_mult: 2
    decay_mult: 0
  }
  inner_product_param {
    num_output: 128
    weight_filler {
      type: "gaussian"
      std: 0.0098765
    }
    bias_filler {
      type: "constant"
      value: 0
    }
  }
}
layer {
  name: "sigmoid_2"
  type: "Sigmoid"
  bottom: "fc_4"
  top: "sigmoid_2"
}
layer {
  name: "fc_5"
  type: "InnerProduct"
  bottom: "slice_2"
  top: "fc_5"
  param {
    name: "w1"
    lr_mult: 1
    decay_mult: 1
  }
  param {
    name: "b1"
    lr_mult: 2
    decay_mult: 0
  }
  inner_product_param {
    num_output: 2048
    weight_filler {
      type: "gaussian"
      std: 0.0098765
    }
    bias_filler {
      type: "constant"
      value: 0
    }
  }
}
layer {
  name: "relu_3"
  type: "ReLU"
  bottom: "fc_5"
  top: "fc_5"
}
layer {
  name: "drop_3"
  type: "Dropout"
  bottom: "fc_5"
  top: "fc_5"
  dropout_param {
    dropout_ratio: 0.7
  }
}
layer {
  name: "fc_6"
  type: "InnerProduct"
  bottom: "fc_5"
  top: "fc_6"
  param {
    name: "w2"
    lr_mult: 1
    decay_mult: 1
  }
  param {
    name: "b2"
    lr_mult: 2
    decay_mult: 0
  }
  inner_product_param {
    num_output: 2048
    weight_filler {
      type: "gaussian"
      std: 0.0098765
    }
    bias_filler {
      type: "constant"
      value: 0
    }
  }
}
layer {
  name: "relu_4"
  type: "ReLU"
  bottom: "fc_6"
  top: "fc_6"
}
layer {
  name: "drop_4"
  type: "Dropout"
  bottom: "fc_6"
  top: "fc_6"
  dropout_param {
    dropout_ratio: 0.7
  }
}
layer {
  name: "fc_7"
  type: "InnerProduct"
  bottom: "fc_6"
  top: "fc_7"
  param {
    name: "w3"
    lr_mult: 1
    decay_mult: 1
  }
  param {
    name: "b3"
    lr_mult: 2
    decay_mult: 0
  }
  inner_product_param {
    num_output: 128
    weight_filler {
      type: "gaussian"
      std: 0.0098765
    }
    bias_filler {
      type: "constant"
      value: 0
    }
  }
}
layer {
  name: "sigmoid_3"
  type: "Sigmoid"
  bottom: "fc_7"
  top: "sigmoid_3"
}
layer {
  name: "fc_8"
  type: "InnerProduct"
  bottom: "sigmoid_3"
  top: "fc_8"
  param {
    name: "dw"
    lr_mult: 1
    decay_mult: 1
  }
  param {
    name: "db"
    lr_mult: 2
    decay_mult: 0
  }
  inner_product_param {
    num_output: 128
    weight_filler {
      type: "gaussian"
      std: 0.0098765
    }
    bias_filler {
      type: "constant"
      value: 0
    }
  }
}
layer {
  name: "sigmoid_4"
  type: "Sigmoid"
  bottom: "fc_8"
  top: "sigmoid_4"
}
layer {
  name: "out_1"
  type: "InnerProduct"
  bottom: "sigmoid_1"
  top: "out_1"
  param {
    lr_mult: 1
    decay_mult: 1
  }
  param {
    lr_mult: 2
    decay_mult: 0
  }
  inner_product_param {
    num_output: 10
    weight_filler {
      type: "gaussian"
      std: 0.0098765
    }
    bias_filler {
      type: "constant"
      value: 0
    }
  }
}
layer {
  name: "loss_1"
  type: "SoftmaxWithLoss"
  bottom: "out_1"
  bottom: "label"
  top: "loss_1"
  loss_weight: 0.1
}
layer {
  name: "loss_2"
  type: "ContrastiveLoss"
  bottom: "sigmoid_2"
  bottom: "sigmoid_4"
  bottom: "slice_3"
  top: "loss_2"
  loss_weight: 1
  contrastive_loss_param {
    margin: 10
  }
}
layer {
  name: "acc_1"
  type: "Accuracy"
  bottom: "out_1"
  bottom: "label"
  top: "acc_1"
}
I0507 10:44:49.359947 25752 layer_factory.hpp:77] Creating layer data
I0507 10:44:49.359962 25752 net.cpp:91] Creating Layer data
I0507 10:44:49.359968 25752 net.cpp:399] data -> data
I0507 10:44:49.359979 25752 net.cpp:399] data -> label
I0507 10:44:49.360579 25752 net.cpp:141] Setting up data
I0507 10:44:49.360605 25752 net.cpp:148] Top shape: 10 1 1 6001 (60010)
I0507 10:44:49.360620 25752 net.cpp:148] Top shape: 10 (10)
I0507 10:44:49.360623 25752 net.cpp:156] Memory required for data: 240080
I0507 10:44:49.360630 25752 layer_factory.hpp:77] Creating layer label_data_1_split
I0507 10:44:49.360641 25752 net.cpp:91] Creating Layer label_data_1_split
I0507 10:44:49.360646 25752 net.cpp:425] label_data_1_split <- label
I0507 10:44:49.360653 25752 net.cpp:399] label_data_1_split -> label_data_1_split_0
I0507 10:44:49.360661 25752 net.cpp:399] label_data_1_split -> label_data_1_split_1
I0507 10:44:49.360695 25752 net.cpp:141] Setting up label_data_1_split
I0507 10:44:49.360702 25752 net.cpp:148] Top shape: 10 (10)
I0507 10:44:49.360707 25752 net.cpp:148] Top shape: 10 (10)
I0507 10:44:49.360712 25752 net.cpp:156] Memory required for data: 240160
I0507 10:44:49.360715 25752 layer_factory.hpp:77] Creating layer slice_1
I0507 10:44:49.360723 25752 net.cpp:91] Creating Layer slice_1
I0507 10:44:49.360726 25752 net.cpp:425] slice_1 <- data
I0507 10:44:49.360733 25752 net.cpp:399] slice_1 -> slice_1
I0507 10:44:49.360738 25752 net.cpp:399] slice_1 -> slice_2
I0507 10:44:49.360744 25752 net.cpp:399] slice_1 -> slice_3
I0507 10:44:49.360790 25752 net.cpp:141] Setting up slice_1
I0507 10:44:49.360797 25752 net.cpp:148] Top shape: 10 1 1 3000 (30000)
I0507 10:44:49.360802 25752 net.cpp:148] Top shape: 10 1 1 3000 (30000)
I0507 10:44:49.360826 25752 net.cpp:148] Top shape: 10 1 1 1 (10)
I0507 10:44:49.360829 25752 net.cpp:156] Memory required for data: 480200
I0507 10:44:49.360833 25752 layer_factory.hpp:77] Creating layer fc_1
I0507 10:44:49.360842 25752 net.cpp:91] Creating Layer fc_1
I0507 10:44:49.360846 25752 net.cpp:425] fc_1 <- slice_1
I0507 10:44:49.360859 25752 net.cpp:399] fc_1 -> fc_1
I0507 10:44:49.499999 25752 net.cpp:141] Setting up fc_1
I0507 10:44:49.500079 25752 net.cpp:148] Top shape: 10 2048 (20480)
I0507 10:44:49.500093 25752 net.cpp:156] Memory required for data: 562120
I0507 10:44:49.500123 25752 layer_factory.hpp:77] Creating layer relu_1
I0507 10:44:49.500165 25752 net.cpp:91] Creating Layer relu_1
I0507 10:44:49.500174 25752 net.cpp:425] relu_1 <- fc_1
I0507 10:44:49.500185 25752 net.cpp:386] relu_1 -> fc_1 (in-place)
I0507 10:44:49.500424 25752 net.cpp:141] Setting up relu_1
I0507 10:44:49.500444 25752 net.cpp:148] Top shape: 10 2048 (20480)
I0507 10:44:49.500447 25752 net.cpp:156] Memory required for data: 644040
I0507 10:44:49.500460 25752 layer_factory.hpp:77] Creating layer drop_1
I0507 10:44:49.500468 25752 net.cpp:91] Creating Layer drop_1
I0507 10:44:49.500473 25752 net.cpp:425] drop_1 <- fc_1
I0507 10:44:49.500488 25752 net.cpp:386] drop_1 -> fc_1 (in-place)
I0507 10:44:49.500525 25752 net.cpp:141] Setting up drop_1
I0507 10:44:49.500532 25752 net.cpp:148] Top shape: 10 2048 (20480)
I0507 10:44:49.500546 25752 net.cpp:156] Memory required for data: 725960
I0507 10:44:49.500550 25752 layer_factory.hpp:77] Creating layer fc_2
I0507 10:44:49.500557 25752 net.cpp:91] Creating Layer fc_2
I0507 10:44:49.500561 25752 net.cpp:425] fc_2 <- fc_1
I0507 10:44:49.500571 25752 net.cpp:399] fc_2 -> fc_2
I0507 10:44:49.594792 25752 net.cpp:141] Setting up fc_2
I0507 10:44:49.594828 25752 net.cpp:148] Top shape: 10 2048 (20480)
I0507 10:44:49.594835 25752 net.cpp:156] Memory required for data: 807880
I0507 10:44:49.594846 25752 layer_factory.hpp:77] Creating layer relu_2
I0507 10:44:49.594862 25752 net.cpp:91] Creating Layer relu_2
I0507 10:44:49.594869 25752 net.cpp:425] relu_2 <- fc_2
I0507 10:44:49.594887 25752 net.cpp:386] relu_2 -> fc_2 (in-place)
I0507 10:44:49.595312 25752 net.cpp:141] Setting up relu_2
I0507 10:44:49.595325 25752 net.cpp:148] Top shape: 10 2048 (20480)
I0507 10:44:49.595329 25752 net.cpp:156] Memory required for data: 889800
I0507 10:44:49.595333 25752 layer_factory.hpp:77] Creating layer drop_2
I0507 10:44:49.595347 25752 net.cpp:91] Creating Layer drop_2
I0507 10:44:49.595362 25752 net.cpp:425] drop_2 <- fc_2
I0507 10:44:49.595367 25752 net.cpp:386] drop_2 -> fc_2 (in-place)
I0507 10:44:49.595413 25752 net.cpp:141] Setting up drop_2
I0507 10:44:49.595420 25752 net.cpp:148] Top shape: 10 2048 (20480)
I0507 10:44:49.595423 25752 net.cpp:156] Memory required for data: 971720
I0507 10:44:49.595427 25752 layer_factory.hpp:77] Creating layer fc_3
I0507 10:44:49.595435 25752 net.cpp:91] Creating Layer fc_3
I0507 10:44:49.595439 25752 net.cpp:425] fc_3 <- fc_2
I0507 10:44:49.595444 25752 net.cpp:399] fc_3 -> fc_3
I0507 10:44:49.601634 25752 net.cpp:141] Setting up fc_3
I0507 10:44:49.601654 25752 net.cpp:148] Top shape: 10 128 (1280)
I0507 10:44:49.601657 25752 net.cpp:156] Memory required for data: 976840
I0507 10:44:49.601666 25752 layer_factory.hpp:77] Creating layer sigmoid_1
I0507 10:44:49.601686 25752 net.cpp:91] Creating Layer sigmoid_1
I0507 10:44:49.601691 25752 net.cpp:425] sigmoid_1 <- fc_3
I0507 10:44:49.601706 25752 net.cpp:399] sigmoid_1 -> sigmoid_1
I0507 10:44:49.601934 25752 net.cpp:141] Setting up sigmoid_1
I0507 10:44:49.601943 25752 net.cpp:148] Top shape: 10 128 (1280)
I0507 10:44:49.601956 25752 net.cpp:156] Memory required for data: 981960
I0507 10:44:49.601960 25752 layer_factory.hpp:77] Creating layer sigmoid_1_sigmoid_1_0_split
I0507 10:44:49.601965 25752 net.cpp:91] Creating Layer sigmoid_1_sigmoid_1_0_split
I0507 10:44:49.601984 25752 net.cpp:425] sigmoid_1_sigmoid_1_0_split <- sigmoid_1
I0507 10:44:49.601990 25752 net.cpp:399] sigmoid_1_sigmoid_1_0_split -> sigmoid_1_sigmoid_1_0_split_0
I0507 10:44:49.602011 25752 net.cpp:399] sigmoid_1_sigmoid_1_0_split -> sigmoid_1_sigmoid_1_0_split_1
I0507 10:44:49.602049 25752 net.cpp:141] Setting up sigmoid_1_sigmoid_1_0_split
I0507 10:44:49.602056 25752 net.cpp:148] Top shape: 10 128 (1280)
I0507 10:44:49.602061 25752 net.cpp:148] Top shape: 10 128 (1280)
I0507 10:44:49.602063 25752 net.cpp:156] Memory required for data: 992200
I0507 10:44:49.602068 25752 layer_factory.hpp:77] Creating layer fc_4
I0507 10:44:49.602077 25752 net.cpp:91] Creating Layer fc_4
I0507 10:44:49.602082 25752 net.cpp:425] fc_4 <- sigmoid_1_sigmoid_1_0_split_0
I0507 10:44:49.602095 25752 net.cpp:399] fc_4 -> fc_4
I0507 10:44:49.602550 25752 net.cpp:141] Setting up fc_4
I0507 10:44:49.602556 25752 net.cpp:148] Top shape: 10 128 (1280)
I0507 10:44:49.602569 25752 net.cpp:156] Memory required for data: 997320
I0507 10:44:49.602574 25752 layer_factory.hpp:77] Creating layer sigmoid_2
I0507 10:44:49.602581 25752 net.cpp:91] Creating Layer sigmoid_2
I0507 10:44:49.602584 25752 net.cpp:425] sigmoid_2 <- fc_4
I0507 10:44:49.602589 25752 net.cpp:399] sigmoid_2 -> sigmoid_2
I0507 10:44:49.602944 25752 net.cpp:141] Setting up sigmoid_2
I0507 10:44:49.602955 25752 net.cpp:148] Top shape: 10 128 (1280)
I0507 10:44:49.602968 25752 net.cpp:156] Memory required for data: 1002440
I0507 10:44:49.602972 25752 layer_factory.hpp:77] Creating layer fc_5
I0507 10:44:49.602980 25752 net.cpp:91] Creating Layer fc_5
I0507 10:44:49.602985 25752 net.cpp:425] fc_5 <- slice_2
I0507 10:44:49.602993 25752 net.cpp:399] fc_5 -> fc_5
I0507 10:44:49.741806 25752 net.cpp:141] Setting up fc_5
I0507 10:44:49.741838 25752 net.cpp:148] Top shape: 10 2048 (20480)
I0507 10:44:49.741843 25752 net.cpp:156] Memory required for data: 1084360
I0507 10:44:49.741853 25752 net.cpp:484] Sharing parameters 'w1' owned by layer 'fc_1', param index 0
I0507 10:44:49.741859 25752 net.cpp:484] Sharing parameters 'b1' owned by layer 'fc_1', param index 1
I0507 10:44:49.741864 25752 layer_factory.hpp:77] Creating layer relu_3
I0507 10:44:49.741873 25752 net.cpp:91] Creating Layer relu_3
I0507 10:44:49.741878 25752 net.cpp:425] relu_3 <- fc_5
I0507 10:44:49.741896 25752 net.cpp:386] relu_3 -> fc_5 (in-place)
I0507 10:44:49.742089 25752 net.cpp:141] Setting up relu_3
I0507 10:44:49.742097 25752 net.cpp:148] Top shape: 10 2048 (20480)
I0507 10:44:49.742100 25752 net.cpp:156] Memory required for data: 1166280
I0507 10:44:49.742105 25752 layer_factory.hpp:77] Creating layer drop_3
I0507 10:44:49.742130 25752 net.cpp:91] Creating Layer drop_3
I0507 10:44:49.742133 25752 net.cpp:425] drop_3 <- fc_5
I0507 10:44:49.742138 25752 net.cpp:386] drop_3 -> fc_5 (in-place)
I0507 10:44:49.742168 25752 net.cpp:141] Setting up drop_3
I0507 10:44:49.742174 25752 net.cpp:148] Top shape: 10 2048 (20480)
I0507 10:44:49.742187 25752 net.cpp:156] Memory required for data: 1248200
I0507 10:44:49.742190 25752 layer_factory.hpp:77] Creating layer fc_6
I0507 10:44:49.742199 25752 net.cpp:91] Creating Layer fc_6
I0507 10:44:49.742203 25752 net.cpp:425] fc_6 <- fc_5
I0507 10:44:49.742210 25752 net.cpp:399] fc_6 -> fc_6
I0507 10:44:49.836597 25752 net.cpp:141] Setting up fc_6
I0507 10:44:49.836649 25752 net.cpp:148] Top shape: 10 2048 (20480)
I0507 10:44:49.836653 25752 net.cpp:156] Memory required for data: 1330120
I0507 10:44:49.836659 25752 net.cpp:484] Sharing parameters 'w2' owned by layer 'fc_2', param index 0
I0507 10:44:49.836664 25752 net.cpp:484] Sharing parameters 'b2' owned by layer 'fc_2', param index 1
I0507 10:44:49.836668 25752 layer_factory.hpp:77] Creating layer relu_4
I0507 10:44:49.836678 25752 net.cpp:91] Creating Layer relu_4
I0507 10:44:49.836695 25752 net.cpp:425] relu_4 <- fc_6
I0507 10:44:49.836704 25752 net.cpp:386] relu_4 -> fc_6 (in-place)
I0507 10:44:49.837136 25752 net.cpp:141] Setting up relu_4
I0507 10:44:49.837146 25752 net.cpp:148] Top shape: 10 2048 (20480)
I0507 10:44:49.837160 25752 net.cpp:156] Memory required for data: 1412040
I0507 10:44:49.837164 25752 layer_factory.hpp:77] Creating layer drop_4
I0507 10:44:49.837172 25752 net.cpp:91] Creating Layer drop_4
I0507 10:44:49.837191 25752 net.cpp:425] drop_4 <- fc_6
I0507 10:44:49.837208 25752 net.cpp:386] drop_4 -> fc_6 (in-place)
I0507 10:44:49.837231 25752 net.cpp:141] Setting up drop_4
I0507 10:44:49.837246 25752 net.cpp:148] Top shape: 10 2048 (20480)
I0507 10:44:49.837249 25752 net.cpp:156] Memory required for data: 1493960
I0507 10:44:49.837262 25752 layer_factory.hpp:77] Creating layer fc_7
I0507 10:44:49.837270 25752 net.cpp:91] Creating Layer fc_7
I0507 10:44:49.837275 25752 net.cpp:425] fc_7 <- fc_6
I0507 10:44:49.837290 25752 net.cpp:399] fc_7 -> fc_7
I0507 10:44:49.843566 25752 net.cpp:141] Setting up fc_7
I0507 10:44:49.843585 25752 net.cpp:148] Top shape: 10 128 (1280)
I0507 10:44:49.843588 25752 net.cpp:156] Memory required for data: 1499080
I0507 10:44:49.843593 25752 net.cpp:484] Sharing parameters 'w3' owned by layer 'fc_3', param index 0
I0507 10:44:49.843598 25752 net.cpp:484] Sharing parameters 'b3' owned by layer 'fc_3', param index 1
I0507 10:44:49.843603 25752 layer_factory.hpp:77] Creating layer sigmoid_3
I0507 10:44:49.843611 25752 net.cpp:91] Creating Layer sigmoid_3
I0507 10:44:49.843616 25752 net.cpp:425] sigmoid_3 <- fc_7
I0507 10:44:49.843622 25752 net.cpp:399] sigmoid_3 -> sigmoid_3
I0507 10:44:49.843813 25752 net.cpp:141] Setting up sigmoid_3
I0507 10:44:49.843823 25752 net.cpp:148] Top shape: 10 128 (1280)
I0507 10:44:49.843837 25752 net.cpp:156] Memory required for data: 1504200
I0507 10:44:49.843842 25752 layer_factory.hpp:77] Creating layer fc_8
I0507 10:44:49.843852 25752 net.cpp:91] Creating Layer fc_8
I0507 10:44:49.843858 25752 net.cpp:425] fc_8 <- sigmoid_3
I0507 10:44:49.843864 25752 net.cpp:399] fc_8 -> fc_8
I0507 10:44:49.844367 25752 net.cpp:141] Setting up fc_8
I0507 10:44:49.844375 25752 net.cpp:148] Top shape: 10 128 (1280)
I0507 10:44:49.844379 25752 net.cpp:156] Memory required for data: 1509320
I0507 10:44:49.844383 25752 net.cpp:484] Sharing parameters 'dw' owned by layer 'fc_4', param index 0
I0507 10:44:49.844388 25752 net.cpp:484] Sharing parameters 'db' owned by layer 'fc_4', param index 1
I0507 10:44:49.844393 25752 layer_factory.hpp:77] Creating layer sigmoid_4
I0507 10:44:49.844398 25752 net.cpp:91] Creating Layer sigmoid_4
I0507 10:44:49.844403 25752 net.cpp:425] sigmoid_4 <- fc_8
I0507 10:44:49.844409 25752 net.cpp:399] sigmoid_4 -> sigmoid_4
I0507 10:44:49.844784 25752 net.cpp:141] Setting up sigmoid_4
I0507 10:44:49.844805 25752 net.cpp:148] Top shape: 10 128 (1280)
I0507 10:44:49.844810 25752 net.cpp:156] Memory required for data: 1514440
I0507 10:44:49.844822 25752 layer_factory.hpp:77] Creating layer out_1
I0507 10:44:49.844830 25752 net.cpp:91] Creating Layer out_1
I0507 10:44:49.844833 25752 net.cpp:425] out_1 <- sigmoid_1_sigmoid_1_0_split_1
I0507 10:44:49.844841 25752 net.cpp:399] out_1 -> out_1
I0507 10:44:49.844952 25752 net.cpp:141] Setting up out_1
I0507 10:44:49.844961 25752 net.cpp:148] Top shape: 10 10 (100)
I0507 10:44:49.844965 25752 net.cpp:156] Memory required for data: 1514840
I0507 10:44:49.844974 25752 layer_factory.hpp:77] Creating layer out_1_out_1_0_split
I0507 10:44:49.844982 25752 net.cpp:91] Creating Layer out_1_out_1_0_split
I0507 10:44:49.844986 25752 net.cpp:425] out_1_out_1_0_split <- out_1
I0507 10:44:49.844991 25752 net.cpp:399] out_1_out_1_0_split -> out_1_out_1_0_split_0
I0507 10:44:49.844998 25752 net.cpp:399] out_1_out_1_0_split -> out_1_out_1_0_split_1
I0507 10:44:49.845026 25752 net.cpp:141] Setting up out_1_out_1_0_split
I0507 10:44:49.845033 25752 net.cpp:148] Top shape: 10 10 (100)
I0507 10:44:49.845037 25752 net.cpp:148] Top shape: 10 10 (100)
I0507 10:44:49.845041 25752 net.cpp:156] Memory required for data: 1515640
I0507 10:44:49.845046 25752 layer_factory.hpp:77] Creating layer loss_1
I0507 10:44:49.845052 25752 net.cpp:91] Creating Layer loss_1
I0507 10:44:49.845057 25752 net.cpp:425] loss_1 <- out_1_out_1_0_split_0
I0507 10:44:49.845062 25752 net.cpp:425] loss_1 <- label_data_1_split_0
I0507 10:44:49.845067 25752 net.cpp:399] loss_1 -> loss_1
…
