…
lr_policy: "fixed"
momentum: 0.9
weight_decay: 0.0005
snapshot: 10000
snapshot_prefix: "model/m_1"
solver_mode: GPU
net: "gpu1_alex.prototxt"
test_initialization: false
rms_decay: 0.98
type: "RMSProp"
I0730 02:04:13.377166 27853 solver.cpp:91] Creating training net from net file: gpu1_alex.prototxt
I0730 02:04:13.377702 27853 net.cpp:49] Initializing net from parameters: 
state {
  phase: TRAIN
}
layer {
  name: "data"
  type: "MemoryData"
  top: "data"
  top: "label"
  memory_data_param {
    batch_size: 64
    channels: 1
    height: 1
    width: 32060
  }
}
layer {
  name: "slice_1"
  type: "Slice"
  bottom: "data"
  top: "slice_1"
  top: "slice_2"
  slice_param {
    slice_point: 20
    axis: 3
  }
}
layer {
  name: "slice_3"
  type: "Slice"
  bottom: "slice_2"
  top: "slice_3"
  top: "slice_4"
  slice_param {
    slice_point: 40
    axis: 3
  }
}
layer {
  name: "fc_1"
  type: "InnerProduct"
  bottom: "slice_3"
  top: "fc_1"
  param {
    lr_mult: 1
    decay_mult: 1
  }
  param {
    lr_mult: 2
    decay_mult: 0
  }
  inner_product_param {
    num_output: 1024
    weight_filler {
      type: "gaussian"
      std: 0.0098765
    }
    bias_filler {
      type: "constant"
      value: 0
    }
  }
}
layer {
  name: "relu_1"
  type: "ReLU"
  bottom: "fc_1"
  top: "fc_1"
}
layer {
  name: "groupdrop_1"
  type: "GroupDropout"
  bottom: "slice_4"
  top: "groupdrop_1"
  group_dropout_param {
    group_use: 400
    group_total: 800
  }
}
layer {
  name: "conv_1"
  type: "Convolution"
  bottom: "groupdrop_1"
  top: "conv_1"
  param {
    lr_mult: 1
    decay_mult: 1
  }
  param {
    lr_mult: 2
    decay_mult: 0
  }
  convolution_param {
    num_output: 64
    group: 1
    weight_filler {
      type: "gaussian"
      std: 0.00098765
    }
    bias_filler {
      type: "constant"
      value: 0
    }
    pad_h: 0
    pad_w: 0
    kernel_h: 1
    kernel_w: 40
    stride_h: 1
    stride_w: 40
  }
}
layer {
  name: "relu_2"
  type: "ReLU"
  bottom: "conv_1"
  top: "conv_1"
}
layer {
  name: "norm_1"
  type: "LRN"
  bottom: "conv_1"
  top: "norm_1"
  lrn_param {
    local_size: 5
    alpha: 0.0001
    beta: 0.75
  }
}
layer {
  name: "pool_1"
  type: "Pooling"
  bottom: "norm_1"
  top: "pool_1"
  pooling_param {
    pool: AVE
    kernel_h: 1
    kernel_w: 6
    stride_h: 1
    stride_w: 2
    pad_h: 0
    pad_w: 2
  }
}
layer {
  name: "conv_2"
  type: "Convolution"
  bottom: "pool_1"
  top: "conv_2"
  param {
    lr_mult: 1
    decay_mult: 1
  }
  param {
    lr_mult: 2
    decay_mult: 0
  }
  convolution_param {
    num_output: 32
    group: 1
    weight_filler {
      type: "gaussian"
      std: 0.00098765
    }
    bias_filler {
      type: "constant"
      value: 0
    }
    pad_h: 0
    pad_w: 1
    kernel_h: 1
    kernel_w: 4
    stride_h: 1
    stride_w: 2
  }
}
layer {
  name: "relu_3"
  type: "ReLU"
  bottom: "conv_2"
  top: "conv_2"
}
layer {
  name: "conv_3"
  type: "Convolution"
  bottom: "conv_2"
  top: "conv_3"
  param {
    lr_mult: 1
    decay_mult: 1
  }
  param {
    lr_mult: 2
    decay_mult: 0
  }
  convolution_param {
    num_output: 16
    group: 1
    weight_filler {
      type: "gaussian"
      std: 0.00098765
    }
    bias_filler {
      type: "constant"
      value: 0
    }
    pad_h: 0
    pad_w: 1
    kernel_h: 1
    kernel_w: 4
    stride_h: 1
    stride_w: 2
  }
}
layer {
  name: "relu_4"
  type: "ReLU"
  bottom: "conv_3"
  top: "conv_3"
}
layer {
  name: "flatten_1"
  type: "Flatten"
  bottom: "conv_3"
  top: "flatten_1"
}
layer {
  name: "concat_1"
  type: "Concat"
  bottom: "fc_1"
  bottom: "flatten_1"
  top: "concat_1"
}
layer {
  name: "fc_2"
  type: "InnerProduct"
  bottom: "concat_1"
  top: "fc_2"
  param {
    lr_mult: 1
    decay_mult: 1
  }
  param {
    lr_mult: 2
    decay_mult: 0
  }
  inner_product_param {
    num_output: 2048
    weight_filler {
      type: "xavier"
      std: 0.0098765
    }
    bias_filler {
      type: "constant"
      value: 0
    }
  }
}
layer {
  name: "relu_5"
  type: "ReLU"
  bottom: "fc_2"
  top: "fc_2"
}
layer {
  name: "drop_1"
  type: "Dropout"
  bottom: "fc_2"
  top: "fc_2"
  dropout_param {
    dropout_ratio: 0.5
  }
}
layer {
  name: "fc_3"
  type: "InnerProduct"
  bottom: "fc_2"
  top: "fc_3"
  param {
    lr_mult: 1
    decay_mult: 1
  }
  param {
    lr_mult: 2
    decay_mult: 0
  }
  inner_product_param {
    num_output: 2048
    weight_filler {
      type: "xavier"
      std: 0.0098765
    }
    bias_filler {
      type: "constant"
      value: 0
    }
  }
}
layer {
  name: "relu_6"
  type: "ReLU"
  bottom: "fc_3"
  top: "fc_3"
}
layer {
  name: "drop_2"
  type: "Dropout"
  bottom: "fc_3"
  top: "fc_3"
  dropout_param {
    dropout_ratio: 0.5
  }
}
layer {
  name: "out_1"
  type: "InnerProduct"
  bottom: "fc_3"
  top: "out_1"
  param {
    lr_mult: 1
    decay_mult: 1
  }
  param {
    lr_mult: 2
    decay_mult: 0
  }
  inner_product_param {
    num_output: 20
    weight_filler {
      type: "xavier"
      std: 0.0098765
    }
    bias_filler {
      type: "constant"
      value: 0
    }
  }
}
layer {
  name: "loss_1"
  type: "SigmoidCrossEntropyLoss"
  bottom: "out_1"
  bottom: "slice_1"
  top: "loss_1"
  loss_weight: 1
}
layer {
  name: "loss_2"
  type: "EuclideanLoss"
  bottom: "label"
  bottom: "label"
  top: "loss_2"
  loss_weight: 0
}
layer {
  name: "acc_1"
  type: "Accuracy"
  bottom: "out_1"
  bottom: "label"
  top: "acc_1"
}
I0730 02:04:13.377786 27853 layer_factory.hpp:77] Creating layer data
I0730 02:04:13.377796 27853 net.cpp:91] Creating Layer data
I0730 02:04:13.377801 27853 net.cpp:399] data -> data
I0730 02:04:13.377809 27853 net.cpp:399] data -> label
I0730 02:04:13.386215 27853 net.cpp:141] Setting up data
I0730 02:04:13.386260 27853 net.cpp:148] Top shape: 64 1 1 32060 (2051840)
I0730 02:04:13.386265 27853 net.cpp:148] Top shape: 64 (64)
I0730 02:04:13.386268 27853 net.cpp:156] Memory required for data: 8207616
I0730 02:04:13.386276 27853 layer_factory.hpp:77] Creating layer label_data_1_split
I0730 02:04:13.386289 27853 net.cpp:91] Creating Layer label_data_1_split
I0730 02:04:13.386293 27853 net.cpp:425] label_data_1_split <- label
I0730 02:04:13.386301 27853 net.cpp:399] label_data_1_split -> label_data_1_split_0
I0730 02:04:13.386309 27853 net.cpp:399] label_data_1_split -> label_data_1_split_1
I0730 02:04:13.386314 27853 net.cpp:399] label_data_1_split -> label_data_1_split_2
I0730 02:04:13.386358 27853 net.cpp:141] Setting up label_data_1_split
I0730 02:04:13.386363 27853 net.cpp:148] Top shape: 64 (64)
I0730 02:04:13.386368 27853 net.cpp:148] Top shape: 64 (64)
I0730 02:04:13.386370 27853 net.cpp:148] Top shape: 64 (64)
I0730 02:04:13.386373 27853 net.cpp:156] Memory required for data: 8208384
I0730 02:04:13.386376 27853 layer_factory.hpp:77] Creating layer slice_1
I0730 02:04:13.386384 27853 net.cpp:91] Creating Layer slice_1
I0730 02:04:13.386389 27853 net.cpp:425] slice_1 <- data
I0730 02:04:13.386392 27853 net.cpp:399] slice_1 -> slice_1
I0730 02:04:13.386397 27853 net.cpp:399] slice_1 -> slice_2
I0730 02:04:13.386422 27853 net.cpp:141] Setting up slice_1
I0730 02:04:13.386427 27853 net.cpp:148] Top shape: 64 1 1 20 (1280)
I0730 02:04:13.386430 27853 net.cpp:148] Top shape: 64 1 1 32040 (2050560)
I0730 02:04:13.386433 27853 net.cpp:156] Memory required for data: 16415744
I0730 02:04:13.386436 27853 layer_factory.hpp:77] Creating layer slice_3
I0730 02:04:13.386441 27853 net.cpp:91] Creating Layer slice_3
I0730 02:04:13.386445 27853 net.cpp:425] slice_3 <- slice_2
I0730 02:04:13.386450 27853 net.cpp:399] slice_3 -> slice_3
I0730 02:04:13.386456 27853 net.cpp:399] slice_3 -> slice_4
I0730 02:04:13.386476 27853 net.cpp:141] Setting up slice_3
I0730 02:04:13.386481 27853 net.cpp:148] Top shape: 64 1 1 40 (2560)
I0730 02:04:13.386484 27853 net.cpp:148] Top shape: 64 1 1 32000 (2048000)
I0730 02:04:13.386487 27853 net.cpp:156] Memory required for data: 24617984
I0730 02:04:13.386490 27853 layer_factory.hpp:77] Creating layer fc_1
I0730 02:04:13.386502 27853 net.cpp:91] Creating Layer fc_1
I0730 02:04:13.386509 27853 net.cpp:425] fc_1 <- slice_3
I0730 02:04:13.386514 27853 net.cpp:399] fc_1 -> fc_1
I0730 02:04:13.388394 27853 net.cpp:141] Setting up fc_1
I0730 02:04:13.388417 27853 net.cpp:148] Top shape: 64 1024 (65536)
I0730 02:04:13.388420 27853 net.cpp:156] Memory required for data: 24880128
I0730 02:04:13.388430 27853 layer_factory.hpp:77] Creating layer relu_1
I0730 02:04:13.388439 27853 net.cpp:91] Creating Layer relu_1
I0730 02:04:13.388444 27853 net.cpp:425] relu_1 <- fc_1
I0730 02:04:13.388449 27853 net.cpp:386] relu_1 -> fc_1 (in-place)
I0730 02:04:13.545933 27853 net.cpp:141] Setting up relu_1
I0730 02:04:13.545972 27853 net.cpp:148] Top shape: 64 1024 (65536)
I0730 02:04:13.545977 27853 net.cpp:156] Memory required for data: 25142272
I0730 02:04:13.545984 27853 layer_factory.hpp:77] Creating layer groupdrop_1
I0730 02:04:13.545999 27853 net.cpp:91] Creating Layer groupdrop_1
I0730 02:04:13.546003 27853 net.cpp:425] groupdrop_1 <- slice_4
I0730 02:04:13.546010 27853 net.cpp:399] groupdrop_1 -> groupdrop_1
I0730 02:04:13.546052 27853 net.cpp:141] Setting up groupdrop_1
I0730 02:04:13.546058 27853 net.cpp:148] Top shape: 64 1 1 32000 (2048000)
I0730 02:04:13.546061 27853 net.cpp:156] Memory required for data: 33334272
I0730 02:04:13.546064 27853 layer_factory.hpp:77] Creating layer conv_1
I0730 02:04:13.546077 27853 net.cpp:91] Creating Layer conv_1
I0730 02:04:13.546080 27853 net.cpp:425] conv_1 <- groupdrop_1
I0730 02:04:13.546085 27853 net.cpp:399] conv_1 -> conv_1
I0730 02:04:13.547262 27853 net.cpp:141] Setting up conv_1
I0730 02:04:13.547289 27853 net.cpp:148] Top shape: 64 64 1 800 (3276800)
I0730 02:04:13.547294 27853 net.cpp:156] Memory required for data: 46441472
I0730 02:04:13.547307 27853 layer_factory.hpp:77] Creating layer relu_2
I0730 02:04:13.547318 27853 net.cpp:91] Creating Layer relu_2
I0730 02:04:13.547322 27853 net.cpp:425] relu_2 <- conv_1
I0730 02:04:13.547327 27853 net.cpp:386] relu_2 -> conv_1 (in-place)
I0730 02:04:13.547564 27853 net.cpp:141] Setting up relu_2
I0730 02:04:13.547576 27853 net.cpp:148] Top shape: 64 64 1 800 (3276800)
I0730 02:04:13.547580 27853 net.cpp:156] Memory required for data: 59548672
I0730 02:04:13.547585 27853 layer_factory.hpp:77] Creating layer norm_1
I0730 02:04:13.547595 27853 net.cpp:91] Creating Layer norm_1
I0730 02:04:13.547600 27853 net.cpp:425] norm_1 <- conv_1
I0730 02:04:13.547605 27853 net.cpp:399] norm_1 -> norm_1
I0730 02:04:13.547741 27853 net.cpp:141] Setting up norm_1
I0730 02:04:13.547749 27853 net.cpp:148] Top shape: 64 64 1 800 (3276800)
I0730 02:04:13.547752 27853 net.cpp:156] Memory required for data: 72655872
I0730 02:04:13.547757 27853 layer_factory.hpp:77] Creating layer pool_1
I0730 02:04:13.547765 27853 net.cpp:91] Creating Layer pool_1
I0730 02:04:13.547768 27853 net.cpp:425] pool_1 <- norm_1
I0730 02:04:13.547773 27853 net.cpp:399] pool_1 -> pool_1
I0730 02:04:13.548022 27853 net.cpp:141] Setting up pool_1
I0730 02:04:13.548032 27853 net.cpp:148] Top shape: 64 64 1 400 (1638400)
I0730 02:04:13.548037 27853 net.cpp:156] Memory required for data: 79209472
I0730 02:04:13.548040 27853 layer_factory.hpp:77] Creating layer conv_2
I0730 02:04:13.548048 27853 net.cpp:91] Creating Layer conv_2
I0730 02:04:13.548051 27853 net.cpp:425] conv_2 <- pool_1
I0730 02:04:13.548058 27853 net.cpp:399] conv_2 -> conv_2
I0730 02:04:13.549566 27853 net.cpp:141] Setting up conv_2
I0730 02:04:13.549618 27853 net.cpp:148] Top shape: 64 32 1 200 (409600)
I0730 02:04:13.549623 27853 net.cpp:156] Memory required for data: 80847872
I0730 02:04:13.549641 27853 layer_factory.hpp:77] Creating layer relu_3
I0730 02:04:13.549654 27853 net.cpp:91] Creating Layer relu_3
I0730 02:04:13.549660 27853 net.cpp:425] relu_3 <- conv_2
I0730 02:04:13.549666 27853 net.cpp:386] relu_3 -> conv_2 (in-place)
I0730 02:04:13.549787 27853 net.cpp:141] Setting up relu_3
I0730 02:04:13.549794 27853 net.cpp:148] Top shape: 64 32 1 200 (409600)
I0730 02:04:13.549798 27853 net.cpp:156] Memory required for data: 82486272
I0730 02:04:13.549801 27853 layer_factory.hpp:77] Creating layer conv_3
I0730 02:04:13.549828 27853 net.cpp:91] Creating Layer conv_3
I0730 02:04:13.549831 27853 net.cpp:425] conv_3 <- conv_2
I0730 02:04:13.549837 27853 net.cpp:399] conv_3 -> conv_3
I0730 02:04:13.550782 27853 net.cpp:141] Setting up conv_3
I0730 02:04:13.550797 27853 net.cpp:148] Top shape: 64 16 1 100 (102400)
I0730 02:04:13.550801 27853 net.cpp:156] Memory required for data: 82895872
I0730 02:04:13.550808 27853 layer_factory.hpp:77] Creating layer relu_4
I0730 02:04:13.550815 27853 net.cpp:91] Creating Layer relu_4
I0730 02:04:13.550819 27853 net.cpp:425] relu_4 <- conv_3
I0730 02:04:13.550825 27853 net.cpp:386] relu_4 -> conv_3 (in-place)
I0730 02:04:13.551051 27853 net.cpp:141] Setting up relu_4
I0730 02:04:13.551059 27853 net.cpp:148] Top shape: 64 16 1 100 (102400)
I0730 02:04:13.551062 27853 net.cpp:156] Memory required for data: 83305472
I0730 02:04:13.551065 27853 layer_factory.hpp:77] Creating layer flatten_1
I0730 02:04:13.551071 27853 net.cpp:91] Creating Layer flatten_1
I0730 02:04:13.551074 27853 net.cpp:425] flatten_1 <- conv_3
I0730 02:04:13.551080 27853 net.cpp:399] flatten_1 -> flatten_1
I0730 02:04:13.551101 27853 net.cpp:141] Setting up flatten_1
I0730 02:04:13.551107 27853 net.cpp:148] Top shape: 64 1600 (102400)
I0730 02:04:13.551110 27853 net.cpp:156] Memory required for data: 83715072
I0730 02:04:13.551113 27853 layer_factory.hpp:77] Creating layer concat_1
I0730 02:04:13.551120 27853 net.cpp:91] Creating Layer concat_1
I0730 02:04:13.551123 27853 net.cpp:425] concat_1 <- fc_1
I0730 02:04:13.551126 27853 net.cpp:425] concat_1 <- flatten_1
I0730 02:04:13.551136 27853 net.cpp:399] concat_1 -> concat_1
I0730 02:04:13.551154 27853 net.cpp:141] Setting up concat_1
I0730 02:04:13.551159 27853 net.cpp:148] Top shape: 64 2624 (167936)
I0730 02:04:13.551162 27853 net.cpp:156] Memory required for data: 84386816
I0730 02:04:13.551165 27853 layer_factory.hpp:77] Creating layer fc_2
I0730 02:04:13.551172 27853 net.cpp:91] Creating Layer fc_2
I0730 02:04:13.551174 27853 net.cpp:425] fc_2 <- concat_1
I0730 02:04:13.551179 27853 net.cpp:399] fc_2 -> fc_2
I0730 02:04:13.571317 27853 net.cpp:141] Setting up fc_2
I0730 02:04:13.571355 27853 net.cpp:148] Top shape: 64 2048 (131072)
I0730 02:04:13.571360 27853 net.cpp:156] Memory required for data: 84911104
I0730 02:04:13.571374 27853 layer_factory.hpp:77] Creating layer relu_5
I0730 02:04:13.571383 27853 net.cpp:91] Creating Layer relu_5
I0730 02:04:13.571388 27853 net.cpp:425] relu_5 <- fc_2
I0730 02:04:13.571393 27853 net.cpp:386] relu_5 -> fc_2 (in-place)
I0730 02:04:13.571553 27853 net.cpp:141] Setting up relu_5
I0730 02:04:13.571560 27853 net.cpp:148] Top shape: 64 2048 (131072)
I0730 02:04:13.571563 27853 net.cpp:156] Memory required for data: 85435392
I0730 02:04:13.571568 27853 layer_factory.hpp:77] Creating layer drop_1
I0730 02:04:13.571573 27853 net.cpp:91] Creating Layer drop_1
I0730 02:04:13.571576 27853 net.cpp:425] drop_1 <- fc_2
I0730 02:04:13.571581 27853 net.cpp:386] drop_1 -> fc_2 (in-place)
I0730 02:04:13.571601 27853 net.cpp:141] Setting up drop_1
I0730 02:04:13.571605 27853 net.cpp:148] Top shape: 64 2048 (131072)
I0730 02:04:13.571609 27853 net.cpp:156] Memory required for data: 85959680
I0730 02:04:13.571611 27853 layer_factory.hpp:77] Creating layer fc_3
I0730 02:04:13.571619 27853 net.cpp:91] Creating Layer fc_3
I0730 02:04:13.571622 27853 net.cpp:425] fc_3 <- fc_2
I0730 02:04:13.571627 27853 net.cpp:399] fc_3 -> fc_3
I0730 02:04:13.587769 27853 net.cpp:141] Setting up fc_3
I0730 02:04:13.587828 27853 net.cpp:148] Top shape: 64 2048 (131072)
I0730 02:04:13.587833 27853 net.cpp:156] Memory required for data: 86483968
I0730 02:04:13.587846 27853 layer_factory.hpp:77] Creating layer relu_6
I0730 02:04:13.587859 27853 net.cpp:91] Creating Layer relu_6
I0730 02:04:13.587867 27853 net.cpp:425] relu_6 <- fc_3
I0730 02:04:13.587874 27853 net.cpp:386] relu_6 -> fc_3 (in-place)
I0730 02:04:13.588320 27853 net.cpp:141] Setting up relu_6
I0730 02:04:13.588333 27853 net.cpp:148] Top shape: 64 2048 (131072)
I0730 02:04:13.588345 27853 net.cpp:156] Memory required for data: 87008256
I0730 02:04:13.588349 27853 layer_factory.hpp:77] Creating layer drop_2
I0730 02:04:13.588357 27853 net.cpp:91] Creating Layer drop_2
I0730 02:04:13.588361 27853 net.cpp:425] drop_2 <- fc_3
I0730 02:04:13.588368 27853 net.cpp:386] drop_2 -> fc_3 (in-place)
I0730 02:04:13.588402 27853 net.cpp:141] Setting up drop_2
I0730 02:04:13.588407 27853 net.cpp:148] Top shape: 64 2048 (131072)
I0730 02:04:13.588410 27853 net.cpp:156] Memory required for data: 87532544
I0730 02:04:13.588413 27853 layer_factory.hpp:77] Creating layer out_1
I0730 02:04:13.588421 27853 net.cpp:91] Creating Layer out_1
I0730 02:04:13.588424 27853 net.cpp:425] out_1 <- fc_3
I0730 02:04:13.588429 27853 net.cpp:399] out_1 -> out_1
I0730 02:04:13.588662 27853 net.cpp:141] Setting up out_1
I0730 02:04:13.588670 27853 net.cpp:148] Top shape: 64 20 (1280)
I0730 02:04:13.588673 27853 net.cpp:156] Memory required for data: 87537664
I0730 02:04:13.588682 27853 layer_factory.hpp:77] Creating layer out_1_out_1_0_split
I0730 02:04:13.588691 27853 net.cpp:91] Creating Layer out_1_out_1_0_split
I0730 02:04:13.588695 27853 net.cpp:425] out_1_out_1_0_split <- out_1
I0730 02:04:13.588701 27853 net.cpp:399] out_1_out_1_0_split -> out_1_out_1_0_split_0
I0730 02:04:13.588706 27853 net.cpp:399] out_1_out_1_0_split -> out_1_out_1_0_split_1
I0730 02:04:13.588732 27853 net.cpp:141] Setting up out_1_out_1_0_split
I0730 02:04:13.588739 27853 net.cpp:148] Top shape: 64 20 (1280)
I0730 02:04:13.588744 27853 net.cpp:148] Top shape: 64 20 (1280)
I0730 02:04:13.588748 27853 net.cpp:156] Memory required for data: 87547904
I0730 02:04:13.588752 27853 layer_factory.hpp:77] Creating layer loss_1
I0730 02:04:13.588767 27853 net.cpp:91] Creating Layer loss_1
I0730 02:04:13.588771 27853 net.cpp:425] loss_1 <- out_1_out_1_0_split_0
I0730 02:04:13.588778 27853 net.cpp:425] loss_1 <- slice_1
I0730 02:04:13.588783 27853 net.cpp:399] loss_1 -> loss_1
…
