…
    slice_point: 444600
    slice_poin
I0305 19:05:34.904698 30632 layer_factory.hpp:77] Creating layer data
I0305 19:05:34.904727 30632 net.cpp:91] Creating Layer data
I0305 19:05:34.904732 30632 net.cpp:399] data -> data
I0305 19:05:34.904742 30632 net.cpp:399] data -> label
I0305 19:05:34.904757 30632 hdf5_data_layer.cpp:79] Loading list of HDF5 filenames from: test.txt
I0305 19:05:34.904777 30632 hdf5_data_layer.cpp:93] Number of HDF5 files: 1
I0305 19:05:34.905715 30632 hdf5.cpp:32] Datatype class: H5T_FLOAT
I0305 19:05:34.920914 30632 net.cpp:141] Setting up data
I0305 19:05:34.920955 30632 net.cpp:148] Top shape: 1 900000 (900000)
I0305 19:05:34.920960 30632 net.cpp:148] Top shape: 1 1 (1)
I0305 19:05:34.920964 30632 net.cpp:156] Memory required for data: 3600004
I0305 19:05:34.920972 30632 layer_factory.hpp:77] Creating layer data_data_0_split
I0305 19:05:34.920984 30632 net.cpp:91] Creating Layer data_data_0_split
I0305 19:05:34.920989 30632 net.cpp:425] data_data_0_split <- data
I0305 19:05:34.921005 30632 net.cpp:399] data_data_0_split -> data_data_0_split_0
I0305 19:05:34.921023 30632 net.cpp:399] data_data_0_split -> data_data_0_split_1
I0305 19:05:34.921028 30632 net.cpp:399] data_data_0_split -> data_data_0_split_2
I0305 19:05:34.921036 30632 net.cpp:141] Setting up data_data_0_split
I0305 19:05:34.921041 30632 net.cpp:148] Top shape: 1 900000 (900000)
I0305 19:05:34.921046 30632 net.cpp:148] Top shape: 1 900000 (900000)
I0305 19:05:34.921048 30632 net.cpp:148] Top shape: 1 900000 (900000)
I0305 19:05:34.921051 30632 net.cpp:156] Memory required for data: 14400004
I0305 19:05:34.921054 30632 layer_factory.hpp:77] Creating layer label_data_1_split
I0305 19:05:34.921059 30632 net.cpp:91] Creating Layer label_data_1_split
I0305 19:05:34.921062 30632 net.cpp:425] label_data_1_split <- label
I0305 19:05:34.921066 30632 net.cpp:399] label_data_1_split -> label_data_1_split_0
I0305 19:05:34.921071 30632 net.cpp:399] label_data_1_split -> label_data_1_split_1
I0305 19:05:34.921075 30632 net.cpp:141] Setting up label_data_1_split
I0305 19:05:34.921079 30632 net.cpp:148] Top shape: 1 1 (1)
I0305 19:05:34.921082 30632 net.cpp:148] Top shape: 1 1 (1)
I0305 19:05:34.921085 30632 net.cpp:156] Memory required for data: 14400012
I0305 19:05:34.921088 30632 layer_factory.hpp:77] Creating layer Slice1
I0305 19:05:34.921169 30632 net.cpp:91] Creating Layer Slice1
I0305 19:05:34.921175 30632 net.cpp:425] Slice1 <- data_data_0_split_0
I0305 19:05:34.921231 30632 net.cpp:399] Slice1 -> Slice1
I0305 19:05:34.921313 30632 net.cpp:399] Slice1 -> Slice2
…
I0305 19:05:34.987803 30632 net.cpp:399] Slice1 -> Slice992
I0305 19:05:34.987870 30632 net.cpp:399] Slice1 -> Slice993
I0305 19:05:34.987937 30632 net.cpp:399] Slice1 -> Slice994
I0305 19:05:34.988004 30632 net.cpp:399] Slice1 -> Slice995
I0305 19:05:34.988071 30632 net.cpp:399] Slice1 -> Slice996
I0305 19:05:34.988138 30632 net.cpp:399] Slice1 -> Slice997
I0305 19:05:34.988205 30632 net.cpp:399] Slice1 -> Slice998
I0305 19:05:34.988272 30632 net.cpp:399] Slice1 -> Slice999
I0305 19:05:34.988339 30632 net.cpp:399] Slice1 -> Slice1000
I0305 19:05:34.988627 30632 net.cpp:141] Setting up Slice1
I0305 19:05:34.988634 30632 net.cpp:148] Top shape: 1 900 (900)
I0305 19:05:34.988639 30632 net.cpp:148] Top shape: 1 900 (900)
I0305 19:05:34.988642 30632 net.cpp:148] Top shape: 1 900 (900)
I0305 19:05:34.988646 30632 net.cpp:148] Top shape: 1 900 (900)
I0305 19:05:34.988648 30632 net.cpp:148] Top shape: 1 900 (900)
I0305 19:05:34.988652 30632 net.cpp:148] Top shape: 1 900 (900)
I0305 19:05:34.988656 30632 net.cpp:148] Top shape: 1 900 (900)
I0305 19:05:34.988658 30632 net.cpp:148] Top shape: 1 900 (900)
I0305 19:05:34.988662 30632 net.cpp:148] Top shape: 1 900 (900)
I0305 19:05:34.988664 30632 net.cpp:148] Top shape: 1 900 (900)
I0305 19:05:34.988667 30632 net.cpp:148] Top shape: 1 900 (900)
I0305 19:05:34.988670 30632 net.cpp:148] Top shape: 1 900 (900)
I0305 19:05:34.988673 30632 net.cpp:148] Top shape: 1 900 (900)
I0305 19:05:34.988677 30632 net.cpp:148] Top shape: 1 900 (900)
I0305 19:05:34.988680 30632 net.cpp:148] Top shape: 1 900 (900)
I0305 19:05:34.988683 30632 net.cpp:148] Top shape: 1 900 (900)
I0305 19:05:34.988687 30632 net.cpp:148] Top shape: 1 900 (900)
I0305 19:05:34.988689 30632 net.cpp:148] Top shape: 1 900 (900)
I0305 19:05:34.988692 30632 net.cpp:148] Top shape: 1 900 (900)
I0305 19:05:34.988695 30632 net.cpp:148] Top shape: 1 900 (900)
I0305 19:05:34.988698 30632 net.cpp:148] Top shape: 1 900 (900)
I0305 19:05:34.988701 30632 net.cpp:148] Top shape: 1 900 (900)
I0305 19:05:34.988704 30632 net.cpp:148] Top shape: 1 900 (900)
I0305 19:05:34.988708 30632 net.cpp:148] Top shape: 1 900 (900)
I0305 19:05:34.988710 30632 net.cpp:148] Top shape: 1 900 (900)
I0305 19:05:34.988714 30632 net.cpp:148] Top shape: 1 900 (900)
I0305 19:05:34.988719 30632 net.cpp:148] Top shape: 1 900 (900)
I0305 19:05:34.988723 30632 net.cpp:148] Top shape: 1 900 (900)
I0305 19:05:34.988729 30632 net.cpp:148] Top shape: 1 900 (900)
I0305 19:05:34.988731 30632 net.cpp:148] Top shape: 1 900 (900)
I0305 19:05:34.988734 30632 net.cpp:148] Top shape: 1 900 (900)
I0305 19:05:34.988739 30632 net.cpp:148] Top shape: 1 900 (900)
I0305 19:05:34.988741 30632 net.cpp:148] Top shape: 1 900 (900)
I0305 19:05:34.988744 30632 net.cpp:148] Top shape: 1 900 (900)
I0305 19:05:34.988747 30632 net.cpp:148] Top shape: 1 900 (900)
I0305 19:05:34.988750 30632 net.cpp:148] Top shape: 1 900 (900)
I0305 19:05:34.988754 30632 net.cpp:148] Top shape: 1 900 (900)
I0305 19:05:34.988756 30632 net.cpp:148] Top shape: 1 900 (900)
I0305 19:05:34.988759 30632 net.cpp:148] Top shape: 1 900 (900)
I0305 19:05:34.988762 30632 net.cpp:148] Top shape: 1 900 (900)
I0305 19:05:34.988765 30632 net.cpp:148] Top shape: 1 900 (900)
I0305 19:05:34.988768 30632 net.cpp:148] Top shape: 1 900 (900)
I0305 19:05:34.988771 30632 net.cpp:148] Top shape: 1 900 (900)
I0305 19:05:34.988775 30632 net.cpp:148] Top shape: 1 900 (900)
I0305 19:05:34.988777 30632 net.cpp:148] Top shape: 1 900 (900)
I0305 19:05:34.988781 30632 net.cpp:148] Top shape: 1 900 (900)
I0305 19:05:34.988785 30632 net.cpp:148] Top shape: 1 900 (900)
I0305 19:05:34.988787 30632 net.cpp:148] Top shape: 1 900 (900)
I0305 19:05:34.988790 30632 net.cpp:148] Top shape: 1 900 (900)
I0305 19:05:34.988793 30632 net.cpp:148] Top shape: 1 900 (900)
I0305 19:05:34.988796 30632 net.cpp:148] Top shape: 1 900 (900)
I0305 19:05:34.988800 30632 net.cpp:148] Top shape: 1 900 (900)
I0305 19:05:34.988802 30632 net.cpp:148] Top shape: 1 900 (900)
I0305 19:05:34.988806 30632 net.cpp:148] Top shape: 1 900 (900)
I0305 19:05:34.988808 30632 net.cpp:148] Top shape: 1 900 (900)
I0305 19:05:34.988811 30632 net.cpp:148] Top shape: 1 900 (900)
I0305 19:05:34.988816 30632 net.cpp:148] Top shape: 1 900 (900)
I0305 19:05:34.988818 30632 net.cpp:148] Top shape: 1 900 (900)
I0305 19:05:34.988821 30632 net.cpp:148] Top shape: 1 900 (900)
I0305 19:05:34.988824 30632 net.cpp:148] Top shape: 1 900 (900)
I0305 19:05:34.988827 30632 net.cpp:148] Top shape: 1 900 (900)
I0305 19:05:34.988831 30632 net.cpp:148] Top shape: 1 900 (900)
I0305 19:05:34.988833 30632 net.cpp:148] Top shape: 1 900 (900)
I0305 19:05:34.988837 30632 net.cpp:148] Top shape: 1 900 (900)
I0305 19:05:34.988840 30632 net.cpp:148] Top shape: 1 900 (900)
I0305 19:05:34.988843 30632 net.cpp:148] Top shape: 1 900 (900)
I0305 19:05:34.988847 30632 net.cpp:148] Top shape: 1 900 (900)
I0305 19:05:34.988849 30632 net.cpp:148] Top shape: 1 900 (900)
I0305 19:05:34.988862 30632 net.cpp:148] Top shape: 1 900 (900)
I0305 19:05:34.988865 30632 net.cpp:148] Top shape: 1 900 (900)
I0305 19:05:34.988868 30632 net.cpp:148] Top shape: 1 900 (900)
I0305 19:05:34.988873 30632 net.cpp:148] Top shape: 1 900 (900)
I0305 19:05:34.988875 30632 net.cpp:148] Top shape: 1 900 (900)
I0305 19:05:34.988878 30632 net.cpp:148] Top shape: 1 900 (900)
I0305 19:05:34.988881 30632 net.cpp:148] Top shape: 1 900 (900)
I0305 19:05:34.988884 30632 net.cpp:148] Top shape: 1 900 (900)
I0305 19:05:34.988888 30632 net.cpp:148] Top shape: 1 900 (900)
I0305 19:05:34.988891 30632 net.cpp:148] Top shape: 1 900 (900)
I0305 19:05:34.988894 30632 net.cpp:148] Top shape: 1 900 (900)
I0305 19:05:34.988906 30632 net.cpp:148] Top shape: 1 900 (900)
I0305 19:05:34.988909 30632 net.cpp:148] Top shape: 1 900 (900)
I0305 19:05:34.988912 30632 net.cpp:148] Top shape: 1 900 (900)
I0305 19:05:34.988915 30632 net.cpp:148] Top shape: 1 900 (900)
I0305 19:05:34.988919 30632 net.cpp:148] Top shape: 1 900 (900)
I0305 19:05:34.988921 30632 net.cpp:148] Top shape: 1 900 (900)
I0305 19:05:34.988924 30632 net.cpp:148] Top shape: 1 900 (900)
I0305 19:05:34.988927 30632 net.cpp:148] Top shape: 1 900 (900)
I0305 19:05:34.988931 30632 net.cpp:148] Top shape: 1 900 (900)
I0305 19:05:34.988934 30632 net.cpp:148] Top shape: 1 900 (900)
I0305 19:05:34.988937 30632 net.cpp:148] Top shape: 1 900 (900)
I0305 19:05:34.988942 30632 net.cpp:148] Top shape: 1 900 (900)
I0305 19:05:34.988945 30632 net.cpp:148] Top shape: 1 900 (900)
I0305 19:05:34.988948 30632 net.cpp:148] Top shape: 1 900 (900)
I0305 19:05:34.988951 30632 net.cpp:148] Top shape: 1 900 (900)
I0305 19:05:34.988955 30632 net.cpp:148] Top shape: 1 900 (900)
I0305 19:05:34.988957 30632 net.cpp:148] Top shape: 1 900 (900)
I0305 19:05:34.988960 30632 net.cpp:148] Top shape: 1 900 (900)
I0305 19:05:34.988963 30632 net.cpp:148] Top shape: 1 900 (900)
I0305 19:05:34.988967 30632 net.cpp:148] Top shape: 1 900 (900)
I0305 19:05:34.988970 30632 net.cpp:148] Top shape: 1 900 (900)
I0305 19:05:34.988973 30632 net.cpp:148] Top shape: 1 900 (900)
I0305 19:05:34.988976 30632 net.cpp:148] Top shape: 1 900 (900)
I0305 19:05:34.988979 30632 net.cpp:148] Top shape: 1 900 (900)
I0305 19:05:34.988982 30632 net.cpp:148] Top shape: 1 900 (900)
I0305 19:05:34.988986 30632 net.cpp:148] Top shape: 1 900 (900)
I0305 19:05:34.988988 30632 net.cpp:148] Top shape: 1 900 (900)
I0305 19:05:34.988991 30632 net.cpp:148] Top shape: 1 900 (900)
I0305 19:05:34.988994 30632 net.cpp:148] Top shape: 1 900 (900)
I0305 19:05:34.988997 30632 net.cpp:148] Top shape: 1 900 (900)
I0305 19:05:34.989001 30632 net.cpp:148] Top shape: 1 900 (900)
I0305 19:05:34.989004 30632 net.cpp:148] Top shape: 1 900 (900)
I0305 19:05:34.989007 30632 net.cpp:148] Top shape: 1 900 (900)
I0305 19:05:34.989011 30632 net.cpp:148] Top shape: 1 900 (900)
I0305 19:05:34.989013 30632 net.cpp:148] Top shape: 1 900 (900)
I0305 19:05:34.989017 30632 net.cpp:148] Top shape: 1 900 (900)
I0305 19:05:34.989019 30632 net.cpp:148] Top shape: 1 900 (900)
I0305 19:05:34.989022 30632 net.cpp:148] Top shape: 1 900 (900)
I0305 19:05:34.989025 30632 net.cpp:148] Top shape: 1 900 (900)
I0305 19:05:34.989028 30632 net.cpp:148] Top shape: 1 900 (900)
I0305 19:05:34.989032 30632 net.cpp:148] Top shape: 1 900 (900)
I0305 19:05:34.989034 30632 net.cpp:148] Top shape: 1 900 (900)
I0305 19:05:34.989038 30632 net.cpp:148] Top shape: 1 900 (900)
I0305 19:05:34.989042 30632 net.cpp:148] Top shape: 1 900 (900)
I0305 19:05:34.989044 30632 net.cpp:148] Top shape: 1 900 (900)
I0305 19:05:34.989048 30632 net.cpp:148] Top shape: 1 900 (900)
I0305 19:05:34.989050 30632 net.cpp:148] Top shape: 1 900 (900)
I0305 19:05:34.989053 30632 net.cpp:148] Top shape: 1 900 (900)
I0305 19:05:34.989058 30632 net.cpp:148] Top shape: 1 900 (900)
I0305 19:05:34.989060 30632 net.cpp:148] Top shape: 1 900 (900)
I0305 19:05:34.989063 30632 net.cpp:148] Top shape: 1 900 (900)
I0305 19:05:34.989066 30632 net.cpp:148] Top shape: 1 900 (900)
I0305 19:05:34.989069 30632 net.cpp:148] Top shape: 1 900 (900)
I0305 19:05:34.989073 30632 net.cpp:148] Top shape: 1 900 (900)
I0305 19:05:34.989075 30632 net.cpp:148] Top shape: 1 900 (900)
I0305 19:05:34.989078 30632 net.cpp:148] Top shape: 1 900 (900)
I0305 19:05:34.989081 30632 net.cpp:148] Top shape: 1 900 (900)
I0305 19:05:34.989085 30632 net.cpp:148] Top shape: 1 900 (900)
I0305 19:05:34.989089 30632 net.cpp:148] Top shape: 1 900 (900)
I0305 19:05:34.989091 30632 net.cpp:148] Top shape: 1 900 (900)
I0305 19:05:34.989094 30632 net.cpp:148] Top shape: 1 900 (900)
I0305 19:05:34.989097 30632 net.cpp:148] Top shape: 1 900 (900)
I0305 19:05:34.989100 30632 net.cpp:148] Top shape: 1 900 (900)
I0305 19:05:34.989104 30632 net.cpp:148] Top shape: 1 900 (900)
I0305 19:05:34.989106 30632 net.cpp:148] Top shape: 1 900 (900)
I0305 19:05:34.989109 30632 net.cpp:148] Top shape: 1 900 (900)
I0305 19:05:34.989112 30632 net.cpp:148] Top shape: 1 900 (900)
I0305 19:05:34.989116 30632 net.cpp:148] Top shape: 1 900 (900)
I0305 19:05:34.989120 30632 net.cpp:148] Top shape: 1 900 (900)
I0305 19:05:34.989122 30632 net.cpp:148] Top shape: 1 900 (900)
I0305 19:05:34.989125 30632 net.cpp:148] Top shape: 1 900 (900)
I0305 19:05:34.989128 30632 net.cpp:148] Top shape: 1 900 (900)
I0305 19:05:34.989131 30632 net.cpp:148] Top shape: 1 900 (900)
I0305 19:05:34.989135 30632 net.cpp:148] Top shape: 1 900 (900)
I0305 19:05:34.989137 30632 net.cpp:148] Top shape: 1 900 (900)
I0305 19:05:34.989142 30632 net.cpp:148] Top shape: 1 900 (900)
I0305 19:05:34.989145 30632 net.cpp:148] Top shape: 1 900 (900)
I0305 19:05:34.989148 30632 net.cpp:148] Top shape: 1 900 (900)
I0305 19:05:34.989151 30632 net.cpp:148] Top shape: 1 900 (900)
I0305 19:05:34.989156 30632 net.cpp:148] Top shape: 1 900 (900)
I0305 19:05:34.989158 30632 net.cpp:148] Top shape: 1 900 (900)
I0305 19:05:34.989161 30632 net.cpp:148] Top shape: 1 900 (900)
I0305 19:05:34.989164 30632 net.cpp:148] Top shape: 1 900 (900)
I0305 19:05:34.989167 30632 net.cpp:148] Top shape: 1 900 (900)
I0305 19:05:34.989171 30632 net.cpp:148] Top shape: 1 900 (900)
I0305 19:05:34.989173 30632 net.cpp:148] Top shape: 1 900 (900)
I0305 19:05:34.989176 30632 net.cpp:148] Top shape: 1 900 (900)
I0305 19:05:34.989179 30632 net.cpp:148] Top shape: 1 900 (900)
I0305 19:05:34.989182 30632 net.cpp:148] Top shape: 1 900 (900)
I0305 19:05:34.989186 30632 net.cpp:148] Top shape: 1 900 (900)
I0305 19:05:34.989189 30632 net.cpp:148] Top shape: 1 900 (900)
I0305 19:05:34.989192 30632 net.cpp:148] Top shape: 1 900 (900)
I0305 19:05:34.989195 30632 net.cpp:148] Top shape: 1 900 (900)
I0305 19:05:34.989198 30632 net.cpp:148] Top shape: 1 900 (900)
I0305 19:05:34.989202 30632 net.cpp:148] Top shape: 1 900 (900)
I0305 19:05:34.989204 30632 net.cpp:148] Top shape: 1 900 (900)
I0305 19:05:34.989207 30632 net.cpp:148] Top shape: 1 900 (900)
I0305 19:05:34.989210 30632 net.cpp:148] Top shape: 1 900 (900)
I0305 19:05:34.989213 30632 net.cpp:148] Top shape: 1 900 (900)
I0305 19:05:34.989217 30632 net.cpp:148] Top shape: 1 900 (900)
I0305 19:05:34.989220 30632 net.cpp:148] Top shape: 1 900 (900)
I0305 19:05:34.989223 30632 net.cpp:148] Top shape: 1 900 (900)
I0305 19:05:34.989226 30632 net.cpp:148] Top shape: 1 900 (900)
I0305 19:05:34.989229 30632 net.cpp:148] Top shape: 1 900 (900)
I0305 19:05:34.989233 30632 net.cpp:148] Top shape: 1 900 (900)
I0305 19:05:34.989235 30632 net.cpp:148] Top shape: 1 900 (900)
I0305 19:05:34.989238 30632 net.cpp:148] Top shape: 1 900 (900)
I0305 19:05:34.989241 30632 net.cpp:148] Top shape: 1 900 (900)
I0305 19:05:34.989244 30632 net.cpp:148] Top shape: 1 900 (900)
I0305 19:05:34.989248 30632 net.cpp:148] Top shape: 1 900 (900)
I0305 19:05:34.989251 30632 net.cpp:148] Top shape: 1 900 (900)
I0305 19:05:34.989254 30632 net.cpp:148] Top shape: 1 900 (900)
I0305 19:05:34.989258 30632 net.cpp:148] Top shape: 1 900 (900)
I0305 19:05:34.989260 30632 net.cpp:148] Top shape: 1 900 (900)
I0305 19:05:34.989264 30632 net.cpp:148] Top shape: 1 900 (900)
I0305 19:05:34.989266 30632 net.cpp:148] Top shape: 1 900 (900)
I0305 19:05:34.989269 30632 net.cpp:148] Top shape: 1 900 (900)
I0305 19:05:34.989272 30632 net.cpp:148] Top shape: 1 900 (900)
I0305 19:05:34.989275 30632 net.cpp:148] Top shape: 1 900 (900)
I0305 19:05:34.989279 30632 net.cpp:148] Top shape: 1 900 (900)
I0305 19:05:34.989281 30632 net.cpp:148] Top shape: 1 900 (900)
I0305 19:05:34.989285 30632 net.cpp:148] Top shape: 1 900 (900)
I0305 19:05:34.989289 30632 net.cpp:148] Top shape: 1 900 (900)
I0305 19:05:34.989291 30632 net.cpp:148] Top shape: 1 900 (900)
I0305 19:05:34.989295 30632 net.cpp:148] Top shape: 1 900 (900)
I0305 19:05:34.989297 30632 net.cpp:148] Top shape: 1 900 (900)
I0305 19:05:34.989300 30632 net.cpp:148] Top shape: 1 900 (900)
I0305 19:05:34.989303 30632 net.cpp:148] Top shape: 1 900 (900)
I0305 19:05:34.989306 30632 net.cpp:148] Top shape: 1 900 (900)
I0305 19:05:34.989310 30632 net.cpp:148] Top shape: 1 900 (900)
I0305 19:05:34.989312 30632 net.cpp:148] Top shape: 1 900 (900)
I0305 19:05:34.989315 30632 net.cpp:148] Top shape: 1 900 (900)
I0305 19:05:34.989318 30632 net.cpp:148] Top shape: 1 900 (900)
I0305 19:05:34.989322 30632 net.cpp:148] Top shape: 1 900 (900)
I0305 19:05:34.989326 30632 net.cpp:148] Top shape: 1 900 (900)
I0305 19:05:34.989328 30632 net.cpp:148] Top shape: 1 900 (900)
I0305 19:05:34.989331 30632 net.cpp:148] Top shape: 1 900 (900)
I0305 19:05:34.989334 30632 net.cpp:148] Top shape: 1 900 (900)
I0305 19:05:34.989337 30632 net.cpp:148] Top shape: 1 900 (900)
I0305 19:05:34.989343 30632 net.cpp:148] Top shape: 1 900 (900)
I0305 19:05:34.989346 30632 net.cpp:148] Top shape: 1 900 (900)
I0305 19:05:34.989349 30632 net.cpp:148] Top shape: 1 900 (900)
I0305 19:05:34.989352 30632 net.cpp:148] Top shape: 1 900 (900)
I0305 19:05:34.989356 30632 net.cpp:148] Top shape: 1 900 (900)
I0305 19:05:34.989358 30632 net.cpp:148] Top shape: 1 900 (900)
I0305 19:05:34.989362 30632 net.cpp:148] Top shape: 1 900 (900)
I0305 19:05:34.989364 30632 net.cpp:148] Top shape: 1 900 (900)
I0305 19:05:34.989368 30632 net.cpp:148] Top shape: 1 900 (900)
I0305 19:05:34.989372 30632 net.cpp:148] Top shape: 1 900 (900)
I0305 19:05:34.989374 30632 net.cpp:148] Top shape: 1 900 (900)
I0305 19:05:34.989377 30632 net.cpp:148] Top shape: 1 900 (900)
I0305 19:05:34.989380 30632 net.cpp:148] Top shape: 1 900 (900)
I0305 19:05:34.989383 30632 net.cpp:148] Top shape: 1 900 (900)
I0305 19:05:34.989387 30632 net.cpp:148] Top shape: 1 900 (900)
I0305 19:05:34.989389 30632 net.cpp:148] Top shape: 1 900 (900)
I0305 19:05:34.989392 30632 net.cpp:148] Top shape: 1 900 (900)
I0305 19:05:34.989395 30632 net.cpp:148] Top shape: 1 900 (900)
I0305 19:05:34.989399 30632 net.cpp:148] Top shape: 1 900 (900)
I0305 19:05:34.989403 30632 net.cpp:148] Top shape: 1 900 (900)
I0305 19:05:34.989405 30632 net.cpp:148] Top shape: 1 900 (900)
I0305 19:05:34.989408 30632 net.cpp:148] Top shape: 1 900 (900)
I0305 19:05:34.989411 30632 net.cpp:148] Top shape: 1 900 (900)
I0305 19:05:34.989414 30632 net.cpp:148] Top shape: 1 900 (900)
I0305 19:05:34.989418 30632 net.cpp:148] Top shape: 1 900 (900)
I0305 19:05:34.989420 30632 net.cpp:148] Top shape: 1 900 (900)
I0305 19:05:34.989423 30632 net.cpp:148] Top shape: 1 900 (900)
I0305 19:05:34.989428 30632 net.cpp:148] Top shape: 1 900 (900)
I0305 19:05:34.989430 30632 net.cpp:148] Top shape: 1 900 (900)
I0305 19:05:34.989434 30632 net.cpp:148] Top shape: 1 900 (900)
I0305 19:05:34.989436 30632 net.cpp:148] Top shape: 1 900 (900)
I0305 19:05:34.989440 30632 net.cpp:148] Top shape: 1 900 (900)
I0305 19:05:34.989444 30632 net.cpp:148] Top shape: 1 900 (900)
I0305 19:05:34.989446 30632 net.cpp:148] Top shape: 1 900 (900)
I0305 19:05:34.989449 30632 net.cpp:148] Top shape: 1 900 (900)
I0305 19:05:34.989452 30632 net.cpp:148] Top shape: 1 900 (900)
I0305 19:05:34.989455 30632 net.cpp:148] Top shape: 1 900 (900)
I0305 19:05:34.989459 30632 net.cpp:148] Top shape: 1 900 (900)
I0305 19:05:34.989461 30632 net.cpp:148] Top shape: 1 900 (900)
I0305 19:05:34.989464 30632 net.cpp:148] Top shape: 1 900 (900)
I0305 19:05:34.989467 30632 net.cpp:148] Top shape: 1 900 (900)
I0305 19:05:34.989471 30632 net.cpp:148] Top shape: 1 900 (900)
I0305 19:05:34.989475 30632 net.cpp:148] Top shape: 1 900 (900)
I0305 19:05:34.989477 30632 net.cpp:148] Top shape: 1 900 (900)
I0305 19:05:34.989480 30632 net.cpp:148] Top shape: 1 900 (900)
I0305 19:05:34.989483 30632 net.cpp:148] Top shape: 1 900 (900)
I0305 19:05:34.989486 30632 net.cpp:148] Top shape: 1 900 (900)
I0305 19:05:34.989490 30632 net.cpp:148] Top shape: 1 900 (900)
I0305 19:05:34.989492 30632 net.cpp:148] Top shape: 1 900 (900)
I0305 19:05:34.989495 30632 net.cpp:148] Top shape: 1 900 (900)
I0305 19:05:34.989498 30632 net.cpp:148] Top shape: 1 900 (900)
I0305 19:05:34.989501 30632 net.cpp:148] Top shape: 1 900 (900)
I0305 19:05:34.989506 30632 net.cpp:148] Top shape: 1 900 (900)
I0305 19:05:34.989508 30632 net.cpp:148] Top shape: 1 900 (900)
I0305 19:05:34.989511 30632 net.cpp:148] Top shape: 1 900 (900)
I0305 19:05:34.989514 30632 net.cpp:148] Top shape: 1 900 (900)
I0305 19:05:34.989517 30632 net.cpp:148] Top shape: 1 900 (900)
I0305 19:05:34.989521 30632 net.cpp:148] Top shape: 1 900 (900)
I0305 19:05:34.989523 30632 net.cpp:148] Top shape: 1 900 (900)
I0305 19:05:34.989526 30632 net.cpp:148] Top shape: 1 900 (900)
I0305 19:05:34.989529 30632 net.cpp:148] Top shape: 1 900 (900)
I0305 19:05:34.989532 30632 net.cpp:148] Top shape: 1 900 (900)
I0305 19:05:34.989536 30632 net.cpp:148] Top shape: 1 900 (900)
I0305 19:05:34.989539 30632 net.cpp:148] Top shape: 1 900 (900)
I0305 19:05:34.989543 30632 net.cpp:148] Top shape: 1 900 (900)
I0305 19:05:34.989547 30632 net.cpp:148] Top shape: 1 900 (900)
I0305 19:05:34.989550 30632 net.cpp:148] Top shape: 1 900 (900)
I0305 19:05:34.989553 30632 net.cpp:148] Top shape: 1 900 (900)
I0305 19:05:34.989557 30632 net.cpp:148] Top shape: 1 900 (900)
I0305 19:05:34.989559 30632 net.cpp:148] Top shape: 1 900 (900)
I0305 19:05:34.989562 30632 net.cpp:148] Top shape: 1 900 (900)
I0305 19:05:34.989565 30632 net.cpp:148] Top shape: 1 900 (900)
I0305 19:05:34.989568 30632 net.cpp:148] Top shape: 1 900 (900)
I0305 19:05:34.989572 30632 net.cpp:148] Top shape: 1 900 (900)
I0305 19:05:34.989575 30632 net.cpp:148] Top shape: 1 900 (900)
I0305 19:05:34.989578 30632 net.cpp:148] Top shape: 1 900 (900)
I0305 19:05:34.989581 30632 net.cpp:148] Top shape: 1 900 (900)
I0305 19:05:34.989584 30632 net.cpp:148] Top shape: 1 900 (900)
I0305 19:05:34.989588 30632 net.cpp:148] Top shape: 1 900 (900)
I0305 19:05:34.989590 30632 net.cpp:148] Top shape: 1 900 (900)
I0305 19:05:34.989593 30632 net.cpp:148] Top shape: 1 900 (900)
I0305 19:05:34.989596 30632 net.cpp:148] Top shape: 1 900 (900)
I0305 19:05:34.989600 30632 net.cpp:148] Top shape: 1 900 (900)
I0305 19:05:34.989603 30632 net.cpp:148] Top shape: 1 900 (900)
I0305 19:05:34.989606 30632 net.cpp:148] Top shape: 1 900 (900)
I0305 19:05:34.989609 30632 net.cpp:148] Top shape: 1 900 (900)
I0305 19:05:34.989612 30632 net.cpp:148] Top shape: 1 900 (900)
I0305 19:05:34.989615 30632 net.cpp:148] Top shape: 1 900 (900)
I0305 19:05:34.989619 30632 net.cpp:148] Top shape: 1 900 (900)
I0305 19:05:34.989621 30632 net.cpp:148] Top shape: 1 900 (900)
I0305 19:05:34.989624 30632 net.cpp:148] Top shape: 1 900 (900)
I0305 19:05:34.989627 30632 net.cpp:148] Top shape: 1 900 (900)
I0305 19:05:34.989630 30632 net.cpp:148] Top shape: 1 900 (900)
I0305 19:05:34.989634 30632 net.cpp:148] Top shape: 1 900 (900)
I0305 19:05:34.989637 30632 net.cpp:148] Top shape: 1 900 (900)
I0305 19:05:34.989640 30632 net.cpp:148] Top shape: 1 900 (900)
I0305 19:05:34.989644 30632 net.cpp:148] Top shape: 1 900 (900)
I0305 19:05:34.989646 30632 net.cpp:148] Top shape: 1 900 (900)
I0305 19:05:34.989650 30632 net.cpp:148] Top shape: 1 900 (900)
I0305 19:05:34.989652 30632 net.cpp:148] Top shape: 1 900 (900)
I0305 19:05:34.989655 30632 net.cpp:148] Top shape: 1 900 (900)
I0305 19:05:34.989658 30632 net.cpp:148] Top shape: 1 900 (900)
I0305 19:05:34.989661 30632 net.cpp:148] Top shape: 1 900 (900)
I0305 19:05:34.989665 30632 net.cpp:148] Top shape: 1 900 (900)
I0305 19:05:34.989668 30632 net.cpp:148] Top shape: 1 900 (900)
I0305 19:05:34.989671 30632 net.cpp:148] Top shape: 1 900 (900)
I0305 19:05:34.989675 30632 net.cpp:148] Top shape: 1 900 (900)
I0305 19:05:34.989677 30632 net.cpp:148] Top shape: 1 900 (900)
I0305 19:05:34.989681 30632 net.cpp:148] Top shape: 1 900 (900)
I0305 19:05:34.989683 30632 net.cpp:148] Top shape: 1 900 (900)
I0305 19:05:34.989686 30632 net.cpp:148] Top shape: 1 900 (900)
I0305 19:05:34.989689 30632 net.cpp:148] Top shape: 1 900 (900)
I0305 19:05:34.989693 30632 net.cpp:148] Top shape: 1 900 (900)
I0305 19:05:34.989696 30632 net.cpp:148] Top shape: 1 900 (900)
I0305 19:05:34.989699 30632 net.cpp:148] Top shape: 1 900 (900)
I0305 19:05:34.989702 30632 net.cpp:148] Top shape: 1 900 (900)
I0305 19:05:34.989706 30632 net.cpp:148] Top shape: 1 900 (900)
I0305 19:05:34.989708 30632 net.cpp:148] Top shape: 1 900 (900)
I0305 19:05:34.989711 30632 net.cpp:148] Top shape: 1 900 (900)
I0305 19:05:34.989714 30632 net.cpp:148] Top shape: 1 900 (900)
I0305 19:05:34.989718 30632 net.cpp:148] Top shape: 1 900 (900)
I0305 19:05:34.989722 30632 net.cpp:148] Top shape: 1 900 (900)
I0305 19:05:34.989725 30632 net.cpp:148] Top shape: 1 900 (900)
I0305 19:05:34.989729 30632 net.cpp:148] Top shape: 1 900 (900)
I0305 19:05:34.989732 30632 net.cpp:148] Top shape: 1 900 (900)
I0305 19:05:34.989735 30632 net.cpp:148] Top shape: 1 900 (900)
I0305 19:05:34.989738 30632 net.cpp:148] Top shape: 1 900 (900)
I0305 19:05:34.989742 30632 net.cpp:148] Top shape: 1 900 (900)
I0305 19:05:34.989751 30632 net.cpp:148] Top shape: 1 900 (900)
I0305 19:05:34.989765 30632 net.cpp:148] Top shape: 1 900 (900)
I0305 19:05:34.989768 30632 net.cpp:148] Top shape: 1 900 (900)
I0305 19:05:34.989771 30632 net.cpp:148] Top shape: 1 900 (900)
I0305 19:05:34.989774 30632 net.cpp:148] Top shape: 1 900 (900)
I0305 19:05:34.989778 30632 net.cpp:148] Top shape: 1 900 (900)
I0305 19:05:34.989781 30632 net.cpp:148] Top shape: 1 900 (900)
I0305 19:05:34.989784 30632 net.cpp:148] Top shape: 1 900 (900)
I0305 19:05:34.989796 30632 net.cpp:148] Top shape: 1 900 (900)
I0305 19:05:34.989799 30632 net.cpp:148] Top shape: 1 900 (900)
I0305 19:05:34.989802 30632 net.cpp:148] Top shape: 1 900 (900)
I0305 19:05:34.989805 30632 net.cpp:148] Top shape: 1 900 (900)
I0305 19:05:34.989809 30632 net.cpp:148] Top shape: 1 900 (900)
I0305 19:05:34.989811 30632 net.cpp:148] Top shape: 1 900 (900)
I0305 19:05:34.989815 30632 net.cpp:148] Top shape: 1 900 (900)
I0305 19:05:34.989819 30632 net.cpp:148] Top shape: 1 900 (900)
I0305 19:05:34.989821 30632 net.cpp:148] Top shape: 1 900 (900)
I0305 19:05:34.989825 30632 net.cpp:148] Top shape: 1 900 (900)
I0305 19:05:34.989827 30632 net.cpp:148] Top shape: 1 900 (900)
I0305 19:05:34.989831 30632 net.cpp:148] Top shape: 1 900 (900)
I0305 19:05:34.989835 30632 net.cpp:148] Top shape: 1 900 (900)
I0305 19:05:34.989837 30632 net.cpp:148] Top shape: 1 900 (900)
I0305 19:05:34.989840 30632 net.cpp:148] Top shape: 1 900 (900)
I0305 19:05:34.989843 30632 net.cpp:148] Top shape: 1 900 (900)
I0305 19:05:34.989846 30632 net.cpp:148] Top shape: 1 900 (900)
I0305 19:05:34.989850 30632 net.cpp:148] Top shape: 1 900 (900)
I0305 19:05:34.989852 30632 net.cpp:148] Top shape: 1 900 (900)
I0305 19:05:34.989856 30632 net.cpp:148] Top shape: 1 900 (900)
I0305 19:05:34.989859 30632 net.cpp:148] Top shape: 1 900 (900)
I0305 19:05:34.989862 30632 net.cpp:148] Top shape: 1 900 (900)
I0305 19:05:34.989866 30632 net.cpp:148] Top shape: 1 900 (900)
I0305 19:05:34.989868 30632 net.cpp:148] Top shape: 1 900 (900)
I0305 19:05:34.989871 30632 net.cpp:148] Top shape: 1 900 (900)
I0305 19:05:34.989874 30632 net.cpp:148] Top shape: 1 900 (900)
I0305 19:05:34.989877 30632 net.cpp:148] Top shape: 1 900 (900)
I0305 19:05:34.989881 30632 net.cpp:148] Top shape: 1 900 (900)
I0305 19:05:34.989884 30632 net.cpp:148] Top shape: 1 900 (900)
I0305 19:05:34.989887 30632 net.cpp:148] Top shape: 1 900 (900)
I0305 19:05:34.989891 30632 net.cpp:148] Top shape: 1 900 (900)
I0305 19:05:34.989893 30632 net.cpp:148] Top shape: 1 900 (900)
I0305 19:05:34.989897 30632 net.cpp:148] Top shape: 1 900 (900)
I0305 19:05:34.989899 30632 net.cpp:148] Top shape: 1 900 (900)
I0305 19:05:34.989902 30632 net.cpp:148] Top shape: 1 900 (900)
I0305 19:05:34.989905 30632 net.cpp:148] Top shape: 1 900 (900)
I0305 19:05:34.989909 30632 net.cpp:148] Top shape: 1 900 (900)
I0305 19:05:34.989912 30632 net.cpp:148] Top shape: 1 900 (900)
I0305 19:05:34.989915 30632 net.cpp:148] Top shape: 1 900 (900)
I0305 19:05:34.989918 30632 net.cpp:148] Top shape: 1 900 (900)
I0305 19:05:34.989922 30632 net.cpp:148] Top shape: 1 900 (900)
I0305 19:05:34.989924 30632 net.cpp:148] Top shape: 1 900 (900)
I0305 19:05:34.989928 30632 net.cpp:148] Top shape: 1 900 (900)
I0305 19:05:34.989931 30632 net.cpp:148] Top shape: 1 900 (900)
I0305 19:05:34.989934 30632 net.cpp:148] Top shape: 1 900 (900)
I0305 19:05:34.989938 30632 net.cpp:148] Top shape: 1 900 (900)
I0305 19:05:34.989940 30632 net.cpp:148] Top shape: 1 900 (900)
I0305 19:05:34.989943 30632 net.cpp:148] Top shape: 1 900 (900)
I0305 19:05:34.989946 30632 net.cpp:148] Top shape: 1 900 (900)
I0305 19:05:34.989949 30632 net.cpp:148] Top shape: 1 900 (900)
I0305 19:05:34.989953 30632 net.cpp:148] Top shape: 1 900 (900)
I0305 19:05:34.989956 30632 net.cpp:148] Top shape: 1 900 (900)
I0305 19:05:34.989959 30632 net.cpp:148] Top shape: 1 900 (900)
I0305 19:05:34.989962 30632 net.cpp:148] Top shape: 1 900 (900)
I0305 19:05:34.989965 30632 net.cpp:148] Top shape: 1 900 (900)
I0305 19:05:34.989969 30632 net.cpp:148] Top shape: 1 900 (900)
I0305 19:05:34.989974 30632 net.cpp:148] Top shape: 1 900 (900)
I0305 19:05:34.989976 30632 net.cpp:148] Top shape: 1 900 (900)
I0305 19:05:34.989979 30632 net.cpp:148] Top shape: 1 900 (900)
I0305 19:05:34.989982 30632 net.cpp:148] Top shape: 1 900 (900)
I0305 19:05:34.989986 30632 net.cpp:148] Top shape: 1 900 (900)
I0305 19:05:34.989989 30632 net.cpp:148] Top shape: 1 900 (900)
I0305 19:05:34.989992 30632 net.cpp:148] Top shape: 1 900 (900)
I0305 19:05:34.989995 30632 net.cpp:148] Top shape: 1 900 (900)
I0305 19:05:34.989998 30632 net.cpp:148] Top shape: 1 900 (900)
I0305 19:05:34.990001 30632 net.cpp:148] Top shape: 1 900 (900)
I0305 19:05:34.990005 30632 net.cpp:148] Top shape: 1 900 (900)
I0305 19:05:34.990008 30632 net.cpp:148] Top shape: 1 900 (900)
I0305 19:05:34.990011 30632 net.cpp:148] Top shape: 1 900 (900)
I0305 19:05:34.990015 30632 net.cpp:148] Top shape: 1 900 (900)
I0305 19:05:34.990017 30632 net.cpp:148] Top shape: 1 900 (900)
I0305 19:05:34.990020 30632 net.cpp:148] Top shape: 1 900 (900)
I0305 19:05:34.990023 30632 net.cpp:148] Top shape: 1 900 (900)
I0305 19:05:34.990026 30632 net.cpp:148] Top shape: 1 900 (900)
I0305 19:05:34.990031 30632 net.cpp:148] Top shape: 1 900 (900)
I0305 19:05:34.990033 30632 net.cpp:148] Top shape: 1 900 (900)
I0305 19:05:34.990036 30632 net.cpp:148] Top shape: 1 900 (900)
I0305 19:05:34.990039 30632 net.cpp:148] Top shape: 1 900 (900)
I0305 19:05:34.990042 30632 net.cpp:148] Top shape: 1 900 (900)
I0305 19:05:34.990046 30632 net.cpp:148] Top shape: 1 900 (900)
I0305 19:05:34.990048 30632 net.cpp:148] Top shape: 1 900 (900)
I0305 19:05:34.990051 30632 net.cpp:148] Top shape: 1 900 (900)
I0305 19:05:34.990054 30632 net.cpp:148] Top shape: 1 900 (900)
I0305 19:05:34.990058 30632 net.cpp:148] Top shape: 1 900 (900)
I0305 19:05:34.990061 30632 net.cpp:148] Top shape: 1 900 (900)
I0305 19:05:34.990064 30632 net.cpp:148] Top shape: 1 900 (900)
I0305 19:05:34.990067 30632 net.cpp:148] Top shape: 1 900 (900)
I0305 19:05:34.990070 30632 net.cpp:148] Top shape: 1 900 (900)
I0305 19:05:34.990073 30632 net.cpp:148] Top shape: 1 900 (900)
I0305 19:05:34.990077 30632 net.cpp:148] Top shape: 1 900 (900)
I0305 19:05:34.990080 30632 net.cpp:148] Top shape: 1 900 (900)
I0305 19:05:34.990083 30632 net.cpp:148] Top shape: 1 900 (900)
I0305 19:05:34.990087 30632 net.cpp:148] Top shape: 1 900 (900)
I0305 19:05:34.990089 30632 net.cpp:148] Top shape: 1 900 (900)
I0305 19:05:34.990092 30632 net.cpp:148] Top shape: 1 900 (900)
I0305 19:05:34.990095 30632 net.cpp:148] Top shape: 1 900 (900)
I0305 19:05:34.990098 30632 net.cpp:148] Top shape: 1 900 (900)
I0305 19:05:34.990102 30632 net.cpp:148] Top shape: 1 900 (900)
I0305 19:05:34.990104 30632 net.cpp:148] Top shape: 1 900 (900)
I0305 19:05:34.990108 30632 net.cpp:148] Top shape: 1 900 (900)
I0305 19:05:34.990111 30632 net.cpp:148] Top shape: 1 900 (900)
I0305 19:05:34.990114 30632 net.cpp:148] Top shape: 1 900 (900)
I0305 19:05:34.990118 30632 net.cpp:148] Top shape: 1 900 (900)
I0305 19:05:34.990120 30632 net.cpp:148] Top shape: 1 900 (900)
I0305 19:05:34.990123 30632 net.cpp:148] Top shape: 1 900 (900)
I0305 19:05:34.990126 30632 net.cpp:148] Top shape: 1 900 (900)
I0305 19:05:34.990129 30632 net.cpp:148] Top shape: 1 900 (900)
I0305 19:05:34.990133 30632 net.cpp:148] Top shape: 1 900 (900)
I0305 19:05:34.990136 30632 net.cpp:148] Top shape: 1 900 (900)
I0305 19:05:34.990139 30632 net.cpp:148] Top shape: 1 900 (900)
I0305 19:05:34.990142 30632 net.cpp:148] Top shape: 1 900 (900)
I0305 19:05:34.990145 30632 net.cpp:148] Top shape: 1 900 (900)
I0305 19:05:34.990149 30632 net.cpp:148] Top shape: 1 900 (900)
I0305 19:05:34.990151 30632 net.cpp:148] Top shape: 1 900 (900)
I0305 19:05:34.990154 30632 net.cpp:148] Top shape: 1 900 (900)
I0305 19:05:34.990157 30632 net.cpp:148] Top shape: 1 900 (900)
I0305 19:05:34.990160 30632 net.cpp:148] Top shape: 1 900 (900)
I0305 19:05:34.990164 30632 net.cpp:148] Top shape: 1 900 (900)
I0305 19:05:34.990167 30632 net.cpp:148] Top shape: 1 900 (900)
I0305 19:05:34.990170 30632 net.cpp:148] Top shape: 1 900 (900)
I0305 19:05:34.990175 30632 net.cpp:148] Top shape: 1 900 (900)
I0305 19:05:34.990178 30632 net.cpp:148] Top shape: 1 900 (900)
I0305 19:05:34.990181 30632 net.cpp:148] Top shape: 1 900 (900)
I0305 19:05:34.990185 30632 net.cpp:148] Top shape: 1 900 (900)
I0305 19:05:34.990187 30632 net.cpp:148] Top shape: 1 900 (900)
I0305 19:05:34.990190 30632 net.cpp:148] Top shape: 1 900 (900)
I0305 19:05:34.990193 30632 net.cpp:148] Top shape: 1 900 (900)
I0305 19:05:34.990196 30632 net.cpp:148] Top shape: 1 900 (900)
I0305 19:05:34.990200 30632 net.cpp:148] Top shape: 1 900 (900)
I0305 19:05:34.990203 30632 net.cpp:148] Top shape: 1 900 (900)
I0305 19:05:34.990206 30632 net.cpp:148] Top shape: 1 900 (900)
I0305 19:05:34.990209 30632 net.cpp:148] Top shape: 1 900 (900)
I0305 19:05:34.990212 30632 net.cpp:148] Top shape: 1 900 (900)
I0305 19:05:34.990216 30632 net.cpp:148] Top shape: 1 900 (900)
I0305 19:05:34.990218 30632 net.cpp:148] Top shape: 1 900 (900)
I0305 19:05:34.990221 30632 net.cpp:148] Top shape: 1 900 (900)
I0305 19:05:34.990224 30632 net.cpp:148] Top shape: 1 900 (900)
I0305 19:05:34.990227 30632 net.cpp:148] Top shape: 1 900 (900)
I0305 19:05:34.990231 30632 net.cpp:148] Top shape: 1 900 (900)
I0305 19:05:34.990234 30632 net.cpp:148] Top shape: 1 900 (900)
I0305 19:05:34.990237 30632 net.cpp:148] Top shape: 1 900 (900)
I0305 19:05:34.990241 30632 net.cpp:148] Top shape: 1 900 (900)
I0305 19:05:34.990243 30632 net.cpp:148] Top shape: 1 900 (900)
I0305 19:05:34.990247 30632 net.cpp:148] Top shape: 1 900 (900)
I0305 19:05:34.990249 30632 net.cpp:148] Top shape: 1 900 (900)
I0305 19:05:34.990252 30632 net.cpp:148] Top shape: 1 900 (900)
I0305 19:05:34.990255 30632 net.cpp:148] Top shape: 1 900 (900)
I0305 19:05:34.990259 30632 net.cpp:148] Top shape: 1 900 (900)
I0305 19:05:34.990262 30632 net.cpp:148] Top shape: 1 900 (900)
I0305 19:05:34.990265 30632 net.cpp:148] Top shape: 1 900 (900)
I0305 19:05:34.990268 30632 net.cpp:148] Top shape: 1 900 (900)
I0305 19:05:34.990272 30632 net.cpp:148] Top shape: 1 900 (900)
I0305 19:05:34.990275 30632 net.cpp:148] Top shape: 1 900 (900)
I0305 19:05:34.990278 30632 net.cpp:148] Top shape: 1 900 (900)
I0305 19:05:34.990281 30632 net.cpp:148] Top shape: 1 900 (900)
I0305 19:05:34.990284 30632 net.cpp:148] Top shape: 1 900 (900)
I0305 19:05:34.990288 30632 net.cpp:148] Top shape: 1 900 (900)
I0305 19:05:34.990290 30632 net.cpp:148] Top shape: 1 900 (900)
I0305 19:05:34.990293 30632 net.cpp:148] Top shape: 1 900 (900)
I0305 19:05:34.990296 30632 net.cpp:148] Top shape: 1 900 (900)
I0305 19:05:34.990299 30632 net.cpp:148] Top shape: 1 900 (900)
I0305 19:05:34.990303 30632 net.cpp:148] Top shape: 1 900 (900)
I0305 19:05:34.990305 30632 net.cpp:148] Top shape: 1 900 (900)
I0305 19:05:34.990309 30632 net.cpp:148] Top shape: 1 900 (900)
I0305 19:05:34.990311 30632 net.cpp:148] Top shape: 1 900 (900)
I0305 19:05:34.990314 30632 net.cpp:148] Top shape: 1 900 (900)
I0305 19:05:34.990317 30632 net.cpp:148] Top shape: 1 900 (900)
I0305 19:05:34.990320 30632 net.cpp:148] Top shape: 1 900 (900)
I0305 19:05:34.990324 30632 net.cpp:148] Top shape: 1 900 (900)
I0305 19:05:34.990326 30632 net.cpp:148] Top shape: 1 900 (900)
I0305 19:05:34.990329 30632 net.cpp:148] Top shape: 1 900 (900)
I0305 19:05:34.990332 30632 net.cpp:148] Top shape: 1 900 (900)
I0305 19:05:34.990335 30632 net.cpp:148] Top shape: 1 900 (900)
I0305 19:05:34.990339 30632 net.cpp:148] Top shape: 1 900 (900)
I0305 19:05:34.990341 30632 net.cpp:148] Top shape: 1 900 (900)
I0305 19:05:34.990345 30632 net.cpp:148] Top shape: 1 900 (900)
I0305 19:05:34.990347 30632 net.cpp:148] Top shape: 1 900 (900)
I0305 19:05:34.990350 30632 net.cpp:148] Top shape: 1 900 (900)
I0305 19:05:34.990353 30632 net.cpp:148] Top shape: 1 900 (900)
I0305 19:05:34.990356 30632 net.cpp:148] Top shape: 1 900 (900)
I0305 19:05:34.990360 30632 net.cpp:148] Top shape: 1 900 (900)
I0305 19:05:34.990362 30632 net.cpp:148] Top shape: 1 900 (900)
I0305 19:05:34.990365 30632 net.cpp:148] Top shape: 1 900 (900)
I0305 19:05:34.990370 30632 net.cpp:148] Top shape: 1 900 (900)
I0305 19:05:34.990373 30632 net.cpp:148] Top shape: 1 900 (900)
I0305 19:05:34.990376 30632 net.cpp:148] Top shape: 1 900 (900)
I0305 19:05:34.990380 30632 net.cpp:148] Top shape: 1 900 (900)
I0305 19:05:34.990382 30632 net.cpp:148] Top shape: 1 900 (900)
I0305 19:05:34.990386 30632 net.cpp:148] Top shape: 1 900 (900)
I0305 19:05:34.990388 30632 net.cpp:148] Top shape: 1 900 (900)
I0305 19:05:34.990391 30632 net.cpp:148] Top shape: 1 900 (900)
I0305 19:05:34.990396 30632 net.cpp:148] Top shape: 1 900 (900)
I0305 19:05:34.990397 30632 net.cpp:148] Top shape: 1 900 (900)
I0305 19:05:34.990401 30632 net.cpp:148] Top shape: 1 900 (900)
I0305 19:05:34.990404 30632 net.cpp:148] Top shape: 1 900 (900)
I0305 19:05:34.990407 30632 net.cpp:148] Top shape: 1 900 (900)
I0305 19:05:34.990411 30632 net.cpp:148] Top shape: 1 900 (900)
I0305 19:05:34.990413 30632 net.cpp:148] Top shape: 1 900 (900)
I0305 19:05:34.990417 30632 net.cpp:148] Top shape: 1 900 (900)
I0305 19:05:34.990419 30632 net.cpp:148] Top shape: 1 900 (900)
I0305 19:05:34.990422 30632 net.cpp:148] Top shape: 1 900 (900)
I0305 19:05:34.990425 30632 net.cpp:148] Top shape: 1 900 (900)
I0305 19:05:34.990428 30632 net.cpp:148] Top shape: 1 900 (900)
I0305 19:05:34.990432 30632 net.cpp:148] Top shape: 1 900 (900)
I0305 19:05:34.990434 30632 net.cpp:148] Top shape: 1 900 (900)
I0305 19:05:34.990437 30632 net.cpp:148] Top shape: 1 900 (900)
I0305 19:05:34.990440 30632 net.cpp:148] Top shape: 1 900 (900)
I0305 19:05:34.990443 30632 net.cpp:148] Top shape: 1 900 (900)
I0305 19:05:34.990447 30632 net.cpp:148] Top shape: 1 900 (900)
I0305 19:05:34.990449 30632 net.cpp:148] Top shape: 1 900 (900)
I0305 19:05:34.990453 30632 net.cpp:148] Top shape: 1 900 (900)
I0305 19:05:34.990456 30632 net.cpp:148] Top shape: 1 900 (900)
I0305 19:05:34.990459 30632 net.cpp:148] Top shape: 1 900 (900)
I0305 19:05:34.990463 30632 net.cpp:148] Top shape: 1 900 (900)
I0305 19:05:34.990465 30632 net.cpp:148] Top shape: 1 900 (900)
I0305 19:05:34.990468 30632 net.cpp:148] Top shape: 1 900 (900)
I0305 19:05:34.990471 30632 net.cpp:148] Top shape: 1 900 (900)
I0305 19:05:34.990474 30632 net.cpp:148] Top shape: 1 900 (900)
I0305 19:05:34.990478 30632 net.cpp:148] Top shape: 1 900 (900)
I0305 19:05:34.990480 30632 net.cpp:148] Top shape: 1 900 (900)
I0305 19:05:34.990483 30632 net.cpp:148] Top shape: 1 900 (900)
I0305 19:05:34.990486 30632 net.cpp:148] Top shape: 1 900 (900)
I0305 19:05:34.990489 30632 net.cpp:148] Top shape: 1 900 (900)
I0305 19:05:34.990492 30632 net.cpp:148] Top shape: 1 900 (900)
I0305 19:05:34.990495 30632 net.cpp:148] Top shape: 1 900 (900)
I0305 19:05:34.990499 30632 net.cpp:148] Top shape: 1 900 (900)
I0305 19:05:34.990501 30632 net.cpp:148] Top shape: 1 900 (900)
I0305 19:05:34.990504 30632 net.cpp:148] Top shape: 1 900 (900)
I0305 19:05:34.990507 30632 net.cpp:148] Top shape: 1 900 (900)
I0305 19:05:34.990510 30632 net.cpp:148] Top shape: 1 900 (900)
I0305 19:05:34.990514 30632 net.cpp:148] Top shape: 1 900 (900)
I0305 19:05:34.990517 30632 net.cpp:148] Top shape: 1 900 (900)
I0305 19:05:34.990520 30632 net.cpp:148] Top shape: 1 900 (900)
I0305 19:05:34.990523 30632 net.cpp:148] Top shape: 1 900 (900)
I0305 19:05:34.990526 30632 net.cpp:148] Top shape: 1 900 (900)
I0305 19:05:34.990530 30632 net.cpp:148] Top shape: 1 900 (900)
I0305 19:05:34.990532 30632 net.cpp:148] Top shape: 1 900 (900)
I0305 19:05:34.990535 30632 net.cpp:148] Top shape: 1 900 (900)
I0305 19:05:34.990538 30632 net.cpp:148] Top shape: 1 900 (900)
I0305 19:05:34.990541 30632 net.cpp:148] Top shape: 1 900 (900)
I0305 19:05:34.990545 30632 net.cpp:148] Top shape: 1 900 (900)
I0305 19:05:34.990547 30632 net.cpp:148] Top shape: 1 900 (900)
I0305 19:05:34.990550 30632 net.cpp:148] Top shape: 1 900 (900)
I0305 19:05:34.990553 30632 net.cpp:148] Top shape: 1 900 (900)
I0305 19:05:34.990556 30632 net.cpp:148] Top shape: 1 900 (900)
I0305 19:05:34.990559 30632 net.cpp:148] Top shape: 1 900 (900)
I0305 19:05:34.990562 30632 net.cpp:148] Top shape: 1 900 (900)
I0305 19:05:34.990566 30632 net.cpp:148] Top shape: 1 900 (900)
I0305 19:05:34.990571 30632 net.cpp:148] Top shape: 1 900 (900)
I0305 19:05:34.990573 30632 net.cpp:148] Top shape: 1 900 (900)
I0305 19:05:34.990576 30632 net.cpp:148] Top shape: 1 900 (900)
I0305 19:05:34.990579 30632 net.cpp:148] Top shape: 1 900 (900)
I0305 19:05:34.990582 30632 net.cpp:148] Top shape: 1 900 (900)
I0305 19:05:34.990586 30632 net.cpp:148] Top shape: 1 900 (900)
I0305 19:05:34.990588 30632 net.cpp:148] Top shape: 1 900 (900)
I0305 19:05:34.990592 30632 net.cpp:148] Top shape: 1 900 (900)
I0305 19:05:34.990594 30632 net.cpp:148] Top shape: 1 900 (900)
I0305 19:05:34.990597 30632 net.cpp:148] Top shape: 1 900 (900)
I0305 19:05:34.990600 30632 net.cpp:148] Top shape: 1 900 (900)
I0305 19:05:34.990603 30632 net.cpp:148] Top shape: 1 900 (900)
I0305 19:05:34.990607 30632 net.cpp:148] Top shape: 1 900 (900)
I0305 19:05:34.990609 30632 net.cpp:148] Top shape: 1 900 (900)
I0305 19:05:34.990612 30632 net.cpp:148] Top shape: 1 900 (900)
I0305 19:05:34.990615 30632 net.cpp:148] Top shape: 1 900 (900)
I0305 19:05:34.990618 30632 net.cpp:148] Top shape: 1 900 (900)
I0305 19:05:34.990622 30632 net.cpp:148] Top shape: 1 900 (900)
I0305 19:05:34.990625 30632 net.cpp:148] Top shape: 1 900 (900)
I0305 19:05:34.990628 30632 net.cpp:148] Top shape: 1 900 (900)
I0305 19:05:34.990631 30632 net.cpp:148] Top shape: 1 900 (900)
I0305 19:05:34.990634 30632 net.cpp:148] Top shape: 1 900 (900)
I0305 19:05:34.990638 30632 net.cpp:148] Top shape: 1 900 (900)
I0305 19:05:34.990640 30632 net.cpp:148] Top shape: 1 900 (900)
I0305 19:05:34.990643 30632 net.cpp:148] Top shape: 1 900 (900)
I0305 19:05:34.990646 30632 net.cpp:148] Top shape: 1 900 (900)
I0305 19:05:34.990649 30632 net.cpp:148] Top shape: 1 900 (900)
I0305 19:05:34.990653 30632 net.cpp:148] Top shape: 1 900 (900)
I0305 19:05:34.990655 30632 net.cpp:148] Top shape: 1 900 (900)
I0305 19:05:34.990658 30632 net.cpp:148] Top shape: 1 900 (900)
I0305 19:05:34.990661 30632 net.cpp:148] Top shape: 1 900 (900)
I0305 19:05:34.990664 30632 net.cpp:148] Top shape: 1 900 (900)
I0305 19:05:34.990667 30632 net.cpp:148] Top shape: 1 900 (900)
I0305 19:05:34.990670 30632 net.cpp:148] Top shape: 1 900 (900)
I0305 19:05:34.990674 30632 net.cpp:148] Top shape: 1 900 (900)
I0305 19:05:34.990676 30632 net.cpp:148] Top shape: 1 900 (900)
I0305 19:05:34.990679 30632 net.cpp:148] Top shape: 1 900 (900)
I0305 19:05:34.990682 30632 net.cpp:148] Top shape: 1 900 (900)
I0305 19:05:34.990685 30632 net.cpp:148] Top shape: 1 900 (900)
I0305 19:05:34.990689 30632 net.cpp:148] Top shape: 1 900 (900)
I0305 19:05:34.990691 30632 net.cpp:148] Top shape: 1 900 (900)
I0305 19:05:34.990694 30632 net.cpp:148] Top shape: 1 900 (900)
I0305 19:05:34.990697 30632 net.cpp:148] Top shape: 1 900 (900)
I0305 19:05:34.990700 30632 net.cpp:148] Top shape: 1 900 (900)
I0305 19:05:34.990703 30632 net.cpp:148] Top shape: 1 900 (900)
I0305 19:05:34.990706 30632 net.cpp:148] Top shape: 1 900 (900)
I0305 19:05:34.990710 30632 net.cpp:148] Top shape: 1 900 (900)
I0305 19:05:34.990712 30632 net.cpp:148] Top shape: 1 900 (900)
I0305 19:05:34.990715 30632 net.cpp:148] Top shape: 1 900 (900)
I0305 19:05:34.990720 30632 net.cpp:148] Top shape: 1 900 (900)
I0305 19:05:34.990722 30632 net.cpp:148] Top shape: 1 900 (900)
I0305 19:05:34.990726 30632 net.cpp:148] Top shape: 1 900 (900)
I0305 19:05:34.990731 30632 net.cpp:148] Top shape: 1 900 (900)
I0305 19:05:34.990733 30632 net.cpp:148] Top shape: 1 900 (900)
I0305 19:05:34.990736 30632 net.cpp:148] Top shape: 1 900 (900)
I0305 19:05:34.990739 30632 net.cpp:148] Top shape: 1 900 (900)
I0305 19:05:34.990742 30632 net.cpp:148] Top shape: 1 900 (900)
I0305 19:05:34.990746 30632 net.cpp:148] Top shape: 1 900 (900)
I0305 19:05:34.990748 30632 net.cpp:148] Top shape: 1 900 (900)
I0305 19:05:34.990751 30632 net.cpp:148] Top shape: 1 900 (900)
I0305 19:05:34.990754 30632 net.cpp:148] Top shape: 1 900 (900)
I0305 19:05:34.990757 30632 net.cpp:148] Top shape: 1 900 (900)
I0305 19:05:34.990761 30632 net.cpp:148] Top shape: 1 900 (900)
I0305 19:05:34.990763 30632 net.cpp:148] Top shape: 1 900 (900)
I0305 19:05:34.990768 30632 net.cpp:148] Top shape: 1 900 (900)
I0305 19:05:34.990772 30632 net.cpp:148] Top shape: 1 900 (900)
I0305 19:05:34.990774 30632 net.cpp:148] Top shape: 1 900 (900)
I0305 19:05:34.990777 30632 net.cpp:148] Top shape: 1 900 (900)
I0305 19:05:34.990780 30632 net.cpp:148] Top shape: 1 900 (900)
I0305 19:05:34.990783 30632 net.cpp:148] Top shape: 1 900 (900)
I0305 19:05:34.990787 30632 net.cpp:148] Top shape: 1 900 (900)
I0305 19:05:34.990789 30632 net.cpp:148] Top shape: 1 900 (900)
I0305 19:05:34.990792 30632 net.cpp:148] Top shape: 1 900 (900)
I0305 19:05:34.990795 30632 net.cpp:148] Top shape: 1 900 (900)
I0305 19:05:34.990798 30632 net.cpp:148] Top shape: 1 900 (900)
I0305 19:05:34.990802 30632 net.cpp:148] Top shape: 1 900 (900)
I0305 19:05:34.990804 30632 net.cpp:148] Top shape: 1 900 (900)
I0305 19:05:34.990808 30632 net.cpp:148] Top shape: 1 900 (900)
I0305 19:05:34.990810 30632 net.cpp:148] Top shape: 1 900 (900)
I0305 19:05:34.990813 30632 net.cpp:148] Top shape: 1 900 (900)
I0305 19:05:34.990816 30632 net.cpp:148] Top shape: 1 900 (900)
I0305 19:05:34.990819 30632 net.cpp:148] Top shape: 1 900 (900)
I0305 19:05:34.990823 30632 net.cpp:148] Top shape: 1 900 (900)
I0305 19:05:34.990825 30632 net.cpp:148] Top shape: 1 900 (900)
I0305 19:05:34.990828 30632 net.cpp:148] Top shape: 1 900 (900)
I0305 19:05:34.990831 30632 net.cpp:148] Top shape: 1 900 (900)
I0305 19:05:34.990834 30632 net.cpp:148] Top shape: 1 900 (900)
I0305 19:05:34.990838 30632 net.cpp:148] Top shape: 1 900 (900)
I0305 19:05:34.990840 30632 net.cpp:148] Top shape: 1 900 (900)
I0305 19:05:34.990844 30632 net.cpp:148] Top shape: 1 900 (900)
I0305 19:05:34.990846 30632 net.cpp:148] Top shape: 1 900 (900)
I0305 19:05:34.990849 30632 net.cpp:148] Top shape: 1 900 (900)
I0305 19:05:34.990852 30632 net.cpp:148] Top shape: 1 900 (900)
I0305 19:05:34.990855 30632 net.cpp:148] Top shape: 1 900 (900)
I0305 19:05:34.990859 30632 net.cpp:148] Top shape: 1 900 (900)
I0305 19:05:34.990861 30632 net.cpp:148] Top shape: 1 900 (900)
I0305 19:05:34.990864 30632 net.cpp:148] Top shape: 1 900 (900)
I0305 19:05:34.990867 30632 net.cpp:148] Top shape: 1 900 (900)
I0305 19:05:34.990870 30632 net.cpp:148] Top shape: 1 900 (900)
I0305 19:05:34.990874 30632 net.cpp:148] Top shape: 1 900 (900)
I0305 19:05:34.990876 30632 net.cpp:148] Top shape: 1 900 (900)
I0305 19:05:34.990880 30632 net.cpp:148] Top shape: 1 900 (900)
I0305 19:05:34.990882 30632 net.cpp:148] Top shape: 1 900 (900)
I0305 19:05:34.990886 30632 net.cpp:148] Top shape: 1 900 (900)
I0305 19:05:34.990890 30632 net.cpp:148] Top shape: 1 900 (900)
I0305 19:05:34.990892 30632 net.cpp:148] Top shape: 1 900 (900)
I0305 19:05:34.990895 30632 net.cpp:148] Top shape: 1 900 (900)
I0305 19:05:34.990898 30632 net.cpp:148] Top shape: 1 900 (900)
I0305 19:05:34.990901 30632 net.cpp:148] Top shape: 1 900 (900)
I0305 19:05:34.990905 30632 net.cpp:148] Top shape: 1 900 (900)
I0305 19:05:34.990907 30632 net.cpp:148] Top shape: 1 900 (900)
I0305 19:05:34.990911 30632 net.cpp:148] Top shape: 1 900 (900)
I0305 19:05:34.990913 30632 net.cpp:148] Top shape: 1 900 (900)
I0305 19:05:34.990916 30632 net.cpp:148] Top shape: 1 900 (900)
I0305 19:05:34.990919 30632 net.cpp:148] Top shape: 1 900 (900)
I0305 19:05:34.990922 30632 net.cpp:148] Top shape: 1 900 (900)
I0305 19:05:34.990926 30632 net.cpp:148] Top shape: 1 900 (900)
I0305 19:05:34.990928 30632 net.cpp:148] Top shape: 1 900 (900)
I0305 19:05:34.990931 30632 net.cpp:148] Top shape: 1 900 (900)
I0305 19:05:34.990934 30632 net.cpp:148] Top shape: 1 900 (900)
I0305 19:05:34.990937 30632 net.cpp:148] Top shape: 1 900 (900)
I0305 19:05:34.990941 30632 net.cpp:148] Top shape: 1 900 (900)
I0305 19:05:34.990943 30632 net.cpp:148] Top shape: 1 900 (900)
I0305 19:05:34.990947 30632 net.cpp:148] Top shape: 1 900 (900)
I0305 19:05:34.990949 30632 net.cpp:148] Top shape: 1 900 (900)
I0305 19:05:34.990952 30632 net.cpp:148] Top shape: 1 900 (900)
I0305 19:05:34.990957 30632 net.cpp:148] Top shape: 1 900 (900)
I0305 19:05:34.990959 30632 net.cpp:148] Top shape: 1 900 (900)
I0305 19:05:34.990963 30632 net.cpp:148] Top shape: 1 900 (900)
I0305 19:05:34.990967 30632 net.cpp:148] Top shape: 1 900 (900)
I0305 19:05:34.990969 30632 net.cpp:148] Top shape: 1 900 (900)
I0305 19:05:34.990972 30632 net.cpp:148] Top shape: 1 900 (900)
I0305 19:05:34.990977 30632 net.cpp:148] Top shape: 1 900 (900)
I0305 19:05:34.990979 30632 net.cpp:148] Top shape: 1 900 (900)
I0305 19:05:34.990983 30632 net.cpp:148] Top shape: 1 900 (900)
I0305 19:05:34.990985 30632 net.cpp:148] Top shape: 1 900 (900)
I0305 19:05:34.990988 30632 net.cpp:148] Top shape: 1 900 (900)
I0305 19:05:34.990991 30632 net.cpp:148] Top shape: 1 900 (900)
I0305 19:05:34.990994 30632 net.cpp:148] Top shape: 1 900 (900)
I0305 19:05:34.990998 30632 net.cpp:148] Top shape: 1 900 (900)
I0305 19:05:34.991000 30632 net.cpp:148] Top shape: 1 900 (900)
I0305 19:05:34.991003 30632 net.cpp:148] Top shape: 1 900 (900)
I0305 19:05:34.991006 30632 net.cpp:148] Top shape: 1 900 (900)
I0305 19:05:34.991009 30632 net.cpp:148] Top shape: 1 900 (900)
I0305 19:05:34.991013 30632 net.cpp:148] Top shape: 1 900 (900)
I0305 19:05:34.991015 30632 net.cpp:148] Top shape: 1 900 (900)
I0305 19:05:34.991019 30632 net.cpp:148] Top shape: 1 900 (900)
I0305 19:05:34.991021 30632 net.cpp:148] Top shape: 1 900 (900)
I0305 19:05:34.991024 30632 net.cpp:148] Top shape: 1 900 (900)
I0305 19:05:34.991027 30632 net.cpp:148] Top shape: 1 900 (900)
I0305 19:05:34.991030 30632 net.cpp:148] Top shape: 1 900 (900)
I0305 19:05:34.991034 30632 net.cpp:148] Top shape: 1 900 (900)
I0305 19:05:34.991036 30632 net.cpp:148] Top shape: 1 900 (900)
I0305 19:05:34.991039 30632 net.cpp:148] Top shape: 1 900 (900)
I0305 19:05:34.991042 30632 net.cpp:148] Top shape: 1 900 (900)
I0305 19:05:34.991045 30632 net.cpp:148] Top shape: 1 900 (900)
I0305 19:05:34.991049 30632 net.cpp:148] Top shape: 1 900 (900)
I0305 19:05:34.991051 30632 net.cpp:148] Top shape: 1 900 (900)
I0305 19:05:34.991055 30632 net.cpp:148] Top shape: 1 900 (900)
I0305 19:05:34.991057 30632 net.cpp:148] Top shape: 1 900 (900)
I0305 19:05:34.991060 30632 net.cpp:148] Top shape: 1 900 (900)
I0305 19:05:34.991063 30632 net.cpp:148] Top shape: 1 900 (900)
I0305 19:05:34.991066 30632 net.cpp:148] Top shape: 1 900 (900)
I0305 19:05:34.991070 30632 net.cpp:148] Top shape: 1 900 (900)
I0305 19:05:34.991073 30632 net.cpp:148] Top shape: 1 900 (900)
I0305 19:05:34.991076 30632 net.cpp:148] Top shape: 1 900 (900)
I0305 19:05:34.991080 30632 net.cpp:148] Top shape: 1 900 (900)
I0305 19:05:34.991082 30632 net.cpp:148] Top shape: 1 900 (900)
I0305 19:05:34.991086 30632 net.cpp:148] Top shape: 1 900 (900)
I0305 19:05:34.991088 30632 net.cpp:148] Top shape: 1 900 (900)
I0305 19:05:34.991091 30632 net.cpp:148] Top shape: 1 900 (900)
I0305 19:05:34.991094 30632 net.cpp:148] Top shape: 1 900 (900)
I0305 19:05:34.991097 30632 net.cpp:148] Top shape: 1 900 (900)
I0305 19:05:34.991101 30632 net.cpp:148] Top shape: 1 900 (900)
I0305 19:05:34.991103 30632 net.cpp:148] Top shape: 1 900 (900)
I0305 19:05:34.991106 30632 net.cpp:148] Top shape: 1 900 (900)
I0305 19:05:34.991109 30632 net.cpp:148] Top shape: 1 900 (900)
I0305 19:05:34.991112 30632 net.cpp:148] Top shape: 1 900 (900)
I0305 19:05:34.991116 30632 net.cpp:148] Top shape: 1 900 (900)
I0305 19:05:34.991118 30632 net.cpp:148] Top shape: 1 900 (900)
I0305 19:05:34.991122 30632 net.cpp:148] Top shape: 1 900 (900)
I0305 19:05:34.991124 30632 net.cpp:148] Top shape: 1 900 (900)
I0305 19:05:34.991127 30632 net.cpp:148] Top shape: 1 900 (900)
I0305 19:05:34.991130 30632 net.cpp:148] Top shape: 1 900 (900)
I0305 19:05:34.991133 30632 net.cpp:148] Top shape: 1 900 (900)
I0305 19:05:34.991137 30632 net.cpp:148] Top shape: 1 900 (900)
I0305 19:05:34.991139 30632 net.cpp:148] Top shape: 1 900 (900)
I0305 19:05:34.991142 30632 net.cpp:148] Top shape: 1 900 (900)
I0305 19:05:34.991145 30632 net.cpp:148] Top shape: 1 900 (900)
I0305 19:05:34.991148 30632 net.cpp:148] Top shape: 1 900 (900)
I0305 19:05:34.991152 30632 net.cpp:148] Top shape: 1 900 (900)
I0305 19:05:34.991155 30632 net.cpp:148] Top shape: 1 900 (900)
I0305 19:05:34.991159 30632 net.cpp:148] Top shape: 1 900 (900)
I0305 19:05:34.991163 30632 net.cpp:148] Top shape: 1 900 (900)
I0305 19:05:34.991165 30632 net.cpp:148] Top shape: 1 900 (900)
I0305 19:05:34.991168 30632 net.cpp:148] Top shape: 1 900 (900)
I0305 19:05:34.991171 30632 net.cpp:148] Top shape: 1 900 (900)
I0305 19:05:34.991174 30632 net.cpp:148] Top shape: 1 900 (900)
I0305 19:05:34.991178 30632 net.cpp:148] Top shape: 1 900 (900)
I0305 19:05:34.991180 30632 net.cpp:148] Top shape: 1 900 (900)
I0305 19:05:34.991183 30632 net.cpp:148] Top shape: 1 900 (900)
I0305 19:05:34.991186 30632 net.cpp:148] Top shape: 1 900 (900)
I0305 19:05:34.991189 30632 net.cpp:148] Top shape: 1 900 (900)
I0305 19:05:34.991192 30632 net.cpp:148] Top shape: 1 900 (900)
I0305 19:05:34.991195 30632 net.cpp:148] Top shape: 1 900 (900)
I0305 19:05:34.991199 30632 net.cpp:148] Top shape: 1 900 (900)
I0305 19:05:34.991201 30632 net.cpp:148] Top shape: 1 900 (900)
I0305 19:05:34.991204 30632 net.cpp:148] Top shape: 1 900 (900)
I0305 19:05:34.991207 30632 net.cpp:148] Top shape: 1 900 (900)
I0305 19:05:34.991210 30632 net.cpp:148] Top shape: 1 900 (900)
I0305 19:05:34.991214 30632 net.cpp:148] Top shape: 1 900 (900)
I0305 19:05:34.991217 30632 net.cpp:148] Top shape: 1 900 (900)
I0305 19:05:34.991220 30632 net.cpp:148] Top shape: 1 900 (900)
I0305 19:05:34.991224 30632 net.cpp:148] Top shape: 1 900 (900)
I0305 19:05:34.991226 30632 net.cpp:148] Top shape: 1 900 (900)
I0305 19:05:34.991230 30632 net.cpp:148] Top shape: 1 900 (900)
I0305 19:05:34.991232 30632 net.cpp:148] Top shape: 1 900 (900)
I0305 19:05:34.991235 30632 net.cpp:148] Top shape: 1 900 (900)
I0305 19:05:34.991238 30632 net.cpp:148] Top shape: 1 900 (900)
I0305 19:05:34.991241 30632 net.cpp:148] Top shape: 1 900 (900)
I0305 19:05:34.991245 30632 net.cpp:148] Top shape: 1 900 (900)
I0305 19:05:34.991247 30632 net.cpp:148] Top shape: 1 900 (900)
I0305 19:05:34.991250 30632 net.cpp:148] Top shape: 1 900 (900)
I0305 19:05:34.991253 30632 net.cpp:148] Top shape: 1 900 (900)
I0305 19:05:34.991256 30632 net.cpp:148] Top shape: 1 900 (900)
I0305 19:05:34.991260 30632 net.cpp:148] Top shape: 1 900 (900)
I0305 19:05:34.991262 30632 net.cpp:148] Top shape: 1 900 (900)
I0305 19:05:34.991266 30632 net.cpp:148] Top shape: 1 900 (900)
I0305 19:05:34.991268 30632 net.cpp:148] Top shape: 1 900 (900)
I0305 19:05:34.991271 30632 net.cpp:148] Top shape: 1 900 (900)
I0305 19:05:34.991274 30632 net.cpp:148] Top shape: 1 900 (900)
I0305 19:05:34.991287 30632 net.cpp:148] Top shape: 1 900 (900)
I0305 19:05:34.991291 30632 net.cpp:148] Top shape: 1 900 (900)
I0305 19:05:34.991293 30632 net.cpp:148] Top shape: 1 900 (900)
I0305 19:05:34.991297 30632 net.cpp:148] Top shape: 1 900 (900)
I0305 19:05:34.991299 30632 net.cpp:148] Top shape: 1 900 (900)
I0305 19:05:34.991303 30632 net.cpp:148] Top shape: 1 900 (900)
I0305 19:05:34.991307 30632 net.cpp:148] Top shape: 1 900 (900)
I0305 19:05:34.991309 30632 net.cpp:148] Top shape: 1 900 (900)
I0305 19:05:34.991312 30632 net.cpp:148] Top shape: 1 900 (900)
I0305 19:05:34.991315 30632 net.cpp:148] Top shape: 1 900 (900)
I0305 19:05:34.991318 30632 net.cpp:148] Top shape: 1 900 (900)
I0305 19:05:34.991330 30632 net.cpp:148] Top shape: 1 900 (900)
I0305 19:05:34.991333 30632 net.cpp:148] Top shape: 1 900 (900)
I0305 19:05:34.991336 30632 net.cpp:148] Top shape: 1 900 (900)
I0305 19:05:34.991339 30632 net.cpp:148] Top shape: 1 900 (900)
I0305 19:05:34.991343 30632 net.cpp:148] Top shape: 1 900 (900)
I0305 19:05:34.991345 30632 net.cpp:148] Top shape: 1 900 (900)
I0305 19:05:34.991348 30632 net.cpp:148] Top shape: 1 900 (900)
I0305 19:05:34.991351 30632 net.cpp:148] Top shape: 1 900 (900)
I0305 19:05:34.991354 30632 net.cpp:148] Top shape: 1 900 (900)
I0305 19:05:34.991358 30632 net.cpp:148] Top shape: 1 900 (900)
I0305 19:05:34.991360 30632 net.cpp:148] Top shape: 1 900 (900)
I0305 19:05:34.991364 30632 net.cpp:148] Top shape: 1 900 (900)
I0305 19:05:34.991366 30632 net.cpp:148] Top shape: 1 900 (900)
I0305 19:05:34.991369 30632 net.cpp:148] Top shape: 1 900 (900)
I0305 19:05:34.991374 30632 net.cpp:148] Top shape: 1 900 (900)
I0305 19:05:34.991377 30632 net.cpp:148] Top shape: 1 900 (900)
I0305 19:05:34.991380 30632 net.cpp:148] Top shape: 1 900 (900)
I0305 19:05:34.991384 30632 net.cpp:148] Top shape: 1 900 (900)
I0305 19:05:34.991386 30632 net.cpp:148] Top shape: 1 900 (900)
I0305 19:05:34.991389 30632 net.cpp:148] Top shape: 1 900 (900)
I0305 19:05:34.991392 30632 net.cpp:148] Top shape: 1 900 (900)
I0305 19:05:34.991395 30632 net.cpp:148] Top shape: 1 900 (900)
I0305 19:05:34.991399 30632 net.cpp:148] Top shape: 1 900 (900)
I0305 19:05:34.991401 30632 net.cpp:148] Top shape: 1 900 (900)
I0305 19:05:34.991405 30632 net.cpp:148] Top shape: 1 900 (900)
I0305 19:05:34.991407 30632 net.cpp:148] Top shape: 1 900 (900)
I0305 19:05:34.991410 30632 net.cpp:148] Top shape: 1 900 (900)
I0305 19:05:34.991413 30632 net.cpp:148] Top shape: 1 900 (900)
I0305 19:05:34.991416 30632 net.cpp:148] Top shape: 1 900 (900)
I0305 19:05:34.991420 30632 net.cpp:148] Top shape: 1 900 (900)
I0305 19:05:34.991422 30632 net.cpp:148] Top shape: 1 900 (900)
I0305 19:05:34.991425 30632 net.cpp:148] Top shape: 1 900 (900)
I0305 19:05:34.991428 30632 net.cpp:148] Top shape: 1 900 (900)
I0305 19:05:34.991431 30632 net.cpp:148] Top shape: 1 900 (900)
I0305 19:05:34.991435 30632 net.cpp:148] Top shape: 1 900 (900)
I0305 19:05:34.991437 30632 net.cpp:148] Top shape: 1 900 (900)
I0305 19:05:34.991441 30632 net.cpp:148] Top shape: 1 900 (900)
I0305 19:05:34.991443 30632 net.cpp:148] Top shape: 1 900 (900)
I0305 19:05:34.991446 30632 net.cpp:148] Top shape: 1 900 (900)
I0305 19:05:34.991449 30632 net.cpp:148] Top shape: 1 900 (900)
I0305 19:05:34.991452 30632 net.cpp:148] Top shape: 1 900 (900)
I0305 19:05:34.991456 30632 net.cpp:148] Top shape: 1 900 (900)
I0305 19:05:34.991458 30632 net.cpp:148] Top shape: 1 900 (900)
I0305 19:05:34.991461 30632 net.cpp:148] Top shape: 1 900 (900)
I0305 19:05:34.991464 30632 net.cpp:148] Top shape: 1 900 (900)
I0305 19:05:34.991467 30632 net.cpp:148] Top shape: 1 900 (900)
I0305 19:05:34.991471 30632 net.cpp:148] Top shape: 1 900 (900)
I0305 19:05:34.991473 30632 net.cpp:148] Top shape: 1 900 (900)
I0305 19:05:34.991477 30632 net.cpp:148] Top shape: 1 900 (900)
I0305 19:05:34.991479 30632 net.cpp:148] Top shape: 1 900 (900)
I0305 19:05:34.991482 30632 net.cpp:148] Top shape: 1 900 (900)
I0305 19:05:34.991485 30632 net.cpp:148] Top shape: 1 900 (900)
I0305 19:05:34.991488 30632 net.cpp:148] Top shape: 1 900 (900)
I0305 19:05:34.991492 30632 net.cpp:148] Top shape: 1 900 (900)
I0305 19:05:34.991494 30632 net.cpp:148] Top shape: 1 900 (900)
I0305 19:05:34.991497 30632 net.cpp:148] Top shape: 1 900 (900)
I0305 19:05:34.991502 30632 net.cpp:148] Top shape: 1 900 (900)
I0305 19:05:34.991504 30632 net.cpp:148] Top shape: 1 900 (900)
I0305 19:05:34.991508 30632 net.cpp:148] Top shape: 1 900 (900)
I0305 19:05:34.991510 30632 net.cpp:148] Top shape: 1 900 (900)
I0305 19:05:34.991513 30632 net.cpp:148] Top shape: 1 900 (900)
I0305 19:05:34.991516 30632 net.cpp:148] Top shape: 1 900 (900)
I0305 19:05:34.991519 30632 net.cpp:148] Top shape: 1 900 (900)
I0305 19:05:34.991523 30632 net.cpp:148] Top shape: 1 900 (900)
I0305 19:05:34.991525 30632 net.cpp:148] Top shape: 1 900 (900)
I0305 19:05:34.991528 30632 net.cpp:148] Top shape: 1 900 (900)
I0305 19:05:34.991531 30632 net.cpp:148] Top shape: 1 900 (900)
I0305 19:05:34.991534 30632 net.cpp:148] Top shape: 1 900 (900)
I0305 19:05:34.991538 30632 net.cpp:148] Top shape: 1 900 (900)
I0305 19:05:34.991540 30632 net.cpp:148] Top shape: 1 900 (900)
I0305 19:05:34.991544 30632 net.cpp:148] Top shape: 1 900 (900)
I0305 19:05:34.991546 30632 net.cpp:148] Top shape: 1 900 (900)
I0305 19:05:34.991549 30632 net.cpp:148] Top shape: 1 900 (900)
I0305 19:05:34.991552 30632 net.cpp:148] Top shape: 1 900 (900)
I0305 19:05:34.991555 30632 net.cpp:148] Top shape: 1 900 (900)
I0305 19:05:34.991559 30632 net.cpp:148] Top shape: 1 900 (900)
I0305 19:05:34.991561 30632 net.cpp:148] Top shape: 1 900 (900)
I0305 19:05:34.991564 30632 net.cpp:148] Top shape: 1 900 (900)
I0305 19:05:34.991569 30632 net.cpp:148] Top shape: 1 900 (900)
I0305 19:05:34.991572 30632 net.cpp:148] Top shape: 1 900 (900)
I0305 19:05:34.991575 30632 net.cpp:148] Top shape: 1 900 (900)
I0305 19:05:34.991578 30632 net.cpp:148] Top shape: 1 900 (900)
I0305 19:05:34.991581 30632 net.cpp:148] Top shape: 1 900 (900)
I0305 19:05:34.991585 30632 net.cpp:148] Top shape: 1 900 (900)
I0305 19:05:34.991587 30632 net.cpp:148] Top shape: 1 900 (900)
I0305 19:05:34.991590 30632 net.cpp:148] Top shape: 1 900 (900)
I0305 19:05:34.991593 30632 net.cpp:148] Top shape: 1 900 (900)
I0305 19:05:34.991596 30632 net.cpp:148] Top shape: 1 900 (900)
I0305 19:05:34.991600 30632 net.cpp:148] Top shape: 1 900 (900)
I0305 19:05:34.991602 30632 net.cpp:148] Top shape: 1 900 (900)
I0305 19:05:34.991605 30632 net.cpp:148] Top shape: 1 900 (900)
I0305 19:05:34.991608 30632 net.cpp:148] Top shape: 1 900 (900)
I0305 19:05:34.991611 30632 net.cpp:148] Top shape: 1 900 (900)
I0305 19:05:34.991614 30632 net.cpp:148] Top shape: 1 900 (900)
I0305 19:05:34.991617 30632 net.cpp:148] Top shape: 1 900 (900)
I0305 19:05:34.991621 30632 net.cpp:148] Top shape: 1 900 (900)
I0305 19:05:34.991623 30632 net.cpp:148] Top shape: 1 900 (900)
I0305 19:05:34.991627 30632 net.cpp:148] Top shape: 1 900 (900)
I0305 19:05:34.991631 30632 net.cpp:148] Top shape: 1 900 (900)
I0305 19:05:34.991633 30632 net.cpp:148] Top shape: 1 900 (900)
I0305 19:05:34.991636 30632 net.cpp:148] Top shape: 1 900 (900)
I0305 19:05:34.991639 30632 net.cpp:148] Top shape: 1 900 (900)
I0305 19:05:34.991642 30632 net.cpp:148] Top shape: 1 900 (900)
I0305 19:05:34.991646 30632 net.cpp:148] Top shape: 1 900 (900)
I0305 19:05:34.991648 30632 net.cpp:148] Top shape: 1 900 (900)
I0305 19:05:34.991652 30632 net.cpp:148] Top shape: 1 900 (900)
I0305 19:05:34.991654 30632 net.cpp:148] Top shape: 1 900 (900)
I0305 19:05:34.991657 30632 net.cpp:148] Top shape: 1 900 (900)
I0305 19:05:34.991660 30632 net.cpp:148] Top shape: 1 900 (900)
I0305 19:05:34.991663 30632 net.cpp:148] Top shape: 1 900 (900)
I0305 19:05:34.991667 30632 net.cpp:148] Top shape: 1 900 (900)
I0305 19:05:34.991669 30632 net.cpp:148] Top shape: 1 900 (900)
I0305 19:05:34.991672 30632 net.cpp:148] Top shape: 1 900 (900)
I0305 19:05:34.991675 30632 net.cpp:148] Top shape: 1 900 (900)
I0305 19:05:34.991678 30632 net.cpp:148] Top shape: 1 900 (900)
I0305 19:05:34.991682 30632 net.cpp:148] Top shape: 1 900 (900)
I0305 19:05:34.991684 30632 net.cpp:148] Top shape: 1 900 (900)
I0305 19:05:34.991688 30632 net.cpp:148] Top shape: 1 900 (900)
I0305 19:05:34.991690 30632 net.cpp:148] Top shape: 1 900 (900)
I0305 19:05:34.991693 30632 net.cpp:148] Top shape: 1 900 (900)
I0305 19:05:34.991696 30632 net.cpp:148] Top shape: 1 900 (900)
I0305 19:05:34.991699 30632 net.cpp:148] Top shape: 1 900 (900)
I0305 19:05:34.991703 30632 net.cpp:148] Top shape: 1 900 (900)
I0305 19:05:34.991706 30632 net.cpp:148] Top shape: 1 900 (900)
I0305 19:05:34.991709 30632 net.cpp:148] Top shape: 1 900 (900)
I0305 19:05:34.991713 30632 net.cpp:148] Top shape: 1 900 (900)
I0305 19:05:34.991715 30632 net.cpp:148] Top shape: 1 900 (900)
I0305 19:05:34.991719 30632 net.cpp:148] Top shape: 1 900 (900)
I0305 19:05:34.991721 30632 net.cpp:148] Top shape: 1 900 (900)
I0305 19:05:34.991727 30632 net.cpp:148] Top shape: 1 900 (900)
I0305 19:05:34.991731 30632 net.cpp:148] Top shape: 1 900 (900)
I0305 19:05:34.991734 30632 net.cpp:148] Top shape: 1 900 (900)
I0305 19:05:34.991737 30632 net.cpp:148] Top shape: 1 900 (900)
I0305 19:05:34.991740 30632 net.cpp:148] Top shape: 1 900 (900)
I0305 19:05:34.991744 30632 net.cpp:148] Top shape: 1 900 (900)
I0305 19:05:34.991746 30632 net.cpp:148] Top shape: 1 900 (900)
I0305 19:05:34.991750 30632 net.cpp:148] Top shape: 1 900 (900)
I0305 19:05:34.991752 30632 net.cpp:148] Top shape: 1 900 (900)
I0305 19:05:34.991755 30632 net.cpp:148] Top shape: 1 900 (900)
I0305 19:05:34.991758 30632 net.cpp:148] Top shape: 1 900 (900)
I0305 19:05:34.991761 30632 net.cpp:148] Top shape: 1 900 (900)
I0305 19:05:34.991765 30632 net.cpp:148] Top shape: 1 900 (900)
I0305 19:05:34.991770 30632 net.cpp:148] Top shape: 1 900 (900)
I0305 19:05:34.991772 30632 net.cpp:148] Top shape: 1 900 (900)
I0305 19:05:34.991775 30632 net.cpp:148] Top shape: 1 900 (900)
I0305 19:05:34.991778 30632 net.cpp:148] Top shape: 1 900 (900)
I0305 19:05:34.991781 30632 net.cpp:148] Top shape: 1 900 (900)
I0305 19:05:34.991785 30632 net.cpp:148] Top shape: 1 900 (900)
I0305 19:05:34.991787 30632 net.cpp:148] Top shape: 1 900 (900)
I0305 19:05:34.991791 30632 net.cpp:148] Top shape: 1 900 (900)
I0305 19:05:34.991793 30632 net.cpp:148] Top shape: 1 900 (900)
I0305 19:05:34.991796 30632 net.cpp:148] Top shape: 1 900 (900)
I0305 19:05:34.991799 30632 net.cpp:148] Top shape: 1 900 (900)
I0305 19:05:34.991802 30632 net.cpp:148] Top shape: 1 900 (900)
I0305 19:05:34.991806 30632 net.cpp:148] Top shape: 1 900 (900)
I0305 19:05:34.991808 30632 net.cpp:148] Top shape: 1 900 (900)
I0305 19:05:34.991811 30632 net.cpp:156] Memory required for data: 18000012
I0305 19:05:34.991816 30632 layer_factory.hpp:77] Creating layer InnerProduct1
I0305 19:05:34.991824 30632 net.cpp:91] Creating Layer InnerProduct1
I0305 19:05:34.991828 30632 net.cpp:425] InnerProduct1 <- Slice1
I0305 19:05:34.991834 30632 net.cpp:399] InnerProduct1 -> InnerProduct1
I0305 19:05:34.992372 30632 net.cpp:141] Setting up InnerProduct1
I0305 19:05:34.992380 30632 net.cpp:148] Top shape: 1 10 (10)
I0305 19:05:34.992383 30632 net.cpp:156] Memory required for data: 18000052
I0305 19:05:34.992391 30632 layer_factory.hpp:77] Creating layer ReLU1
I0305 19:05:34.992404 30632 net.cpp:91] Creating Layer ReLU1
I0305 19:05:34.992408 30632 net.cpp:425] ReLU1 <- InnerProduct1
I0305 19:05:34.992411 30632 net.cpp:386] ReLU1 -> InnerProduct1 (in-place)
I0305 19:05:34.992418 30632 net.cpp:141] Setting up ReLU1
I0305 19:05:34.992420 30632 net.cpp:148] Top shape: 1 10 (10)
I0305 19:05:34.992424 30632 net.cpp:156] Memory required for data: 18000092
I0305 19:05:34.992426 30632 layer_factory.hpp:77] Creating layer InnerProduct2
I0305 19:05:34.992431 30632 net.cpp:91] Creating Layer InnerProduct2
I0305 19:05:34.992434 30632 net.cpp:425] InnerProduct2 <- Slice2
I0305 19:05:34.992439 30632 net.cpp:399] InnerProduct2 -> InnerProduct2
I0305 19:05:34.992637 30632 net.cpp:141] Setting up InnerProduct2
I0305 19:05:34.992641 30632 net.cpp:148] Top shape: 1 10 (10)
I0305 19:05:34.992643 30632 net.cpp:156] Memory required for data: 18000132
I0305 19:05:34.992650 30632 layer_factory.hpp:77] Creating layer ReLU2
I0305 19:05:34.992653 30632 net.cpp:91] Creating Layer ReLU2
I0305 19:05:34.992657 30632 net.cpp:425] ReLU2 <- InnerProduct2
I0305 19:05:34.992661 30632 net.cpp:386] ReLU2 -> InnerProduct2 (in-place)
I0305 19:05:34.992666 30632 net.cpp:141] Setting up ReLU2
I0305 19:05:34.992668 30632 net.cpp:148] Top shape: 1 10 (10)
I0305 19:05:34.992671 30632 net.cpp:156] Memory required for data: 18000172
I0305 19:05:34.992673 30632 layer_factory.hpp:77] Creating layer InnerProduct3
I0305 19:05:34.992679 30632 net.cpp:91] Creating Layer InnerProduct3
I0305 19:05:34.992683 30632 net.cpp:425] InnerProduct3 <- Slice3
I0305 19:05:34.992687 30632 net.cpp:399] InnerProduct3 -> InnerProduct3
I0305 19:05:34.992887 30632 net.cpp:141] Setting up InnerProduct3
I0305 19:05:34.992892 30632 net.cpp:148] Top shape: 1 10 (10)
I0305 19:05:34.992894 30632 net.cpp:156] Memory required for data: 18000212
I0305 19:05:34.992900 30632 layer_factory.hpp:77] Creating layer ReLU3
I0305 19:05:34.992904 30632 net.cpp:91] Creating Layer ReLU3
I0305 19:05:34.992908 30632 net.cpp:425] ReLU3 <- InnerProduct3
I0305 19:05:34.992911 30632 net.cpp:386] ReLU3 -> InnerProduct3 (in-place)
I0305 19:05:34.992916 30632 net.cpp:141] Setting up ReLU3
I0305 19:05:34.992919 30632 net.cpp:148] Top shape: 1 10 (10)
I0305 19:05:34.992921 30632 net.cpp:156] Memory required for data: 18000252
I0305 19:05:34.992924 30632 layer_factory.hpp:77] Creating layer InnerProduct4
I0305 19:05:34.992928 30632 net.cpp:91] Creating Layer InnerProduct4
I0305 19:05:34.992933 30632 net.cpp:425] InnerProduct4 <- Slice4
I0305 19:05:34.992938 30632 net.cpp:399] InnerProduct4 -> InnerProduct4
I0305 19:05:34.993136 30632 net.cpp:141] Setting up InnerProduct4
I0305 19:05:34.993140 30632 net.cpp:148] Top shape: 1 10 (10)
I0305 19:05:34.993144 30632 net.cpp:156] Memory required for data: 18000292
I0305 19:05:34.993147 30632 layer_factory.hpp:77] Creating layer ReLU4
I0305 19:05:34.993151 30632 net.cpp:91] Creating Layer ReLU4
I0305 19:05:34.993155 30632 net.cpp:425] ReLU4 <- InnerProduct4
I0305 19:05:34.993158 30632 net.cpp:386] ReLU4 -> InnerProduct4 (in-place)
I0305 19:05:34.993162 30632 net.cpp:141] Setting up ReLU4
I0305 19:05:34.993165 30632 net.cpp:148] Top shape: 1 10 (10)
I0305 19:05:34.993168 30632 net.cpp:156] Memory required for data: 18000332
I0305 19:05:34.993171 30632 layer_factory.hpp:77] Creating layer InnerProduct5
I0305 19:05:34.993175 30632 net.cpp:91] Creating Layer InnerProduct5
I0305 19:05:34.993180 30632 net.cpp:425] InnerProduct5 <- Slice5
I0305 19:05:34.993185 30632 net.cpp:399] InnerProduct5 -> InnerProduct5
I0305 19:05:34.993382 30632 net.cpp:141] Setting up InnerProduct5
I0305 19:05:34.993396 30632 net.cpp:148] Top shape: 1 10 (10)
I0305 19:05:34.993399 30632 net.cpp:156] Memory required for data: 18000372
I0305 19:05:34.993405 30632 layer_factory.hpp:77] Creating layer ReLU5
I0305 19:05:34.993410 30632 net.cpp:91] Creating Layer ReLU5
I0305 19:05:34.993414 30632 net.cpp:425] ReLU5 <- InnerProduct5
I0305 19:05:34.993418 30632 net.cpp:386] ReLU5 -> InnerProduct5 (in-place)
I0305 19:05:34.993422 30632 net.cpp:141] Setting up ReLU5
I0305 19:05:34.993425 30632 net.cpp:148] Top shape: 1 10 (10)
I0305 19:05:34.993428 30632 net.cpp:156] Memory required for data: 18000412
I0305 19:05:34.993432 30632 layer_factory.hpp:77] Creating layer InnerProduct6
I0305 19:05:34.993437 30632 net.cpp:91] Creating Layer InnerProduct6
I0305 19:05:34.993440 30632 net.cpp:425] InnerProduct6 <- Slice6
I0305 19:05:34.993444 30632 net.cpp:399] InnerProduct6 -> InnerProduct6
I0305 19:05:34.993657 30632 net.cpp:141] Setting up InnerProduct6
I0305 19:05:34.993661 30632 net.cpp:148] Top shape: 1 10 (10)
I0305 19:05:34.993664 30632 net.cpp:156] Memory required for data: 18000452
I0305 19:05:34.993669 30632 layer_factory.hpp:77] Creating layer ReLU6
I0305 19:05:34.993674 30632 net.cpp:91] Creating Layer ReLU6
I0305 19:05:34.993676 30632 net.cpp:425] ReLU6 <- InnerProduct6
I0305 19:05:34.993680 30632 net.cpp:386] ReLU6 -> InnerProduct6 (in-place)
I0305 19:05:34.993683 30632 net.cpp:141] Setting up ReLU6
I0305 19:05:34.993686 30632 net.cpp:148] Top shape: 1 10 (10)
I0305 19:05:34.993690 30632 net.cpp:156] Memory required for data: 18000492
I0305 19:05:34.993692 30632 layer_factory.hpp:77] Creating layer InnerProduct7
I0305 19:05:34.993698 30632 net.cpp:91] Creating Layer InnerProduct7
I0305 19:05:34.993702 30632 net.cpp:425] InnerProduct7 <- Slice7
I0305 19:05:34.993707 30632 net.cpp:399] InnerProduct7 -> InnerProduct7
I0305 19:05:34.993926 30632 net.cpp:141] Setting up InnerProduct7
I0305 19:05:34.993932 30632 net.cpp:148] Top shape: 1 10 (10)
I0305 19:05:34.993933 30632 net.cpp:156] Memory required for data: 18000532
I0305 19:05:34.993938 30632 layer_factory.hpp:77] Creating layer ReLU7
I0305 19:05:34.993943 30632 net.cpp:91] Creating Layer ReLU7
I0305 19:05:34.993947 30632 net.cpp:425] ReLU7 <- InnerProduct7
I0305 19:05:34.993950 30632 net.cpp:386] ReLU7 -> InnerProduct7 (in-place)
I0305 19:05:34.993955 30632 net.cpp:141] Setting up ReLU7
I0305 19:05:34.993959 30632 net.cpp:148] Top shape: 1 10 (10)
I0305 19:05:34.993962 30632 net.cpp:156] Memory required for data: 18000572
I0305 19:05:34.993964 30632 layer_factory.hpp:77] Creating layer InnerProduct8
I0305 19:05:34.993969 30632 net.cpp:91] Creating Layer InnerProduct8
I0305 19:05:34.993973 30632 net.cpp:425] InnerProduct8 <- Slice8
I0305 19:05:34.993978 30632 net.cpp:399] InnerProduct8 -> InnerProduct8
I0305 19:05:34.994192 30632 net.cpp:141] Setting up InnerProduct8
I0305 19:05:34.994196 30632 net.cpp:148] Top shape: 1 10 (10)
I0305 19:05:34.994199 30632 net.cpp:156] Memory required for data: 18000612
I0305 19:05:34.994202 30632 layer_factory.hpp:77] Creating layer ReLU8
I0305 19:05:34.994215 30632 net.cpp:91] Creating Layer ReLU8
I0305 19:05:34.994218 30632 net.cpp:425] ReLU8 <- InnerProduct8
I0305 19:05:34.994221 30632 net.cpp:386] ReLU8 -> InnerProduct8 (in-place)
I0305 19:05:34.994226 30632 net.cpp:141] Setting up ReLU8
I0305 19:05:34.994230 30632 net.cpp:148] Top shape: 1 10 (10)
I0305 19:05:34.994232 30632 net.cpp:156] Memory required for data: 18000652
I0305 19:05:34.994235 30632 layer_factory.hpp:77] Creating layer InnerProduct9
I0305 19:05:34.994240 30632 net.cpp:91] Creating Layer InnerProduct9
I0305 19:05:34.994245 30632 net.cpp:425] InnerProduct9 <- Slice9
I0305 19:05:34.994248 30632 net.cpp:399] InnerProduct9 -> InnerProduct9
I0305 19:05:34.994452 30632 net.cpp:141] Setting up InnerProduct9
I0305 19:05:34.994457 30632 net.cpp:148] Top shape: 1 10 (10)
I0305 19:05:34.994459 30632 net.cpp:156] Memory required for data: 18000692
I0305 19:05:34.994467 30632 layer_factory.hpp:77] Creating layer ReLU9
I0305 19:05:34.994472 30632 net.cpp:91] Creating Layer ReLU9
I0305 19:05:34.994474 30632 net.cpp:425] ReLU9 <- InnerProduct9
I0305 19:05:34.994478 30632 net.cpp:386] ReLU9 -> InnerProduct9 (in-place)
I0305 19:05:34.994482 30632 net.cpp:141] Setting up ReLU9
I0305 19:05:34.994487 30632 net.cpp:148] Top shape: 1 10 (10)
I0305 19:05:34.994488 30632 net.cpp:156] Memory required for data: 18000732
I0305 19:05:34.994491 30632 layer_factory.hpp:77] Creating layer InnerProduct10
I0305 19:05:34.994496 30632 net.cpp:91] Creating Layer InnerProduct10
I0305 19:05:34.994499 30632 net.cpp:425] InnerProduct10 <- Slice10
I0305 19:05:34.994504 30632 net.cpp:399] InnerProduct10 -> InnerProduct10
I0305 19:05:34.994706 30632 net.cpp:141] Setting up InnerProduct10
I0305 19:05:34.994710 30632 net.cpp:148] Top shape: 1 10 (10)
I0305 19:05:34.994714 30632 net.cpp:156] Memory required for data: 18000772
I0305 19:05:34.994719 30632 layer_factory.hpp:77] Creating layer ReLU10
I0305 19:05:34.994722 30632 net.cpp:91] Creating Layer ReLU10
I0305 19:05:34.994729 30632 net.cpp:425] ReLU10 <- InnerProduct10
I0305 19:05:34.994743 30632 net.cpp:386] ReLU10 -> InnerProduct10 (in-place)
I0305 19:05:34.994748 30632 net.cpp:141] Setting up ReLU10
I0305 19:05:34.994751 30632 net.cpp:148] Top shape: 1 10 (10)
I0305 19:05:34.994755 30632 net.cpp:156] Memory required for data: 18000812
I0305 19:05:34.994757 30632 layer_factory.hpp:77] Creating layer InnerProduct11
I0305 19:05:34.994761 30632 net.cpp:91] Creating Layer InnerProduct11
I0305 19:05:34.994765 30632 net.cpp:425] InnerProduct11 <- Slice11
I0305 19:05:34.994779 30632 net.cpp:399] InnerProduct11 -> InnerProduct11
I0305 19:05:34.994982 30632 net.cpp:141] Setting up InnerProduct11
I0305 19:05:34.994987 30632 net.cpp:148] Top shape: 1 10 (10)
I0305 19:05:34.994989 30632 net.cpp:156] Memory required for data: 18000852
I0305 19:05:34.994993 30632 layer_factory.hpp:77] Creating layer ReLU11
I0305 19:05:34.994997 30632 net.cpp:91] Creating Layer ReLU11
I0305 19:05:34.995000 30632 net.cpp:425] ReLU11 <- InnerProduct11
I0305 19:05:34.995004 30632 net.cpp:386] ReLU11 -> InnerProduct11 (in-place)
I0305 19:05:34.995009 30632 net.cpp:141] Setting up ReLU11
I0305 19:05:34.995012 30632 net.cpp:148] Top shape: 1 10 (10)
I0305 19:05:34.995014 30632 net.cpp:156] Memory required for data: 18000892
I0305 19:05:34.995018 30632 layer_factory.hpp:77] Creating layer InnerProduct12
I0305 19:05:34.995021 30632 net.cpp:91] Creating Layer InnerProduct12
I0305 19:05:34.995025 30632 net.cpp:425] InnerProduct12 <- Slice12
I0305 19:05:34.995030 30632 net.cpp:399] InnerProduct12 -> InnerProduct12
I0305 19:05:34.995245 30632 net.cpp:141] Setting up InnerProduct12
I0305 19:05:34.995259 30632 net.cpp:148] Top shape: 1 10 (10)
I0305 19:05:34.995261 30632 net.cpp:156] Memory required for data: 18000932
I0305 19:05:34.995265 30632 layer_factory.hpp:77] Creating layer ReLU12
I0305 19:05:34.995270 30632 net.cpp:91] Creating Layer ReLU12
I0305 19:05:34.995272 30632 net.cpp:425] ReLU12 <- InnerProduct12
I0305 19:05:34.995277 30632 net.cpp:386] ReLU12 -> InnerProduct12 (in-place)
I0305 19:05:34.995283 30632 net.cpp:141] Setting up ReLU12
I0305 19:05:34.995287 30632 net.cpp:148] Top shape: 1 10 (10)
I0305 19:05:34.995290 30632 net.cpp:156] Memory required for data: 18000972
I0305 19:05:34.995292 30632 layer_factory.hpp:77] Creating layer InnerProduct13
I0305 19:05:34.995297 30632 net.cpp:91] Creating Layer InnerProduct13
I0305 19:05:34.995301 30632 net.cpp:425] InnerProduct13 <- Slice13
I0305 19:05:34.995306 30632 net.cpp:399] InnerProduct13 -> InnerProduct13
I0305 19:05:34.995508 30632 net.cpp:141] Setting up InnerProduct13
I0305 19:05:34.995512 30632 net.cpp:148] Top shape: 1 10 (10)
I0305 19:05:34.995514 30632 net.cpp:156] Memory required for data: 18001012
I0305 19:05:34.995518 30632 layer_factory.hpp:77] Creating layer ReLU13
I0305 19:05:34.995522 30632 net.cpp:91] Creating Layer ReLU13
I0305 19:05:34.995525 30632 net.cpp:425] ReLU13 <- InnerProduct13
I0305 19:05:34.995530 30632 net.cpp:386] ReLU13 -> InnerProduct13 (in-place)
I0305 19:05:34.995534 30632 net.cpp:141] Setting up ReLU13
I0305 19:05:34.995537 30632 net.cpp:148] Top shape: 1 10 (10)
I0305 19:05:34.995540 30632 net.cpp:156] Memory required for data: 18001052
I0305 19:05:34.995543 30632 layer_factory.hpp:77] Creating layer InnerProduct14
I0305 19:05:34.995548 30632 net.cpp:91] Creating Layer InnerProduct14
I0305 19:05:34.995550 30632 net.cpp:425] InnerProduct14 <- Slice14
I0305 19:05:34.995556 30632 net.cpp:399] InnerProduct14 -> InnerProduct14
I0305 19:05:34.995762 30632 net.cpp:141] Setting up InnerProduct14
I0305 19:05:34.995767 30632 net.cpp:148] Top shape: 1 10 (10)
I0305 19:05:34.995769 30632 net.cpp:156] Memory required for data: 18001092
I0305 19:05:34.995774 30632 layer_factory.hpp:77] Creating layer ReLU14
I0305 19:05:34.995777 30632 net.cpp:91] Creating Layer ReLU14
I0305 19:05:34.995781 30632 net.cpp:425] ReLU14 <- InnerProduct14
I0305 19:05:34.995785 30632 net.cpp:386] ReLU14 -> InnerProduct14 (in-place)
I0305 19:05:34.995790 30632 net.cpp:141] Setting up ReLU14
I0305 19:05:34.995793 30632 net.cpp:148] Top shape: 1 10 (10)
I0305 19:05:34.995795 30632 net.cpp:156] Memory required for data: 18001132
I0305 19:05:34.995798 30632 layer_factory.hpp:77] Creating layer InnerProduct15
I0305 19:05:34.995805 30632 net.cpp:91] Creating Layer InnerProduct15
I0305 19:05:34.995808 30632 net.cpp:425] InnerProduct15 <- Slice15
I0305 19:05:34.995813 30632 net.cpp:399] InnerProduct15 -> InnerProduct15
I0305 19:05:34.996018 30632 net.cpp:141] Setting up InnerProduct15
I0305 19:05:34.996022 30632 net.cpp:148] Top shape: 1 10 (10)
I0305 19:05:34.996026 30632 net.cpp:156] Memory required for data: 18001172
I0305 19:05:34.996029 30632 layer_factory.hpp:77] Creating layer ReLU15
I0305 19:05:34.996034 30632 net.cpp:91] Creating Layer ReLU15
I0305 19:05:34.996037 30632 net.cpp:425] ReLU15 <- InnerProduct15
I0305 19:05:34.996040 30632 net.cpp:386] ReLU15 -> InnerProduct15 (in-place)
I0305 19:05:34.996044 30632 net.cpp:141] Setting up ReLU15
I0305 19:05:34.996047 30632 net.cpp:148] Top shape: 1 10 (10)
I0305 19:05:34.996050 30632 net.cpp:156] Memory required for data: 18001212
I0305 19:05:34.996053 30632 layer_factory.hpp:77] Creating layer InnerProduct16
I0305 19:05:34.996057 30632 net.cpp:91] Creating Layer InnerProduct16
I0305 19:05:34.996060 30632 net.cpp:425] InnerProduct16 <- Slice16
I0305 19:05:34.996067 30632 net.cpp:399] InnerProduct16 -> InnerProduct16
I0305 19:05:34.996289 30632 net.cpp:141] Setting up InnerProduct16
I0305 19:05:34.996292 30632 net.cpp:148] Top shape: 1 10 (10)
I0305 19:05:34.996294 30632 net.cpp:156] Memory required for data: 18001252
I0305 19:05:34.996299 30632 layer_factory.hpp:77] Creating layer ReLU16
I0305 19:05:34.996304 30632 net.cpp:91] Creating Layer ReLU16
I0305 19:05:34.996306 30632 net.cpp:425] ReLU16 <- InnerProduct16
I0305 19:05:34.996310 30632 net.cpp:386] ReLU16 -> InnerProduct16 (in-place)
I0305 19:05:34.996315 30632 net.cpp:141] Setting up ReLU16
I0305 19:05:34.996317 30632 net.cpp:148] Top shape: 1 10 (10)
I0305 19:05:34.996320 30632 net.cpp:156] Memory required for data: 18001292
I0305 19:05:34.996325 30632 layer_factory.hpp:77] Creating layer InnerProduct17
I0305 19:05:34.996330 30632 net.cpp:91] Creating Layer InnerProduct17
I0305 19:05:34.996333 30632 net.cpp:425] InnerProduct17 <- Slice17
I0305 19:05:34.996338 30632 net.cpp:399] InnerProduct17 -> InnerProduct17
I0305 19:05:34.996541 30632 net.cpp:141] Setting up InnerProduct17
I0305 19:05:34.996544 30632 net.cpp:148] Top shape: 1 10 (10)
I0305 19:05:34.996547 30632 net.cpp:156] Memory required for data: 18001332
I0305 19:05:34.996554 30632 layer_factory.hpp:77] Creating layer ReLU17
I0305 19:05:34.996559 30632 net.cpp:91] Creating Layer ReLU17
I0305 19:05:34.996562 30632 net.cpp:425] ReLU17 <- InnerProduct17
I0305 19:05:34.996567 30632 net.cpp:386] ReLU17 -> InnerProduct17 (in-place)
I0305 19:05:34.996570 30632 net.cpp:141] Setting up ReLU17
I0305 19:05:34.996573 30632 net.cpp:148] Top shape: 1 10 (10)
I0305 19:05:34.996577 30632 net.cpp:156] Memory required for data: 18001372
I0305 19:05:34.996578 30632 layer_factory.hpp:77] Creating layer InnerProduct18
I0305 19:05:34.996583 30632 net.cpp:91] Creating Layer InnerProduct18
I0305 19:05:34.996587 30632 net.cpp:425] InnerProduct18 <- Slice18
I0305 19:05:34.996592 30632 net.cpp:399] InnerProduct18 -> InnerProduct18
I0305 19:05:34.996856 30632 net.cpp:141] Setting up InnerProduct18
I0305 19:05:34.996866 30632 net.cpp:148] Top shape: 1 10 (10)
I0305 19:05:34.996870 30632 net.cpp:156] Memory required for data: 18001412
I0305 19:05:34.996873 30632 layer_factory.hpp:77] Creating layer ReLU18
I0305 19:05:34.996877 30632 net.cpp:91] Creating Layer ReLU18
I0305 19:05:34.996881 30632 net.cpp:425] ReLU18 <- InnerProduct18
I0305 19:05:34.996884 30632 net.cpp:386] ReLU18 -> InnerProduct18 (in-place)
I0305 19:05:34.996888 30632 net.cpp:141] Setting up ReLU18
I0305 19:05:34.996892 30632 net.cpp:148] Top shape: 1 10 (10)
I0305 19:05:34.996894 30632 net.cpp:156] Memory required for data: 18001452
I0305 19:05:34.996897 30632 layer_factory.hpp:77] Creating layer InnerProduct19
I0305 19:05:34.996902 30632 net.cpp:91] Creating Layer InnerProduct19
I0305 19:05:34.996906 30632 net.cpp:425] InnerProduct19 <- Slice19
I0305 19:05:34.996911 30632 net.cpp:399] InnerProduct19 -> InnerProduct19
I0305 19:05:34.997113 30632 net.cpp:141] Setting up InnerProduct19
I0305 19:05:34.997117 30632 net.cpp:148] Top shape: 1 10 (10)
I0305 19:05:34.997120 30632 net.cpp:156] Memory required for data: 18001492
I0305 19:05:34.997124 30632 layer_factory.hpp:77] Creating layer ReLU19
I0305 19:05:34.997128 30632 net.cpp:91] Creating Layer ReLU19
I0305 19:05:34.997131 30632 net.cpp:425] ReLU19 <- InnerProduct19
I0305 19:05:34.997134 30632 net.cpp:386] ReLU19 -> InnerProduct19 (in-place)
I0305 19:05:34.997139 30632 net.cpp:141] Setting up ReLU19
I0305 19:05:34.997143 30632 net.cpp:148] Top shape: 1 10 (10)
I0305 19:05:34.997144 30632 net.cpp:156] Memory required for data: 18001532
I0305 19:05:34.997148 30632 layer_factory.hpp:77] Creating layer InnerProduct20
I0305 19:05:34.997153 30632 net.cpp:91] Creating Layer InnerProduct20
I0305 19:05:34.997155 30632 net.cpp:425] InnerProduct20 <- Slice20
I0305 19:05:34.997159 30632 net.cpp:399] InnerProduct20 -> InnerProduct20
I0305 19:05:34.997364 30632 net.cpp:141] Setting up InnerProduct20
I0305 19:05:34.997367 30632 net.cpp:148] Top shape: 1 10 (10)
I0305 19:05:34.997370 30632 net.cpp:156] Memory required for data: 18001572
I0305 19:05:34.997375 30632 layer_factory.hpp:77] Creating layer ReLU20
I0305 19:05:34.997378 30632 net.cpp:91] Creating Layer ReLU20
I0305 19:05:34.997381 30632 net.cpp:425] ReLU20 <- InnerProduct20
I0305 19:05:34.997386 30632 net.cpp:386] ReLU20 -> InnerProduct20 (in-place)
I0305 19:05:34.997390 30632 net.cpp:141] Setting up ReLU20
I0305 19:05:34.997393 30632 net.cpp:148] Top shape: 1 10 (10)
I0305 19:05:34.997396 30632 net.cpp:156] Memory required for data: 18001612
I0305 19:05:34.997400 30632 layer_factory.hpp:77] Creating layer InnerProduct21
I0305 19:05:34.997403 30632 net.cpp:91] Creating Layer InnerProduct21
I0305 19:05:34.997407 30632 net.cpp:425] InnerProduct21 <- Slice21
I0305 19:05:34.997416 30632 net.cpp:399] InnerProduct21 -> InnerProduct21
I0305 19:05:34.997618 30632 net.cpp:141] Setting up InnerProduct21
I0305 19:05:34.997622 30632 net.cpp:148] Top shape: 1 10 (10)
I0305 19:05:34.997624 30632 net.cpp:156] Memory required for data: 18001652
I0305 19:05:34.997628 30632 layer_factory.hpp:77] Creating layer ReLU21
I0305 19:05:34.997632 30632 net.cpp:91] Creating Layer ReLU21
I0305 19:05:34.997635 30632 net.cpp:425] ReLU21 <- InnerProduct21
I0305 19:05:34.997640 30632 net.cpp:386] ReLU21 -> InnerProduct21 (in-place)
I0305 19:05:34.997644 30632 net.cpp:141] Setting up ReLU21
I0305 19:05:34.997648 30632 net.cpp:148] Top shape: 1 10 (10)
I0305 19:05:34.997650 30632 net.cpp:156] Memory required for data: 18001692
I0305 19:05:34.997653 30632 layer_factory.hpp:77] Creating layer InnerProduct22
I0305 19:05:34.997658 30632 net.cpp:91] Creating Layer InnerProduct22
I0305 19:05:34.997660 30632 net.cpp:425] InnerProduct22 <- Slice22
I0305 19:05:34.997665 30632 net.cpp:399] InnerProduct22 -> InnerProduct22
I0305 19:05:34.997889 30632 net.cpp:141] Setting up InnerProduct22
I0305 19:05:34.997894 30632 net.cpp:148] Top shape: 1 10 (10)
I0305 19:05:34.997896 30632 net.cpp:156] Memory required for data: 18001732
I0305 19:05:34.997900 30632 layer_factory.hpp:77] Creating layer ReLU22
I0305 19:05:34.997905 30632 net.cpp:91] Creating Layer ReLU22
I0305 19:05:34.997907 30632 net.cpp:425] ReLU22 <- InnerProduct22
I0305 19:05:34.997911 30632 net.cpp:386] ReLU22 -> InnerProduct22 (in-place)
I0305 19:05:34.997916 30632 net.cpp:141] Setting up ReLU22
I0305 19:05:34.997920 30632 net.cpp:148] Top shape: 1 10 (10)
I0305 19:05:34.997922 30632 net.cpp:156] Memory required for data: 18001772
I0305 19:05:34.997925 30632 layer_factory.hpp:77] Creating layer InnerProduct23
I0305 19:05:34.997930 30632 net.cpp:91] Creating Layer InnerProduct23
I0305 19:05:34.997932 30632 net.cpp:425] InnerProduct23 <- Slice23
I0305 19:05:34.997937 30632 net.cpp:399] InnerProduct23 -> InnerProduct23
I0305 19:05:34.998141 30632 net.cpp:141] Setting up InnerProduct23
I0305 19:05:34.998145 30632 net.cpp:148] Top shape: 1 10 (10)
I0305 19:05:34.998147 30632 net.cpp:156] Memory required for data: 18001812
I0305 19:05:34.998152 30632 layer_factory.hpp:77] Creating layer ReLU23
I0305 19:05:34.998155 30632 net.cpp:91] Creating Layer ReLU23
I0305 19:05:34.998158 30632 net.cpp:425] ReLU23 <- InnerProduct23
I0305 19:05:34.998163 30632 net.cpp:386] ReLU23 -> InnerProduct23 (in-place)
I0305 19:05:34.998167 30632 net.cpp:141] Setting up ReLU23
I0305 19:05:34.998170 30632 net.cpp:148] Top shape: 1 10 (10)
I0305 19:05:34.998173 30632 net.cpp:156] Memory required for data: 18001852
I0305 19:05:34.998177 30632 layer_factory.hpp:77] Creating layer InnerProduct24
I0305 19:05:34.998180 30632 net.cpp:91] Creating Layer InnerProduct24
I0305 19:05:34.998183 30632 net.cpp:425] InnerProduct24 <- Slice24
I0305 19:05:34.998191 30632 net.cpp:399] InnerProduct24 -> InnerProduct24
I0305 19:05:34.998394 30632 net.cpp:141] Setting up InnerProduct24
I0305 19:05:34.998399 30632 net.cpp:148] Top shape: 1 10 (10)
I0305 19:05:34.998401 30632 net.cpp:156] Memory required for data: 18001892
I0305 19:05:34.998405 30632 layer_factory.hpp:77] Creating layer ReLU24
I0305 19:05:34.998409 30632 net.cpp:91] Creating Layer ReLU24
I0305 19:05:34.998412 30632 net.cpp:425] ReLU24 <- InnerProduct24
I0305 19:05:34.998416 30632 net.cpp:386] ReLU24 -> InnerProduct24 (in-place)
I0305 19:05:34.998420 30632 net.cpp:141] Setting up ReLU24
I0305 19:05:34.998425 30632 net.cpp:148] Top shape: 1 10 (10)
I0305 19:05:34.998426 30632 net.cpp:156] Memory required for data: 18001932
I0305 19:05:34.998430 30632 layer_factory.hpp:77] Creating layer InnerProduct25
I0305 19:05:34.998433 30632 net.cpp:91] Creating Layer InnerProduct25
I0305 19:05:34.998437 30632 net.cpp:425] InnerProduct25 <- Slice25
I0305 19:05:34.998442 30632 net.cpp:399] InnerProduct25 -> InnerProduct25
I0305 19:05:34.998643 30632 net.cpp:141] Setting up InnerProduct25
I0305 19:05:34.998647 30632 net.cpp:148] Top shape: 1 10 (10)
I0305 19:05:34.998652 30632 net.cpp:156] Memory required for data: 18001972
I0305 19:05:34.998657 30632 layer_factory.hpp:77] Creating layer ReLU25
I0305 19:05:34.998661 30632 net.cpp:91] Creating Layer ReLU25
I0305 19:05:34.998664 30632 net.cpp:425] ReLU25 <- InnerProduct25
I0305 19:05:34.998668 30632 net.cpp:386] ReLU25 -> InnerProduct25 (in-place)
I0305 19:05:34.998673 30632 net.cpp:141] Setting up ReLU25
I0305 19:05:34.998677 30632 net.cpp:148] Top shape: 1 10 (10)
I0305 19:05:34.998679 30632 net.cpp:156] Memory required for data: 18002012
I0305 19:05:34.998682 30632 layer_factory.hpp:77] Creating layer InnerProduct26
I0305 19:05:34.998687 30632 net.cpp:91] Creating Layer InnerProduct26
I0305 19:05:34.998689 30632 net.cpp:425] InnerProduct26 <- Slice26
I0305 19:05:34.998695 30632 net.cpp:399] InnerProduct26 -> InnerProduct26
I0305 19:05:34.998900 30632 net.cpp:141] Setting up InnerProduct26
I0305 19:05:34.998904 30632 net.cpp:148] Top shape: 1 10 (10)
I0305 19:05:34.998917 30632 net.cpp:156] Memory required for data: 18002052
I0305 19:05:34.998921 30632 layer_factory.hpp:77] Creating layer ReLU26
I0305 19:05:34.998925 30632 net.cpp:91] Creating Layer ReLU26
I0305 19:05:34.998929 30632 net.cpp:425] ReLU26 <- InnerProduct26
I0305 19:05:34.998934 30632 net.cpp:386] ReLU26 -> InnerProduct26 (in-place)
I0305 19:05:34.998937 30632 net.cpp:141] Setting up ReLU26
I0305 19:05:34.998941 30632 net.cpp:148] Top shape: 1 10 (10)
I0305 19:05:34.998944 30632 net.cpp:156] Memory required for data: 18002092
I0305 19:05:34.998946 30632 layer_factory.hpp:77] Creating layer InnerProduct27
I0305 19:05:34.998951 30632 net.cpp:91] Creating Layer InnerProduct27
I0305 19:05:34.998955 30632 net.cpp:425] InnerProduct27 <- Slice27
I0305 19:05:34.998971 30632 net.cpp:399] InnerProduct27 -> InnerProduct27
I0305 19:05:34.999174 30632 net.cpp:141] Setting up InnerProduct27
I0305 19:05:34.999178 30632 net.cpp:148] Top shape: 1 10 (10)
I0305 19:05:34.999181 30632 net.cpp:156] Memory required for data: 18002132
I0305 19:05:34.999184 30632 layer_factory.hpp:77] Creating layer ReLU27
I0305 19:05:34.999188 30632 net.cpp:91] Creating Layer ReLU27
I0305 19:05:34.999191 30632 net.cpp:425] ReLU27 <- InnerProduct27
I0305 19:05:34.999196 30632 net.cpp:386] ReLU27 -> InnerProduct27 (in-place)
I0305 19:05:34.999199 30632 net.cpp:141] Setting up ReLU27
I0305 19:05:34.999203 30632 net.cpp:148] Top shape: 1 10 (10)
I0305 19:05:34.999205 30632 net.cpp:156] Memory required for data: 18002172
I0305 19:05:34.999208 30632 layer_factory.hpp:77] Creating layer InnerProduct28
I0305 19:05:34.999212 30632 net.cpp:91] Creating Layer InnerProduct28
I0305 19:05:34.999217 30632 net.cpp:425] InnerProduct28 <- Slice28
I0305 19:05:34.999222 30632 net.cpp:399] InnerProduct28 -> InnerProduct28
I0305 19:05:34.999423 30632 net.cpp:141] Setting up InnerProduct28
I0305 19:05:34.999426 30632 net.cpp:148] Top shape: 1 10 (10)
I0305 19:05:34.999428 30632 net.cpp:156] Memory required for data: 18002212
I0305 19:05:34.999433 30632 layer_factory.hpp:77] Creating layer ReLU28
I0305 19:05:34.999436 30632 net.cpp:91] Creating Layer ReLU28
I0305 19:05:34.999439 30632 net.cpp:425] ReLU28 <- InnerProduct28
I0305 19:05:34.999444 30632 net.cpp:386] ReLU28 -> InnerProduct28 (in-place)
I0305 19:05:34.999449 30632 net.cpp:141] Setting up ReLU28
I0305 19:05:34.999451 30632 net.cpp:148] Top shape: 1 10 (10)
I0305 19:05:34.999454 30632 net.cpp:156] Memory required for data: 18002252
I0305 19:05:34.999456 30632 layer_factory.hpp:77] Creating layer InnerProduct29
I0305 19:05:34.999460 30632 net.cpp:91] Creating Layer InnerProduct29
I0305 19:05:34.999464 30632 net.cpp:425] InnerProduct29 <- Slice29
I0305 19:05:34.999469 30632 net.cpp:399] InnerProduct29 -> InnerProduct29
I0305 19:05:34.999670 30632 net.cpp:141] Setting up InnerProduct29
I0305 19:05:34.999675 30632 net.cpp:148] Top shape: 1 10 (10)
I0305 19:05:34.999676 30632 net.cpp:156] Memory required for data: 18002292
I0305 19:05:34.999680 30632 layer_factory.hpp:77] Creating layer ReLU29
I0305 19:05:34.999685 30632 net.cpp:91] Creating Layer ReLU29
I0305 19:05:34.999687 30632 net.cpp:425] ReLU29 <- InnerProduct29
I0305 19:05:34.999693 30632 net.cpp:386] ReLU29 -> InnerProduct29 (in-place)
I0305 19:05:34.999698 30632 net.cpp:141] Setting up ReLU29
I0305 19:05:34.999701 30632 net.cpp:148] Top shape: 1 10 (10)
I0305 19:05:34.999704 30632 net.cpp:156] Memory required for data: 18002332
I0305 19:05:34.999706 30632 layer_factory.hpp:77] Creating layer InnerProduct30
I0305 19:05:34.999711 30632 net.cpp:91] Creating Layer InnerProduct30
I0305 19:05:34.999714 30632 net.cpp:425] InnerProduct30 <- Slice30
I0305 19:05:34.999722 30632 net.cpp:399] InnerProduct30 -> InnerProduct30
I0305 19:05:34.999928 30632 net.cpp:141] Setting up InnerProduct30
I0305 19:05:34.999933 30632 net.cpp:148] Top shape: 1 10 (10)
I0305 19:05:34.999935 30632 net.cpp:156] Memory required for data: 18002372
I0305 19:05:34.999939 30632 layer_factory.hpp:77] Creating layer ReLU30
I0305 19:05:34.999943 30632 net.cpp:91] Creating Layer ReLU30
I0305 19:05:34.999946 30632 net.cpp:425] ReLU30 <- InnerProduct30
I0305 19:05:34.999950 30632 net.cpp:386] ReLU30 -> InnerProduct30 (in-place)
I0305 19:05:34.999955 30632 net.cpp:141] Setting up ReLU30
I0305 19:05:34.999958 30632 net.cpp:148] Top shape: 1 10 (10)
I0305 19:05:34.999960 30632 net.cpp:156] Memory required for data: 18002412
I0305 19:05:34.999963 30632 layer_factory.hpp:77] Creating layer InnerProduct31
I0305 19:05:34.999972 30632 net.cpp:91] Creating Layer InnerProduct31
I0305 19:05:34.999976 30632 net.cpp:425] InnerProduct31 <- Slice31
I0305 19:05:34.999980 30632 net.cpp:399] InnerProduct31 -> InnerProduct31
I0305 19:05:35.000182 30632 net.cpp:141] Setting up InnerProduct31
I0305 19:05:35.000186 30632 net.cpp:148] Top shape: 1 10 (10)
I0305 19:05:35.000190 30632 net.cpp:156] Memory required for data: 18002452
I0305 19:05:35.000193 30632 layer_factory.hpp:77] Creating layer ReLU31
I0305 19:05:35.000198 30632 net.cpp:91] Creating Layer ReLU31
I0305 19:05:35.000202 30632 net.cpp:425] ReLU31 <- InnerProduct31
I0305 19:05:35.000205 30632 net.cpp:386] ReLU31 -> InnerProduct31 (in-place)
I0305 19:05:35.000210 30632 net.cpp:141] Setting up ReLU31
I0305 19:05:35.000212 30632 net.cpp:148] Top shape: 1 10 (10)
I0305 19:05:35.000216 30632 net.cpp:156] Memory required for data: 18002492
I0305 19:05:35.000218 30632 layer_factory.hpp:77] Creating layer InnerProduct32
I0305 19:05:35.000223 30632 net.cpp:91] Creating Layer InnerProduct32
I0305 19:05:35.000226 30632 net.cpp:425] InnerProduct32 <- Slice32
I0305 19:05:35.000231 30632 net.cpp:399] InnerProduct32 -> InnerProduct32
I0305 19:05:35.000432 30632 net.cpp:141] Setting up InnerProduct32
I0305 19:05:35.000437 30632 net.cpp:148] Top shape: 1 10 (10)
I0305 19:05:35.000438 30632 net.cpp:156] Memory required for data: 18002532
I0305 19:05:35.000442 30632 layer_factory.hpp:77] Creating layer ReLU32
I0305 19:05:35.000448 30632 net.cpp:91] Creating Layer ReLU32
I0305 19:05:35.000452 30632 net.cpp:425] ReLU32 <- InnerProduct32
I0305 19:05:35.000454 30632 net.cpp:386] ReLU32 -> InnerProduct32 (in-place)
I0305 19:05:35.000458 30632 net.cpp:141] Setting up ReLU32
I0305 19:05:35.000461 30632 net.cpp:148] Top shape: 1 10 (10)
I0305 19:05:35.000464 30632 net.cpp:156] Memory required for data: 18002572
I0305 19:05:35.000468 30632 layer_factory.hpp:77] Creating layer InnerProduct33
I0305 19:05:35.000473 30632 net.cpp:91] Creating Layer InnerProduct33
I0305 19:05:35.000475 30632 net.cpp:425] InnerProduct33 <- Slice33
I0305 19:05:35.000480 30632 net.cpp:399] InnerProduct33 -> InnerProduct33
I0305 19:05:35.000682 30632 net.cpp:141] Setting up InnerProduct33
I0305 19:05:35.000686 30632 net.cpp:148] Top shape: 1 10 (10)
I0305 19:05:35.000689 30632 net.cpp:156] Memory required for data: 18002612
I0305 19:05:35.000699 30632 layer_factory.hpp:77] Creating layer ReLU33
I0305 19:05:35.000705 30632 net.cpp:91] Creating Layer ReLU33
I0305 19:05:35.000707 30632 net.cpp:425] ReLU33 <- InnerProduct33
I0305 19:05:35.000711 30632 net.cpp:386] ReLU33 -> InnerProduct33 (in-place)
I0305 19:05:35.000715 30632 net.cpp:141] Setting up ReLU33
I0305 19:05:35.000720 30632 net.cpp:148] Top shape: 1 10 (10)
I0305 19:05:35.000725 30632 net.cpp:156] Memory required for data: 18002652
I0305 19:05:35.000740 30632 layer_factory.hpp:77] Creating layer InnerProduct34
I0305 19:05:35.000746 30632 net.cpp:91] Creating Layer InnerProduct34
I0305 19:05:35.000749 30632 net.cpp:425] InnerProduct34 <- Slice34
I0305 19:05:35.000754 30632 net.cpp:399] InnerProduct34 -> InnerProduct34
I0305 19:05:35.000965 30632 net.cpp:141] Setting up InnerProduct34
I0305 19:05:35.000969 30632 net.cpp:148] Top shape: 1 10 (10)
I0305 19:05:35.000972 30632 net.cpp:156] Memory required for data: 18002692
I0305 19:05:35.000977 30632 layer_factory.hpp:77] Creating layer ReLU34
I0305 19:05:35.000982 30632 net.cpp:91] Creating Layer ReLU34
I0305 19:05:35.000984 30632 net.cpp:425] ReLU34 <- InnerProduct34
I0305 19:05:35.000988 30632 net.cpp:386] ReLU34 -> InnerProduct34 (in-place)
I0305 19:05:35.000991 30632 net.cpp:141] Setting up ReLU34
I0305 19:05:35.000995 30632 net.cpp:148] Top shape: 1 10 (10)
I0305 19:05:35.000998 30632 net.cpp:156] Memory required for data: 18002732
I0305 19:05:35.001000 30632 layer_factory.hpp:77] Creating layer InnerProduct35
I0305 19:05:35.001005 30632 net.cpp:91] Creating Layer InnerProduct35
I0305 19:05:35.001009 30632 net.cpp:425] InnerProduct35 <- Slice35
I0305 19:05:35.001013 30632 net.cpp:399] InnerProduct35 -> InnerProduct35
I0305 19:05:35.001214 30632 net.cpp:141] Setting up InnerProduct35
I0305 19:05:35.001219 30632 net.cpp:148] Top shape: 1 10 (10)
I0305 19:05:35.001221 30632 net.cpp:156] Memory required for data: 18002772
I0305 19:05:35.001225 30632 layer_factory.hpp:77] Creating layer ReLU35
I0305 19:05:35.001230 30632 net.cpp:91] Creating Layer ReLU35
I0305 19:05:35.001232 30632 net.cpp:425] ReLU35 <- InnerProduct35
I0305 19:05:35.001236 30632 net.cpp:386] ReLU35 -> InnerProduct35 (in-place)
I0305 19:05:35.001240 30632 net.cpp:141] Setting up ReLU35
I0305 19:05:35.001243 30632 net.cpp:148] Top shape: 1 10 (10)
I0305 19:05:35.001245 30632 net.cpp:156] Memory required for data: 18002812
I0305 19:05:35.001248 30632 layer_factory.hpp:77] Creating layer InnerProduct36
I0305 19:05:35.001257 30632 net.cpp:91] Creating Layer InnerProduct36
I0305 19:05:35.001261 30632 net.cpp:425] InnerProduct36 <- Slice36
I0305 19:05:35.001266 30632 net.cpp:399] InnerProduct36 -> InnerProduct36
I0305 19:05:35.001466 30632 net.cpp:141] Setting up InnerProduct36
I0305 19:05:35.001471 30632 net.cpp:148] Top shape: 1 10 (10)
I0305 19:05:35.001473 30632 net.cpp:156] Memory required for data: 18002852
I0305 19:05:35.001477 30632 layer_factory.hpp:77] Creating layer ReLU36
I0305 19:05:35.001480 30632 net.cpp:91] Creating Layer ReLU36
I0305 19:05:35.001483 30632 net.cpp:425] ReLU36 <- InnerProduct36
I0305 19:05:35.001488 30632 net.cpp:386] ReLU36 -> InnerProduct36 (in-place)
I0305 19:05:35.001492 30632 net.cpp:141] Setting up ReLU36
I0305 19:05:35.001497 30632 net.cpp:148] Top shape: 1 10 (10)
I0305 19:05:35.001498 30632 net.cpp:156] Memory required for data: 18002892
I0305 19:05:35.001502 30632 layer_factory.hpp:77] Creating layer InnerProduct37
I0305 19:05:35.001507 30632 net.cpp:91] Creating Layer InnerProduct37
I0305 19:05:35.001509 30632 net.cpp:425] InnerProduct37 <- Slice37
I0305 19:05:35.001513 30632 net.cpp:399] InnerProduct37 -> InnerProduct37
I0305 19:05:35.001716 30632 net.cpp:141] Setting up InnerProduct37
I0305 19:05:35.001720 30632 net.cpp:148] Top shape: 1 10 (10)
I0305 19:05:35.001724 30632 net.cpp:156] Memory required for data: 18002932
I0305 19:05:35.001731 30632 layer_factory.hpp:77] Creating layer ReLU37
I0305 19:05:35.001735 30632 net.cpp:91] Creating Layer ReLU37
I0305 19:05:35.001739 30632 net.cpp:425] ReLU37 <- InnerProduct37
I0305 19:05:35.001744 30632 net.cpp:386] ReLU37 -> InnerProduct37 (in-place)
I0305 19:05:35.001747 30632 net.cpp:141] Setting up ReLU37
I0305 19:05:35.001750 30632 net.cpp:148] Top shape: 1 10 (10)
I0305 19:05:35.001754 30632 net.cpp:156] Memory required for data: 18002972
I0305 19:05:35.001756 30632 layer_factory.hpp:77] Creating layer InnerProduct38
I0305 19:05:35.001761 30632 net.cpp:91] Creating Layer InnerProduct38
I0305 19:05:35.001767 30632 net.cpp:425] InnerProduct38 <- Slice38
I0305 19:05:35.001772 30632 net.cpp:399] InnerProduct38 -> InnerProduct38
I0305 19:05:35.001976 30632 net.cpp:141] Setting up InnerProduct38
I0305 19:05:35.001979 30632 net.cpp:148] Top shape: 1 10 (10)
I0305 19:05:35.001982 30632 net.cpp:156] Memory required for data: 18003012
I0305 19:05:35.001986 30632 layer_factory.hpp:77] Creating layer ReLU38
I0305 19:05:35.001991 30632 net.cpp:91] Creating Layer ReLU38
I0305 19:05:35.001993 30632 net.cpp:425] ReLU38 <- InnerProduct38
I0305 19:05:35.001997 30632 net.cpp:386] ReLU38 -> InnerProduct38 (in-place)
I0305 19:05:35.002002 30632 net.cpp:141] Setting up ReLU38
I0305 19:05:35.002004 30632 net.cpp:148] Top shape: 1 10 (10)
I0305 19:05:35.002007 30632 net.cpp:156] Memory required for data: 18003052
I0305 19:05:35.002010 30632 layer_factory.hpp:77] Creating layer InnerProduct39
I0305 19:05:35.002014 30632 net.cpp:91] Creating Layer InnerProduct39
I0305 19:05:35.002020 30632 net.cpp:425] InnerProduct39 <- Slice39
I0305 19:05:35.002024 30632 net.cpp:399] InnerProduct39 -> InnerProduct39
I0305 19:05:35.002228 30632 net.cpp:141] Setting up InnerProduct39
I0305 19:05:35.002231 30632 net.cpp:148] Top shape: 1 10 (10)
I0305 19:05:35.002233 30632 net.cpp:156] Memory required for data: 18003092
I0305 19:05:35.002238 30632 layer_factory.hpp:77] Creating layer ReLU39
I0305 19:05:35.002243 30632 net.cpp:91] Creating Layer ReLU39
I0305 19:05:35.002245 30632 net.cpp:425] ReLU39 <- InnerProduct39
I0305 19:05:35.002249 30632 net.cpp:386] ReLU39 -> InnerProduct39 (in-place)
I0305 19:05:35.002254 30632 net.cpp:141] Setting up ReLU39
I0305 19:05:35.002257 30632 net.cpp:148] Top shape: 1 10 (10)
I0305 19:05:35.002259 30632 net.cpp:156] Memory required for data: 18003132
I0305 19:05:35.002262 30632 layer_factory.hpp:77] Creating layer InnerProduct40
I0305 19:05:35.002267 30632 net.cpp:91] Creating Layer InnerProduct40
I0305 19:05:35.002271 30632 net.cpp:425] InnerProduct40 <- Slice40
I0305 19:05:35.002276 30632 net.cpp:399] InnerProduct40 -> InnerProduct40
I0305 19:05:35.002478 30632 net.cpp:141] Setting up InnerProduct40
I0305 19:05:35.002482 30632 net.cpp:148] Top shape: 1 10 (10)
I0305 19:05:35.002485 30632 net.cpp:156] Memory required for data: 18003172
I0305 19:05:35.002490 30632 layer_factory.hpp:77] Creating layer ReLU40
I0305 19:05:35.002493 30632 net.cpp:91] Creating Layer ReLU40
I0305 19:05:35.002496 30632 net.cpp:425] ReLU40 <- InnerProduct40
I0305 19:05:35.002501 30632 net.cpp:386] ReLU40 -> InnerProduct40 (in-place)
I0305 19:05:35.002506 30632 net.cpp:141] Setting up ReLU40
I0305 19:05:35.002508 30632 net.cpp:148] Top shape: 1 10 (10)
I0305 19:05:35.002511 30632 net.cpp:156] Memory required for data: 18003212
I0305 19:05:35.002513 30632 layer_factory.hpp:77] Creating layer InnerProduct41
I0305 19:05:35.002518 30632 net.cpp:91] Creating Layer InnerProduct41
I0305 19:05:35.002522 30632 net.cpp:425] InnerProduct41 <- Slice41
I0305 19:05:35.002528 30632 net.cpp:399] InnerProduct41 -> InnerProduct41
I0305 19:05:35.002745 30632 net.cpp:141] Setting up InnerProduct41
I0305 19:05:35.002751 30632 net.cpp:148] Top shape: 1 10 (10)
I0305 19:05:35.002753 30632 net.cpp:156] Memory required for data: 18003252
I0305 19:05:35.002758 30632 layer_factory.hpp:77] Creating layer ReLU41
I0305 19:05:35.002763 30632 net.cpp:91] Creating Layer ReLU41
I0305 19:05:35.002765 30632 net.cpp:425] ReLU41 <- InnerProduct41
I0305 19:05:35.002770 30632 net.cpp:386] ReLU41 -> InnerProduct41 (in-place)
I0305 19:05:35.002774 30632 net.cpp:141] Setting up ReLU41
I0305 19:05:35.002777 30632 net.cpp:148] Top shape: 1 10 (10)
I0305 19:05:35.002780 30632 net.cpp:156] Memory required for data: 18003292
I0305 19:05:35.002784 30632 layer_factory.hpp:77] Creating layer InnerProduct42
I0305 19:05:35.002787 30632 net.cpp:91] Creating Layer InnerProduct42
I0305 19:05:35.002791 30632 net.cpp:425] InnerProduct42 <- Slice42
I0305 19:05:35.002797 30632 net.cpp:399] InnerProduct42 -> InnerProduct42
I0305 19:05:35.003010 30632 net.cpp:141] Setting up InnerProduct42
I0305 19:05:35.003016 30632 net.cpp:148] Top shape: 1 10 (10)
I0305 19:05:35.003020 30632 net.cpp:156] Memory required for data: 18003332
I0305 19:05:35.003023 30632 layer_factory.hpp:77] Creating layer ReLU42
I0305 19:05:35.003027 30632 net.cpp:91] Creating Layer ReLU42
I0305 19:05:35.003031 30632 net.cpp:425] ReLU42 <- InnerProduct42
I0305 19:05:35.003036 30632 net.cpp:386] ReLU42 -> InnerProduct42 (in-place)
I0305 19:05:35.003039 30632 net.cpp:141] Setting up ReLU42
I0305 19:05:35.003042 30632 net.cpp:148] Top shape: 1 10 (10)
I0305 19:05:35.003046 30632 net.cpp:156] Memory required for data: 18003372
I0305 19:05:35.003048 30632 layer_factory.hpp:77] Creating layer InnerProduct43
I0305 19:05:35.003052 30632 net.cpp:91] Creating Layer InnerProduct43
I0305 19:05:35.003057 30632 net.cpp:425] InnerProduct43 <- Slice43
I0305 19:05:35.003062 30632 net.cpp:399] InnerProduct43 -> InnerProduct43
I0305 19:05:35.003274 30632 net.cpp:141] Setting up InnerProduct43
I0305 19:05:35.003278 30632 net.cpp:148] Top shape: 1 10 (10)
I0305 19:05:35.003281 30632 net.cpp:156] Memory required for data: 18003412
I0305 19:05:35.003285 30632 layer_factory.hpp:77] Creating layer ReLU43
I0305 19:05:35.003289 30632 net.cpp:91] Creating Layer ReLU43
I0305 19:05:35.003293 30632 net.cpp:425] ReLU43 <- InnerProduct43
I0305 19:05:35.003296 30632 net.cpp:386] ReLU43 -> InnerProduct43 (in-place)
I0305 19:05:35.003300 30632 net.cpp:141] Setting up ReLU43
I0305 19:05:35.003304 30632 net.cpp:148] Top shape: 1 10 (10)
I0305 19:05:35.003306 30632 net.cpp:156] Memory required for data: 18003452
I0305 19:05:35.003309 30632 layer_factory.hpp:77] Creating layer InnerProduct44
I0305 19:05:35.003314 30632 net.cpp:91] Creating Layer InnerProduct44
I0305 19:05:35.003316 30632 net.cpp:425] InnerProduct44 <- Slice44
I0305 19:05:35.003321 30632 net.cpp:399] InnerProduct44 -> InnerProduct44
I0305 19:05:35.003523 30632 net.cpp:141] Setting up InnerProduct44
I0305 19:05:35.003527 30632 net.cpp:148] Top shape: 1 10 (10)
I0305 19:05:35.003530 30632 net.cpp:156] Memory required for data: 18003492
I0305 19:05:35.003535 30632 layer_factory.hpp:77] Creating layer ReLU44
I0305 19:05:35.003538 30632 net.cpp:91] Creating Layer ReLU44
I0305 19:05:35.003541 30632 net.cpp:425] ReLU44 <- InnerProduct44
I0305 19:05:35.003545 30632 net.cpp:386] ReLU44 -> InnerProduct44 (in-place)
I0305 19:05:35.003550 30632 net.cpp:141] Setting up ReLU44
I0305 19:05:35.003553 30632 net.cpp:148] Top shape: 1 10 (10)
I0305 19:05:35.003556 30632 net.cpp:156] Memory required for data: 18003532
I0305 19:05:35.003558 30632 layer_factory.hpp:77] Creating layer InnerProduct45
I0305 19:05:35.003562 30632 net.cpp:91] Creating Layer InnerProduct45
I0305 19:05:35.003566 30632 net.cpp:425] InnerProduct45 <- Slice45
I0305 19:05:35.003571 30632 net.cpp:399] InnerProduct45 -> InnerProduct45
I0305 19:05:35.003793 30632 net.cpp:141] Setting up InnerProduct45
I0305 19:05:35.003798 30632 net.cpp:148] Top shape: 1 10 (10)
I0305 19:05:35.003800 30632 net.cpp:156] Memory required for data: 18003572
I0305 19:05:35.003804 30632 layer_factory.hpp:77] Creating layer ReLU45
I0305 19:05:35.003808 30632 net.cpp:91] Creating Layer ReLU45
I0305 19:05:35.003811 30632 net.cpp:425] ReLU45 <- InnerProduct45
I0305 19:05:35.003815 30632 net.cpp:386] ReLU45 -> InnerProduct45 (in-place)
I0305 19:05:35.003829 30632 net.cpp:141] Setting up ReLU45
I0305 19:05:35.003832 30632 net.cpp:148] Top shape: 1 10 (10)
I0305 19:05:35.003835 30632 net.cpp:156] Memory required for data: 18003612
I0305 19:05:35.003837 30632 layer_factory.hpp:77] Creating layer InnerProduct46
I0305 19:05:35.003842 30632 net.cpp:91] Creating Layer InnerProduct46
I0305 19:05:35.003845 30632 net.cpp:425] InnerProduct46 <- Slice46
I0305 19:05:35.003850 30632 net.cpp:399] InnerProduct46 -> InnerProduct46
I0305 19:05:35.004071 30632 net.cpp:141] Setting up InnerProduct46
I0305 19:05:35.004076 30632 net.cpp:148] Top shape: 1 10 (10)
I0305 19:05:35.004078 30632 net.cpp:156] Memory required for data: 18003652
I0305 19:05:35.004082 30632 layer_factory.hpp:77] Creating layer ReLU46
I0305 19:05:35.004088 30632 net.cpp:91] Creating Layer ReLU46
I0305 19:05:35.004091 30632 net.cpp:425] ReLU46 <- InnerProduct46
I0305 19:05:35.004096 30632 net.cpp:386] ReLU46 -> InnerProduct46 (in-place)
I0305 19:05:35.004101 30632 net.cpp:141] Setting up ReLU46
I0305 19:05:35.004103 30632 net.cpp:148] Top shape: 1 10 (10)
I0305 19:05:35.004106 30632 net.cpp:156] Memory required for data: 18003692
I0305 19:05:35.004109 30632 layer_factory.hpp:77] Creating layer InnerProduct47
I0305 19:05:35.004113 30632 net.cpp:91] Creating Layer InnerProduct47
I0305 19:05:35.004117 30632 net.cpp:425] InnerProduct47 <- Slice47
I0305 19:05:35.004122 30632 net.cpp:399] InnerProduct47 -> InnerProduct47
I0305 19:05:35.004324 30632 net.cpp:141] Setting up InnerProduct47
I0305 19:05:35.004328 30632 net.cpp:148] Top shape: 1 10 (10)
I0305 19:05:35.004331 30632 net.cpp:156] Memory required for data: 18003732
I0305 19:05:35.004335 30632 layer_factory.hpp:77] Creating layer ReLU47
I0305 19:05:35.004339 30632 net.cpp:91] Creating Layer ReLU47
I0305 19:05:35.004341 30632 net.cpp:425] ReLU47 <- InnerProduct47
I0305 19:05:35.004346 30632 net.cpp:386] ReLU47 -> InnerProduct47 (in-place)
I0305 19:05:35.004350 30632 net.cpp:141] Setting up ReLU47
I0305 19:05:35.004354 30632 net.cpp:148] Top shape: 1 10 (10)
I0305 19:05:35.004356 30632 net.cpp:156] Memory required for data: 18003772
I0305 19:05:35.004359 30632 layer_factory.hpp:77] Creating layer InnerProduct48
I0305 19:05:35.004364 30632 net.cpp:91] Creating Layer InnerProduct48
I0305 19:05:35.004366 30632 net.cpp:425] InnerProduct48 <- Slice48
I0305 19:05:35.004371 30632 net.cpp:399] InnerProduct48 -> InnerProduct48
I0305 19:05:35.004576 30632 net.cpp:141] Setting up InnerProduct48
I0305 19:05:35.004580 30632 net.cpp:148] Top shape: 1 10 (10)
I0305 19:05:35.004583 30632 net.cpp:156] Memory required for data: 18003812
I0305 19:05:35.004587 30632 layer_factory.hpp:77] Creating layer ReLU48
I0305 19:05:35.004591 30632 net.cpp:91] Creating Layer ReLU48
I0305 19:05:35.004595 30632 net.cpp:425] ReLU48 <- InnerProduct48
I0305 19:05:35.004598 30632 net.cpp:386] ReLU48 -> InnerProduct48 (in-place)
I0305 19:05:35.004603 30632 net.cpp:141] Setting up ReLU48
I0305 19:05:35.004606 30632 net.cpp:148] Top shape: 1 10 (10)
I0305 19:05:35.004609 30632 net.cpp:156] Memory required for data: 18003852
I0305 19:05:35.004611 30632 layer_factory.hpp:77] Creating layer InnerProduct49
I0305 19:05:35.004616 30632 net.cpp:91] Creating Layer InnerProduct49
I0305 19:05:35.004619 30632 net.cpp:425] InnerProduct49 <- Slice49
I0305 19:05:35.004624 30632 net.cpp:399] InnerProduct49 -> InnerProduct49
I0305 19:05:35.004828 30632 net.cpp:141] Setting up InnerProduct49
I0305 19:05:35.004833 30632 net.cpp:148] Top shape: 1 10 (10)
I0305 19:05:35.004835 30632 net.cpp:156] Memory required for data: 18003892
I0305 19:05:35.004839 30632 layer_factory.hpp:77] Creating layer ReLU49
I0305 19:05:35.004843 30632 net.cpp:91] Creating Layer ReLU49
I0305 19:05:35.004847 30632 net.cpp:425] ReLU49 <- InnerProduct49
I0305 19:05:35.004851 30632 net.cpp:386] ReLU49 -> InnerProduct49 (in-place)
I0305 19:05:35.004855 30632 net.cpp:141] Setting up ReLU49
I0305 19:05:35.004858 30632 net.cpp:148] Top shape: 1 10 (10)
I0305 19:05:35.004861 30632 net.cpp:156] Memory required for data: 18003932
I0305 19:05:35.004863 30632 layer_factory.hpp:77] Creating layer InnerProduct50
I0305 19:05:35.004868 30632 net.cpp:91] Creating Layer InnerProduct50
I0305 19:05:35.004873 30632 net.cpp:425] InnerProduct50 <- Slice50
I0305 19:05:35.004878 30632 net.cpp:399] InnerProduct50 -> InnerProduct50
I0305 19:05:35.005080 30632 net.cpp:141] Setting up InnerProduct50
I0305 19:05:35.005084 30632 net.cpp:148] Top shape: 1 10 (10)
I0305 19:05:35.005086 30632 net.cpp:156] Memory required for data: 18003972
I0305 19:05:35.005090 30632 layer_factory.hpp:77] Creating layer ReLU50
I0305 19:05:35.005095 30632 net.cpp:91] Creating Layer ReLU50
I0305 19:05:35.005097 30632 net.cpp:425] ReLU50 <- InnerProduct50
I0305 19:05:35.005102 30632 net.cpp:386] ReLU50 -> InnerProduct50 (in-place)
I0305 19:05:35.005108 30632 net.cpp:141] Setting up ReLU50
I0305 19:05:35.005112 30632 net.cpp:148] Top shape: 1 10 (10)
I0305 19:05:35.005115 30632 net.cpp:156] Memory required for data: 18004012
I0305 19:05:35.005117 30632 layer_factory.hpp:77] Creating layer InnerProduct51
I0305 19:05:35.005121 30632 net.cpp:91] Creating Layer InnerProduct51
I0305 19:05:35.005125 30632 net.cpp:425] InnerProduct51 <- Slice51
I0305 19:05:35.005131 30632 net.cpp:399] InnerProduct51 -> InnerProduct51
I0305 19:05:35.005355 30632 net.cpp:141] Setting up InnerProduct51
I0305 19:05:35.005360 30632 net.cpp:148] Top shape: 1 10 (10)
I0305 19:05:35.005363 30632 net.cpp:156] Memory required for data: 18004052
I0305 19:05:35.005367 30632 layer_factory.hpp:77] Creating layer ReLU51
I0305 19:05:35.005370 30632 net.cpp:91] Creating Layer ReLU51
I0305 19:05:35.005373 30632 net.cpp:425] ReLU51 <- InnerProduct51
I0305 19:05:35.005379 30632 net.cpp:386] ReLU51 -> InnerProduct51 (in-place)
I0305 19:05:35.005383 30632 net.cpp:141] Setting up ReLU51
I0305 19:05:35.005386 30632 net.cpp:148] Top shape: 1 10 (10)
I0305 19:05:35.005389 30632 net.cpp:156] Memory required for data: 18004092
I0305 19:05:35.005391 30632 layer_factory.hpp:77] Creating layer InnerProduct52
I0305 19:05:35.005396 30632 net.cpp:91] Creating Layer InnerProduct52
I0305 19:05:35.005399 30632 net.cpp:425] InnerProduct52 <- Slice52
I0305 19:05:35.005405 30632 net.cpp:399] InnerProduct52 -> InnerProduct52
I0305 19:05:35.005606 30632 net.cpp:141] Setting up InnerProduct52
I0305 19:05:35.005610 30632 net.cpp:148] Top shape: 1 10 (10)
I0305 19:05:35.005612 30632 net.cpp:156] Memory required for data: 18004132
I0305 19:05:35.005616 30632 layer_factory.hpp:77] Creating layer ReLU52
I0305 19:05:35.005620 30632 net.cpp:91] Creating Layer ReLU52
I0305 19:05:35.005623 30632 net.cpp:425] ReLU52 <- InnerProduct52
I0305 19:05:35.005628 30632 net.cpp:386] ReLU52 -> InnerProduct52 (in-place)
I0305 19:05:35.005632 30632 net.cpp:141] Setting up ReLU52
I0305 19:05:35.005635 30632 net.cpp:148] Top shape: 1 10 (10)
I0305 19:05:35.005638 30632 net.cpp:156] Memory required for data: 18004172
I0305 19:05:35.005640 30632 layer_factory.hpp:77] Creating layer InnerProduct53
I0305 19:05:35.005645 30632 net.cpp:91] Creating Layer InnerProduct53
I0305 19:05:35.005650 30632 net.cpp:425] InnerProduct53 <- Slice53
I0305 19:05:35.005655 30632 net.cpp:399] InnerProduct53 -> InnerProduct53
I0305 19:05:35.005858 30632 net.cpp:141] Setting up InnerProduct53
I0305 19:05:35.005862 30632 net.cpp:148] Top shape: 1 10 (10)
I0305 19:05:35.005866 30632 net.cpp:156] Memory required for data: 18004212
I0305 19:05:35.005869 30632 layer_factory.hpp:77] Creating layer ReLU53
I0305 19:05:35.005873 30632 net.cpp:91] Creating Layer ReLU53
I0305 19:05:35.005877 30632 net.cpp:425] ReLU53 <- InnerProduct53
I0305 19:05:35.005880 30632 net.cpp:386] ReLU53 -> InnerProduct53 (in-place)
I0305 19:05:35.005884 30632 net.cpp:141] Setting up ReLU53
I0305 19:05:35.005888 30632 net.cpp:148] Top shape: 1 10 (10)
I0305 19:05:35.005890 30632 net.cpp:156] Memory required for data: 18004252
I0305 19:05:35.005893 30632 layer_factory.hpp:77] Creating layer InnerProduct54
I0305 19:05:35.005897 30632 net.cpp:91] Creating Layer InnerProduct54
I0305 19:05:35.005902 30632 net.cpp:425] InnerProduct54 <- Slice54
I0305 19:05:35.005906 30632 net.cpp:399] InnerProduct54 -> InnerProduct54
I0305 19:05:35.006111 30632 net.cpp:141] Setting up InnerProduct54
I0305 19:05:35.006115 30632 net.cpp:148] Top shape: 1 10 (10)
I0305 19:05:35.006117 30632 net.cpp:156] Memory required for data: 18004292
I0305 19:05:35.006121 30632 layer_factory.hpp:77] Creating layer ReLU54
I0305 19:05:35.006125 30632 net.cpp:91] Creating Layer ReLU54
I0305 19:05:35.006129 30632 net.cpp:425] ReLU54 <- InnerProduct54
I0305 19:05:35.006131 30632 net.cpp:386] ReLU54 -> InnerProduct54 (in-place)
I0305 19:05:35.006135 30632 net.cpp:141] Setting up ReLU54
I0305 19:05:35.006139 30632 net.cpp:148] Top shape: 1 10 (10)
I0305 19:05:35.006141 30632 net.cpp:156] Memory required for data: 18004332
I0305 19:05:35.006148 30632 layer_factory.hpp:77] Creating layer InnerProduct55
I0305 19:05:35.006153 30632 net.cpp:91] Creating Layer InnerProduct55
I0305 19:05:35.006157 30632 net.cpp:425] InnerProduct55 <- Slice55
I0305 19:05:35.006162 30632 net.cpp:399] InnerProduct55 -> InnerProduct55
I0305 19:05:35.006366 30632 net.cpp:141] Setting up InnerProduct55
I0305 19:05:35.006369 30632 net.cpp:148] Top shape: 1 10 (10)
I0305 19:05:35.006372 30632 net.cpp:156] Memory required for data: 18004372
I0305 19:05:35.006376 30632 layer_factory.hpp:77] Creating layer ReLU55
I0305 19:05:35.006381 30632 net.cpp:91] Creating Layer ReLU55
I0305 19:05:35.006383 30632 net.cpp:425] ReLU55 <- InnerProduct55
I0305 19:05:35.006388 30632 net.cpp:386] ReLU55 -> InnerProduct55 (in-place)
I0305 19:05:35.006392 30632 net.cpp:141] Setting up ReLU55
I0305 19:05:35.006397 30632 net.cpp:148] Top shape: 1 10 (10)
I0305 19:05:35.006398 30632 net.cpp:156] Memory required for data: 18004412
I0305 19:05:35.006402 30632 layer_factory.hpp:77] Creating layer InnerProduct56
I0305 19:05:35.006405 30632 net.cpp:91] Creating Layer InnerProduct56
I0305 19:05:35.006409 30632 net.cpp:425] InnerProduct56 <- Slice56
I0305 19:05:35.006415 30632 net.cpp:399] InnerProduct56 -> InnerProduct56
I0305 19:05:35.006616 30632 net.cpp:141] Setting up InnerProduct56
I0305 19:05:35.006620 30632 net.cpp:148] Top shape: 1 10 (10)
I0305 19:05:35.006623 30632 net.cpp:156] Memory required for data: 18004452
I0305 19:05:35.006626 30632 layer_factory.hpp:77] Creating layer ReLU56
I0305 19:05:35.006630 30632 net.cpp:91] Creating Layer ReLU56
I0305 19:05:35.006633 30632 net.cpp:425] ReLU56 <- InnerProduct56
I0305 19:05:35.006638 30632 net.cpp:386] ReLU56 -> InnerProduct56 (in-place)
I0305 19:05:35.006641 30632 net.cpp:141] Setting up ReLU56
I0305 19:05:35.006644 30632 net.cpp:148] Top shape: 1 10 (10)
I0305 19:05:35.006646 30632 net.cpp:156] Memory required for data: 18004492
I0305 19:05:35.006649 30632 layer_factory.hpp:77] Creating layer InnerProduct57
I0305 19:05:35.006654 30632 net.cpp:91] Creating Layer InnerProduct57
I0305 19:05:35.006659 30632 net.cpp:425] InnerProduct57 <- Slice57
I0305 19:05:35.006664 30632 net.cpp:399] InnerProduct57 -> InnerProduct57
I0305 19:05:35.006889 30632 net.cpp:141] Setting up InnerProduct57
I0305 19:05:35.006894 30632 net.cpp:148] Top shape: 1 10 (10)
I0305 19:05:35.006897 30632 net.cpp:156] Memory required for data: 18004532
I0305 19:05:35.006901 30632 layer_factory.hpp:77] Creating layer ReLU57
I0305 19:05:35.006906 30632 net.cpp:91] Creating Layer ReLU57
I0305 19:05:35.006908 30632 net.cpp:425] ReLU57 <- InnerProduct57
I0305 19:05:35.006911 30632 net.cpp:386] ReLU57 -> InnerProduct57 (in-place)
I0305 19:05:35.006916 30632 net.cpp:141] Setting up ReLU57
I0305 19:05:35.006918 30632 net.cpp:148] Top shape: 1 10 (10)
I0305 19:05:35.006922 30632 net.cpp:156] Memory required for data: 18004572
I0305 19:05:35.006924 30632 layer_factory.hpp:77] Creating layer InnerProduct58
I0305 19:05:35.006929 30632 net.cpp:91] Creating Layer InnerProduct58
I0305 19:05:35.006933 30632 net.cpp:425] InnerProduct58 <- Slice58
I0305 19:05:35.006939 30632 net.cpp:399] InnerProduct58 -> InnerProduct58
I0305 19:05:35.007143 30632 net.cpp:141] Setting up InnerProduct58
I0305 19:05:35.007146 30632 net.cpp:148] Top shape: 1 10 (10)
I0305 19:05:35.007148 30632 net.cpp:156] Memory required for data: 18004612
I0305 19:05:35.007153 30632 layer_factory.hpp:77] Creating layer ReLU58
I0305 19:05:35.007156 30632 net.cpp:91] Creating Layer ReLU58
I0305 19:05:35.007159 30632 net.cpp:425] ReLU58 <- InnerProduct58
I0305 19:05:35.007164 30632 net.cpp:386] ReLU58 -> InnerProduct58 (in-place)
I0305 19:05:35.007167 30632 net.cpp:141] Setting up ReLU58
I0305 19:05:35.007170 30632 net.cpp:148] Top shape: 1 10 (10)
I0305 19:05:35.007172 30632 net.cpp:156] Memory required for data: 18004652
I0305 19:05:35.007175 30632 layer_factory.hpp:77] Creating layer InnerProduct59
I0305 19:05:35.007181 30632 net.cpp:91] Creating Layer InnerProduct59
I0305 19:05:35.007184 30632 net.cpp:425] InnerProduct59 <- Slice59
I0305 19:05:35.007192 30632 net.cpp:399] InnerProduct59 -> InnerProduct59
I0305 19:05:35.007393 30632 net.cpp:141] Setting up InnerProduct59
I0305 19:05:35.007397 30632 net.cpp:148] Top shape: 1 10 (10)
I0305 19:05:35.007400 30632 net.cpp:156] Memory required for data: 18004692
I0305 19:05:35.007405 30632 layer_factory.hpp:77] Creating layer ReLU59
I0305 19:05:35.007408 30632 net.cpp:91] Creating Layer ReLU59
I0305 19:05:35.007411 30632 net.cpp:425] ReLU59 <- InnerProduct59
I0305 19:05:35.007414 30632 net.cpp:386] ReLU59 -> InnerProduct59 (in-place)
I0305 19:05:35.007428 30632 net.cpp:141] Setting up ReLU59
I0305 19:05:35.007431 30632 net.cpp:148] Top shape: 1 10 (10)
I0305 19:05:35.007434 30632 net.cpp:156] Memory required for data: 18004732
I0305 19:05:35.007437 30632 layer_factory.hpp:77] Creating layer InnerProduct60
I0305 19:05:35.007442 30632 net.cpp:91] Creating Layer InnerProduct60
I0305 19:05:35.007447 30632 net.cpp:425] InnerProduct60 <- Slice60
I0305 19:05:35.007452 30632 net.cpp:399] InnerProduct60 -> InnerProduct60
I0305 19:05:35.007663 30632 net.cpp:141] Setting up InnerProduct60
I0305 19:05:35.007668 30632 net.cpp:148] Top shape: 1 10 (10)
I0305 19:05:35.007670 30632 net.cpp:156] Memory required for data: 18004772
I0305 19:05:35.007674 30632 layer_factory.hpp:77] Creating layer ReLU60
I0305 19:05:35.007678 30632 net.cpp:91] Creating Layer ReLU60
I0305 19:05:35.007680 30632 net.cpp:425] ReLU60 <- InnerProduct60
I0305 19:05:35.007684 30632 net.cpp:386] ReLU60 -> InnerProduct60 (in-place)
I0305 19:05:35.007688 30632 net.cpp:141] Setting up ReLU60
I0305 19:05:35.007691 30632 net.cpp:148] Top shape: 1 10 (10)
I0305 19:05:35.007694 30632 net.cpp:156] Memory required for data: 18004812
I0305 19:05:35.007696 30632 layer_factory.hpp:77] Creating layer InnerProduct61
I0305 19:05:35.007701 30632 net.cpp:91] Creating Layer InnerProduct61
I0305 19:05:35.007705 30632 net.cpp:425] InnerProduct61 <- Slice61
I0305 19:05:35.007710 30632 net.cpp:399] InnerProduct61 -> InnerProduct61
I0305 19:05:35.007913 30632 net.cpp:141] Setting up InnerProduct61
I0305 19:05:35.007918 30632 net.cpp:148] Top shape: 1 10 (10)
I0305 19:05:35.007921 30632 net.cpp:156] Memory required for data: 18004852
I0305 19:05:35.007925 30632 layer_factory.hpp:77] Creating layer ReLU61
I0305 19:05:35.007928 30632 net.cpp:91] Creating Layer ReLU61
I0305 19:05:35.007931 30632 net.cpp:425] ReLU61 <- InnerProduct61
I0305 19:05:35.007936 30632 net.cpp:386] ReLU61 -> InnerProduct61 (in-place)
I0305 19:05:35.007939 30632 net.cpp:141] Setting up ReLU61
I0305 19:05:35.007942 30632 net.cpp:148] Top shape: 1 10 (10)
I0305 19:05:35.007944 30632 net.cpp:156] Memory required for data: 18004892
I0305 19:05:35.007947 30632 layer_factory.hpp:77] Creating layer InnerProduct62
I0305 19:05:35.007953 30632 net.cpp:91] Creating Layer InnerProduct62
I0305 19:05:35.007956 30632 net.cpp:425] InnerProduct62 <- Slice62
I0305 19:05:35.007961 30632 net.cpp:399] InnerProduct62 -> InnerProduct62
I0305 19:05:35.008164 30632 net.cpp:141] Setting up InnerProduct62
I0305 19:05:35.008169 30632 net.cpp:148] Top shape: 1 10 (10)
I0305 19:05:35.008172 30632 net.cpp:156] Memory required for data: 18004932
I0305 19:05:35.008175 30632 layer_factory.hpp:77] Creating layer ReLU62
I0305 19:05:35.008179 30632 net.cpp:91] Creating Layer ReLU62
I0305 19:05:35.008183 30632 net.cpp:425] ReLU62 <- InnerProduct62
I0305 19:05:35.008186 30632 net.cpp:386] ReLU62 -> InnerProduct62 (in-place)
I0305 19:05:35.008190 30632 net.cpp:141] Setting up ReLU62
I0305 19:05:35.008193 30632 net.cpp:148] Top shape: 1 10 (10)
I0305 19:05:35.008196 30632 net.cpp:156] Memory required for data: 18004972
I0305 19:05:35.008199 30632 layer_factory.hpp:77] Creating layer InnerProduct63
I0305 19:05:35.008213 30632 net.cpp:91] Creating Layer InnerProduct63
I0305 19:05:35.008218 30632 net.cpp:425] InnerProduct63 <- Slice63
I0305 19:05:35.008221 30632 net.cpp:399] InnerProduct63 -> InnerProduct63
I0305 19:05:35.008424 30632 net.cpp:141] Setting up InnerProduct63
I0305 19:05:35.008430 30632 net.cpp:148] Top shape: 1 10 (10)
I0305 19:05:35.008431 30632 net.cpp:156] Memory required for data: 18005012
I0305 19:05:35.008438 30632 layer_factory.hpp:77] Creating layer ReLU63
I0305 19:05:35.008443 30632 net.cpp:91] Creating Layer ReLU63
I0305 19:05:35.008446 30632 net.cpp:425] ReLU63 <- InnerProduct63
I0305 19:05:35.008450 30632 net.cpp:386] ReLU63 -> InnerProduct63 (in-place)
I0305 19:05:35.008455 30632 net.cpp:141] Setting up ReLU63
I0305 19:05:35.008457 30632 net.cpp:148] Top shape: 1 10 (10)
I0305 19:05:35.008460 30632 net.cpp:156] Memory required for data: 18005052
I0305 19:05:35.008462 30632 layer_factory.hpp:77] Creating layer InnerProduct64
I0305 19:05:35.008467 30632 net.cpp:91] Creating Layer InnerProduct64
I0305 19:05:35.008471 30632 net.cpp:425] InnerProduct64 <- Slice64
I0305 19:05:35.008476 30632 net.cpp:399] InnerProduct64 -> InnerProduct64
I0305 19:05:35.008699 30632 net.cpp:141] Setting up InnerProduct64
I0305 19:05:35.008703 30632 net.cpp:148] Top shape: 1 10 (10)
I0305 19:05:35.008705 30632 net.cpp:156] Memory required for data: 18005092
I0305 19:05:35.008709 30632 layer_factory.hpp:77] Creating layer ReLU64
I0305 19:05:35.008714 30632 net.cpp:91] Creating Layer ReLU64
I0305 19:05:35.008718 30632 net.cpp:425] ReLU64 <- InnerProduct64
I0305 19:05:35.008721 30632 net.cpp:386] ReLU64 -> InnerProduct64 (in-place)
I0305 19:05:35.008728 30632 net.cpp:141] Setting up ReLU64
I0305 19:05:35.008731 30632 net.cpp:148] Top shape: 1 10 (10)
I0305 19:05:35.008733 30632 net.cpp:156] Memory required for data: 18005132
I0305 19:05:35.008736 30632 layer_factory.hpp:77] Creating layer InnerProduct65
I0305 19:05:35.008741 30632 net.cpp:91] Creating Layer InnerProduct65
I0305 19:05:35.008744 30632 net.cpp:425] InnerProduct65 <- Slice65
I0305 19:05:35.008750 30632 net.cpp:399] InnerProduct65 -> InnerProduct65
I0305 19:05:35.008952 30632 net.cpp:141] Setting up InnerProduct65
I0305 19:05:35.008956 30632 net.cpp:148] Top shape: 1 10 (10)
I0305 19:05:35.008960 30632 net.cpp:156] Memory required for data: 18005172
I0305 19:05:35.008975 30632 layer_factory.hpp:77] Creating layer ReLU65
I0305 19:05:35.008980 30632 net.cpp:91] Creating Layer ReLU65
I0305 19:05:35.008983 30632 net.cpp:425] ReLU65 <- InnerProduct65
I0305 19:05:35.008996 30632 net.cpp:386] ReLU65 -> InnerProduct65 (in-place)
I0305 19:05:35.009001 30632 net.cpp:141] Setting up ReLU65
I0305 19:05:35.009004 30632 net.cpp:148] Top shape: 1 10 (10)
I0305 19:05:35.009007 30632 net.cpp:156] Memory required for data: 18005212
I0305 19:05:35.009011 30632 layer_factory.hpp:77] Creating layer InnerProduct66
I0305 19:05:35.009016 30632 net.cpp:91] Creating Layer InnerProduct66
I0305 19:05:35.009019 30632 net.cpp:425] InnerProduct66 <- Slice66
I0305 19:05:35.009023 30632 net.cpp:399] InnerProduct66 -> InnerProduct66
I0305 19:05:35.009237 30632 net.cpp:141] Setting up InnerProduct66
I0305 19:05:35.009240 30632 net.cpp:148] Top shape: 1 10 (10)
I0305 19:05:35.009243 30632 net.cpp:156] Memory required for data: 18005252
I0305 19:05:35.009248 30632 layer_factory.hpp:77] Creating layer ReLU66
I0305 19:05:35.009253 30632 net.cpp:91] Creating Layer ReLU66
I0305 19:05:35.009255 30632 net.cpp:425] ReLU66 <- InnerProduct66
I0305 19:05:35.009259 30632 net.cpp:386] ReLU66 -> InnerProduct66 (in-place)
I0305 19:05:35.009263 30632 net.cpp:141] Setting up ReLU66
I0305 19:05:35.009266 30632 net.cpp:148] Top shape: 1 10 (10)
I0305 19:05:35.009269 30632 net.cpp:156] Memory required for data: 18005292
I0305 19:05:35.009271 30632 layer_factory.hpp:77] Creating layer InnerProduct67
I0305 19:05:35.009277 30632 net.cpp:91] Creating Layer InnerProduct67
I0305 19:05:35.009281 30632 net.cpp:425] InnerProduct67 <- Slice67
I0305 19:05:35.009285 30632 net.cpp:399] InnerProduct67 -> InnerProduct67
I0305 19:05:35.009487 30632 net.cpp:141] Setting up InnerProduct67
I0305 19:05:35.009491 30632 net.cpp:148] Top shape: 1 10 (10)
I0305 19:05:35.009493 30632 net.cpp:156] Memory required for data: 18005332
I0305 19:05:35.009497 30632 layer_factory.hpp:77] Creating layer ReLU67
I0305 19:05:35.009502 30632 net.cpp:91] Creating Layer ReLU67
I0305 19:05:35.009505 30632 net.cpp:425] ReLU67 <- InnerProduct67
I0305 19:05:35.009511 30632 net.cpp:386] ReLU67 -> InnerProduct67 (in-place)
I0305 19:05:35.009516 30632 net.cpp:141] Setting up ReLU67
I0305 19:05:35.009519 30632 net.cpp:148] Top shape: 1 10 (10)
I0305 19:05:35.009521 30632 net.cpp:156] Memory required for data: 18005372
I0305 19:05:35.009524 30632 layer_factory.hpp:77] Creating layer InnerProduct68
I0305 19:05:35.009529 30632 net.cpp:91] Creating Layer InnerProduct68
I0305 19:05:35.009533 30632 net.cpp:425] InnerProduct68 <- Slice68
I0305 19:05:35.009537 30632 net.cpp:399] InnerProduct68 -> InnerProduct68
I0305 19:05:35.009752 30632 net.cpp:141] Setting up InnerProduct68
I0305 19:05:35.009757 30632 net.cpp:148] Top shape: 1 10 (10)
I0305 19:05:35.009760 30632 net.cpp:156] Memory required for data: 18005412
I0305 19:05:35.009764 30632 layer_factory.hpp:77] Creating layer ReLU68
I0305 19:05:35.009769 30632 net.cpp:91] Creating Layer ReLU68
I0305 19:05:35.009773 30632 net.cpp:425] ReLU68 <- InnerProduct68
I0305 19:05:35.009776 30632 net.cpp:386] ReLU68 -> InnerProduct68 (in-place)
I0305 19:05:35.009789 30632 net.cpp:141] Setting up ReLU68
I0305 19:05:35.009793 30632 net.cpp:148] Top shape: 1 10 (10)
I0305 19:05:35.009795 30632 net.cpp:156] Memory required for data: 18005452
I0305 19:05:35.009798 30632 layer_factory.hpp:77] Creating layer InnerProduct69
I0305 19:05:35.009804 30632 net.cpp:91] Creating Layer InnerProduct69
I0305 19:05:35.009807 30632 net.cpp:425] InnerProduct69 <- Slice69
I0305 19:05:35.009811 30632 net.cpp:399] InnerProduct69 -> InnerProduct69
I0305 19:05:35.010015 30632 net.cpp:141] Setting up InnerProduct69
I0305 19:05:35.010020 30632 net.cpp:148] Top shape: 1 10 (10)
I0305 19:05:35.010022 30632 net.cpp:156] Memory required for data: 18005492
I0305 19:05:35.010026 30632 layer_factory.hpp:77] Creating layer ReLU69
I0305 19:05:35.010031 30632 net.cpp:91] Creating Layer ReLU69
I0305 19:05:35.010035 30632 net.cpp:425] ReLU69 <- InnerProduct69
I0305 19:05:35.010038 30632 net.cpp:386] ReLU69 -> InnerProduct69 (in-place)
I0305 19:05:35.010042 30632 net.cpp:141] Setting up ReLU69
I0305 19:05:35.010046 30632 net.cpp:148] Top shape: 1 10 (10)
I0305 19:05:35.010048 30632 net.cpp:156] Memory required for data: 18005532
I0305 19:05:35.010051 30632 layer_factory.hpp:77] Creating layer InnerProduct70
I0305 19:05:35.010056 30632 net.cpp:91] Creating Layer InnerProduct70
I0305 19:05:35.010061 30632 net.cpp:425] InnerProduct70 <- Slice70
I0305 19:05:35.010064 30632 net.cpp:399] InnerProduct70 -> InnerProduct70
I0305 19:05:35.010265 30632 net.cpp:141] Setting up InnerProduct70
I0305 19:05:35.010269 30632 net.cpp:148] Top shape: 1 10 (10)
I0305 19:05:35.010272 30632 net.cpp:156] Memory required for data: 18005572
I0305 19:05:35.010277 30632 layer_factory.hpp:77] Creating layer ReLU70
I0305 19:05:35.010282 30632 net.cpp:91] Creating Layer ReLU70
I0305 19:05:35.010285 30632 net.cpp:425] ReLU70 <- InnerProduct70
I0305 19:05:35.010288 30632 net.cpp:386] ReLU70 -> InnerProduct70 (in-place)
I0305 19:05:35.010293 30632 net.cpp:141] Setting up ReLU70
I0305 19:05:35.010295 30632 net.cpp:148] Top shape: 1 10 (10)
I0305 19:05:35.010298 30632 net.cpp:156] Memory required for data: 18005612
I0305 19:05:35.010301 30632 layer_factory.hpp:77] Creating layer InnerProduct71
I0305 19:05:35.010306 30632 net.cpp:91] Creating Layer InnerProduct71
I0305 19:05:35.010309 30632 net.cpp:425] InnerProduct71 <- Slice71
I0305 19:05:35.010314 30632 net.cpp:399] InnerProduct71 -> InnerProduct71
I0305 19:05:35.010515 30632 net.cpp:141] Setting up InnerProduct71
I0305 19:05:35.010519 30632 net.cpp:148] Top shape: 1 10 (10)
I0305 19:05:35.010521 30632 net.cpp:156] Memory required for data: 18005652
I0305 19:05:35.010525 30632 layer_factory.hpp:77] Creating layer ReLU71
I0305 19:05:35.010530 30632 net.cpp:91] Creating Layer ReLU71
I0305 19:05:35.010534 30632 net.cpp:425] ReLU71 <- InnerProduct71
I0305 19:05:35.010537 30632 net.cpp:386] ReLU71 -> InnerProduct71 (in-place)
I0305 19:05:35.010541 30632 net.cpp:141] Setting up ReLU71
I0305 19:05:35.010545 30632 net.cpp:148] Top shape: 1 10 (10)
I0305 19:05:35.010550 30632 net.cpp:156] Memory required for data: 18005692
I0305 19:05:35.010552 30632 layer_factory.hpp:77] Creating layer InnerProduct72
I0305 19:05:35.010558 30632 net.cpp:91] Creating Layer InnerProduct72
I0305 19:05:35.010561 30632 net.cpp:425] InnerProduct72 <- Slice72
I0305 19:05:35.010565 30632 net.cpp:399] InnerProduct72 -> InnerProduct72
I0305 19:05:35.010772 30632 net.cpp:141] Setting up InnerProduct72
I0305 19:05:35.010778 30632 net.cpp:148] Top shape: 1 10 (10)
I0305 19:05:35.010781 30632 net.cpp:156] Memory required for data: 18005732
I0305 19:05:35.010784 30632 layer_factory.hpp:77] Creating layer ReLU72
I0305 19:05:35.010789 30632 net.cpp:91] Creating Layer ReLU72
I0305 19:05:35.010793 30632 net.cpp:425] ReLU72 <- InnerProduct72
I0305 19:05:35.010797 30632 net.cpp:386] ReLU72 -> InnerProduct72 (in-place)
I0305 19:05:35.010800 30632 net.cpp:141] Setting up ReLU72
I0305 19:05:35.010804 30632 net.cpp:148] Top shape: 1 10 (10)
I0305 19:05:35.010807 30632 net.cpp:156] Memory required for data: 18005772
I0305 19:05:35.010809 30632 layer_factory.hpp:77] Creating layer InnerProduct73
I0305 19:05:35.010814 30632 net.cpp:91] Creating Layer InnerProduct73
I0305 19:05:35.010818 30632 net.cpp:425] InnerProduct73 <- Slice73
I0305 19:05:35.010823 30632 net.cpp:399] InnerProduct73 -> InnerProduct73
I0305 19:05:35.011024 30632 net.cpp:141] Setting up InnerProduct73
I0305 19:05:35.011029 30632 net.cpp:148] Top shape: 1 10 (10)
I0305 19:05:35.011031 30632 net.cpp:156] Memory required for data: 18005812
I0305 19:05:35.011035 30632 layer_factory.hpp:77] Creating layer ReLU73
I0305 19:05:35.011039 30632 net.cpp:91] Creating Layer ReLU73
I0305 19:05:35.011044 30632 net.cpp:425] ReLU73 <- InnerProduct73
I0305 19:05:35.011046 30632 net.cpp:386] ReLU73 -> InnerProduct73 (in-place)
I0305 19:05:35.011050 30632 net.cpp:141] Setting up ReLU73
I0305 19:05:35.011054 30632 net.cpp:148] Top shape: 1 10 (10)
I0305 19:05:35.011056 30632 net.cpp:156] Memory required for data: 18005852
I0305 19:05:35.011059 30632 layer_factory.hpp:77] Creating layer InnerProduct74
I0305 19:05:35.011065 30632 net.cpp:91] Creating Layer InnerProduct74
I0305 19:05:35.011067 30632 net.cpp:425] InnerProduct74 <- Slice74
I0305 19:05:35.011072 30632 net.cpp:399] InnerProduct74 -> InnerProduct74
I0305 19:05:35.011273 30632 net.cpp:141] Setting up InnerProduct74
I0305 19:05:35.011277 30632 net.cpp:148] Top shape: 1 10 (10)
I0305 19:05:35.011281 30632 net.cpp:156] Memory required for data: 18005892
I0305 19:05:35.011284 30632 layer_factory.hpp:77] Creating layer ReLU74
I0305 19:05:35.011289 30632 net.cpp:91] Creating Layer ReLU74
I0305 19:05:35.011292 30632 net.cpp:425] ReLU74 <- InnerProduct74
I0305 19:05:35.011296 30632 net.cpp:386] ReLU74 -> InnerProduct74 (in-place)
I0305 19:05:35.011301 30632 net.cpp:141] Setting up ReLU74
I0305 19:05:35.011303 30632 net.cpp:148] Top shape: 1 10 (10)
I0305 19:05:35.011306 30632 net.cpp:156] Memory required for data: 18005932
I0305 19:05:35.011308 30632 layer_factory.hpp:77] Creating layer InnerProduct75
I0305 19:05:35.011314 30632 net.cpp:91] Creating Layer InnerProduct75
I0305 19:05:35.011318 30632 net.cpp:425] InnerProduct75 <- Slice75
I0305 19:05:35.011322 30632 net.cpp:399] InnerProduct75 -> InnerProduct75
I0305 19:05:35.011544 30632 net.cpp:141] Setting up InnerProduct75
I0305 19:05:35.011548 30632 net.cpp:148] Top shape: 1 10 (10)
I0305 19:05:35.011551 30632 net.cpp:156] Memory required for data: 18005972
I0305 19:05:35.011555 30632 layer_factory.hpp:77] Creating layer ReLU75
I0305 19:05:35.011559 30632 net.cpp:91] Creating Layer ReLU75
I0305 19:05:35.011562 30632 net.cpp:425] ReLU75 <- InnerProduct75
I0305 19:05:35.011566 30632 net.cpp:386] ReLU75 -> InnerProduct75 (in-place)
I0305 19:05:35.011570 30632 net.cpp:141] Setting up ReLU75
I0305 19:05:35.011574 30632 net.cpp:148] Top shape: 1 10 (10)
I0305 19:05:35.011576 30632 net.cpp:156] Memory required for data: 18006012
I0305 19:05:35.011579 30632 layer_factory.hpp:77] Creating layer InnerProduct76
I0305 19:05:35.011584 30632 net.cpp:91] Creating Layer InnerProduct76
I0305 19:05:35.011590 30632 net.cpp:425] InnerProduct76 <- Slice76
I0305 19:05:35.011595 30632 net.cpp:399] InnerProduct76 -> InnerProduct76
I0305 19:05:35.011816 30632 net.cpp:141] Setting up InnerProduct76
I0305 19:05:35.011821 30632 net.cpp:148] Top shape: 1 10 (10)
I0305 19:05:35.011823 30632 net.cpp:156] Memory required for data: 18006052
I0305 19:05:35.011827 30632 layer_factory.hpp:77] Creating layer ReLU76
I0305 19:05:35.011832 30632 net.cpp:91] Creating Layer ReLU76
I0305 19:05:35.011837 30632 net.cpp:425] ReLU76 <- InnerProduct76
I0305 19:05:35.011839 30632 net.cpp:386] ReLU76 -> InnerProduct76 (in-place)
I0305 19:05:35.011844 30632 net.cpp:141] Setting up ReLU76
I0305 19:05:35.011847 30632 net.cpp:148] Top shape: 1 10 (10)
I0305 19:05:35.011850 30632 net.cpp:156] Memory required for data: 18006092
I0305 19:05:35.011852 30632 layer_factory.hpp:77] Creating layer InnerProduct77
I0305 19:05:35.011858 30632 net.cpp:91] Creating Layer InnerProduct77
I0305 19:05:35.011862 30632 net.cpp:425] InnerProduct77 <- Slice77
I0305 19:05:35.011865 30632 net.cpp:399] InnerProduct77 -> InnerProduct77
I0305 19:05:35.012079 30632 net.cpp:141] Setting up InnerProduct77
I0305 19:05:35.012082 30632 net.cpp:148] Top shape: 1 10 (10)
I0305 19:05:35.012085 30632 net.cpp:156] Memory required for data: 18006132
I0305 19:05:35.012089 30632 layer_factory.hpp:77] Creating layer ReLU77
I0305 19:05:35.012094 30632 net.cpp:91] Creating Layer ReLU77
I0305 19:05:35.012097 30632 net.cpp:425] ReLU77 <- InnerProduct77
I0305 19:05:35.012101 30632 net.cpp:386] ReLU77 -> InnerProduct77 (in-place)
I0305 19:05:35.012105 30632 net.cpp:141] Setting up ReLU77
I0305 19:05:35.012109 30632 net.cpp:148] Top shape: 1 10 (10)
I0305 19:05:35.012110 30632 net.cpp:156] Memory required for data: 18006172
I0305 19:05:35.012114 30632 layer_factory.hpp:77] Creating layer InnerProduct78
I0305 19:05:35.012118 30632 net.cpp:91] Creating Layer InnerProduct78
I0305 19:05:35.012122 30632 net.cpp:425] InnerProduct78 <- Slice78
I0305 19:05:35.012126 30632 net.cpp:399] InnerProduct78 -> InnerProduct78
I0305 19:05:35.012328 30632 net.cpp:141] Setting up InnerProduct78
I0305 19:05:35.012333 30632 net.cpp:148] Top shape: 1 10 (10)
I0305 19:05:35.012336 30632 net.cpp:156] Memory required for data: 18006212
I0305 19:05:35.012339 30632 layer_factory.hpp:77] Creating layer ReLU78
I0305 19:05:35.012344 30632 net.cpp:91] Creating Layer ReLU78
I0305 19:05:35.012347 30632 net.cpp:425] ReLU78 <- InnerProduct78
I0305 19:05:35.012351 30632 net.cpp:386] ReLU78 -> InnerProduct78 (in-place)
I0305 19:05:35.012354 30632 net.cpp:141] Setting up ReLU78
I0305 19:05:35.012357 30632 net.cpp:148] Top shape: 1 10 (10)
I0305 19:05:35.012361 30632 net.cpp:156] Memory required for data: 18006252
I0305 19:05:35.012363 30632 layer_factory.hpp:77] Creating layer InnerProduct79
I0305 19:05:35.012368 30632 net.cpp:91] Creating Layer InnerProduct79
I0305 19:05:35.012372 30632 net.cpp:425] InnerProduct79 <- Slice79
I0305 19:05:35.012377 30632 net.cpp:399] InnerProduct79 -> InnerProduct79
I0305 19:05:35.012579 30632 net.cpp:141] Setting up InnerProduct79
I0305 19:05:35.012583 30632 net.cpp:148] Top shape: 1 10 (10)
I0305 19:05:35.012586 30632 net.cpp:156] Memory required for data: 18006292
I0305 19:05:35.012590 30632 layer_factory.hpp:77] Creating layer ReLU79
I0305 19:05:35.012594 30632 net.cpp:91] Creating Layer ReLU79
I0305 19:05:35.012598 30632 net.cpp:425] ReLU79 <- InnerProduct79
I0305 19:05:35.012601 30632 net.cpp:386] ReLU79 -> InnerProduct79 (in-place)
I0305 19:05:35.012605 30632 net.cpp:141] Setting up ReLU79
I0305 19:05:35.012609 30632 net.cpp:148] Top shape: 1 10 (10)
I0305 19:05:35.012611 30632 net.cpp:156] Memory required for data: 18006332
I0305 19:05:35.012614 30632 layer_factory.hpp:77] Creating layer InnerProduct80
I0305 19:05:35.012619 30632 net.cpp:91] Creating Layer InnerProduct80
I0305 19:05:35.012622 30632 net.cpp:425] InnerProduct80 <- Slice80
I0305 19:05:35.012627 30632 net.cpp:399] InnerProduct80 -> InnerProduct80
I0305 19:05:35.012852 30632 net.cpp:141] Setting up InnerProduct80
I0305 19:05:35.012859 30632 net.cpp:148] Top shape: 1 10 (10)
I0305 19:05:35.012861 30632 net.cpp:156] Memory required for data: 18006372
I0305 19:05:35.012866 30632 layer_factory.hpp:77] Creating layer ReLU80
I0305 19:05:35.012869 30632 net.cpp:91] Creating Layer ReLU80
I0305 19:05:35.012873 30632 net.cpp:425] ReLU80 <- InnerProduct80
I0305 19:05:35.012877 30632 net.cpp:386] ReLU80 -> InnerProduct80 (in-place)
I0305 19:05:35.012881 30632 net.cpp:141] Setting up ReLU80
I0305 19:05:35.012886 30632 net.cpp:148] Top shape: 1 10 (10)
I0305 19:05:35.012887 30632 net.cpp:156] Memory required for data: 18006412
I0305 19:05:35.012890 30632 layer_factory.hpp:77] Creating layer InnerProduct81
I0305 19:05:35.012895 30632 net.cpp:91] Creating Layer InnerProduct81
I0305 19:05:35.012899 30632 net.cpp:425] InnerProduct81 <- Slice81
I0305 19:05:35.012903 30632 net.cpp:399] InnerProduct81 -> InnerProduct81
I0305 19:05:35.013106 30632 net.cpp:141] Setting up InnerProduct81
I0305 19:05:35.013110 30632 net.cpp:148] Top shape: 1 10 (10)
I0305 19:05:35.013113 30632 net.cpp:156] Memory required for data: 18006452
I0305 19:05:35.013118 30632 layer_factory.hpp:77] Creating layer ReLU81
I0305 19:05:35.013121 30632 net.cpp:91] Creating Layer ReLU81
I0305 19:05:35.013124 30632 net.cpp:425] ReLU81 <- InnerProduct81
I0305 19:05:35.013128 30632 net.cpp:386] ReLU81 -> InnerProduct81 (in-place)
I0305 19:05:35.013133 30632 net.cpp:141] Setting up ReLU81
I0305 19:05:35.013136 30632 net.cpp:148] Top shape: 1 10 (10)
I0305 19:05:35.013139 30632 net.cpp:156] Memory required for data: 18006492
I0305 19:05:35.013141 30632 layer_factory.hpp:77] Creating layer InnerProduct82
I0305 19:05:35.013146 30632 net.cpp:91] Creating Layer InnerProduct82
I0305 19:05:35.013150 30632 net.cpp:425] InnerProduct82 <- Slice82
I0305 19:05:35.013154 30632 net.cpp:399] InnerProduct82 -> InnerProduct82
I0305 19:05:35.013355 30632 net.cpp:141] Setting up InnerProduct82
I0305 19:05:35.013360 30632 net.cpp:148] Top shape: 1 10 (10)
I0305 19:05:35.013362 30632 net.cpp:156] Memory required for data: 18006532
I0305 19:05:35.013366 30632 layer_factory.hpp:77] Creating layer ReLU82
I0305 19:05:35.013370 30632 net.cpp:91] Creating Layer ReLU82
I0305 19:05:35.013373 30632 net.cpp:425] ReLU82 <- InnerProduct82
I0305 19:05:35.013377 30632 net.cpp:386] ReLU82 -> InnerProduct82 (in-place)
I0305 19:05:35.013381 30632 net.cpp:141] Setting up ReLU82
I0305 19:05:35.013384 30632 net.cpp:148] Top shape: 1 10 (10)
I0305 19:05:35.013387 30632 net.cpp:156] Memory required for data: 18006572
I0305 19:05:35.013391 30632 layer_factory.hpp:77] Creating layer InnerProduct83
I0305 19:05:35.013394 30632 net.cpp:91] Creating Layer InnerProduct83
I0305 19:05:35.013399 30632 net.cpp:425] InnerProduct83 <- Slice83
I0305 19:05:35.013403 30632 net.cpp:399] InnerProduct83 -> InnerProduct83
I0305 19:05:35.013605 30632 net.cpp:141] Setting up InnerProduct83
I0305 19:05:35.013609 30632 net.cpp:148] Top shape: 1 10 (10)
I0305 19:05:35.013612 30632 net.cpp:156] Memory required for data: 18006612
I0305 19:05:35.013617 30632 layer_factory.hpp:77] Creating layer ReLU83
I0305 19:05:35.013620 30632 net.cpp:91] Creating Layer ReLU83
I0305 19:05:35.013623 30632 net.cpp:425] ReLU83 <- InnerProduct83
I0305 19:05:35.013628 30632 net.cpp:386] ReLU83 -> InnerProduct83 (in-place)
I0305 19:05:35.013631 30632 net.cpp:141] Setting up ReLU83
I0305 19:05:35.013635 30632 net.cpp:148] Top shape: 1 10 (10)
I0305 19:05:35.013638 30632 net.cpp:156] Memory required for data: 18006652
I0305 19:05:35.013640 30632 layer_factory.hpp:77] Creating layer InnerProduct84
I0305 19:05:35.013644 30632 net.cpp:91] Creating Layer InnerProduct84
I0305 19:05:35.013648 30632 net.cpp:425] InnerProduct84 <- Slice84
I0305 19:05:35.013653 30632 net.cpp:399] InnerProduct84 -> InnerProduct84
I0305 19:05:35.013867 30632 net.cpp:141] Setting up InnerProduct84
I0305 19:05:35.013872 30632 net.cpp:148] Top shape: 1 10 (10)
I0305 19:05:35.013875 30632 net.cpp:156] Memory required for data: 18006692
I0305 19:05:35.013880 30632 layer_factory.hpp:77] Creating layer ReLU84
I0305 19:05:35.013885 30632 net.cpp:91] Creating Layer ReLU84
I0305 19:05:35.013888 30632 net.cpp:425] ReLU84 <- InnerProduct84
I0305 19:05:35.013895 30632 net.cpp:386] ReLU84 -> InnerProduct84 (in-place)
I0305 19:05:35.013898 30632 net.cpp:141] Setting up ReLU84
I0305 19:05:35.013902 30632 net.cpp:148] Top shape: 1 10 (10)
I0305 19:05:35.013906 30632 net.cpp:156] Memory required for data: 18006732
I0305 19:05:35.013907 30632 layer_factory.hpp:77] Creating layer InnerProduct85
I0305 19:05:35.013912 30632 net.cpp:91] Creating Layer InnerProduct85
I0305 19:05:35.013916 30632 net.cpp:425] InnerProduct85 <- Slice85
I0305 19:05:35.013921 30632 net.cpp:399] InnerProduct85 -> InnerProduct85
I0305 19:05:35.014134 30632 net.cpp:141] Setting up InnerProduct85
I0305 19:05:35.014138 30632 net.cpp:148] Top shape: 1 10 (10)
I0305 19:05:35.014142 30632 net.cpp:156] Memory required for data: 18006772
I0305 19:05:35.014145 30632 layer_factory.hpp:77] Creating layer ReLU85
I0305 19:05:35.014149 30632 net.cpp:91] Creating Layer ReLU85
I0305 19:05:35.014153 30632 net.cpp:425] ReLU85 <- InnerProduct85
I0305 19:05:35.014158 30632 net.cpp:386] ReLU85 -> InnerProduct85 (in-place)
I0305 19:05:35.014161 30632 net.cpp:141] Setting up ReLU85
I0305 19:05:35.014164 30632 net.cpp:148] Top shape: 1 10 (10)
I0305 19:05:35.014168 30632 net.cpp:156] Memory required for data: 18006812
I0305 19:05:35.014170 30632 layer_factory.hpp:77] Creating layer InnerProduct86
I0305 19:05:35.014174 30632 net.cpp:91] Creating Layer InnerProduct86
I0305 19:05:35.014178 30632 net.cpp:425] InnerProduct86 <- Slice86
I0305 19:05:35.014183 30632 net.cpp:399] InnerProduct86 -> InnerProduct86
I0305 19:05:35.014384 30632 net.cpp:141] Setting up InnerProduct86
…
I0305 19:05:35.253643 30632 net.cpp:425] InnerProduct1005 <- Slice1005
I0305 19:05:35.253648 30632 net.cpp:399] InnerProduct1005 -> InnerProduct1005
I0305 19:05:35.253832 30632 net.cpp:141] Setting up InnerProduct1005
I0305 19:05:35.253837 30632 net.cpp:148] Top shape: 1 10 (10)
I0305 19:05:35.253840 30632 net.cpp:156] Memory required for data: 18160372
I0305 19:05:35.253844 30632 layer_factory.hpp:77] Creating layer ReLU1005
I0305 19:05:35.253847 30632 net.cpp:91] Creating Layer ReLU1005
I0305 19:05:35.253850 30632 net.cpp:425] ReLU1005 <- InnerProduct1005
I0305 19:05:35.253855 30632 net.cpp:386] ReLU1005 -> InnerProduct1005 (in-place)
I0305 19:05:35.253859 30632 net.cpp:141] Setting up ReLU1005
I0305 19:05:35.253862 30632 net.cpp:148] Top shape: 1 10 (10)
I0305 19:05:35.253865 30632 net.cpp:156] Memory required for data: 18160412
I0305 19:05:35.253867 30632 layer_factory.hpp:77] Creating layer InnerProduct1006
I0305 19:05:35.253871 30632 net.cpp:91] Creating Layer InnerProduct1006
I0305 19:05:35.253875 30632 net.cpp:425] InnerProduct1006 <- Slice1006
I0305 19:05:35.253878 30632 net.cpp:399] InnerProduct1006 -> InnerProduct1006
I0305 19:05:35.254063 30632 net.cpp:141] Setting up InnerProduct1006
I0305 19:05:35.254067 30632 net.cpp:148] Top shape: 1 10 (10)
I0305 19:05:35.254070 30632 net.cpp:156] Memory required for data: 18160452
I0305 19:05:35.254075 30632 layer_factory.hpp:77] Creating layer ReLU1006
I0305 19:05:35.254078 30632 net.cpp:91] Creating Layer ReLU1006
I0305 19:05:35.254081 30632 net.cpp:425] ReLU1006 <- InnerProduct1006
I0305 19:05:35.254084 30632 net.cpp:386] ReLU1006 -> InnerProduct1006 (in-place)
I0305 19:05:35.254088 30632 net.cpp:141] Setting up ReLU1006
I0305 19:05:35.254091 30632 net.cpp:148] Top shape: 1 10 (10)
I0305 19:05:35.254094 30632 net.cpp:156] Memory required for data: 18160492
I0305 19:05:35.254096 30632 layer_factory.hpp:77] Creating layer InnerProduct1007
I0305 19:05:35.254101 30632 net.cpp:91] Creating Layer InnerProduct1007
I0305 19:05:35.254103 30632 net.cpp:425] InnerProduct1007 <- Slice1007
I0305 19:05:35.254108 30632 net.cpp:399] InnerProduct1007 -> InnerProduct1007
I0305 19:05:35.254354 30632 net.cpp:141] Setting up InnerProduct1007
I0305 19:05:35.254359 30632 net.cpp:148] Top shape: 1 10 (10)
I0305 19:05:35.254361 30632 net.cpp:156] Memory required for data: 18160532
I0305 19:05:35.254365 30632 layer_factory.hpp:77] Creating layer ReLU1007
I0305 19:05:35.254369 30632 net.cpp:91] Creating Layer ReLU1007
I0305 19:05:35.254371 30632 net.cpp:425] ReLU1007 <- InnerProduct1007
I0305 19:05:35.254375 30632 net.cpp:386] ReLU1007 -> InnerProduct1007 (in-place)
I0305 19:05:35.254379 30632 net.cpp:141] Setting up ReLU1007
I0305 19:05:35.254382 30632 net.cpp:148] Top shape: 1 10 (10)
I0305 19:05:35.254384 30632 net.cpp:156] Memory required for data: 18160572
I0305 19:05:35.254387 30632 layer_factory.hpp:77] Creating layer InnerProduct1008
I0305 19:05:35.254391 30632 net.cpp:91] Creating Layer InnerProduct1008
I0305 19:05:35.254395 30632 net.cpp:425] InnerProduct1008 <- Slice1008
I0305 19:05:35.254400 30632 net.cpp:399] InnerProduct1008 -> InnerProduct1008
I0305 19:05:35.254585 30632 net.cpp:141] Setting up InnerProduct1008
I0305 19:05:35.254588 30632 net.cpp:148] Top shape: 1 10 (10)
I0305 19:05:35.254591 30632 net.cpp:156] Memory required for data: 18160612
I0305 19:05:35.254595 30632 layer_factory.hpp:77] Creating layer ReLU1008
I0305 19:05:35.254598 30632 net.cpp:91] Creating Layer ReLU1008
I0305 19:05:35.254601 30632 net.cpp:425] ReLU1008 <- InnerProduct1008
I0305 19:05:35.254606 30632 net.cpp:386] ReLU1008 -> InnerProduct1008 (in-place)
I0305 19:05:35.254609 30632 net.cpp:141] Setting up ReLU1008
I0305 19:05:35.254612 30632 net.cpp:148] Top shape: 1 10 (10)
I0305 19:05:35.254616 30632 net.cpp:156] Memory required for data: 18160652
I0305 19:05:35.254618 30632 layer_factory.hpp:77] Creating layer InnerProduct1009
I0305 19:05:35.254622 30632 net.cpp:91] Creating Layer InnerProduct1009
I0305 19:05:35.254626 30632 net.cpp:425] InnerProduct1009 <- Slice1009
I0305 19:05:35.254629 30632 net.cpp:399] InnerProduct1009 -> InnerProduct1009
I0305 19:05:35.254814 30632 net.cpp:141] Setting up InnerProduct1009
I0305 19:05:35.254819 30632 net.cpp:148] Top shape: 1 10 (10)
I0305 19:05:35.254822 30632 net.cpp:156] Memory required for data: 18160692
I0305 19:05:35.254825 30632 layer_factory.hpp:77] Creating layer ReLU1009
I0305 19:05:35.254830 30632 net.cpp:91] Creating Layer ReLU1009
I0305 19:05:35.254833 30632 net.cpp:425] ReLU1009 <- InnerProduct1009
I0305 19:05:35.254837 30632 net.cpp:386] ReLU1009 -> InnerProduct1009 (in-place)
I0305 19:05:35.254840 30632 net.cpp:141] Setting up ReLU1009
I0305 19:05:35.254843 30632 net.cpp:148] Top shape: 1 10 (10)
I0305 19:05:35.254847 30632 net.cpp:156] Memory required for data: 18160732
I0305 19:05:35.254848 30632 layer_factory.hpp:77] Creating layer InnerProduct1010
I0305 19:05:35.254853 30632 net.cpp:91] Creating Layer InnerProduct1010
I0305 19:05:35.254856 30632 net.cpp:425] InnerProduct1010 <- Slice1010
I0305 19:05:35.254861 30632 net.cpp:399] InnerProduct1010 -> InnerProduct1010
I0305 19:05:35.255044 30632 net.cpp:141] Setting up InnerProduct1010
I0305 19:05:35.255048 30632 net.cpp:148] Top shape: 1 10 (10)
I0305 19:05:35.255051 30632 net.cpp:156] Memory required for data: 18160772
I0305 19:05:35.255055 30632 layer_factory.hpp:77] Creating layer ReLU1010
I0305 19:05:35.255059 30632 net.cpp:91] Creating Layer ReLU1010
I0305 19:05:35.255062 30632 net.cpp:425] ReLU1010 <- InnerProduct1010
I0305 19:05:35.255066 30632 net.cpp:386] ReLU1010 -> InnerProduct1010 (in-place)
I0305 19:05:35.255070 30632 net.cpp:141] Setting up ReLU1010
I0305 19:05:35.255074 30632 net.cpp:148] Top shape: 1 10 (10)
I0305 19:05:35.255076 30632 net.cpp:156] Memory required for data: 18160812
I0305 19:05:35.255079 30632 layer_factory.hpp:77] Creating layer InnerProduct1011
I0305 19:05:35.255084 30632 net.cpp:91] Creating Layer InnerProduct1011
I0305 19:05:35.255086 30632 net.cpp:425] InnerProduct1011 <- Slice1011
I0305 19:05:35.255090 30632 net.cpp:399] InnerProduct1011 -> InnerProduct1011
I0305 19:05:35.255314 30632 net.cpp:141] Setting up InnerProduct1011
I0305 19:05:35.255318 30632 net.cpp:148] Top shape: 1 10 (10)
I0305 19:05:35.255321 30632 net.cpp:156] Memory required for data: 18160852
I0305 19:05:35.255324 30632 layer_factory.hpp:77] Creating layer ReLU1011
I0305 19:05:35.255328 30632 net.cpp:91] Creating Layer ReLU1011
I0305 19:05:35.255331 30632 net.cpp:425] ReLU1011 <- InnerProduct1011
I0305 19:05:35.255334 30632 net.cpp:386] ReLU1011 -> InnerProduct1011 (in-place)
I0305 19:05:35.255338 30632 net.cpp:141] Setting up ReLU1011
I0305 19:05:35.255342 30632 net.cpp:148] Top shape: 1 10 (10)
I0305 19:05:35.255344 30632 net.cpp:156] Memory required for data: 18160892
I0305 19:05:35.255347 30632 layer_factory.hpp:77] Creating layer InnerProduct1012
I0305 19:05:35.255352 30632 net.cpp:91] Creating Layer InnerProduct1012
I0305 19:05:35.255354 30632 net.cpp:425] InnerProduct1012 <- Slice1012
I0305 19:05:35.255359 30632 net.cpp:399] InnerProduct1012 -> InnerProduct1012
I0305 19:05:35.255540 30632 net.cpp:141] Setting up InnerProduct1012
I0305 19:05:35.255547 30632 net.cpp:148] Top shape: 1 10 (10)
I0305 19:05:35.255549 30632 net.cpp:156] Memory required for data: 18160932
I0305 19:05:35.255553 30632 layer_factory.hpp:77] Creating layer ReLU1012
I0305 19:05:35.255558 30632 net.cpp:91] Creating Layer ReLU1012
I0305 19:05:35.255560 30632 net.cpp:425] ReLU1012 <- InnerProduct1012
I0305 19:05:35.255564 30632 net.cpp:386] ReLU1012 -> InnerProduct1012 (in-place)
I0305 19:05:35.255568 30632 net.cpp:141] Setting up ReLU1012
I0305 19:05:35.255571 30632 net.cpp:148] Top shape: 1 10 (10)
I0305 19:05:35.255573 30632 net.cpp:156] Memory required for data: 18160972
I0305 19:05:35.255576 30632 layer_factory.hpp:77] Creating layer Concat2
I0305 19:05:35.255580 30632 net.cpp:91] Creating Layer Concat2
I0305 19:05:35.255584 30632 net.cpp:425] Concat2 <- InnerProduct1001
I0305 19:05:35.255587 30632 net.cpp:425] Concat2 <- InnerProduct1002
I0305 19:05:35.255590 30632 net.cpp:425] Concat2 <- InnerProduct1003
I0305 19:05:35.255594 30632 net.cpp:425] Concat2 <- InnerProduct1004
I0305 19:05:35.255596 30632 net.cpp:425] Concat2 <- InnerProduct1005
I0305 19:05:35.255599 30632 net.cpp:425] Concat2 <- InnerProduct1006
I0305 19:05:35.255602 30632 net.cpp:425] Concat2 <- InnerProduct1007
I0305 19:05:35.255605 30632 net.cpp:425] Concat2 <- InnerProduct1008
I0305 19:05:35.255609 30632 net.cpp:425] Concat2 <- InnerProduct1009
I0305 19:05:35.255611 30632 net.cpp:425] Concat2 <- InnerProduct1010
I0305 19:05:35.255614 30632 net.cpp:425] Concat2 <- InnerProduct1011
I0305 19:05:35.255616 30632 net.cpp:425] Concat2 <- InnerProduct1012
I0305 19:05:35.255620 30632 net.cpp:399] Concat2 -> Concat2
I0305 19:05:35.255625 30632 net.cpp:141] Setting up Concat2
I0305 19:05:35.255630 30632 net.cpp:148] Top shape: 1 120 (120)
I0305 19:05:35.255631 30632 net.cpp:156] Memory required for data: 18161452
I0305 19:05:35.255635 30632 layer_factory.hpp:77] Creating layer InnerProduct1013
I0305 19:05:35.255640 30632 net.cpp:91] Creating Layer InnerProduct1013
I0305 19:05:35.255641 30632 net.cpp:425] InnerProduct1013 <- Concat2
I0305 19:05:35.255646 30632 net.cpp:399] InnerProduct1013 -> InnerProduct1013
I0305 19:05:35.256952 30632 net.cpp:141] Setting up InnerProduct1013
I0305 19:05:35.256958 30632 net.cpp:148] Top shape: 1 500 (500)
I0305 19:05:35.256961 30632 net.cpp:156] Memory required for data: 18163452
I0305 19:05:35.256965 30632 layer_factory.hpp:77] Creating layer ReLU1013
I0305 19:05:35.256969 30632 net.cpp:91] Creating Layer ReLU1013
I0305 19:05:35.256973 30632 net.cpp:425] ReLU1013 <- InnerProduct1013
I0305 19:05:35.256976 30632 net.cpp:386] ReLU1013 -> InnerProduct1013 (in-place)
I0305 19:05:35.256980 30632 net.cpp:141] Setting up ReLU1013
I0305 19:05:35.256983 30632 net.cpp:148] Top shape: 1 500 (500)
I0305 19:05:35.256985 30632 net.cpp:156] Memory required for data: 18165452
I0305 19:05:35.256989 30632 layer_factory.hpp:77] Creating layer InnerProduct1013_ReLU1013_0_split
I0305 19:05:35.256992 30632 net.cpp:91] Creating Layer InnerProduct1013_ReLU1013_0_split
I0305 19:05:35.256995 30632 net.cpp:425] InnerProduct1013_ReLU1013_0_split <- InnerProduct1013
I0305 19:05:35.256999 30632 net.cpp:399] InnerProduct1013_ReLU1013_0_split -> InnerProduct1013_ReLU1013_0_split_0
I0305 19:05:35.257004 30632 net.cpp:399] InnerProduct1013_ReLU1013_0_split -> InnerProduct1013_ReLU1013_0_split_1
I0305 19:05:35.257009 30632 net.cpp:141] Setting up InnerProduct1013_ReLU1013_0_split
I0305 19:05:35.257012 30632 net.cpp:148] Top shape: 1 500 (500)
I0305 19:05:35.257015 30632 net.cpp:148] Top shape: 1 500 (500)
I0305 19:05:35.257017 30632 net.cpp:156] Memory required for data: 18169452
I0305 19:05:35.257020 30632 layer_factory.hpp:77] Creating layer InnerProduct1014
I0305 19:05:35.257025 30632 net.cpp:91] Creating Layer InnerProduct1014
I0305 19:05:35.257027 30632 net.cpp:425] InnerProduct1014 <- InnerProduct1013_ReLU1013_0_split_0
I0305 19:05:35.257032 30632 net.cpp:399] InnerProduct1014 -> InnerProduct1014
I0305 19:05:35.258116 30632 net.cpp:141] Setting up InnerProduct1014
I0305 19:05:35.258124 30632 net.cpp:148] Top shape: 1 100 (100)
I0305 19:05:35.258126 30632 net.cpp:156] Memory required for data: 18169852
I0305 19:05:35.258131 30632 layer_factory.hpp:77] Creating layer ReLU1014
I0305 19:05:35.258136 30632 net.cpp:91] Creating Layer ReLU1014
I0305 19:05:35.258138 30632 net.cpp:425] ReLU1014 <- InnerProduct1014
I0305 19:05:35.258143 30632 net.cpp:386] ReLU1014 -> InnerProduct1014 (in-place)
I0305 19:05:35.258147 30632 net.cpp:141] Setting up ReLU1014
I0305 19:05:35.258150 30632 net.cpp:148] Top shape: 1 100 (100)
I0305 19:05:35.258153 30632 net.cpp:156] Memory required for data: 18170252
I0305 19:05:35.258157 30632 layer_factory.hpp:77] Creating layer Slice1013
I0305 19:05:35.258160 30632 net.cpp:91] Creating Layer Slice1013
I0305 19:05:35.258163 30632 net.cpp:425] Slice1013 <- InnerProduct1014
I0305 19:05:35.258167 30632 net.cpp:399] Slice1013 -> Slice1013
I0305 19:05:35.258173 30632 net.cpp:399] Slice1013 -> Slice1014
I0305 19:05:35.258178 30632 net.cpp:399] Slice1013 -> Slice1015
I0305 19:05:35.258183 30632 net.cpp:399] Slice1013 -> Slice1016
I0305 19:05:35.258188 30632 net.cpp:399] Slice1013 -> Slice1017
I0305 19:05:35.258191 30632 net.cpp:399] Slice1013 -> Slice1018
I0305 19:05:35.258198 30632 net.cpp:399] Slice1013 -> Slice1019
I0305 19:05:35.258201 30632 net.cpp:399] Slice1013 -> Slice1020
I0305 19:05:35.258206 30632 net.cpp:399] Slice1013 -> Slice1021
I0305 19:05:35.258211 30632 net.cpp:399] Slice1013 -> Slice1022
I0305 19:05:35.258219 30632 net.cpp:141] Setting up Slice1013
I0305 19:05:35.258222 30632 net.cpp:148] Top shape: 1 10 (10)
I0305 19:05:35.258226 30632 net.cpp:148] Top shape: 1 10 (10)
I0305 19:05:35.258229 30632 net.cpp:148] Top shape: 1 10 (10)
I0305 19:05:35.258232 30632 net.cpp:148] Top shape: 1 10 (10)
I0305 19:05:35.258234 30632 net.cpp:148] Top shape: 1 10 (10)
I0305 19:05:35.258237 30632 net.cpp:148] Top shape: 1 10 (10)
I0305 19:05:35.258240 30632 net.cpp:148] Top shape: 1 10 (10)
I0305 19:05:35.258244 30632 net.cpp:148] Top shape: 1 10 (10)
I0305 19:05:35.258246 30632 net.cpp:148] Top shape: 1 10 (10)
I0305 19:05:35.258249 30632 net.cpp:148] Top shape: 1 10 (10)
I0305 19:05:35.258252 30632 net.cpp:156] Memory required for data: 18170652
I0305 19:05:35.258255 30632 layer_factory.hpp:77] Creating layer InnerProduct1015
I0305 19:05:35.258260 30632 net.cpp:91] Creating Layer InnerProduct1015
I0305 19:05:35.258262 30632 net.cpp:425] InnerProduct1015 <- Slice1013
I0305 19:05:35.258270 30632 net.cpp:399] InnerProduct1015 -> InnerProduct1015
I0305 19:05:35.278023 30632 net.cpp:141] Setting up InnerProduct1015
I0305 19:05:35.278043 30632 net.cpp:148] Top shape: 1 90000 (90000)
I0305 19:05:35.278045 30632 net.cpp:156] Memory required for data: 18530652
I0305 19:05:35.278053 30632 layer_factory.hpp:77] Creating layer InnerProduct1016
I0305 19:05:35.278061 30632 net.cpp:91] Creating Layer InnerProduct1016
I0305 19:05:35.278069 30632 net.cpp:425] InnerProduct1016 <- Slice1014
I0305 19:05:35.278077 30632 net.cpp:399] InnerProduct1016 -> InnerProduct1016
I0305 19:05:35.297937 30632 net.cpp:141] Setting up InnerProduct1016
I0305 19:05:35.297966 30632 net.cpp:148] Top shape: 1 90000 (90000)
I0305 19:05:35.297971 30632 net.cpp:156] Memory required for data: 18890652
I0305 19:05:35.297977 30632 layer_factory.hpp:77] Creating layer InnerProduct1017
I0305 19:05:35.297986 30632 net.cpp:91] Creating Layer InnerProduct1017
I0305 19:05:35.297993 30632 net.cpp:425] InnerProduct1017 <- Slice1015
I0305 19:05:35.298002 30632 net.cpp:399] InnerProduct1017 -> InnerProduct1017
I0305 19:05:35.317627 30632 net.cpp:141] Setting up InnerProduct1017
I0305 19:05:35.317646 30632 net.cpp:148] Top shape: 1 90000 (90000)
I0305 19:05:35.317651 30632 net.cpp:156] Memory required for data: 19250652
I0305 19:05:35.317656 30632 layer_factory.hpp:77] Creating layer InnerProduct1018
I0305 19:05:35.317664 30632 net.cpp:91] Creating Layer InnerProduct1018
I0305 19:05:35.317672 30632 net.cpp:425] InnerProduct1018 <- Slice1016
I0305 19:05:35.317678 30632 net.cpp:399] InnerProduct1018 -> InnerProduct1018
I0305 19:05:35.337411 30632 net.cpp:141] Setting up InnerProduct1018
I0305 19:05:35.337435 30632 net.cpp:148] Top shape: 1 90000 (90000)
I0305 19:05:35.337438 30632 net.cpp:156] Memory required for data: 19610652
I0305 19:05:35.337446 30632 layer_factory.hpp:77] Creating layer InnerProduct1019
I0305 19:05:35.337455 30632 net.cpp:91] Creating Layer InnerProduct1019
I0305 19:05:35.337461 30632 net.cpp:425] InnerProduct1019 <- Slice1017
I0305 19:05:35.337469 30632 net.cpp:399] InnerProduct1019 -> InnerProduct1019
I0305 19:05:35.357031 30632 net.cpp:141] Setting up InnerProduct1019
I0305 19:05:35.357048 30632 net.cpp:148] Top shape: 1 90000 (90000)
I0305 19:05:35.357051 30632 net.cpp:156] Memory required for data: 19970652
I0305 19:05:35.357058 30632 layer_factory.hpp:77] Creating layer InnerProduct1020
I0305 19:05:35.357065 30632 net.cpp:91] Creating Layer InnerProduct1020
I0305 19:05:35.357072 30632 net.cpp:425] InnerProduct1020 <- Slice1018
I0305 19:05:35.357079 30632 net.cpp:399] InnerProduct1020 -> InnerProduct1020
I0305 19:05:35.376929 30632 net.cpp:141] Setting up InnerProduct1020
I0305 19:05:35.376948 30632 net.cpp:148] Top shape: 1 90000 (90000)
I0305 19:05:35.376952 30632 net.cpp:156] Memory required for data: 20330652
I0305 19:05:35.376958 30632 layer_factory.hpp:77] Creating layer InnerProduct1021
I0305 19:05:35.376966 30632 net.cpp:91] Creating Layer InnerProduct1021
I0305 19:05:35.376972 30632 net.cpp:425] InnerProduct1021 <- Slice1019
I0305 19:05:35.376981 30632 net.cpp:399] InnerProduct1021 -> InnerProduct1021
I0305 19:05:35.396589 30632 net.cpp:141] Setting up InnerProduct1021
I0305 19:05:35.396608 30632 net.cpp:148] Top shape: 1 90000 (90000)
I0305 19:05:35.396612 30632 net.cpp:156] Memory required for data: 20690652
I0305 19:05:35.396620 30632 layer_factory.hpp:77] Creating layer InnerProduct1022
I0305 19:05:35.396626 30632 net.cpp:91] Creating Layer InnerProduct1022
I0305 19:05:35.396632 30632 net.cpp:425] InnerProduct1022 <- Slice1020
I0305 19:05:35.396641 30632 net.cpp:399] InnerProduct1022 -> InnerProduct1022
I0305 19:05:35.416394 30632 net.cpp:141] Setting up InnerProduct1022
I0305 19:05:35.416415 30632 net.cpp:148] Top shape: 1 90000 (90000)
I0305 19:05:35.416419 30632 net.cpp:156] Memory required for data: 21050652
I0305 19:05:35.416425 30632 layer_factory.hpp:77] Creating layer InnerProduct1023
I0305 19:05:35.416434 30632 net.cpp:91] Creating Layer InnerProduct1023
I0305 19:05:35.416440 30632 net.cpp:425] InnerProduct1023 <- Slice1021
I0305 19:05:35.416447 30632 net.cpp:399] InnerProduct1023 -> InnerProduct1023
I0305 19:05:35.436174 30632 net.cpp:141] Setting up InnerProduct1023
I0305 19:05:35.436192 30632 net.cpp:148] Top shape: 1 90000 (90000)
I0305 19:05:35.436195 30632 net.cpp:156] Memory required for data: 21410652
I0305 19:05:35.436203 30632 layer_factory.hpp:77] Creating layer InnerProduct1024
I0305 19:05:35.436211 30632 net.cpp:91] Creating Layer InnerProduct1024
I0305 19:05:35.436218 30632 net.cpp:425] InnerProduct1024 <- Slice1022
I0305 19:05:35.436225 30632 net.cpp:399] InnerProduct1024 -> InnerProduct1024
I0305 19:05:35.455667 30632 net.cpp:141] Setting up InnerProduct1024
I0305 19:05:35.455685 30632 net.cpp:148] Top shape: 1 90000 (90000)
I0305 19:05:35.455688 30632 net.cpp:156] Memory required for data: 21770652
I0305 19:05:35.455694 30632 layer_factory.hpp:77] Creating layer Concat3
I0305 19:05:35.455701 30632 net.cpp:91] Creating Layer Concat3
I0305 19:05:35.455706 30632 net.cpp:425] Concat3 <- InnerProduct1015
I0305 19:05:35.455711 30632 net.cpp:425] Concat3 <- InnerProduct1016
I0305 19:05:35.455714 30632 net.cpp:425] Concat3 <- InnerProduct1017
I0305 19:05:35.455718 30632 net.cpp:425] Concat3 <- InnerProduct1018
I0305 19:05:35.455721 30632 net.cpp:425] Concat3 <- InnerProduct1019
I0305 19:05:35.455726 30632 net.cpp:425] Concat3 <- InnerProduct1020
I0305 19:05:35.455730 30632 net.cpp:425] Concat3 <- InnerProduct1021
I0305 19:05:35.455734 30632 net.cpp:425] Concat3 <- InnerProduct1022
I0305 19:05:35.455735 30632 net.cpp:425] Concat3 <- InnerProduct1023
I0305 19:05:35.455739 30632 net.cpp:425] Concat3 <- InnerProduct1024
I0305 19:05:35.455750 30632 net.cpp:399] Concat3 -> Concat3
I0305 19:05:35.455759 30632 net.cpp:141] Setting up Concat3
I0305 19:05:35.455762 30632 net.cpp:148] Top shape: 1 900000 (900000)
I0305 19:05:35.455765 30632 net.cpp:156] Memory required for data: 25370652
I0305 19:05:35.455768 30632 layer_factory.hpp:77] Creating layer EuclideanLoss1
I0305 19:05:35.455951 30632 net.cpp:91] Creating Layer EuclideanLoss1
I0305 19:05:35.455957 30632 net.cpp:425] EuclideanLoss1 <- data_data_0_split_1
I0305 19:05:35.455962 30632 net.cpp:425] EuclideanLoss1 <- Concat3
I0305 19:05:35.455966 30632 net.cpp:399] EuclideanLoss1 -> EuclideanLoss1
…
I0305 19:05:35.456286 30632 net.cpp:399] Slice1023 -> Slice1065
I0305 19:05:35.456293 30632 net.cpp:399] Slice1023 -> Slice1066
I0305 19:05:35.456300 30632 net.cpp:399] Slice1023 -> Slice1067
I0305 19:05:35.456306 30632 net.cpp:399] Slice1023 -> Slice1068
I0305 19:05:35.456312 30632 net.cpp:399] Slice1023 -> Slice1069
I0305 19:05:35.456322 30632 net.cpp:399] Slice1023 -> Slice1070
I0305 19:05:35.456329 30632 net.cpp:399] Slice1023 -> Slice1071
I0305 19:05:35.456336 30632 net.cpp:399] Slice1023 -> Slice1072
I0305 19:05:35.456359 30632 net.cpp:141] Setting up Slice1023
I0305 19:05:35.456363 30632 net.cpp:148] Top shape: 1 10 (10)
I0305 19:05:35.456367 30632 net.cpp:148] Top shape: 1 10 (10)
I0305 19:05:35.456370 30632 net.cpp:148] Top shape: 1 10 (10)
I0305 19:05:35.456372 30632 net.cpp:148] Top shape: 1 10 (10)
I0305 19:05:35.456375 30632 net.cpp:148] Top shape: 1 10 (10)
I0305 19:05:35.456378 30632 net.cpp:148] Top shape: 1 10 (10)
I0305 19:05:35.456382 30632 net.cpp:148] Top shape: 1 10 (10)
I0305 19:05:35.456384 30632 net.cpp:148] Top shape: 1 10 (10)
I0305 19:05:35.456387 30632 net.cpp:148] Top shape: 1 10 (10)
I0305 19:05:35.456390 30632 net.cpp:148] Top shape: 1 10 (10)
I0305 19:05:35.456393 30632 net.cpp:148] Top shape: 1 10 (10)
I0305 19:05:35.456396 30632 net.cpp:148] Top shape: 1 10 (10)
I0305 19:05:35.456399 30632 net.cpp:148] Top shape: 1 10 (10)
I0305 19:05:35.456403 30632 net.cpp:148] Top shape: 1 10 (10)
I0305 19:05:35.456405 30632 net.cpp:148] Top shape: 1 10 (10)
I0305 19:05:35.456408 30632 net.cpp:148] Top shape: 1 10 (10)
I0305 19:05:35.456410 30632 net.cpp:148] Top shape: 1 10 (10)
I0305 19:05:35.456413 30632 net.cpp:148] Top shape: 1 10 (10)
I0305 19:05:35.456416 30632 net.cpp:148] Top shape: 1 10 (10)
I0305 19:05:35.456419 30632 net.cpp:148] Top shape: 1 10 (10)
I0305 19:05:35.456423 30632 net.cpp:148] Top shape: 1 10 (10)
I0305 19:05:35.456425 30632 net.cpp:148] Top shape: 1 10 (10)
I0305 19:05:35.456429 30632 net.cpp:148] Top shape: 1 10 (10)
I0305 19:05:35.456431 30632 net.cpp:148] Top shape: 1 10 (10)
I0305 19:05:35.456434 30632 net.cpp:148] Top shape: 1 10 (10)
I0305 19:05:35.456437 30632 net.cpp:148] Top shape: 1 10 (10)
I0305 19:05:35.456440 30632 net.cpp:148] Top shape: 1 10 (10)
I0305 19:05:35.456444 30632 net.cpp:148] Top shape: 1 10 (10)
I0305 19:05:35.456446 30632 net.cpp:148] Top shape: 1 10 (10)
I0305 19:05:35.456449 30632 net.cpp:148] Top shape: 1 10 (10)
I0305 19:05:35.456451 30632 net.cpp:148] Top shape: 1 10 (10)
I0305 19:05:35.456454 30632 net.cpp:148] Top shape: 1 10 (10)
I0305 19:05:35.456457 30632 net.cpp:148] Top shape: 1 10 (10)
I0305 19:05:35.456460 30632 net.cpp:148] Top shape: 1 10 (10)
I0305 19:05:35.456464 30632 net.cpp:148] Top shape: 1 10 (10)
I0305 19:05:35.456466 30632 net.cpp:148] Top shape: 1 10 (10)
I0305 19:05:35.456470 30632 net.cpp:148] Top shape: 1 10 (10)
I0305 19:05:35.456472 30632 net.cpp:148] Top shape: 1 10 (10)
I0305 19:05:35.456475 30632 net.cpp:148] Top shape: 1 10 (10)
I0305 19:05:35.456478 30632 net.cpp:148] Top shape: 1 10 (10)
I0305 19:05:35.456481 30632 net.cpp:148] Top shape: 1 10 (10)
I0305 19:05:35.456485 30632 net.cpp:148] Top shape: 1 10 (10)
I0305 19:05:35.456486 30632 net.cpp:148] Top shape: 1 10 (10)
I0305 19:05:35.456490 30632 net.cpp:148] Top shape: 1 10 (10)
I0305 19:05:35.456492 30632 net.cpp:148] Top shape: 1 10 (10)
I0305 19:05:35.456496 30632 net.cpp:148] Top shape: 1 10 (10)
I0305 19:05:35.456498 30632 net.cpp:148] Top shape: 1 10 (10)
I0305 19:05:35.456501 30632 net.cpp:148] Top shape: 1 10 (10)
I0305 19:05:35.456504 30632 net.cpp:148] Top shape: 1 10 (10)
I0305 19:05:35.456507 30632 net.cpp:148] Top shape: 1 10 (10)
I0305 19:05:35.456509 30632 net.cpp:156] Memory required for data: 25372656
I0305 19:05:35.456512 30632 layer_factory.hpp:77] Creating layer InnerProduct1025
I0305 19:05:35.456518 30632 net.cpp:91] Creating Layer InnerProduct1025
I0305 19:05:35.456521 30632 net.cpp:425] InnerProduct1025 <- Slice1023
I0305 19:05:35.456526 30632 net.cpp:399] InnerProduct1025 -> InnerProduct1025
I0305 19:05:35.460520 30632 net.cpp:141] Setting up InnerProduct1025
I0305 19:05:35.460527 30632 net.cpp:148] Top shape: 1 18000 (18000)
I0305 19:05:35.460530 30632 net.cpp:156] Memory required for data: 25444656
I0305 19:05:35.460711 30632 layer_factory.hpp:77] Creating layer InnerProduct1026
I0305 19:05:35.460717 30632 net.cpp:91] Creating Layer InnerProduct1026
I0305 19:05:35.460724 30632 net.cpp:425] InnerProduct1026 <- Slice1024
I0305 19:05:35.460732 30632 net.cpp:399] InnerProduct1026 -> InnerProduct1026
I0305 19:05:35.464665 30632 net.cpp:141] Setting up InnerProduct1026
I0305 19:05:35.464673 30632 net.cpp:148] Top shape: 1 18000 (18000)
I0305 19:05:35.464674 30632 net.cpp:156] Memory required for data: 25516656
I0305 19:05:35.464679 30632 layer_factory.hpp:77] Creating layer InnerProduct1027
I0305 19:05:35.464684 30632 net.cpp:91] Creating Layer InnerProduct1027
I0305 19:05:35.464687 30632 net.cpp:425] InnerProduct1027 <- Slice1025
I0305 19:05:35.464692 30632 net.cpp:399] InnerProduct1027 -> InnerProduct1027
I0305 19:05:35.468576 30632 net.cpp:141] Setting up InnerProduct1027
I0305 19:05:35.468583 30632 net.cpp:148] Top shape: 1 18000 (18000)
I0305 19:05:35.468586 30632 net.cpp:156] Memory required for data: 25588656
I0305 19:05:35.468591 30632 layer_factory.hpp:77] Creating layer InnerProduct1028
I0305 19:05:35.468596 30632 net.cpp:91] Creating Layer InnerProduct1028
I0305 19:05:35.468600 30632 net.cpp:425] InnerProduct1028 <- Slice1026
I0305 19:05:35.468605 30632 net.cpp:399] InnerProduct1028 -> InnerProduct1028
I0305 19:05:35.472477 30632 net.cpp:141] Setting up InnerProduct1028
I0305 19:05:35.472484 30632 net.cpp:148] Top shape: 1 18000 (18000)
I0305 19:05:35.472487 30632 net.cpp:156] Memory required for data: 25660656
I0305 19:05:35.472492 30632 layer_factory.hpp:77] Creating layer InnerProduct1029
I0305 19:05:35.472497 30632 net.cpp:91] Creating Layer InnerProduct1029
I0305 19:05:35.472501 30632 net.cpp:425] InnerProduct1029 <- Slice1027
I0305 19:05:35.472506 30632 net.cpp:399] InnerProduct1029 -> InnerProduct1029
I0305 19:05:35.476516 30632 net.cpp:141] Setting up InnerProduct1029
I0305 19:05:35.476522 30632 net.cpp:148] Top shape: 1 18000 (18000)
I0305 19:05:35.476524 30632 net.cpp:156] Memory required for data: 25732656
I0305 19:05:35.476529 30632 layer_factory.hpp:77] Creating layer InnerProduct1030
I0305 19:05:35.476534 30632 net.cpp:91] Creating Layer InnerProduct1030
I0305 19:05:35.476537 30632 net.cpp:425] InnerProduct1030 <- Slice1028
I0305 19:05:35.476542 30632 net.cpp:399] InnerProduct1030 -> InnerProduct1030
I0305 19:05:35.480409 30632 net.cpp:141] Setting up InnerProduct1030
I0305 19:05:35.480415 30632 net.cpp:148] Top shape: 1 18000 (18000)
I0305 19:05:35.480418 30632 net.cpp:156] Memory required for data: 25804656
I0305 19:05:35.480422 30632 layer_factory.hpp:77] Creating layer InnerProduct1031
I0305 19:05:35.480427 30632 net.cpp:91] Creating Layer InnerProduct1031
I0305 19:05:35.480430 30632 net.cpp:425] InnerProduct1031 <- Slice1029
I0305 19:05:35.480435 30632 net.cpp:399] InnerProduct1031 -> InnerProduct1031
I0305 19:05:35.484359 30632 net.cpp:141] Setting up InnerProduct1031
I0305 19:05:35.484365 30632 net.cpp:148] Top shape: 1 18000 (18000)
I0305 19:05:35.484369 30632 net.cpp:156] Memory required for data: 25876656
I0305 19:05:35.484374 30632 layer_factory.hpp:77] Creating layer InnerProduct1032
I0305 19:05:35.484379 30632 net.cpp:91] Creating Layer InnerProduct1032
I0305 19:05:35.484381 30632 net.cpp:425] InnerProduct1032 <- Slice1030
I0305 19:05:35.484385 30632 net.cpp:399] InnerProduct1032 -> InnerProduct1032
I0305 19:05:35.488298 30632 net.cpp:141] Setting up InnerProduct1032
I0305 19:05:35.488306 30632 net.cpp:148] Top shape: 1 18000 (18000)
I0305 19:05:35.488308 30632 net.cpp:156] Memory required for data: 25948656
I0305 19:05:35.488312 30632 layer_factory.hpp:77] Creating layer InnerProduct1033
I0305 19:05:35.488317 30632 net.cpp:91] Creating Layer InnerProduct1033
I0305 19:05:35.488322 30632 net.cpp:425] InnerProduct1033 <- Slice1031
I0305 19:05:35.488325 30632 net.cpp:399] InnerProduct1033 -> InnerProduct1033
I0305 19:05:35.492173 30632 net.cpp:141] Setting up InnerProduct1033
I0305 19:05:35.492179 30632 net.cpp:148] Top shape: 1 18000 (18000)
I0305 19:05:35.492182 30632 net.cpp:156] Memory required for data: 26020656
I0305 19:05:35.492187 30632 layer_factory.hpp:77] Creating layer InnerProduct1034
I0305 19:05:35.492192 30632 net.cpp:91] Creating Layer InnerProduct1034
I0305 19:05:35.492202 30632 net.cpp:425] InnerProduct1034 <- Slice1032
I0305 19:05:35.492207 30632 net.cpp:399] InnerProduct1034 -> InnerProduct1034
I0305 19:05:35.496211 30632 net.cpp:141] Setting up InnerProduct1034
I0305 19:05:35.496217 30632 net.cpp:148] Top shape: 1 18000 (18000)
I0305 19:05:35.496220 30632 net.cpp:156] Memory required for data: 26092656
I0305 19:05:35.496224 30632 layer_factory.hpp:77] Creating layer InnerProduct1035
I0305 19:05:35.496229 30632 net.cpp:91] Creating Layer InnerProduct1035
I0305 19:05:35.496232 30632 net.cpp:425] InnerProduct1035 <- Slice1033
I0305 19:05:35.496238 30632 net.cpp:399] InnerProduct1035 -> InnerProduct1035
I0305 19:05:35.500130 30632 net.cpp:141] Setting up InnerProduct1035
I0305 19:05:35.500136 30632 net.cpp:148] Top shape: 1 18000 (18000)
I0305 19:05:35.500139 30632 net.cpp:156] Memory required for data: 26164656
I0305 19:05:35.500144 30632 layer_factory.hpp:77] Creating layer InnerProduct1036
I0305 19:05:35.500149 30632 net.cpp:91] Creating Layer InnerProduct1036
I0305 19:05:35.500152 30632 net.cpp:425] InnerProduct1036 <- Slice1034
I0305 19:05:35.500157 30632 net.cpp:399] InnerProduct1036 -> InnerProduct1036
I0305 19:05:35.504086 30632 net.cpp:141] Setting up InnerProduct1036
I0305 19:05:35.504094 30632 net.cpp:148] Top shape: 1 18000 (18000)
I0305 19:05:35.504097 30632 net.cpp:156] Memory required for data: 26236656
I0305 19:05:35.504102 30632 layer_factory.hpp:77] Creating layer InnerProduct1037
I0305 19:05:35.504107 30632 net.cpp:91] Creating Layer InnerProduct1037
I0305 19:05:35.504112 30632 net.cpp:425] InnerProduct1037 <- Slice1035
I0305 19:05:35.504117 30632 net.cpp:399] InnerProduct1037 -> InnerProduct1037
I0305 19:05:35.508007 30632 net.cpp:141] Setting up InnerProduct1037
I0305 19:05:35.508013 30632 net.cpp:148] Top shape: 1 18000 (18000)
I0305 19:05:35.508016 30632 net.cpp:156] Memory required for data: 26308656
I0305 19:05:35.508020 30632 layer_factory.hpp:77] Creating layer InnerProduct1038
I0305 19:05:35.508026 30632 net.cpp:91] Creating Layer InnerProduct1038
I0305 19:05:35.508029 30632 net.cpp:425] InnerProduct1038 <- Slice1036
I0305 19:05:35.508044 30632 net.cpp:399] InnerProduct1038 -> InnerProduct1038
I0305 19:05:35.512002 30632 net.cpp:141] Setting up InnerProduct1038
I0305 19:05:35.512009 30632 net.cpp:148] Top shape: 1 18000 (18000)
I0305 19:05:35.512012 30632 net.cpp:156] Memory required for data: 26380656
I0305 19:05:35.512015 30632 layer_factory.hpp:77] Creating layer InnerProduct1039
I0305 19:05:35.512020 30632 net.cpp:91] Creating Layer InnerProduct1039
I0305 19:05:35.512024 30632 net.cpp:425] InnerProduct1039 <- Slice1037
I0305 19:05:35.512029 30632 net.cpp:399] InnerProduct1039 -> InnerProduct1039
I0305 19:05:35.516036 30632 net.cpp:141] Setting up InnerProduct1039
I0305 19:05:35.516042 30632 net.cpp:148] Top shape: 1 18000 (18000)
I0305 19:05:35.516046 30632 net.cpp:156] Memory required for data: 26452656
I0305 19:05:35.516049 30632 layer_factory.hpp:77] Creating layer InnerProduct1040
I0305 19:05:35.516055 30632 net.cpp:91] Creating Layer InnerProduct1040
I0305 19:05:35.516058 30632 net.cpp:425] InnerProduct1040 <- Slice1038
I0305 19:05:35.516062 30632 net.cpp:399] InnerProduct1040 -> InnerProduct1040
I0305 19:05:35.519911 30632 net.cpp:141] Setting up InnerProduct1040
I0305 19:05:35.519917 30632 net.cpp:148] Top shape: 1 18000 (18000)
I0305 19:05:35.519918 30632 net.cpp:156] Memory required for data: 26524656
I0305 19:05:35.519922 30632 layer_factory.hpp:77] Creating layer InnerProduct1041
I0305 19:05:35.519927 30632 net.cpp:91] Creating Layer InnerProduct1041
I0305 19:05:35.519930 30632 net.cpp:425] InnerProduct1041 <- Slice1039
I0305 19:05:35.519937 30632 net.cpp:399] InnerProduct1041 -> InnerProduct1041
I0305 19:05:35.523820 30632 net.cpp:141] Setting up InnerProduct1041
I0305 19:05:35.523826 30632 net.cpp:148] Top shape: 1 18000 (18000)
I0305 19:05:35.523829 30632 net.cpp:156] Memory required for data: 26596656
I0305 19:05:35.523833 30632 layer_factory.hpp:77] Creating layer InnerProduct1042
I0305 19:05:35.523844 30632 net.cpp:91] Creating Layer InnerProduct1042
I0305 19:05:35.523849 30632 net.cpp:425] InnerProduct1042 <- Slice1040
I0305 19:05:35.523864 30632 net.cpp:399] InnerProduct1042 -> InnerProduct1042
I0305 19:05:35.527804 30632 net.cpp:141] Setting up InnerProduct1042
I0305 19:05:35.527812 30632 net.cpp:148] Top shape: 1 18000 (18000)
I0305 19:05:35.527815 30632 net.cpp:156] Memory required for data: 26668656
I0305 19:05:35.527819 30632 layer_factory.hpp:77] Creating layer InnerProduct1043
I0305 19:05:35.527824 30632 net.cpp:91] Creating Layer InnerProduct1043
I0305 19:05:35.527829 30632 net.cpp:425] InnerProduct1043 <- Slice1041
I0305 19:05:35.527834 30632 net.cpp:399] InnerProduct1043 -> InnerProduct1043
I0305 19:05:35.531700 30632 net.cpp:141] Setting up InnerProduct1043
I0305 19:05:35.531708 30632 net.cpp:148] Top shape: 1 18000 (18000)
I0305 19:05:35.531709 30632 net.cpp:156] Memory required for data: 26740656
I0305 19:05:35.531713 30632 layer_factory.hpp:77] Creating layer InnerProduct1044
I0305 19:05:35.531719 30632 net.cpp:91] Creating Layer InnerProduct1044
I0305 19:05:35.531723 30632 net.cpp:425] InnerProduct1044 <- Slice1042
I0305 19:05:35.531730 30632 net.cpp:399] InnerProduct1044 -> InnerProduct1044
I0305 19:05:35.535665 30632 net.cpp:141] Setting up InnerProduct1044
I0305 19:05:35.535671 30632 net.cpp:148] Top shape: 1 18000 (18000)
I0305 19:05:35.535675 30632 net.cpp:156] Memory required for data: 26812656
I0305 19:05:35.535678 30632 layer_factory.hpp:77] Creating layer InnerProduct1045
I0305 19:05:35.535683 30632 net.cpp:91] Creating Layer InnerProduct1045
I0305 19:05:35.535686 30632 net.cpp:425] InnerProduct1045 <- Slice1043
I0305 19:05:35.535692 30632 net.cpp:399] InnerProduct1045 -> InnerProduct1045
I0305 19:05:35.539587 30632 net.cpp:141] Setting up InnerProduct1045
I0305 19:05:35.539593 30632 net.cpp:148] Top shape: 1 18000 (18000)
I0305 19:05:35.539597 30632 net.cpp:156] Memory required for data: 26884656
I0305 19:05:35.539600 30632 layer_factory.hpp:77] Creating layer InnerProduct1046
I0305 19:05:35.539607 30632 net.cpp:91] Creating Layer InnerProduct1046
I0305 19:05:35.539609 30632 net.cpp:425] InnerProduct1046 <- Slice1044
I0305 19:05:35.539614 30632 net.cpp:399] InnerProduct1046 -> InnerProduct1046
I0305 19:05:35.543483 30632 net.cpp:141] Setting up InnerProduct1046
I0305 19:05:35.543490 30632 net.cpp:148] Top shape: 1 18000 (18000)
I0305 19:05:35.543493 30632 net.cpp:156] Memory required for data: 26956656
I0305 19:05:35.543496 30632 layer_factory.hpp:77] Creating layer InnerProduct1047
I0305 19:05:35.543504 30632 net.cpp:91] Creating Layer InnerProduct1047
I0305 19:05:35.543508 30632 net.cpp:425] InnerProduct1047 <- Slice1045
I0305 19:05:35.543522 30632 net.cpp:399] InnerProduct1047 -> InnerProduct1047
I0305 19:05:35.547515 30632 net.cpp:141] Setting up InnerProduct1047
I0305 19:05:35.547523 30632 net.cpp:148] Top shape: 1 18000 (18000)
I0305 19:05:35.547525 30632 net.cpp:156] Memory required for data: 27028656
I0305 19:05:35.547529 30632 layer_factory.hpp:77] Creating layer InnerProduct1048
I0305 19:05:35.547533 30632 net.cpp:91] Creating Layer InnerProduct1048
I0305 19:05:35.547538 30632 net.cpp:425] InnerProduct1048 <- Slice1046
I0305 19:05:35.547543 30632 net.cpp:399] InnerProduct1048 -> InnerProduct1048
I0305 19:05:35.551436 30632 net.cpp:141] Setting up InnerProduct1048
I0305 19:05:35.551443 30632 net.cpp:148] Top shape: 1 18000 (18000)
I0305 19:05:35.551445 30632 net.cpp:156] Memory required for data: 27100656
I0305 19:05:35.551450 30632 layer_factory.hpp:77] Creating layer InnerProduct1049
I0305 19:05:35.551455 30632 net.cpp:91] Creating Layer InnerProduct1049
I0305 19:05:35.551458 30632 net.cpp:425] InnerProduct1049 <- Slice1047
I0305 19:05:35.551463 30632 net.cpp:399] InnerProduct1049 -> InnerProduct1049
I0305 19:05:35.555418 30632 net.cpp:141] Setting up InnerProduct1049
I0305 19:05:35.555425 30632 net.cpp:148] Top shape: 1 18000 (18000)
I0305 19:05:35.555428 30632 net.cpp:156] Memory required for data: 27172656
I0305 19:05:35.555433 30632 layer_factory.hpp:77] Creating layer InnerProduct1050
I0305 19:05:35.555443 30632 net.cpp:91] Creating Layer InnerProduct1050
I0305 19:05:35.555446 30632 net.cpp:425] InnerProduct1050 <- Slice1048
I0305 19:05:35.555452 30632 net.cpp:399] InnerProduct1050 -> InnerProduct1050
I0305 19:05:35.559300 30632 net.cpp:141] Setting up InnerProduct1050
I0305 19:05:35.559308 30632 net.cpp:148] Top shape: 1 18000 (18000)
I0305 19:05:35.559310 30632 net.cpp:156] Memory required for data: 27244656
I0305 19:05:35.559314 30632 layer_factory.hpp:77] Creating layer InnerProduct1051
I0305 19:05:35.559319 30632 net.cpp:91] Creating Layer InnerProduct1051
I0305 19:05:35.559324 30632 net.cpp:425] InnerProduct1051 <- Slice1049
I0305 19:05:35.559329 30632 net.cpp:399] InnerProduct1051 -> InnerProduct1051
I0305 19:05:35.563261 30632 net.cpp:141] Setting up InnerProduct1051
I0305 19:05:35.563268 30632 net.cpp:148] Top shape: 1 18000 (18000)
I0305 19:05:35.563271 30632 net.cpp:156] Memory required for data: 27316656
I0305 19:05:35.563277 30632 layer_factory.hpp:77] Creating layer InnerProduct1052
I0305 19:05:35.563280 30632 net.cpp:91] Creating Layer InnerProduct1052
I0305 19:05:35.563284 30632 net.cpp:425] InnerProduct1052 <- Slice1050
I0305 19:05:35.563290 30632 net.cpp:399] InnerProduct1052 -> InnerProduct1052
I0305 19:05:35.567273 30632 net.cpp:141] Setting up InnerProduct1052
I0305 19:05:35.567279 30632 net.cpp:148] Top shape: 1 18000 (18000)
I0305 19:05:35.567282 30632 net.cpp:156] Memory required for data: 27388656
I0305 19:05:35.567286 30632 layer_factory.hpp:77] Creating layer InnerProduct1053
I0305 19:05:35.567291 30632 net.cpp:91] Creating Layer InnerProduct1053
I0305 19:05:35.567294 30632 net.cpp:425] InnerProduct1053 <- Slice1051
I0305 19:05:35.567299 30632 net.cpp:399] InnerProduct1053 -> InnerProduct1053
I0305 19:05:35.571203 30632 net.cpp:141] Setting up InnerProduct1053
I0305 19:05:35.571210 30632 net.cpp:148] Top shape: 1 18000 (18000)
I0305 19:05:35.571213 30632 net.cpp:156] Memory required for data: 27460656
I0305 19:05:35.571216 30632 layer_factory.hpp:77] Creating layer InnerProduct1054
I0305 19:05:35.571223 30632 net.cpp:91] Creating Layer InnerProduct1054
I0305 19:05:35.571225 30632 net.cpp:425] InnerProduct1054 <- Slice1052
I0305 19:05:35.571231 30632 net.cpp:399] InnerProduct1054 -> InnerProduct1054
I0305 19:05:35.575139 30632 net.cpp:141] Setting up InnerProduct1054
I0305 19:05:35.575145 30632 net.cpp:148] Top shape: 1 18000 (18000)
I0305 19:05:35.575147 30632 net.cpp:156] Memory required for data: 27532656
I0305 19:05:35.575152 30632 layer_factory.hpp:77] Creating layer InnerProduct1055
I0305 19:05:35.575158 30632 net.cpp:91] Creating Layer InnerProduct1055
I0305 19:05:35.575161 30632 net.cpp:425] InnerProduct1055 <- Slice1053
I0305 19:05:35.575166 30632 net.cpp:399] InnerProduct1055 -> InnerProduct1055
I0305 19:05:35.579097 30632 net.cpp:141] Setting up InnerProduct1055
I0305 19:05:35.579104 30632 net.cpp:148] Top shape: 1 18000 (18000)
I0305 19:05:35.579107 30632 net.cpp:156] Memory required for data: 27604656
I0305 19:05:35.579112 30632 layer_factory.hpp:77] Creating layer InnerProduct1056
I0305 19:05:35.579116 30632 net.cpp:91] Creating Layer InnerProduct1056
I0305 19:05:35.579119 30632 net.cpp:425] InnerProduct1056 <- Slice1054
I0305 19:05:35.579125 30632 net.cpp:399] InnerProduct1056 -> InnerProduct1056
I0305 19:05:35.583014 30632 net.cpp:141] Setting up InnerProduct1056
I0305 19:05:35.583020 30632 net.cpp:148] Top shape: 1 18000 (18000)
I0305 19:05:35.583022 30632 net.cpp:156] Memory required for data: 27676656
I0305 19:05:35.583027 30632 layer_factory.hpp:77] Creating layer InnerProduct1057
I0305 19:05:35.583032 30632 net.cpp:91] Creating Layer InnerProduct1057
I0305 19:05:35.583036 30632 net.cpp:425] InnerProduct1057 <- Slice1055
I0305 19:05:35.583040 30632 net.cpp:399] InnerProduct1057 -> InnerProduct1057
I0305 19:05:35.587003 30632 net.cpp:141] Setting up InnerProduct1057
I0305 19:05:35.587012 30632 net.cpp:148] Top shape: 1 18000 (18000)
I0305 19:05:35.587013 30632 net.cpp:156] Memory required for data: 27748656
I0305 19:05:35.587024 30632 layer_factory.hpp:77] Creating layer InnerProduct1058
I0305 19:05:35.587030 30632 net.cpp:91] Creating Layer InnerProduct1058
I0305 19:05:35.587034 30632 net.cpp:425] InnerProduct1058 <- Slice1056
I0305 19:05:35.587039 30632 net.cpp:399] InnerProduct1058 -> InnerProduct1058
I0305 19:05:35.590896 30632 net.cpp:141] Setting up InnerProduct1058
I0305 19:05:35.590903 30632 net.cpp:148] Top shape: 1 18000 (18000)
I0305 19:05:35.590905 30632 net.cpp:156] Memory required for data: 27820656
I0305 19:05:35.590909 30632 layer_factory.hpp:77] Creating layer InnerProduct1059
I0305 19:05:35.590914 30632 net.cpp:91] Creating Layer InnerProduct1059
I0305 19:05:35.590919 30632 net.cpp:425] InnerProduct1059 <- Slice1057
I0305 19:05:35.590922 30632 net.cpp:399] InnerProduct1059 -> InnerProduct1059
I0305 19:05:35.594836 30632 net.cpp:141] Setting up InnerProduct1059
I0305 19:05:35.594842 30632 net.cpp:148] Top shape: 1 18000 (18000)
I0305 19:05:35.594846 30632 net.cpp:156] Memory required for data: 27892656
I0305 19:05:35.594849 30632 layer_factory.hpp:77] Creating layer InnerProduct1060
I0305 19:05:35.594853 30632 net.cpp:91] Creating Layer InnerProduct1060
I0305 19:05:35.594857 30632 net.cpp:425] InnerProduct1060 <- Slice1058
I0305 19:05:35.594862 30632 net.cpp:399] InnerProduct1060 -> InnerProduct1060
I0305 19:05:35.598731 30632 net.cpp:141] Setting up InnerProduct1060
I0305 19:05:35.598737 30632 net.cpp:148] Top shape: 1 18000 (18000)
I0305 19:05:35.598739 30632 net.cpp:156] Memory required for data: 27964656
I0305 19:05:35.598743 30632 layer_factory.hpp:77] Creating layer InnerProduct1061
I0305 19:05:35.598749 30632 net.cpp:91] Creating Layer InnerProduct1061
I0305 19:05:35.598752 30632 net.cpp:425] InnerProduct1061 <- Slice1059
I0305 19:05:35.598757 30632 net.cpp:399] InnerProduct1061 -> InnerProduct1061
I0305 19:05:35.602604 30632 net.cpp:141] Setting up InnerProduct1061
I0305 19:05:35.602612 30632 net.cpp:148] Top shape: 1 18000 (18000)
I0305 19:05:35.602614 30632 net.cpp:156] Memory required for data: 28036656
I0305 19:05:35.602618 30632 layer_factory.hpp:77] Creating layer InnerProduct1062
I0305 19:05:35.602625 30632 net.cpp:91] Creating Layer InnerProduct1062
I0305 19:05:35.602629 30632 net.cpp:425] InnerProduct1062 <- Slice1060
I0305 19:05:35.602634 30632 net.cpp:399] InnerProduct1062 -> InnerProduct1062
I0305 19:05:35.606606 30632 net.cpp:141] Setting up InnerProduct1062
I0305 19:05:35.606613 30632 net.cpp:148] Top shape: 1 18000 (18000)
I0305 19:05:35.606616 30632 net.cpp:156] Memory required for data: 28108656
I0305 19:05:35.606621 30632 layer_factory.hpp:77] Creating layer InnerProduct1063
I0305 19:05:35.606626 30632 net.cpp:91] Creating Layer InnerProduct1063
I0305 19:05:35.606631 30632 net.cpp:425] InnerProduct1063 <- Slice1061
I0305 19:05:35.606634 30632 net.cpp:399] InnerProduct1063 -> InnerProduct1063
I0305 19:05:35.610571 30632 net.cpp:141] Setting up InnerProduct1063
I0305 19:05:35.610577 30632 net.cpp:148] Top shape: 1 18000 (18000)
I0305 19:05:35.610580 30632 net.cpp:156] Memory required for data: 28180656
I0305 19:05:35.610584 30632 layer_factory.hpp:77] Creating layer InnerProduct1064
I0305 19:05:35.610589 30632 net.cpp:91] Creating Layer InnerProduct1064
I0305 19:05:35.610592 30632 net.cpp:425] InnerProduct1064 <- Slice1062
I0305 19:05:35.610597 30632 net.cpp:399] InnerProduct1064 -> InnerProduct1064
I0305 19:05:35.614576 30632 net.cpp:141] Setting up InnerProduct1064
I0305 19:05:35.614583 30632 net.cpp:148] Top shape: 1 18000 (18000)
I0305 19:05:35.614584 30632 net.cpp:156] Memory required for data: 28252656
I0305 19:05:35.614589 30632 layer_factory.hpp:77] Creating layer InnerProduct1065
I0305 19:05:35.614596 30632 net.cpp:91] Creating Layer InnerProduct1065
I0305 19:05:35.614600 30632 net.cpp:425] InnerProduct1065 <- Slice1063
I0305 19:05:35.614604 30632 net.cpp:399] InnerProduct1065 -> InnerProduct1065
I0305 19:05:35.618557 30632 net.cpp:141] Setting up InnerProduct1065
I0305 19:05:35.618563 30632 net.cpp:148] Top shape: 1 18000 (18000)
I0305 19:05:35.618566 30632 net.cpp:156] Memory required for data: 28324656
I0305 19:05:35.618574 30632 layer_factory.hpp:77] Creating layer InnerProduct1066
I0305 19:05:35.618582 30632 net.cpp:91] Creating Layer InnerProduct1066
I0305 19:05:35.618584 30632 net.cpp:425] InnerProduct1066 <- Slice1064
I0305 19:05:35.618590 30632 net.cpp:399] InnerProduct1066 -> InnerProduct1066
I0305 19:05:35.622476 30632 net.cpp:141] Setting up InnerProduct1066
I0305 19:05:35.622483 30632 net.cpp:148] Top shape: 1 18000 (18000)
I0305 19:05:35.622485 30632 net.cpp:156] Memory required for data: 28396656
I0305 19:05:35.622489 30632 layer_factory.hpp:77] Creating layer InnerProduct1067
I0305 19:05:35.622495 30632 net.cpp:91] Creating Layer InnerProduct1067
I0305 19:05:35.622499 30632 net.cpp:425] InnerProduct1067 <- Slice1065
I0305 19:05:35.622503 30632 net.cpp:399] InnerProduct1067 -> InnerProduct1067
I0305 19:05:35.626467 30632 net.cpp:141] Setting up InnerProduct1067
I0305 19:05:35.626474 30632 net.cpp:148] Top shape: 1 18000 (18000)
I0305 19:05:35.626477 30632 net.cpp:156] Memory required for data: 28468656
I0305 19:05:35.626482 30632 layer_factory.hpp:77] Creating layer InnerProduct1068
I0305 19:05:35.626487 30632 net.cpp:91] Creating Layer InnerProduct1068
I0305 19:05:35.626489 30632 net.cpp:425] InnerProduct1068 <- Slice1066
I0305 19:05:35.626495 30632 net.cpp:399] InnerProduct1068 -> InnerProduct1068
I0305 19:05:35.630430 30632 net.cpp:141] Setting up InnerProduct1068
I0305 19:05:35.630436 30632 net.cpp:148] Top shape: 1 18000 (18000)
I0305 19:05:35.630439 30632 net.cpp:156] Memory required for data: 28540656
I0305 19:05:35.630444 30632 layer_factory.hpp:77] Creating layer InnerProduct1069
I0305 19:05:35.630450 30632 net.cpp:91] Creating Layer InnerProduct1069
I0305 19:05:35.630453 30632 net.cpp:425] InnerProduct1069 <- Slice1067
I0305 19:05:35.630458 30632 net.cpp:399] InnerProduct1069 -> InnerProduct1069
I0305 19:05:35.634367 30632 net.cpp:141] Setting up InnerProduct1069
I0305 19:05:35.634374 30632 net.cpp:148] Top shape: 1 18000 (18000)
I0305 19:05:35.634377 30632 net.cpp:156] Memory required for data: 28612656
I0305 19:05:35.634390 30632 layer_factory.hpp:77] Creating layer InnerProduct1070
I0305 19:05:35.634395 30632 net.cpp:91] Creating Layer InnerProduct1070
I0305 19:05:35.634407 30632 net.cpp:425] InnerProduct1070 <- Slice1068
I0305 19:05:35.634413 30632 net.cpp:399] InnerProduct1070 -> InnerProduct1070
I0305 19:05:35.638278 30632 net.cpp:141] Setting up InnerProduct1070
I0305 19:05:35.638283 30632 net.cpp:148] Top shape: 1 18000 (18000)
I0305 19:05:35.638286 30632 net.cpp:156] Memory required for data: 28684656
I0305 19:05:35.638290 30632 layer_factory.hpp:77] Creating layer InnerProduct1071
I0305 19:05:35.638296 30632 net.cpp:91] Creating Layer InnerProduct1071
I0305 19:05:35.638299 30632 net.cpp:425] InnerProduct1071 <- Slice1069
I0305 19:05:35.638304 30632 net.cpp:399] InnerProduct1071 -> InnerProduct1071
I0305 19:05:35.642184 30632 net.cpp:141] Setting up InnerProduct1071
I0305 19:05:35.642189 30632 net.cpp:148] Top shape: 1 18000 (18000)
I0305 19:05:35.642192 30632 net.cpp:156] Memory required for data: 28756656
I0305 19:05:35.642196 30632 layer_factory.hpp:77] Creating layer InnerProduct1072
I0305 19:05:35.642201 30632 net.cpp:91] Creating Layer InnerProduct1072
I0305 19:05:35.642204 30632 net.cpp:425] InnerProduct1072 <- Slice1070
I0305 19:05:35.642210 30632 net.cpp:399] InnerProduct1072 -> InnerProduct1072
I0305 19:05:35.646209 30632 net.cpp:141] Setting up InnerProduct1072
I0305 19:05:35.646214 30632 net.cpp:148] Top shape: 1 18000 (18000)
I0305 19:05:35.646217 30632 net.cpp:156] Memory required for data: 28828656
I0305 19:05:35.646221 30632 layer_factory.hpp:77] Creating layer InnerProduct1073
I0305 19:05:35.646227 30632 net.cpp:91] Creating Layer InnerProduct1073
I0305 19:05:35.646231 30632 net.cpp:425] InnerProduct1073 <- Slice1071
I0305 19:05:35.646236 30632 net.cpp:399] InnerProduct1073 -> InnerProduct1073
I0305 19:05:35.650110 30632 net.cpp:141] Setting up InnerProduct1073
I0305 19:05:35.650117 30632 net.cpp:148] Top shape: 1 18000 (18000)
I0305 19:05:35.650120 30632 net.cpp:156] Memory required for data: 28900656
I0305 19:05:35.650128 30632 layer_factory.hpp:77] Creating layer InnerProduct1074
I0305 19:05:35.650135 30632 net.cpp:91] Creating Layer InnerProduct1074
I0305 19:05:35.650140 30632 net.cpp:425] InnerProduct1074 <- Slice1072
I0305 19:05:35.650143 30632 net.cpp:399] InnerProduct1074 -> InnerProduct1074
I0305 19:05:35.654041 30632 net.cpp:141] Setting up InnerProduct1074
I0305 19:05:35.654047 30632 net.cpp:148] Top shape: 1 18000 (18000)
I0305 19:05:35.654049 30632 net.cpp:156] Memory required for data: 28972656
I0305 19:05:35.654053 30632 layer_factory.hpp:77] Creating layer Concat4
I0305 19:05:35.654062 30632 net.cpp:91] Creating Layer Concat4
I0305 19:05:35.654067 30632 net.cpp:425] Concat4 <- InnerProduct1025
I0305 19:05:35.654072 30632 net.cpp:425] Concat4 <- InnerProduct1026
I0305 19:05:35.654075 30632 net.cpp:425] Concat4 <- InnerProduct1027
…
