name: "RecNet"
layer {
  name: "data"
  type: "HDF5Data"
  top: "data"
  top: "label"
  include {
    phase: TRAIN
  }
  hdf5_data_param {
    source: "train.txt"
    batch_size: 100
  }
}
layer {
  name: "data"
  type: "HDF5Data"
  top: "data"
  top: "label"
  include {
    phase: TEST
  }
  hdf5_data_param {
    source: "test.txt"
    batch_size: 100
  }
}

layer {
  name: "Slice1"
  type: "Slice"
  bottom: "data"
  top: "Slice1"
  top: "Slice2"
  top: "Slice3"
  top: "Slice4"
  top: "Slice5"
  top: "Slice6"
  top: "Slice7"
  top: "Slice8"
  top: "Slice9"
  top: "Slice10"
  slice_param {
    slice_point: 200
    slice_point: 400
    slice_point: 600
    slice_point: 800
    slice_point: 1000
    slice_point: 1200
    slice_point: 1400
    slice_point: 1600
    slice_point: 1800
    slice_point: 2000
  }
}
layer {
  name: "InnerProduct1"
  type: "InnerProduct"
  bottom: "Slice1"
  top: "InnerProduct1"
  inner_product_param {
    num_output: 1
  }
}
layer {
  name: "ReLU1"
  type: "ReLU"
  bottom: "InnerProduct1"
  top: "InnerProduct1"
}
layer {
  name: "InnerProduct2"
  type: "InnerProduct"
  bottom: "Slice2"
  top: "InnerProduct2"
  inner_product_param {
    num_output: 1
  }
}
layer {
  name: "ReLU2"
  type: "ReLU"
  bottom: "InnerProduct2"
  top: "InnerProduct2"
}
layer {
  name: "InnerProduct3"
  type: "InnerProduct"
  bottom: "Slice3"
  top: "InnerProduct3"
  inner_product_param {
    num_output: 1
  }
}
layer {
  name: "ReLU3"
  type: "ReLU"
  bottom: "InnerProduct3"
  top: "InnerProduct3"
}
layer {
  name: "InnerProduct4"
  type: "InnerProduct"
  bottom: "Slice4"
  top: "InnerProduct4"
  inner_product_param {
    num_output: 1
  }
}
layer {
  name: "ReLU4"
  type: "ReLU"
  bottom: "InnerProduct4"
  top: "InnerProduct4"
}
layer {
  name: "InnerProduct5"
  type: "InnerProduct"
  bottom: "Slice5"
  top: "InnerProduct5"
  inner_product_param {
    num_output: 1
  }
}
layer {
  name: "ReLU5"
  type: "ReLU"
  bottom: "InnerProduct5"
  top: "InnerProduct5"
}
layer {
  name: "InnerProduct6"
  type: "InnerProduct"
  bottom: "Slice6"
  top: "InnerProduct6"
  inner_product_param {
    num_output: 1
  }
}
layer {
  name: "ReLU6"
  type: "ReLU"
  bottom: "InnerProduct6"
  top: "InnerProduct6"
}
layer {
  name: "InnerProduct7"
  type: "InnerProduct"
  bottom: "Slice7"
  top: "InnerProduct7"
  inner_product_param {
    num_output: 1
  }
}
layer {
  name: "ReLU7"
  type: "ReLU"
  bottom: "InnerProduct7"
  top: "InnerProduct7"
}
layer {
  name: "InnerProduct8"
  type: "InnerProduct"
  bottom: "Slice8"
  top: "InnerProduct8"
  inner_product_param {
    num_output: 1
  }
}
layer {
  name: "ReLU8"
  type: "ReLU"
  bottom: "InnerProduct8"
  top: "InnerProduct8"
}
layer {
  name: "InnerProduct9"
  type: "InnerProduct"
  bottom: "Slice9"
  top: "InnerProduct9"
  inner_product_param {
    num_output: 1
  }
}
layer {
  name: "ReLU9"
  type: "ReLU"
  bottom: "InnerProduct9"
  top: "InnerProduct9"
}
layer {
  name: "InnerProduct10"
  type: "InnerProduct"
  bottom: "Slice10"
  top: "InnerProduct10"
  inner_product_param {
    num_output: 1
  }
}
layer {
  name: "ReLU10"
  type: "ReLU"
  bottom: "InnerProduct10"
  top: "InnerProduct10"
}
layer {
  name: "Concat1"
  type: "Concat"
  bottom: "InnerProduct1"
  bottom: "InnerProduct2"
  bottom: "InnerProduct3"
  bottom: "InnerProduct4"
  bottom: "InnerProduct5"
  bottom: "InnerProduct6"
  bottom: "InnerProduct7"
  bottom: "InnerProduct8"
  bottom: "InnerProduct9"
  bottom: "InnerProduct10"
  top: "Concat1"
}
layer {
  name: "InnerProduct11"
  type: "InnerProduct"
  bottom: "Concat1"
  top: "InnerProduct11"
  inner_product_param {
    num_output: 2048
  }
}
layer {
  name: "ReLU11"
  type: "ReLU"
  bottom: "InnerProduct11"
  top: "InnerProduct11"
}
layer {
  name: "Dropout1"
  type: "Dropout"
  bottom: "InnerProduct11"
  top: "InnerProduct11"
  dropout_param {
    dropout_ratio: 0.5
  }
}
layer {
  name: "InnerProduct12"
  type: "InnerProduct"
  bottom: "InnerProduct11"
  top: "InnerProduct12"
  inner_product_param {
    num_output: 512
  }
}
layer {
  name: "ReLU12"
  type: "ReLU"
  bottom: "InnerProduct12"
  top: "InnerProduct12"
}
layer {
  name: "Dropout2"
  type: "Dropout"
  bottom: "InnerProduct12"
  top: "InnerProduct12"
  dropout_param {
    dropout_ratio: 0.3
  }
}
layer {
  name: "InnerProduct13"
  type: "InnerProduct"
  bottom: "InnerProduct12"
  top: "InnerProduct13"
  inner_product_param {
    num_output: 256
  }
}
layer {
  name: "ReLU13"
  type: "ReLU"
  bottom: "InnerProduct13"
  top: "InnerProduct13"
}
layer {
  name: "Dropout3"
  type: "Dropout"
  bottom: "InnerProduct13"
  top: "InnerProduct13"
  dropout_param {
    dropout_ratio: 0.3
  }
}
layer {
  name: "InnerProduct14"
  type: "InnerProduct"
  bottom: "InnerProduct13"
  top: "InnerProduct14"
  inner_product_param {
    num_output: 128
  }
}
layer {
  name: "ReLU14"
  type: "ReLU"
  bottom: "InnerProduct14"
  top: "InnerProduct14"
}
layer {
  name: "InnerProduct15"
  type: "InnerProduct"
  bottom: "InnerProduct14"
  top: "InnerProduct15"
  inner_product_param {
    num_output: 1024
  }
}
layer {
  name: "ReLU15"
  type: "ReLU"
  bottom: "InnerProduct15"
  top: "InnerProduct15"
}
layer {
  name: "InnerProduct16"
  type: "InnerProduct"
  bottom: "InnerProduct15"
  top: "InnerProduct16"
  inner_product_param {
    num_output: 2
  }
}
layer {
  name: "ReLU16"
  type: "ReLU"
  bottom: "InnerProduct16"
  top: "InnerProduct16"
}
layer {
  name: "InnerProduct17"
  type: "InnerProduct"
  bottom: "InnerProduct15"
  top: "InnerProduct17"
  inner_product_param {
    num_output: 2
  }
}
layer {
  name: "ReLU17"
  type: "ReLU"
  bottom: "InnerProduct17"
  top: "InnerProduct17"
}
layer {
  name: "InnerProduct18"
  type: "InnerProduct"
  bottom: "InnerProduct15"
  top: "InnerProduct18"
  inner_product_param {
    num_output: 2
  }
}
layer {
  name: "ReLU18"
  type: "ReLU"
  bottom: "InnerProduct18"
  top: "InnerProduct18"
}
layer {
  name: "InnerProduct19"
  type: "InnerProduct"
  bottom: "InnerProduct15"
  top: "InnerProduct19"
  inner_product_param {
    num_output: 2
  }
}
layer {
  name: "ReLU19"
  type: "ReLU"
  bottom: "InnerProduct19"
  top: "InnerProduct19"
}
layer {
  name: "InnerProduct20"
  type: "InnerProduct"
  bottom: "InnerProduct15"
  top: "InnerProduct20"
  inner_product_param {
    num_output: 2
  }
}
layer {
  name: "ReLU20"
  type: "ReLU"
  bottom: "InnerProduct20"
  top: "InnerProduct20"
}
layer {
  name: "InnerProduct21"
  type: "InnerProduct"
  bottom: "InnerProduct15"
  top: "InnerProduct21"
  inner_product_param {
    num_output: 2
  }
}
layer {
  name: "ReLU21"
  type: "ReLU"
  bottom: "InnerProduct21"
  top: "InnerProduct21"
}
layer {
  name: "InnerProduct22"
  type: "InnerProduct"
  bottom: "InnerProduct15"
  top: "InnerProduct22"
  inner_product_param {
    num_output: 2
  }
}
layer {
  name: "ReLU22"
  type: "ReLU"
  bottom: "InnerProduct22"
  top: "InnerProduct22"
}
layer {
  name: "InnerProduct23"
  type: "InnerProduct"
  bottom: "InnerProduct15"
  top: "InnerProduct23"
  inner_product_param {
    num_output: 2
  }
}
layer {
  name: "ReLU23"
  type: "ReLU"
  bottom: "InnerProduct23"
  top: "InnerProduct23"
}
layer {
  name: "InnerProduct24"
  type: "InnerProduct"
  bottom: "InnerProduct15"
  top: "InnerProduct24"
  inner_product_param {
    num_output: 2
  }
}
layer {
  name: "ReLU24"
  type: "ReLU"
  bottom: "InnerProduct24"
  top: "InnerProduct24"
}
layer {
  name: "InnerProduct25"
  type: "InnerProduct"
  bottom: "InnerProduct15"
  top: "InnerProduct25"
  inner_product_param {
    num_output: 2
  }
}
layer {
  name: "ReLU25"
  type: "ReLU"
  bottom: "InnerProduct25"
  top: "InnerProduct25"
}
layer {
  name: "InnerProduct26"
  type: "InnerProduct"
  bottom: "InnerProduct15"
  top: "InnerProduct26"
  inner_product_param {
    num_output: 2
  }
}
layer {
  name: "ReLU26"
  type: "ReLU"
  bottom: "InnerProduct26"
  top: "InnerProduct26"
}
layer {
  name: "InnerProduct27"
  type: "InnerProduct"
  bottom: "InnerProduct15"
  top: "InnerProduct27"
  inner_product_param {
    num_output: 2
  }
}
layer {
  name: "ReLU27"
  type: "ReLU"
  bottom: "InnerProduct27"
  top: "InnerProduct27"
}
layer {
  name: "InnerProduct28"
  type: "InnerProduct"
  bottom: "InnerProduct15"
  top: "InnerProduct28"
  inner_product_param {
    num_output: 2
  }
}
layer {
  name: "ReLU28"
  type: "ReLU"
  bottom: "InnerProduct28"
  top: "InnerProduct28"
}
layer {
  name: "InnerProduct29"
  type: "InnerProduct"
  bottom: "InnerProduct15"
  top: "InnerProduct29"
  inner_product_param {
    num_output: 2
  }
}
layer {
  name: "ReLU29"
  type: "ReLU"
  bottom: "InnerProduct29"
  top: "InnerProduct29"
}
layer {
  name: "InnerProduct30"
  type: "InnerProduct"
  bottom: "InnerProduct15"
  top: "InnerProduct30"
  inner_product_param {
    num_output: 2
  }
}
layer {
  name: "ReLU30"
  type: "ReLU"
  bottom: "InnerProduct30"
  top: "InnerProduct30"
}
layer {
  name: "InnerProduct31"
  type: "InnerProduct"
  bottom: "InnerProduct15"
  top: "InnerProduct31"
  inner_product_param {
    num_output: 2
  }
}
layer {
  name: "ReLU31"
  type: "ReLU"
  bottom: "InnerProduct31"
  top: "InnerProduct31"
}
layer {
  name: "InnerProduct32"
  type: "InnerProduct"
  bottom: "InnerProduct15"
  top: "InnerProduct32"
  inner_product_param {
    num_output: 2
  }
}
layer {
  name: "ReLU32"
  type: "ReLU"
  bottom: "InnerProduct32"
  top: "InnerProduct32"
}
layer {
  name: "InnerProduct33"
  type: "InnerProduct"
  bottom: "InnerProduct15"
  top: "InnerProduct33"
  inner_product_param {
    num_output: 2
  }
}
layer {
  name: "ReLU33"
  type: "ReLU"
  bottom: "InnerProduct33"
  top: "InnerProduct33"
}
layer {
  name: "InnerProduct34"
  type: "InnerProduct"
  bottom: "InnerProduct15"
  top: "InnerProduct34"
  inner_product_param {
    num_output: 2
  }
}
layer {
  name: "ReLU34"
  type: "ReLU"
  bottom: "InnerProduct34"
  top: "InnerProduct34"
}
layer {
  name: "InnerProduct35"
  type: "InnerProduct"
  bottom: "InnerProduct15"
  top: "InnerProduct35"
  inner_product_param {
    num_output: 2
  }
}
layer {
  name: "ReLU35"
  type: "ReLU"
  bottom: "InnerProduct35"
  top: "InnerProduct35"
}
layer {
  name: "InnerProduct36"
  type: "InnerProduct"
  bottom: "InnerProduct15"
  top: "InnerProduct36"
  inner_product_param {
    num_output: 2
  }
}
layer {
  name: "ReLU36"
  type: "ReLU"
  bottom: "InnerProduct36"
  top: "InnerProduct36"
}
layer {
  name: "InnerProduct37"
  type: "InnerProduct"
  bottom: "InnerProduct15"
  top: "InnerProduct37"
  inner_product_param {
    num_output: 2
  }
}
layer {
  name: "ReLU37"
  type: "ReLU"
  bottom: "InnerProduct37"
  top: "InnerProduct37"
}
layer {
  name: "InnerProduct38"
  type: "InnerProduct"
  bottom: "InnerProduct15"
  top: "InnerProduct38"
  inner_product_param {
    num_output: 2
  }
}
layer {
  name: "ReLU38"
  type: "ReLU"
  bottom: "InnerProduct38"
  top: "InnerProduct38"
}
layer {
  name: "InnerProduct39"
  type: "InnerProduct"
  bottom: "InnerProduct15"
  top: "InnerProduct39"
  inner_product_param {
    num_output: 2
  }
}
layer {
  name: "ReLU39"
  type: "ReLU"
  bottom: "InnerProduct39"
  top: "InnerProduct39"
}
layer {
  name: "InnerProduct40"
  type: "InnerProduct"
  bottom: "InnerProduct15"
  top: "InnerProduct40"
  inner_product_param {
    num_output: 2
  }
}
layer {
  name: "ReLU40"
  type: "ReLU"
  bottom: "InnerProduct40"
  top: "InnerProduct40"
}
layer {
  name: "InnerProduct41"
  type: "InnerProduct"
  bottom: "InnerProduct15"
  top: "InnerProduct41"
  inner_product_param {
    num_output: 2
  }
}
layer {
  name: "ReLU41"
  type: "ReLU"
  bottom: "InnerProduct41"
  top: "InnerProduct41"
}
layer {
  name: "InnerProduct42"
  type: "InnerProduct"
  bottom: "InnerProduct15"
  top: "InnerProduct42"
  inner_product_param {
    num_output: 2
  }
}
layer {
  name: "ReLU42"
  type: "ReLU"
  bottom: "InnerProduct42"
  top: "InnerProduct42"
}
layer {
  name: "InnerProduct43"
  type: "InnerProduct"
  bottom: "InnerProduct15"
  top: "InnerProduct43"
  inner_product_param {
    num_output: 2
  }
}
layer {
  name: "ReLU43"
  type: "ReLU"
  bottom: "InnerProduct43"
  top: "InnerProduct43"
}
layer {
  name: "InnerProduct44"
  type: "InnerProduct"
  bottom: "InnerProduct15"
  top: "InnerProduct44"
  inner_product_param {
    num_output: 2
  }
}
layer {
  name: "ReLU44"
  type: "ReLU"
  bottom: "InnerProduct44"
  top: "InnerProduct44"
}
layer {
  name: "InnerProduct45"
  type: "InnerProduct"
  bottom: "InnerProduct15"
  top: "InnerProduct45"
  inner_product_param {
    num_output: 2
  }
}
layer {
  name: "ReLU45"
  type: "ReLU"
  bottom: "InnerProduct45"
  top: "InnerProduct45"
}
layer {
  name: "InnerProduct46"
  type: "InnerProduct"
  bottom: "InnerProduct15"
  top: "InnerProduct46"
  inner_product_param {
    num_output: 2
  }
}
layer {
  name: "ReLU46"
  type: "ReLU"
  bottom: "InnerProduct46"
  top: "InnerProduct46"
}
layer {
  name: "InnerProduct47"
  type: "InnerProduct"
  bottom: "InnerProduct15"
  top: "InnerProduct47"
  inner_product_param {
    num_output: 2
  }
}
layer {
  name: "ReLU47"
  type: "ReLU"
  bottom: "InnerProduct47"
  top: "InnerProduct47"
}
layer {
  name: "InnerProduct48"
  type: "InnerProduct"
  bottom: "InnerProduct15"
  top: "InnerProduct48"
  inner_product_param {
    num_output: 2
  }
}
layer {
  name: "ReLU48"
  type: "ReLU"
  bottom: "InnerProduct48"
  top: "InnerProduct48"
}
layer {
  name: "InnerProduct49"
  type: "InnerProduct"
  bottom: "InnerProduct15"
  top: "InnerProduct49"
  inner_product_param {
    num_output: 2
  }
}
layer {
  name: "ReLU49"
  type: "ReLU"
  bottom: "InnerProduct49"
  top: "InnerProduct49"
}
layer {
  name: "InnerProduct50"
  type: "InnerProduct"
  bottom: "InnerProduct15"
  top: "InnerProduct50"
  inner_product_param {
    num_output: 2
  }
}
layer {
  name: "ReLU50"
  type: "ReLU"
  bottom: "InnerProduct50"
  top: "InnerProduct50"
}
layer {
  name: "InnerProduct51"
  type: "InnerProduct"
  bottom: "InnerProduct15"
  top: "InnerProduct51"
  inner_product_param {
    num_output: 2
  }
}
layer {
  name: "ReLU51"
  type: "ReLU"
  bottom: "InnerProduct51"
  top: "InnerProduct51"
}
layer {
  name: "InnerProduct52"
  type: "InnerProduct"
  bottom: "InnerProduct15"
  top: "InnerProduct52"
  inner_product_param {
    num_output: 2
  }
}
layer {
  name: "ReLU52"
  type: "ReLU"
  bottom: "InnerProduct52"
  top: "InnerProduct52"
}
layer {
  name: "InnerProduct53"
  type: "InnerProduct"
  bottom: "InnerProduct15"
  top: "InnerProduct53"
  inner_product_param {
    num_output: 2
  }
}
layer {
  name: "ReLU53"
  type: "ReLU"
  bottom: "InnerProduct53"
  top: "InnerProduct53"
}
layer {
  name: "InnerProduct54"
  type: "InnerProduct"
  bottom: "InnerProduct15"
  top: "InnerProduct54"
  inner_product_param {
    num_output: 2
  }
}
layer {
  name: "ReLU54"
  type: "ReLU"
  bottom: "InnerProduct54"
  top: "InnerProduct54"
}
layer {
  name: "InnerProduct55"
  type: "InnerProduct"
  bottom: "InnerProduct15"
  top: "InnerProduct55"
  inner_product_param {
    num_output: 2
  }
}
layer {
  name: "ReLU55"
  type: "ReLU"
  bottom: "InnerProduct55"
  top: "InnerProduct55"
}
layer {
  name: "InnerProduct56"
  type: "InnerProduct"
  bottom: "InnerProduct15"
  top: "InnerProduct56"
  inner_product_param {
    num_output: 2
  }
}
layer {
  name: "ReLU56"
  type: "ReLU"
  bottom: "InnerProduct56"
  top: "InnerProduct56"
}
layer {
  name: "InnerProduct57"
  type: "InnerProduct"
  bottom: "InnerProduct15"
  top: "InnerProduct57"
  inner_product_param {
    num_output: 2
  }
}
layer {
  name: "ReLU57"
  type: "ReLU"
  bottom: "InnerProduct57"
  top: "InnerProduct57"
}
layer {
  name: "InnerProduct58"
  type: "InnerProduct"
  bottom: "InnerProduct15"
  top: "InnerProduct58"
  inner_product_param {
    num_output: 2
  }
}
layer {
  name: "ReLU58"
  type: "ReLU"
  bottom: "InnerProduct58"
  top: "InnerProduct58"
}
layer {
  name: "InnerProduct59"
  type: "InnerProduct"
  bottom: "InnerProduct15"
  top: "InnerProduct59"
  inner_product_param {
    num_output: 2
  }
}
layer {
  name: "ReLU59"
  type: "ReLU"
  bottom: "InnerProduct59"
  top: "InnerProduct59"
}
layer {
  name: "InnerProduct60"
  type: "InnerProduct"
  bottom: "InnerProduct15"
  top: "InnerProduct60"
  inner_product_param {
    num_output: 2
  }
}
layer {
  name: "ReLU60"
  type: "ReLU"
  bottom: "InnerProduct60"
  top: "InnerProduct60"
}
layer {
  name: "InnerProduct61"
  type: "InnerProduct"
  bottom: "InnerProduct15"
  top: "InnerProduct61"
  inner_product_param {
    num_output: 2
  }
}
layer {
  name: "ReLU61"
  type: "ReLU"
  bottom: "InnerProduct61"
  top: "InnerProduct61"
}
layer {
  name: "InnerProduct62"
  type: "InnerProduct"
  bottom: "InnerProduct15"
  top: "InnerProduct62"
  inner_product_param {
    num_output: 2
  }
}
layer {
  name: "ReLU62"
  type: "ReLU"
  bottom: "InnerProduct62"
  top: "InnerProduct62"
}
layer {
  name: "InnerProduct63"
  type: "InnerProduct"
  bottom: "InnerProduct15"
  top: "InnerProduct63"
  inner_product_param {
    num_output: 2
  }
}
layer {
  name: "ReLU63"
  type: "ReLU"
  bottom: "InnerProduct63"
  top: "InnerProduct63"
}
layer {
  name: "InnerProduct64"
  type: "InnerProduct"
  bottom: "InnerProduct15"
  top: "InnerProduct64"
  inner_product_param {
    num_output: 2
  }
}
layer {
  name: "ReLU64"
  type: "ReLU"
  bottom: "InnerProduct64"
  top: "InnerProduct64"
}
layer {
  name: "InnerProduct65"
  type: "InnerProduct"
  bottom: "InnerProduct15"
  top: "InnerProduct65"
  inner_product_param {
    num_output: 2
  }
}
layer {
  name: "ReLU65"
  type: "ReLU"
  bottom: "InnerProduct65"
  top: "InnerProduct65"
}
layer {
  name: "InnerProduct66"
  type: "InnerProduct"
  bottom: "InnerProduct15"
  top: "InnerProduct66"
  inner_product_param {
    num_output: 2
  }
}
layer {
  name: "ReLU66"
  type: "ReLU"
  bottom: "InnerProduct66"
  top: "InnerProduct66"
}
layer {
  name: "InnerProduct67"
  type: "InnerProduct"
  bottom: "InnerProduct15"
  top: "InnerProduct67"
  inner_product_param {
    num_output: 2
  }
}
layer {
  name: "ReLU67"
  type: "ReLU"
  bottom: "InnerProduct67"
  top: "InnerProduct67"
}
layer {
  name: "InnerProduct68"
  type: "InnerProduct"
  bottom: "InnerProduct15"
  top: "InnerProduct68"
  inner_product_param {
    num_output: 2
  }
}
layer {
  name: "ReLU68"
  type: "ReLU"
  bottom: "InnerProduct68"
  top: "InnerProduct68"
}
layer {
  name: "InnerProduct69"
  type: "InnerProduct"
  bottom: "InnerProduct15"
  top: "InnerProduct69"
  inner_product_param {
    num_output: 2
  }
}
layer {
  name: "ReLU69"
  type: "ReLU"
  bottom: "InnerProduct69"
  top: "InnerProduct69"
}
layer {
  name: "InnerProduct70"
  type: "InnerProduct"
  bottom: "InnerProduct15"
  top: "InnerProduct70"
  inner_product_param {
    num_output: 2
  }
}
layer {
  name: "ReLU70"
  type: "ReLU"
  bottom: "InnerProduct70"
  top: "InnerProduct70"
}
layer {
  name: "InnerProduct71"
  type: "InnerProduct"
  bottom: "InnerProduct15"
  top: "InnerProduct71"
  inner_product_param {
    num_output: 2
  }
}
layer {
  name: "ReLU71"
  type: "ReLU"
  bottom: "InnerProduct71"
  top: "InnerProduct71"
}
layer {
  name: "InnerProduct72"
  type: "InnerProduct"
  bottom: "InnerProduct15"
  top: "InnerProduct72"
  inner_product_param {
    num_output: 2
  }
}
layer {
  name: "ReLU72"
  type: "ReLU"
  bottom: "InnerProduct72"
  top: "InnerProduct72"
}
layer {
  name: "InnerProduct73"
  type: "InnerProduct"
  bottom: "InnerProduct15"
  top: "InnerProduct73"
  inner_product_param {
    num_output: 2
  }
}
layer {
  name: "ReLU73"
  type: "ReLU"
  bottom: "InnerProduct73"
  top: "InnerProduct73"
}
layer {
  name: "InnerProduct74"
  type: "InnerProduct"
  bottom: "InnerProduct15"
  top: "InnerProduct74"
  inner_product_param {
    num_output: 2
  }
}
layer {
  name: "ReLU74"
  type: "ReLU"
  bottom: "InnerProduct74"
  top: "InnerProduct74"
}
layer {
  name: "InnerProduct75"
  type: "InnerProduct"
  bottom: "InnerProduct15"
  top: "InnerProduct75"
  inner_product_param {
    num_output: 2
  }
}
layer {
  name: "ReLU75"
  type: "ReLU"
  bottom: "InnerProduct75"
  top: "InnerProduct75"
}
layer {
  name: "InnerProduct76"
  type: "InnerProduct"
  bottom: "InnerProduct15"
  top: "InnerProduct76"
  inner_product_param {
    num_output: 2
  }
}
layer {
  name: "ReLU76"
  type: "ReLU"
  bottom: "InnerProduct76"
  top: "InnerProduct76"
}
layer {
  name: "InnerProduct77"
  type: "InnerProduct"
  bottom: "InnerProduct15"
  top: "InnerProduct77"
  inner_product_param {
    num_output: 2
  }
}
layer {
  name: "ReLU77"
  type: "ReLU"
  bottom: "InnerProduct77"
  top: "InnerProduct77"
}
layer {
  name: "InnerProduct78"
  type: "InnerProduct"
  bottom: "InnerProduct15"
  top: "InnerProduct78"
  inner_product_param {
    num_output: 2
  }
}
layer {
  name: "ReLU78"
  type: "ReLU"
  bottom: "InnerProduct78"
  top: "InnerProduct78"
}
layer {
  name: "InnerProduct79"
  type: "InnerProduct"
  bottom: "InnerProduct15"
  top: "InnerProduct79"
  inner_product_param {
    num_output: 2
  }
}
layer {
  name: "ReLU79"
  type: "ReLU"
  bottom: "InnerProduct79"
  top: "InnerProduct79"
}
layer {
  name: "InnerProduct80"
  type: "InnerProduct"
  bottom: "InnerProduct15"
  top: "InnerProduct80"
  inner_product_param {
    num_output: 2
  }
}
layer {
  name: "ReLU80"
  type: "ReLU"
  bottom: "InnerProduct80"
  top: "InnerProduct80"
}
layer {
  name: "InnerProduct81"
  type: "InnerProduct"
  bottom: "InnerProduct15"
  top: "InnerProduct81"
  inner_product_param {
    num_output: 2
  }
}
layer {
  name: "ReLU81"
  type: "ReLU"
  bottom: "InnerProduct81"
  top: "InnerProduct81"
}
layer {
  name: "InnerProduct82"
  type: "InnerProduct"
  bottom: "InnerProduct15"
  top: "InnerProduct82"
  inner_product_param {
    num_output: 2
  }
}
layer {
  name: "ReLU82"
  type: "ReLU"
  bottom: "InnerProduct82"
  top: "InnerProduct82"
}
layer {
  name: "InnerProduct83"
  type: "InnerProduct"
  bottom: "InnerProduct15"
  top: "InnerProduct83"
  inner_product_param {
    num_output: 2
  }
}
layer {
  name: "ReLU83"
  type: "ReLU"
  bottom: "InnerProduct83"
  top: "InnerProduct83"
}
layer {
  name: "InnerProduct84"
  type: "InnerProduct"
  bottom: "InnerProduct15"
  top: "InnerProduct84"
  inner_product_param {
    num_output: 2
  }
}
layer {
  name: "ReLU84"
  type: "ReLU"
  bottom: "InnerProduct84"
  top: "InnerProduct84"
}
layer {
  name: "InnerProduct85"
  type: "InnerProduct"
  bottom: "InnerProduct15"
  top: "InnerProduct85"
  inner_product_param {
    num_output: 2
  }
}
layer {
  name: "ReLU85"
  type: "ReLU"
  bottom: "InnerProduct85"
  top: "InnerProduct85"
}
layer {
  name: "InnerProduct86"
  type: "InnerProduct"
  bottom: "InnerProduct15"
  top: "InnerProduct86"
  inner_product_param {
    num_output: 2
  }
}
layer {
  name: "ReLU86"
  type: "ReLU"
  bottom: "InnerProduct86"
  top: "InnerProduct86"
}
layer {
  name: "InnerProduct87"
  type: "InnerProduct"
  bottom: "InnerProduct15"
  top: "InnerProduct87"
  inner_product_param {
    num_output: 2
  }
}
layer {
  name: "ReLU87"
  type: "ReLU"
  bottom: "InnerProduct87"
  top: "InnerProduct87"
}
layer {
  name: "InnerProduct88"
  type: "InnerProduct"
  bottom: "InnerProduct15"
  top: "InnerProduct88"
  inner_product_param {
    num_output: 2
  }
}
layer {
  name: "ReLU88"
  type: "ReLU"
  bottom: "InnerProduct88"
  top: "InnerProduct88"
}
layer {
  name: "InnerProduct89"
  type: "InnerProduct"
  bottom: "InnerProduct15"
  top: "InnerProduct89"
  inner_product_param {
    num_output: 2
  }
}
layer {
  name: "ReLU89"
  type: "ReLU"
  bottom: "InnerProduct89"
  top: "InnerProduct89"
}
layer {
  name: "InnerProduct90"
  type: "InnerProduct"
  bottom: "InnerProduct15"
  top: "InnerProduct90"
  inner_product_param {
    num_output: 2
  }
}
layer {
  name: "ReLU90"
  type: "ReLU"
  bottom: "InnerProduct90"
  top: "InnerProduct90"
}
layer {
  name: "InnerProduct91"
  type: "InnerProduct"
  bottom: "InnerProduct15"
  top: "InnerProduct91"
  inner_product_param {
    num_output: 2
  }
}
layer {
  name: "ReLU91"
  type: "ReLU"
  bottom: "InnerProduct91"
  top: "InnerProduct91"
}
layer {
  name: "InnerProduct92"
  type: "InnerProduct"
  bottom: "InnerProduct15"
  top: "InnerProduct92"
  inner_product_param {
    num_output: 2
  }
}
layer {
  name: "ReLU92"
  type: "ReLU"
  bottom: "InnerProduct92"
  top: "InnerProduct92"
}
layer {
  name: "InnerProduct93"
  type: "InnerProduct"
  bottom: "InnerProduct15"
  top: "InnerProduct93"
  inner_product_param {
    num_output: 2
  }
}
layer {
  name: "ReLU93"
  type: "ReLU"
  bottom: "InnerProduct93"
  top: "InnerProduct93"
}
layer {
  name: "InnerProduct94"
  type: "InnerProduct"
  bottom: "InnerProduct15"
  top: "InnerProduct94"
  inner_product_param {
    num_output: 2
  }
}
layer {
  name: "ReLU94"
  type: "ReLU"
  bottom: "InnerProduct94"
  top: "InnerProduct94"
}
layer {
  name: "InnerProduct95"
  type: "InnerProduct"
  bottom: "InnerProduct15"
  top: "InnerProduct95"
  inner_product_param {
    num_output: 2
  }
}
layer {
  name: "ReLU95"
  type: "ReLU"
  bottom: "InnerProduct95"
  top: "InnerProduct95"
}
layer {
  name: "InnerProduct96"
  type: "InnerProduct"
  bottom: "InnerProduct15"
  top: "InnerProduct96"
  inner_product_param {
    num_output: 2
  }
}
layer {
  name: "ReLU96"
  type: "ReLU"
  bottom: "InnerProduct96"
  top: "InnerProduct96"
}
layer {
  name: "InnerProduct97"
  type: "InnerProduct"
  bottom: "InnerProduct15"
  top: "InnerProduct97"
  inner_product_param {
    num_output: 2
  }
}
layer {
  name: "ReLU97"
  type: "ReLU"
  bottom: "InnerProduct97"
  top: "InnerProduct97"
}
layer {
  name: "InnerProduct98"
  type: "InnerProduct"
  bottom: "InnerProduct15"
  top: "InnerProduct98"
  inner_product_param {
    num_output: 2
  }
}
layer {
  name: "ReLU98"
  type: "ReLU"
  bottom: "InnerProduct98"
  top: "InnerProduct98"
}
layer {
  name: "InnerProduct99"
  type: "InnerProduct"
  bottom: "InnerProduct15"
  top: "InnerProduct99"
  inner_product_param {
    num_output: 2
  }
}
layer {
  name: "ReLU99"
  type: "ReLU"
  bottom: "InnerProduct99"
  top: "InnerProduct99"
}
layer {
  name: "InnerProduct100"
  type: "InnerProduct"
  bottom: "InnerProduct15"
  top: "InnerProduct100"
  inner_product_param {
    num_output: 2
  }
}
layer {
  name: "ReLU100"
  type: "ReLU"
  bottom: "InnerProduct100"
  top: "InnerProduct100"
}
layer {
  name: "InnerProduct101"
  type: "InnerProduct"
  bottom: "InnerProduct15"
  top: "InnerProduct101"
  inner_product_param {
    num_output: 2
  }
}
layer {
  name: "ReLU101"
  type: "ReLU"
  bottom: "InnerProduct101"
  top: "InnerProduct101"
}
layer {
  name: "InnerProduct102"
  type: "InnerProduct"
  bottom: "InnerProduct15"
  top: "InnerProduct102"
  inner_product_param {
    num_output: 2
  }
}
layer {
  name: "ReLU102"
  type: "ReLU"
  bottom: "InnerProduct102"
  top: "InnerProduct102"
}
layer {
  name: "InnerProduct103"
  type: "InnerProduct"
  bottom: "InnerProduct15"
  top: "InnerProduct103"
  inner_product_param {
    num_output: 2
  }
}
layer {
  name: "ReLU103"
  type: "ReLU"
  bottom: "InnerProduct103"
  top: "InnerProduct103"
}
layer {
  name: "InnerProduct104"
  type: "InnerProduct"
  bottom: "InnerProduct15"
  top: "InnerProduct104"
  inner_product_param {
    num_output: 2
  }
}
layer {
  name: "ReLU104"
  type: "ReLU"
  bottom: "InnerProduct104"
  top: "InnerProduct104"
}
layer {
  name: "InnerProduct105"
  type: "InnerProduct"
  bottom: "InnerProduct15"
  top: "InnerProduct105"
  inner_product_param {
    num_output: 2
  }
}
layer {
  name: "ReLU105"
  type: "ReLU"
  bottom: "InnerProduct105"
  top: "InnerProduct105"
}
layer {
  name: "InnerProduct106"
  type: "InnerProduct"
  bottom: "InnerProduct15"
  top: "InnerProduct106"
  inner_product_param {
    num_output: 2
  }
}
layer {
  name: "ReLU106"
  type: "ReLU"
  bottom: "InnerProduct106"
  top: "InnerProduct106"
}
layer {
  name: "InnerProduct107"
  type: "InnerProduct"
  bottom: "InnerProduct15"
  top: "InnerProduct107"
  inner_product_param {
    num_output: 2
  }
}
layer {
  name: "ReLU107"
  type: "ReLU"
  bottom: "InnerProduct107"
  top: "InnerProduct107"
}
layer {
  name: "InnerProduct108"
  type: "InnerProduct"
  bottom: "InnerProduct15"
  top: "InnerProduct108"
  inner_product_param {
    num_output: 2
  }
}
layer {
  name: "ReLU108"
  type: "ReLU"
  bottom: "InnerProduct108"
  top: "InnerProduct108"
}
layer {
  name: "InnerProduct109"
  type: "InnerProduct"
  bottom: "InnerProduct15"
  top: "InnerProduct109"
  inner_product_param {
    num_output: 2
  }
}
layer {
  name: "ReLU109"
  type: "ReLU"
  bottom: "InnerProduct109"
  top: "InnerProduct109"
}
layer {
  name: "InnerProduct110"
  type: "InnerProduct"
  bottom: "InnerProduct15"
  top: "InnerProduct110"
  inner_product_param {
    num_output: 2
  }
}
layer {
  name: "ReLU110"
  type: "ReLU"
  bottom: "InnerProduct110"
  top: "InnerProduct110"
}
layer {
  name: "InnerProduct111"
  type: "InnerProduct"
  bottom: "InnerProduct15"
  top: "InnerProduct111"
  inner_product_param {
    num_output: 2
  }
}
layer {
  name: "ReLU111"
  type: "ReLU"
  bottom: "InnerProduct111"
  top: "InnerProduct111"
}
layer {
  name: "InnerProduct112"
  type: "InnerProduct"
  bottom: "InnerProduct15"
  top: "InnerProduct112"
  inner_product_param {
    num_output: 2
  }
}
layer {
  name: "ReLU112"
  type: "ReLU"
  bottom: "InnerProduct112"
  top: "InnerProduct112"
}
layer {
  name: "InnerProduct113"
  type: "InnerProduct"
  bottom: "InnerProduct15"
  top: "InnerProduct113"
  inner_product_param {
    num_output: 2
  }
}
layer {
  name: "ReLU113"
  type: "ReLU"
  bottom: "InnerProduct113"
  top: "InnerProduct113"
}
layer {
  name: "InnerProduct114"
  type: "InnerProduct"
  bottom: "InnerProduct15"
  top: "InnerProduct114"
  inner_product_param {
    num_output: 2
  }
}
layer {
  name: "ReLU114"
  type: "ReLU"
  bottom: "InnerProduct114"
  top: "InnerProduct114"
}
layer {
  name: "InnerProduct115"
  type: "InnerProduct"
  bottom: "InnerProduct15"
  top: "InnerProduct115"
  inner_product_param {
    num_output: 2
  }
}
layer {
  name: "ReLU115"
  type: "ReLU"
  bottom: "InnerProduct115"
  top: "InnerProduct115"
}
layer {
  name: "InnerProduct116"
  type: "InnerProduct"
  bottom: "InnerProduct15"
  top: "InnerProduct116"
  inner_product_param {
    num_output: 2
  }
}
layer {
  name: "ReLU116"
  type: "ReLU"
  bottom: "InnerProduct116"
  top: "InnerProduct116"
}
layer {
  name: "InnerProduct117"
  type: "InnerProduct"
  bottom: "InnerProduct15"
  top: "InnerProduct117"
  inner_product_param {
    num_output: 2
  }
}
layer {
  name: "ReLU117"
  type: "ReLU"
  bottom: "InnerProduct117"
  top: "InnerProduct117"
}
layer {
  name: "InnerProduct118"
  type: "InnerProduct"
  bottom: "InnerProduct15"
  top: "InnerProduct118"
  inner_product_param {
    num_output: 2
  }
}
layer {
  name: "ReLU118"
  type: "ReLU"
  bottom: "InnerProduct118"
  top: "InnerProduct118"
}
layer {
  name: "InnerProduct119"
  type: "InnerProduct"
  bottom: "InnerProduct15"
  top: "InnerProduct119"
  inner_product_param {
    num_output: 2
  }
}
layer {
  name: "ReLU119"
  type: "ReLU"
  bottom: "InnerProduct119"
  top: "InnerProduct119"
}
layer {
  name: "InnerProduct120"
  type: "InnerProduct"
  bottom: "InnerProduct15"
  top: "InnerProduct120"
  inner_product_param {
    num_output: 2
  }
}
layer {
  name: "ReLU120"
  type: "ReLU"
  bottom: "InnerProduct120"
  top: "InnerProduct120"
}
layer {
  name: "InnerProduct121"
  type: "InnerProduct"
  bottom: "InnerProduct15"
  top: "InnerProduct121"
  inner_product_param {
    num_output: 2
  }
}
layer {
  name: "ReLU121"
  type: "ReLU"
  bottom: "InnerProduct121"
  top: "InnerProduct121"
}
layer {
  name: "InnerProduct122"
  type: "InnerProduct"
  bottom: "InnerProduct15"
  top: "InnerProduct122"
  inner_product_param {
    num_output: 2
  }
}
layer {
  name: "ReLU122"
  type: "ReLU"
  bottom: "InnerProduct122"
  top: "InnerProduct122"
}
layer {
  name: "InnerProduct123"
  type: "InnerProduct"
  bottom: "InnerProduct15"
  top: "InnerProduct123"
  inner_product_param {
    num_output: 2
  }
}
layer {
  name: "ReLU123"
  type: "ReLU"
  bottom: "InnerProduct123"
  top: "InnerProduct123"
}
layer {
  name: "InnerProduct124"
  type: "InnerProduct"
  bottom: "InnerProduct15"
  top: "InnerProduct124"
  inner_product_param {
    num_output: 2
  }
}
layer {
  name: "ReLU124"
  type: "ReLU"
  bottom: "InnerProduct124"
  top: "InnerProduct124"
}
layer {
  name: "InnerProduct125"
  type: "InnerProduct"
  bottom: "InnerProduct15"
  top: "InnerProduct125"
  inner_product_param {
    num_output: 2
  }
}
layer {
  name: "ReLU125"
  type: "ReLU"
  bottom: "InnerProduct125"
  top: "InnerProduct125"
}
layer {
  name: "InnerProduct126"
  type: "InnerProduct"
  bottom: "InnerProduct15"
  top: "InnerProduct126"
  inner_product_param {
    num_output: 2
  }
}
layer {
  name: "ReLU126"
  type: "ReLU"
  bottom: "InnerProduct126"
  top: "InnerProduct126"
}
layer {
  name: "InnerProduct127"
  type: "InnerProduct"
  bottom: "InnerProduct15"
  top: "InnerProduct127"
  inner_product_param {
    num_output: 2
  }
}
layer {
  name: "ReLU127"
  type: "ReLU"
  bottom: "InnerProduct127"
  top: "InnerProduct127"
}
layer {
  name: "InnerProduct128"
  type: "InnerProduct"
  bottom: "InnerProduct15"
  top: "InnerProduct128"
  inner_product_param {
    num_output: 2
  }
}
layer {
  name: "ReLU128"
  type: "ReLU"
  bottom: "InnerProduct128"
  top: "InnerProduct128"
}
layer {
  name: "InnerProduct129"
  type: "InnerProduct"
  bottom: "InnerProduct15"
  top: "InnerProduct129"
  inner_product_param {
    num_output: 2
  }
}
layer {
  name: "ReLU129"
  type: "ReLU"
  bottom: "InnerProduct129"
  top: "InnerProduct129"
}
layer {
  name: "InnerProduct130"
  type: "InnerProduct"
  bottom: "InnerProduct15"
  top: "InnerProduct130"
  inner_product_param {
    num_output: 2
  }
}
layer {
  name: "ReLU130"
  type: "ReLU"
  bottom: "InnerProduct130"
  top: "InnerProduct130"
}
layer {
  name: "InnerProduct131"
  type: "InnerProduct"
  bottom: "InnerProduct15"
  top: "InnerProduct131"
  inner_product_param {
    num_output: 2
  }
}
layer {
  name: "ReLU131"
  type: "ReLU"
  bottom: "InnerProduct131"
  top: "InnerProduct131"
}
layer {
  name: "InnerProduct132"
  type: "InnerProduct"
  bottom: "InnerProduct15"
  top: "InnerProduct132"
  inner_product_param {
    num_output: 2
  }
}
layer {
  name: "ReLU132"
  type: "ReLU"
  bottom: "InnerProduct132"
  top: "InnerProduct132"
}
layer {
  name: "InnerProduct133"
  type: "InnerProduct"
  bottom: "InnerProduct15"
  top: "InnerProduct133"
  inner_product_param {
    num_output: 2
  }
}
layer {
  name: "ReLU133"
  type: "ReLU"
  bottom: "InnerProduct133"
  top: "InnerProduct133"
}
layer {
  name: "InnerProduct134"
  type: "InnerProduct"
  bottom: "InnerProduct15"
  top: "InnerProduct134"
  inner_product_param {
    num_output: 2
  }
}
layer {
  name: "ReLU134"
  type: "ReLU"
  bottom: "InnerProduct134"
  top: "InnerProduct134"
}
layer {
  name: "InnerProduct135"
  type: "InnerProduct"
  bottom: "InnerProduct15"
  top: "InnerProduct135"
  inner_product_param {
    num_output: 2
  }
}
layer {
  name: "ReLU135"
  type: "ReLU"
  bottom: "InnerProduct135"
  top: "InnerProduct135"
}
layer {
  name: "InnerProduct136"
  type: "InnerProduct"
  bottom: "InnerProduct15"
  top: "InnerProduct136"
  inner_product_param {
    num_output: 2
  }
}
layer {
  name: "ReLU136"
  type: "ReLU"
  bottom: "InnerProduct136"
  top: "InnerProduct136"
}
layer {
  name: "InnerProduct137"
  type: "InnerProduct"
  bottom: "InnerProduct15"
  top: "InnerProduct137"
  inner_product_param {
    num_output: 2
  }
}
layer {
  name: "ReLU137"
  type: "ReLU"
  bottom: "InnerProduct137"
  top: "InnerProduct137"
}
layer {
  name: "InnerProduct138"
  type: "InnerProduct"
  bottom: "InnerProduct15"
  top: "InnerProduct138"
  inner_product_param {
    num_output: 2
  }
}
layer {
  name: "ReLU138"
  type: "ReLU"
  bottom: "InnerProduct138"
  top: "InnerProduct138"
}
layer {
  name: "InnerProduct139"
  type: "InnerProduct"
  bottom: "InnerProduct15"
  top: "InnerProduct139"
  inner_product_param {
    num_output: 2
  }
}
layer {
  name: "ReLU139"
  type: "ReLU"
  bottom: "InnerProduct139"
  top: "InnerProduct139"
}
layer {
  name: "InnerProduct140"
  type: "InnerProduct"
  bottom: "InnerProduct15"
  top: "InnerProduct140"
  inner_product_param {
    num_output: 2
  }
}
layer {
  name: "ReLU140"
  type: "ReLU"
  bottom: "InnerProduct140"
  top: "InnerProduct140"
}
layer {
  name: "InnerProduct141"
  type: "InnerProduct"
  bottom: "InnerProduct15"
  top: "InnerProduct141"
  inner_product_param {
    num_output: 2
  }
}
layer {
  name: "ReLU141"
  type: "ReLU"
  bottom: "InnerProduct141"
  top: "InnerProduct141"
}
layer {
  name: "InnerProduct142"
  type: "InnerProduct"
  bottom: "InnerProduct15"
  top: "InnerProduct142"
  inner_product_param {
    num_output: 2
  }
}
layer {
  name: "ReLU142"
  type: "ReLU"
  bottom: "InnerProduct142"
  top: "InnerProduct142"
}
layer {
  name: "InnerProduct143"
  type: "InnerProduct"
  bottom: "InnerProduct15"
  top: "InnerProduct143"
  inner_product_param {
    num_output: 2
  }
}
layer {
  name: "ReLU143"
  type: "ReLU"
  bottom: "InnerProduct143"
  top: "InnerProduct143"
}
layer {
  name: "InnerProduct144"
  type: "InnerProduct"
  bottom: "InnerProduct15"
  top: "InnerProduct144"
  inner_product_param {
    num_output: 2
  }
}
layer {
  name: "ReLU144"
  type: "ReLU"
  bottom: "InnerProduct144"
  top: "InnerProduct144"
}
layer {
  name: "InnerProduct145"
  type: "InnerProduct"
  bottom: "InnerProduct15"
  top: "InnerProduct145"
  inner_product_param {
    num_output: 2
  }
}
layer {
  name: "ReLU145"
  type: "ReLU"
  bottom: "InnerProduct145"
  top: "InnerProduct145"
}
layer {
  name: "InnerProduct146"
  type: "InnerProduct"
  bottom: "InnerProduct15"
  top: "InnerProduct146"
  inner_product_param {
    num_output: 2
  }
}
layer {
  name: "ReLU146"
  type: "ReLU"
  bottom: "InnerProduct146"
  top: "InnerProduct146"
}
layer {
  name: "InnerProduct147"
  type: "InnerProduct"
  bottom: "InnerProduct15"
  top: "InnerProduct147"
  inner_product_param {
    num_output: 2
  }
}
layer {
  name: "ReLU147"
  type: "ReLU"
  bottom: "InnerProduct147"
  top: "InnerProduct147"
}
layer {
  name: "InnerProduct148"
  type: "InnerProduct"
  bottom: "InnerProduct15"
  top: "InnerProduct148"
  inner_product_param {
    num_output: 2
  }
}
layer {
  name: "ReLU148"
  type: "ReLU"
  bottom: "InnerProduct148"
  top: "InnerProduct148"
}
layer {
  name: "InnerProduct149"
  type: "InnerProduct"
  bottom: "InnerProduct15"
  top: "InnerProduct149"
  inner_product_param {
    num_output: 2
  }
}
layer {
  name: "ReLU149"
  type: "ReLU"
  bottom: "InnerProduct149"
  top: "InnerProduct149"
}
layer {
  name: "InnerProduct150"
  type: "InnerProduct"
  bottom: "InnerProduct15"
  top: "InnerProduct150"
  inner_product_param {
    num_output: 2
  }
}
layer {
  name: "ReLU150"
  type: "ReLU"
  bottom: "InnerProduct150"
  top: "InnerProduct150"
}
layer {
  name: "InnerProduct151"
  type: "InnerProduct"
  bottom: "InnerProduct15"
  top: "InnerProduct151"
  inner_product_param {
    num_output: 2
  }
}
layer {
  name: "ReLU151"
  type: "ReLU"
  bottom: "InnerProduct151"
  top: "InnerProduct151"
}
layer {
  name: "InnerProduct152"
  type: "InnerProduct"
  bottom: "InnerProduct15"
  top: "InnerProduct152"
  inner_product_param {
    num_output: 2
  }
}
layer {
  name: "ReLU152"
  type: "ReLU"
  bottom: "InnerProduct152"
  top: "InnerProduct152"
}
layer {
  name: "InnerProduct153"
  type: "InnerProduct"
  bottom: "InnerProduct15"
  top: "InnerProduct153"
  inner_product_param {
    num_output: 2
  }
}
layer {
  name: "ReLU153"
  type: "ReLU"
  bottom: "InnerProduct153"
  top: "InnerProduct153"
}
layer {
  name: "InnerProduct154"
  type: "InnerProduct"
  bottom: "InnerProduct15"
  top: "InnerProduct154"
  inner_product_param {
    num_output: 2
  }
}
layer {
  name: "ReLU154"
  type: "ReLU"
  bottom: "InnerProduct154"
  top: "InnerProduct154"
}
layer {
  name: "InnerProduct155"
  type: "InnerProduct"
  bottom: "InnerProduct15"
  top: "InnerProduct155"
  inner_product_param {
    num_output: 2
  }
}
layer {
  name: "ReLU155"
  type: "ReLU"
  bottom: "InnerProduct155"
  top: "InnerProduct155"
}
layer {
  name: "InnerProduct156"
  type: "InnerProduct"
  bottom: "InnerProduct15"
  top: "InnerProduct156"
  inner_product_param {
    num_output: 2
  }
}
layer {
  name: "ReLU156"
  type: "ReLU"
  bottom: "InnerProduct156"
  top: "InnerProduct156"
}
layer {
  name: "InnerProduct157"
  type: "InnerProduct"
  bottom: "InnerProduct15"
  top: "InnerProduct157"
  inner_product_param {
    num_output: 2
  }
}
layer {
  name: "ReLU157"
  type: "ReLU"
  bottom: "InnerProduct157"
  top: "InnerProduct157"
}
layer {
  name: "InnerProduct158"
  type: "InnerProduct"
  bottom: "InnerProduct15"
  top: "InnerProduct158"
  inner_product_param {
    num_output: 2
  }
}
layer {
  name: "ReLU158"
  type: "ReLU"
  bottom: "InnerProduct158"
  top: "InnerProduct158"
}
layer {
  name: "InnerProduct159"
  type: "InnerProduct"
  bottom: "InnerProduct15"
  top: "InnerProduct159"
  inner_product_param {
    num_output: 2
  }
}
layer {
  name: "ReLU159"
  type: "ReLU"
  bottom: "InnerProduct159"
  top: "InnerProduct159"
}
layer {
  name: "InnerProduct160"
  type: "InnerProduct"
  bottom: "InnerProduct15"
  top: "InnerProduct160"
  inner_product_param {
    num_output: 2
  }
}
layer {
  name: "ReLU160"
  type: "ReLU"
  bottom: "InnerProduct160"
  top: "InnerProduct160"
}
layer {
  name: "InnerProduct161"
  type: "InnerProduct"
  bottom: "InnerProduct15"
  top: "InnerProduct161"
  inner_product_param {
    num_output: 2
  }
}
layer {
  name: "ReLU161"
  type: "ReLU"
  bottom: "InnerProduct161"
  top: "InnerProduct161"
}
layer {
  name: "InnerProduct162"
  type: "InnerProduct"
  bottom: "InnerProduct15"
  top: "InnerProduct162"
  inner_product_param {
    num_output: 2
  }
}
layer {
  name: "ReLU162"
  type: "ReLU"
  bottom: "InnerProduct162"
  top: "InnerProduct162"
}
layer {
  name: "InnerProduct163"
  type: "InnerProduct"
  bottom: "InnerProduct15"
  top: "InnerProduct163"
  inner_product_param {
    num_output: 2
  }
}
layer {
  name: "ReLU163"
  type: "ReLU"
  bottom: "InnerProduct163"
  top: "InnerProduct163"
}
layer {
  name: "InnerProduct164"
  type: "InnerProduct"
  bottom: "InnerProduct15"
  top: "InnerProduct164"
  inner_product_param {
    num_output: 2
  }
}
layer {
  name: "ReLU164"
  type: "ReLU"
  bottom: "InnerProduct164"
  top: "InnerProduct164"
}
layer {
  name: "InnerProduct165"
  type: "InnerProduct"
  bottom: "InnerProduct15"
  top: "InnerProduct165"
  inner_product_param {
    num_output: 2
  }
}
layer {
  name: "ReLU165"
  type: "ReLU"
  bottom: "InnerProduct165"
  top: "InnerProduct165"
}
layer {
  name: "InnerProduct166"
  type: "InnerProduct"
  bottom: "InnerProduct15"
  top: "InnerProduct166"
  inner_product_param {
    num_output: 2
  }
}
layer {
  name: "ReLU166"
  type: "ReLU"
  bottom: "InnerProduct166"
  top: "InnerProduct166"
}
layer {
  name: "InnerProduct167"
  type: "InnerProduct"
  bottom: "InnerProduct15"
  top: "InnerProduct167"
  inner_product_param {
    num_output: 2
  }
}
layer {
  name: "ReLU167"
  type: "ReLU"
  bottom: "InnerProduct167"
  top: "InnerProduct167"
}
layer {
  name: "InnerProduct168"
  type: "InnerProduct"
  bottom: "InnerProduct15"
  top: "InnerProduct168"
  inner_product_param {
    num_output: 2
  }
}
layer {
  name: "ReLU168"
  type: "ReLU"
  bottom: "InnerProduct168"
  top: "InnerProduct168"
}
layer {
  name: "InnerProduct169"
  type: "InnerProduct"
  bottom: "InnerProduct15"
  top: "InnerProduct169"
  inner_product_param {
    num_output: 2
  }
}
layer {
  name: "ReLU169"
  type: "ReLU"
  bottom: "InnerProduct169"
  top: "InnerProduct169"
}
layer {
  name: "InnerProduct170"
  type: "InnerProduct"
  bottom: "InnerProduct15"
  top: "InnerProduct170"
  inner_product_param {
    num_output: 2
  }
}
layer {
  name: "ReLU170"
  type: "ReLU"
  bottom: "InnerProduct170"
  top: "InnerProduct170"
}
layer {
  name: "InnerProduct171"
  type: "InnerProduct"
  bottom: "InnerProduct15"
  top: "InnerProduct171"
  inner_product_param {
    num_output: 2
  }
}
layer {
  name: "ReLU171"
  type: "ReLU"
  bottom: "InnerProduct171"
  top: "InnerProduct171"
}
layer {
  name: "InnerProduct172"
  type: "InnerProduct"
  bottom: "InnerProduct15"
  top: "InnerProduct172"
  inner_product_param {
    num_output: 2
  }
}
layer {
  name: "ReLU172"
  type: "ReLU"
  bottom: "InnerProduct172"
  top: "InnerProduct172"
}
layer {
  name: "InnerProduct173"
  type: "InnerProduct"
  bottom: "InnerProduct15"
  top: "InnerProduct173"
  inner_product_param {
    num_output: 2
  }
}
layer {
  name: "ReLU173"
  type: "ReLU"
  bottom: "InnerProduct173"
  top: "InnerProduct173"
}
layer {
  name: "InnerProduct174"
  type: "InnerProduct"
  bottom: "InnerProduct15"
  top: "InnerProduct174"
  inner_product_param {
    num_output: 2
  }
}
layer {
  name: "ReLU174"
  type: "ReLU"
  bottom: "InnerProduct174"
  top: "InnerProduct174"
}
layer {
  name: "InnerProduct175"
  type: "InnerProduct"
  bottom: "InnerProduct15"
  top: "InnerProduct175"
  inner_product_param {
    num_output: 2
  }
}
layer {
  name: "ReLU175"
  type: "ReLU"
  bottom: "InnerProduct175"
  top: "InnerProduct175"
}
layer {
  name: "InnerProduct176"
  type: "InnerProduct"
  bottom: "InnerProduct15"
  top: "InnerProduct176"
  inner_product_param {
    num_output: 2
  }
}
layer {
  name: "ReLU176"
  type: "ReLU"
  bottom: "InnerProduct176"
  top: "InnerProduct176"
}
layer {
  name: "InnerProduct177"
  type: "InnerProduct"
  bottom: "InnerProduct15"
  top: "InnerProduct177"
  inner_product_param {
    num_output: 2
  }
}
layer {
  name: "ReLU177"
  type: "ReLU"
  bottom: "InnerProduct177"
  top: "InnerProduct177"
}
layer {
  name: "InnerProduct178"
  type: "InnerProduct"
  bottom: "InnerProduct15"
  top: "InnerProduct178"
  inner_product_param {
    num_output: 2
  }
}
layer {
  name: "ReLU178"
  type: "ReLU"
  bottom: "InnerProduct178"
  top: "InnerProduct178"
}
layer {
  name: "InnerProduct179"
  type: "InnerProduct"
  bottom: "InnerProduct15"
  top: "InnerProduct179"
  inner_product_param {
    num_output: 2
  }
}
layer {
  name: "ReLU179"
  type: "ReLU"
  bottom: "InnerProduct179"
  top: "InnerProduct179"
}
layer {
  name: "InnerProduct180"
  type: "InnerProduct"
  bottom: "InnerProduct15"
  top: "InnerProduct180"
  inner_product_param {
    num_output: 2
  }
}
layer {
  name: "ReLU180"
  type: "ReLU"
  bottom: "InnerProduct180"
  top: "InnerProduct180"
}
layer {
  name: "InnerProduct181"
  type: "InnerProduct"
  bottom: "InnerProduct15"
  top: "InnerProduct181"
  inner_product_param {
    num_output: 2
  }
}
layer {
  name: "ReLU181"
  type: "ReLU"
  bottom: "InnerProduct181"
  top: "InnerProduct181"
}
layer {
  name: "InnerProduct182"
  type: "InnerProduct"
  bottom: "InnerProduct15"
  top: "InnerProduct182"
  inner_product_param {
    num_output: 2
  }
}
layer {
  name: "ReLU182"
  type: "ReLU"
  bottom: "InnerProduct182"
  top: "InnerProduct182"
}
layer {
  name: "InnerProduct183"
  type: "InnerProduct"
  bottom: "InnerProduct15"
  top: "InnerProduct183"
  inner_product_param {
    num_output: 2
  }
}
layer {
  name: "ReLU183"
  type: "ReLU"
  bottom: "InnerProduct183"
  top: "InnerProduct183"
}
layer {
  name: "InnerProduct184"
  type: "InnerProduct"
  bottom: "InnerProduct15"
  top: "InnerProduct184"
  inner_product_param {
    num_output: 2
  }
}
layer {
  name: "ReLU184"
  type: "ReLU"
  bottom: "InnerProduct184"
  top: "InnerProduct184"
}
layer {
  name: "InnerProduct185"
  type: "InnerProduct"
  bottom: "InnerProduct15"
  top: "InnerProduct185"
  inner_product_param {
    num_output: 2
  }
}
layer {
  name: "ReLU185"
  type: "ReLU"
  bottom: "InnerProduct185"
  top: "InnerProduct185"
}
layer {
  name: "InnerProduct186"
  type: "InnerProduct"
  bottom: "InnerProduct15"
  top: "InnerProduct186"
  inner_product_param {
    num_output: 2
  }
}
layer {
  name: "ReLU186"
  type: "ReLU"
  bottom: "InnerProduct186"
  top: "InnerProduct186"
}
layer {
  name: "InnerProduct187"
  type: "InnerProduct"
  bottom: "InnerProduct15"
  top: "InnerProduct187"
  inner_product_param {
    num_output: 2
  }
}
layer {
  name: "ReLU187"
  type: "ReLU"
  bottom: "InnerProduct187"
  top: "InnerProduct187"
}
layer {
  name: "InnerProduct188"
  type: "InnerProduct"
  bottom: "InnerProduct15"
  top: "InnerProduct188"
  inner_product_param {
    num_output: 2
  }
}
layer {
  name: "ReLU188"
  type: "ReLU"
  bottom: "InnerProduct188"
  top: "InnerProduct188"
}
layer {
  name: "InnerProduct189"
  type: "InnerProduct"
  bottom: "InnerProduct15"
  top: "InnerProduct189"
  inner_product_param {
    num_output: 2
  }
}
layer {
  name: "ReLU189"
  type: "ReLU"
  bottom: "InnerProduct189"
  top: "InnerProduct189"
}
layer {
  name: "InnerProduct190"
  type: "InnerProduct"
  bottom: "InnerProduct15"
  top: "InnerProduct190"
  inner_product_param {
    num_output: 2
  }
}
layer {
  name: "ReLU190"
  type: "ReLU"
  bottom: "InnerProduct190"
  top: "InnerProduct190"
}
layer {
  name: "InnerProduct191"
  type: "InnerProduct"
  bottom: "InnerProduct15"
  top: "InnerProduct191"
  inner_product_param {
    num_output: 2
  }
}
layer {
  name: "ReLU191"
  type: "ReLU"
  bottom: "InnerProduct191"
  top: "InnerProduct191"
}
layer {
  name: "InnerProduct192"
  type: "InnerProduct"
  bottom: "InnerProduct15"
  top: "InnerProduct192"
  inner_product_param {
    num_output: 2
  }
}
layer {
  name: "ReLU192"
  type: "ReLU"
  bottom: "InnerProduct192"
  top: "InnerProduct192"
}
layer {
  name: "InnerProduct193"
  type: "InnerProduct"
  bottom: "InnerProduct15"
  top: "InnerProduct193"
  inner_product_param {
    num_output: 2
  }
}
layer {
  name: "ReLU193"
  type: "ReLU"
  bottom: "InnerProduct193"
  top: "InnerProduct193"
}
layer {
  name: "InnerProduct194"
  type: "InnerProduct"
  bottom: "InnerProduct15"
  top: "InnerProduct194"
  inner_product_param {
    num_output: 2
  }
}
layer {
  name: "ReLU194"
  type: "ReLU"
  bottom: "InnerProduct194"
  top: "InnerProduct194"
}
layer {
  name: "InnerProduct195"
  type: "InnerProduct"
  bottom: "InnerProduct15"
  top: "InnerProduct195"
  inner_product_param {
    num_output: 2
  }
}
layer {
  name: "ReLU195"
  type: "ReLU"
  bottom: "InnerProduct195"
  top: "InnerProduct195"
}
layer {
  name: "InnerProduct196"
  type: "InnerProduct"
  bottom: "InnerProduct15"
  top: "InnerProduct196"
  inner_product_param {
    num_output: 2
  }
}
layer {
  name: "ReLU196"
  type: "ReLU"
  bottom: "InnerProduct196"
  top: "InnerProduct196"
}
layer {
  name: "InnerProduct197"
  type: "InnerProduct"
  bottom: "InnerProduct15"
  top: "InnerProduct197"
  inner_product_param {
    num_output: 2
  }
}
layer {
  name: "ReLU197"
  type: "ReLU"
  bottom: "InnerProduct197"
  top: "InnerProduct197"
}
layer {
  name: "InnerProduct198"
  type: "InnerProduct"
  bottom: "InnerProduct15"
  top: "InnerProduct198"
  inner_product_param {
    num_output: 2
  }
}
layer {
  name: "ReLU198"
  type: "ReLU"
  bottom: "InnerProduct198"
  top: "InnerProduct198"
}
layer {
  name: "InnerProduct199"
  type: "InnerProduct"
  bottom: "InnerProduct15"
  top: "InnerProduct199"
  inner_product_param {
    num_output: 2
  }
}
layer {
  name: "ReLU199"
  type: "ReLU"
  bottom: "InnerProduct199"
  top: "InnerProduct199"
}
layer {
  name: "InnerProduct200"
  type: "InnerProduct"
  bottom: "InnerProduct15"
  top: "InnerProduct200"
  inner_product_param {
    num_output: 2
  }
}
layer {
  name: "ReLU200"
  type: "ReLU"
  bottom: "InnerProduct200"
  top: "InnerProduct200"
}
layer {
  name: "InnerProduct201"
  type: "InnerProduct"
  bottom: "InnerProduct15"
  top: "InnerProduct201"
  inner_product_param {
    num_output: 2
  }
}
layer {
  name: "ReLU201"
  type: "ReLU"
  bottom: "InnerProduct201"
  top: "InnerProduct201"
}
layer {
  name: "InnerProduct202"
  type: "InnerProduct"
  bottom: "InnerProduct15"
  top: "InnerProduct202"
  inner_product_param {
    num_output: 2
  }
}
layer {
  name: "ReLU202"
  type: "ReLU"
  bottom: "InnerProduct202"
  top: "InnerProduct202"
}
layer {
  name: "InnerProduct203"
  type: "InnerProduct"
  bottom: "InnerProduct15"
  top: "InnerProduct203"
  inner_product_param {
    num_output: 2
  }
}
layer {
  name: "ReLU203"
  type: "ReLU"
  bottom: "InnerProduct203"
  top: "InnerProduct203"
}
layer {
  name: "InnerProduct204"
  type: "InnerProduct"
  bottom: "InnerProduct15"
  top: "InnerProduct204"
  inner_product_param {
    num_output: 2
  }
}
layer {
  name: "ReLU204"
  type: "ReLU"
  bottom: "InnerProduct204"
  top: "InnerProduct204"
}
layer {
  name: "InnerProduct205"
  type: "InnerProduct"
  bottom: "InnerProduct15"
  top: "InnerProduct205"
  inner_product_param {
    num_output: 2
  }
}
layer {
  name: "ReLU205"
  type: "ReLU"
  bottom: "InnerProduct205"
  top: "InnerProduct205"
}
layer {
  name: "InnerProduct206"
  type: "InnerProduct"
  bottom: "InnerProduct15"
  top: "InnerProduct206"
  inner_product_param {
    num_output: 2
  }
}
layer {
  name: "ReLU206"
  type: "ReLU"
  bottom: "InnerProduct206"
  top: "InnerProduct206"
}
layer {
  name: "InnerProduct207"
  type: "InnerProduct"
  bottom: "InnerProduct15"
  top: "InnerProduct207"
  inner_product_param {
    num_output: 2
  }
}
layer {
  name: "ReLU207"
  type: "ReLU"
  bottom: "InnerProduct207"
  top: "InnerProduct207"
}
layer {
  name: "InnerProduct208"
  type: "InnerProduct"
  bottom: "InnerProduct15"
  top: "InnerProduct208"
  inner_product_param {
    num_output: 2
  }
}
layer {
  name: "ReLU208"
  type: "ReLU"
  bottom: "InnerProduct208"
  top: "InnerProduct208"
}
layer {
  name: "InnerProduct209"
  type: "InnerProduct"
  bottom: "InnerProduct15"
  top: "InnerProduct209"
  inner_product_param {
    num_output: 2
  }
}
layer {
  name: "ReLU209"
  type: "ReLU"
  bottom: "InnerProduct209"
  top: "InnerProduct209"
}
layer {
  name: "InnerProduct210"
  type: "InnerProduct"
  bottom: "InnerProduct15"
  top: "InnerProduct210"
  inner_product_param {
    num_output: 2
  }
}
layer {
  name: "ReLU210"
  type: "ReLU"
  bottom: "InnerProduct210"
  top: "InnerProduct210"
}
layer {
  name: "InnerProduct211"
  type: "InnerProduct"
  bottom: "InnerProduct15"
  top: "InnerProduct211"
  inner_product_param {
    num_output: 2
  }
}
layer {
  name: "ReLU211"
  type: "ReLU"
  bottom: "InnerProduct211"
  top: "InnerProduct211"
}
layer {
  name: "InnerProduct212"
  type: "InnerProduct"
  bottom: "InnerProduct15"
  top: "InnerProduct212"
  inner_product_param {
    num_output: 2
  }
}
layer {
  name: "ReLU212"
  type: "ReLU"
  bottom: "InnerProduct212"
  top: "InnerProduct212"
}
layer {
  name: "InnerProduct213"
  type: "InnerProduct"
  bottom: "InnerProduct15"
  top: "InnerProduct213"
  inner_product_param {
    num_output: 2
  }
}
layer {
  name: "ReLU213"
  type: "ReLU"
  bottom: "InnerProduct213"
  top: "InnerProduct213"
}
layer {
  name: "InnerProduct214"
  type: "InnerProduct"
  bottom: "InnerProduct15"
  top: "InnerProduct214"
  inner_product_param {
    num_output: 2
  }
}
layer {
  name: "ReLU214"
  type: "ReLU"
  bottom: "InnerProduct214"
  top: "InnerProduct214"
}
layer {
  name: "InnerProduct215"
  type: "InnerProduct"
  bottom: "InnerProduct15"
  top: "InnerProduct215"
  inner_product_param {
    num_output: 2
  }
}
layer {
  name: "ReLU215"
  type: "ReLU"
  bottom: "InnerProduct215"
  top: "InnerProduct215"
}
layer {
  name: "InnerProduct216"
  type: "InnerProduct"
  bottom: "InnerProduct15"
  top: "InnerProduct216"
  inner_product_param {
    num_output: 2
  }
}
layer {
  name: "ReLU216"
  type: "ReLU"
  bottom: "InnerProduct216"
  top: "InnerProduct216"
}
layer {
  name: "InnerProduct217"
  type: "InnerProduct"
  bottom: "InnerProduct15"
  top: "InnerProduct217"
  inner_product_param {
    num_output: 2
  }
}
layer {
  name: "ReLU217"
  type: "ReLU"
  bottom: "InnerProduct217"
  top: "InnerProduct217"
}
layer {
  name: "InnerProduct218"
  type: "InnerProduct"
  bottom: "InnerProduct15"
  top: "InnerProduct218"
  inner_product_param {
    num_output: 2
  }
}
layer {
  name: "ReLU218"
  type: "ReLU"
  bottom: "InnerProduct218"
  top: "InnerProduct218"
}
layer {
  name: "InnerProduct219"
  type: "InnerProduct"
  bottom: "InnerProduct15"
  top: "InnerProduct219"
  inner_product_param {
    num_output: 2
  }
}
layer {
  name: "ReLU219"
  type: "ReLU"
  bottom: "InnerProduct219"
  top: "InnerProduct219"
}
layer {
  name: "InnerProduct220"
  type: "InnerProduct"
  bottom: "InnerProduct15"
  top: "InnerProduct220"
  inner_product_param {
    num_output: 2
  }
}
layer {
  name: "ReLU220"
  type: "ReLU"
  bottom: "InnerProduct220"
  top: "InnerProduct220"
}
layer {
  name: "InnerProduct221"
  type: "InnerProduct"
  bottom: "InnerProduct15"
  top: "InnerProduct221"
  inner_product_param {
    num_output: 2
  }
}
layer {
  name: "ReLU221"
  type: "ReLU"
  bottom: "InnerProduct221"
  top: "InnerProduct221"
}
layer {
  name: "InnerProduct222"
  type: "InnerProduct"
  bottom: "InnerProduct15"
  top: "InnerProduct222"
  inner_product_param {
    num_output: 2
  }
}
layer {
  name: "ReLU222"
  type: "ReLU"
  bottom: "InnerProduct222"
  top: "InnerProduct222"
}
layer {
  name: "InnerProduct223"
  type: "InnerProduct"
  bottom: "InnerProduct15"
  top: "InnerProduct223"
  inner_product_param {
    num_output: 2
  }
}
layer {
  name: "ReLU223"
  type: "ReLU"
  bottom: "InnerProduct223"
  top: "InnerProduct223"
}
layer {
  name: "InnerProduct224"
  type: "InnerProduct"
  bottom: "InnerProduct15"
  top: "InnerProduct224"
  inner_product_param {
    num_output: 2
  }
}
layer {
  name: "ReLU224"
  type: "ReLU"
  bottom: "InnerProduct224"
  top: "InnerProduct224"
}
layer {
  name: "InnerProduct225"
  type: "InnerProduct"
  bottom: "InnerProduct15"
  top: "InnerProduct225"
  inner_product_param {
    num_output: 2
  }
}
layer {
  name: "ReLU225"
  type: "ReLU"
  bottom: "InnerProduct225"
  top: "InnerProduct225"
}
layer {
  name: "InnerProduct226"
  type: "InnerProduct"
  bottom: "InnerProduct15"
  top: "InnerProduct226"
  inner_product_param {
    num_output: 2
  }
}
layer {
  name: "ReLU226"
  type: "ReLU"
  bottom: "InnerProduct226"
  top: "InnerProduct226"
}
layer {
  name: "InnerProduct227"
  type: "InnerProduct"
  bottom: "InnerProduct15"
  top: "InnerProduct227"
  inner_product_param {
    num_output: 2
  }
}
layer {
  name: "ReLU227"
  type: "ReLU"
  bottom: "InnerProduct227"
  top: "InnerProduct227"
}
layer {
  name: "InnerProduct228"
  type: "InnerProduct"
  bottom: "InnerProduct15"
  top: "InnerProduct228"
  inner_product_param {
    num_output: 2
  }
}
layer {
  name: "ReLU228"
  type: "ReLU"
  bottom: "InnerProduct228"
  top: "InnerProduct228"
}
layer {
  name: "InnerProduct229"
  type: "InnerProduct"
  bottom: "InnerProduct15"
  top: "InnerProduct229"
  inner_product_param {
    num_output: 2
  }
}
layer {
  name: "ReLU229"
  type: "ReLU"
  bottom: "InnerProduct229"
  top: "InnerProduct229"
}
layer {
  name: "InnerProduct230"
  type: "InnerProduct"
  bottom: "InnerProduct15"
  top: "InnerProduct230"
  inner_product_param {
    num_output: 2
  }
}
layer {
  name: "ReLU230"
  type: "ReLU"
  bottom: "InnerProduct230"
  top: "InnerProduct230"
}
layer {
  name: "InnerProduct231"
  type: "InnerProduct"
  bottom: "InnerProduct15"
  top: "InnerProduct231"
  inner_product_param {
    num_output: 2
  }
}
layer {
  name: "ReLU231"
  type: "ReLU"
  bottom: "InnerProduct231"
  top: "InnerProduct231"
}
layer {
  name: "InnerProduct232"
  type: "InnerProduct"
  bottom: "InnerProduct15"
  top: "InnerProduct232"
  inner_product_param {
    num_output: 2
  }
}
layer {
  name: "ReLU232"
  type: "ReLU"
  bottom: "InnerProduct232"
  top: "InnerProduct232"
}
layer {
  name: "InnerProduct233"
  type: "InnerProduct"
  bottom: "InnerProduct15"
  top: "InnerProduct233"
  inner_product_param {
    num_output: 2
  }
}
layer {
  name: "ReLU233"
  type: "ReLU"
  bottom: "InnerProduct233"
  top: "InnerProduct233"
}
layer {
  name: "InnerProduct234"
  type: "InnerProduct"
  bottom: "InnerProduct15"
  top: "InnerProduct234"
  inner_product_param {
    num_output: 2
  }
}
layer {
  name: "ReLU234"
  type: "ReLU"
  bottom: "InnerProduct234"
  top: "InnerProduct234"
}
layer {
  name: "InnerProduct235"
  type: "InnerProduct"
  bottom: "InnerProduct15"
  top: "InnerProduct235"
  inner_product_param {
    num_output: 2
  }
}
layer {
  name: "ReLU235"
  type: "ReLU"
  bottom: "InnerProduct235"
  top: "InnerProduct235"
}
layer {
  name: "InnerProduct236"
  type: "InnerProduct"
  bottom: "InnerProduct15"
  top: "InnerProduct236"
  inner_product_param {
    num_output: 2
  }
}
layer {
  name: "ReLU236"
  type: "ReLU"
  bottom: "InnerProduct236"
  top: "InnerProduct236"
}
layer {
  name: "InnerProduct237"
  type: "InnerProduct"
  bottom: "InnerProduct15"
  top: "InnerProduct237"
  inner_product_param {
    num_output: 2
  }
}
layer {
  name: "ReLU237"
  type: "ReLU"
  bottom: "InnerProduct237"
  top: "InnerProduct237"
}
layer {
  name: "InnerProduct238"
  type: "InnerProduct"
  bottom: "InnerProduct15"
  top: "InnerProduct238"
  inner_product_param {
    num_output: 2
  }
}
layer {
  name: "ReLU238"
  type: "ReLU"
  bottom: "InnerProduct238"
  top: "InnerProduct238"
}
layer {
  name: "InnerProduct239"
  type: "InnerProduct"
  bottom: "InnerProduct15"
  top: "InnerProduct239"
  inner_product_param {
    num_output: 2
  }
}
layer {
  name: "ReLU239"
  type: "ReLU"
  bottom: "InnerProduct239"
  top: "InnerProduct239"
}
layer {
  name: "InnerProduct240"
  type: "InnerProduct"
  bottom: "InnerProduct15"
  top: "InnerProduct240"
  inner_product_param {
    num_output: 2
  }
}
layer {
  name: "ReLU240"
  type: "ReLU"
  bottom: "InnerProduct240"
  top: "InnerProduct240"
}
layer {
  name: "InnerProduct241"
  type: "InnerProduct"
  bottom: "InnerProduct15"
  top: "InnerProduct241"
  inner_product_param {
    num_output: 2
  }
}
layer {
  name: "ReLU241"
  type: "ReLU"
  bottom: "InnerProduct241"
  top: "InnerProduct241"
}
layer {
  name: "InnerProduct242"
  type: "InnerProduct"
  bottom: "InnerProduct15"
  top: "InnerProduct242"
  inner_product_param {
    num_output: 2
  }
}
layer {
  name: "ReLU242"
  type: "ReLU"
  bottom: "InnerProduct242"
  top: "InnerProduct242"
}
layer {
  name: "InnerProduct243"
  type: "InnerProduct"
  bottom: "InnerProduct15"
  top: "InnerProduct243"
  inner_product_param {
    num_output: 2
  }
}
layer {
  name: "ReLU243"
  type: "ReLU"
  bottom: "InnerProduct243"
  top: "InnerProduct243"
}
layer {
  name: "InnerProduct244"
  type: "InnerProduct"
  bottom: "InnerProduct15"
  top: "InnerProduct244"
  inner_product_param {
    num_output: 2
  }
}
layer {
  name: "ReLU244"
  type: "ReLU"
  bottom: "InnerProduct244"
  top: "InnerProduct244"
}
layer {
  name: "InnerProduct245"
  type: "InnerProduct"
  bottom: "InnerProduct15"
  top: "InnerProduct245"
  inner_product_param {
    num_output: 2
  }
}
layer {
  name: "ReLU245"
  type: "ReLU"
  bottom: "InnerProduct245"
  top: "InnerProduct245"
}
layer {
  name: "InnerProduct246"
  type: "InnerProduct"
  bottom: "InnerProduct15"
  top: "InnerProduct246"
  inner_product_param {
    num_output: 2
  }
}
layer {
  name: "ReLU246"
  type: "ReLU"
  bottom: "InnerProduct246"
  top: "InnerProduct246"
}
layer {
  name: "InnerProduct247"
  type: "InnerProduct"
  bottom: "InnerProduct15"
  top: "InnerProduct247"
  inner_product_param {
    num_output: 2
  }
}
layer {
  name: "ReLU247"
  type: "ReLU"
  bottom: "InnerProduct247"
  top: "InnerProduct247"
}
layer {
  name: "InnerProduct248"
  type: "InnerProduct"
  bottom: "InnerProduct15"
  top: "InnerProduct248"
  inner_product_param {
    num_output: 2
  }
}
layer {
  name: "ReLU248"
  type: "ReLU"
  bottom: "InnerProduct248"
  top: "InnerProduct248"
}
layer {
  name: "InnerProduct249"
  type: "InnerProduct"
  bottom: "InnerProduct15"
  top: "InnerProduct249"
  inner_product_param {
    num_output: 2
  }
}
layer {
  name: "ReLU249"
  type: "ReLU"
  bottom: "InnerProduct249"
  top: "InnerProduct249"
}
layer {
  name: "InnerProduct250"
  type: "InnerProduct"
  bottom: "InnerProduct15"
  top: "InnerProduct250"
  inner_product_param {
    num_output: 2
  }
}
layer {
  name: "ReLU250"
  type: "ReLU"
  bottom: "InnerProduct250"
  top: "InnerProduct250"
}
layer {
  name: "InnerProduct251"
  type: "InnerProduct"
  bottom: "InnerProduct15"
  top: "InnerProduct251"
  inner_product_param {
    num_output: 2
  }
}
layer {
  name: "ReLU251"
  type: "ReLU"
  bottom: "InnerProduct251"
  top: "InnerProduct251"
}
layer {
  name: "InnerProduct252"
  type: "InnerProduct"
  bottom: "InnerProduct15"
  top: "InnerProduct252"
  inner_product_param {
    num_output: 2
  }
}
layer {
  name: "ReLU252"
  type: "ReLU"
  bottom: "InnerProduct252"
  top: "InnerProduct252"
}
layer {
  name: "InnerProduct253"
  type: "InnerProduct"
  bottom: "InnerProduct15"
  top: "InnerProduct253"
  inner_product_param {
    num_output: 2
  }
}
layer {
  name: "ReLU253"
  type: "ReLU"
  bottom: "InnerProduct253"
  top: "InnerProduct253"
}
layer {
  name: "InnerProduct254"
  type: "InnerProduct"
  bottom: "InnerProduct15"
  top: "InnerProduct254"
  inner_product_param {
    num_output: 2
  }
}
layer {
  name: "ReLU254"
  type: "ReLU"
  bottom: "InnerProduct254"
  top: "InnerProduct254"
}
layer {
  name: "InnerProduct255"
  type: "InnerProduct"
  bottom: "InnerProduct15"
  top: "InnerProduct255"
  inner_product_param {
    num_output: 2
  }
}
layer {
  name: "ReLU255"
  type: "ReLU"
  bottom: "InnerProduct255"
  top: "InnerProduct255"
}
layer {
  name: "InnerProduct256"
  type: "InnerProduct"
  bottom: "InnerProduct15"
  top: "InnerProduct256"
  inner_product_param {
    num_output: 2
  }
}
layer {
  name: "ReLU256"
  type: "ReLU"
  bottom: "InnerProduct256"
  top: "InnerProduct256"
}
layer {
  name: "InnerProduct257"
  type: "InnerProduct"
  bottom: "InnerProduct15"
  top: "InnerProduct257"
  inner_product_param {
    num_output: 2
  }
}
layer {
  name: "ReLU257"
  type: "ReLU"
  bottom: "InnerProduct257"
  top: "InnerProduct257"
}
layer {
  name: "InnerProduct258"
  type: "InnerProduct"
  bottom: "InnerProduct15"
  top: "InnerProduct258"
  inner_product_param {
    num_output: 2
  }
}
layer {
  name: "ReLU258"
  type: "ReLU"
  bottom: "InnerProduct258"
  top: "InnerProduct258"
}
layer {
  name: "InnerProduct259"
  type: "InnerProduct"
  bottom: "InnerProduct15"
  top: "InnerProduct259"
  inner_product_param {
    num_output: 2
  }
}
layer {
  name: "ReLU259"
  type: "ReLU"
  bottom: "InnerProduct259"
  top: "InnerProduct259"
}
layer {
  name: "InnerProduct260"
  type: "InnerProduct"
  bottom: "InnerProduct15"
  top: "InnerProduct260"
  inner_product_param {
    num_output: 2
  }
}
layer {
  name: "ReLU260"
  type: "ReLU"
  bottom: "InnerProduct260"
  top: "InnerProduct260"
}
layer {
  name: "InnerProduct261"
  type: "InnerProduct"
  bottom: "InnerProduct15"
  top: "InnerProduct261"
  inner_product_param {
    num_output: 2
  }
}
layer {
  name: "ReLU261"
  type: "ReLU"
  bottom: "InnerProduct261"
  top: "InnerProduct261"
}
layer {
  name: "InnerProduct262"
  type: "InnerProduct"
  bottom: "InnerProduct15"
  top: "InnerProduct262"
  inner_product_param {
    num_output: 2
  }
}
layer {
  name: "ReLU262"
  type: "ReLU"
  bottom: "InnerProduct262"
  top: "InnerProduct262"
}
layer {
  name: "InnerProduct263"
  type: "InnerProduct"
  bottom: "InnerProduct15"
  top: "InnerProduct263"
  inner_product_param {
    num_output: 2
  }
}
layer {
  name: "ReLU263"
  type: "ReLU"
  bottom: "InnerProduct263"
  top: "InnerProduct263"
}
layer {
  name: "InnerProduct264"
  type: "InnerProduct"
  bottom: "InnerProduct15"
  top: "InnerProduct264"
  inner_product_param {
    num_output: 2
  }
}
layer {
  name: "ReLU264"
  type: "ReLU"
  bottom: "InnerProduct264"
  top: "InnerProduct264"
}
layer {
  name: "InnerProduct265"
  type: "InnerProduct"
  bottom: "InnerProduct15"
  top: "InnerProduct265"
  inner_product_param {
    num_output: 2
  }
}
layer {
  name: "ReLU265"
  type: "ReLU"
  bottom: "InnerProduct265"
  top: "InnerProduct265"
}
layer {
  name: "InnerProduct266"
  type: "InnerProduct"
  bottom: "InnerProduct15"
  top: "InnerProduct266"
  inner_product_param {
    num_output: 2
  }
}
layer {
  name: "ReLU266"
  type: "ReLU"
  bottom: "InnerProduct266"
  top: "InnerProduct266"
}
layer {
  name: "InnerProduct267"
  type: "InnerProduct"
  bottom: "InnerProduct15"
  top: "InnerProduct267"
  inner_product_param {
    num_output: 2
  }
}
layer {
  name: "ReLU267"
  type: "ReLU"
  bottom: "InnerProduct267"
  top: "InnerProduct267"
}
layer {
  name: "InnerProduct268"
  type: "InnerProduct"
  bottom: "InnerProduct15"
  top: "InnerProduct268"
  inner_product_param {
    num_output: 2
  }
}
layer {
  name: "ReLU268"
  type: "ReLU"
  bottom: "InnerProduct268"
  top: "InnerProduct268"
}
layer {
  name: "InnerProduct269"
  type: "InnerProduct"
  bottom: "InnerProduct15"
  top: "InnerProduct269"
  inner_product_param {
    num_output: 2
  }
}
layer {
  name: "ReLU269"
  type: "ReLU"
  bottom: "InnerProduct269"
  top: "InnerProduct269"
}
layer {
  name: "InnerProduct270"
  type: "InnerProduct"
  bottom: "InnerProduct15"
  top: "InnerProduct270"
  inner_product_param {
    num_output: 2
  }
}
layer {
  name: "ReLU270"
  type: "ReLU"
  bottom: "InnerProduct270"
  top: "InnerProduct270"
}
layer {
  name: "InnerProduct271"
  type: "InnerProduct"
  bottom: "InnerProduct15"
  top: "InnerProduct271"
  inner_product_param {
    num_output: 2
  }
}
layer {
  name: "ReLU271"
  type: "ReLU"
  bottom: "InnerProduct271"
  top: "InnerProduct271"
}
layer {
  name: "InnerProduct272"
  type: "InnerProduct"
  bottom: "InnerProduct15"
  top: "InnerProduct272"
  inner_product_param {
    num_output: 2
  }
}
layer {
  name: "ReLU272"
  type: "ReLU"
  bottom: "InnerProduct272"
  top: "InnerProduct272"
}
layer {
  name: "InnerProduct273"
  type: "InnerProduct"
  bottom: "InnerProduct15"
  top: "InnerProduct273"
  inner_product_param {
    num_output: 2
  }
}
layer {
  name: "ReLU273"
  type: "ReLU"
  bottom: "InnerProduct273"
  top: "InnerProduct273"
}
layer {
  name: "InnerProduct274"
  type: "InnerProduct"
  bottom: "InnerProduct15"
  top: "InnerProduct274"
  inner_product_param {
    num_output: 2
  }
}
layer {
  name: "ReLU274"
  type: "ReLU"
  bottom: "InnerProduct274"
  top: "InnerProduct274"
}
layer {
  name: "InnerProduct275"
  type: "InnerProduct"
  bottom: "InnerProduct15"
  top: "InnerProduct275"
  inner_product_param {
    num_output: 2
  }
}
layer {
  name: "ReLU275"
  type: "ReLU"
  bottom: "InnerProduct275"
  top: "InnerProduct275"
}
layer {
  name: "InnerProduct276"
  type: "InnerProduct"
  bottom: "InnerProduct15"
  top: "InnerProduct276"
  inner_product_param {
    num_output: 2
  }
}
layer {
  name: "ReLU276"
  type: "ReLU"
  bottom: "InnerProduct276"
  top: "InnerProduct276"
}
layer {
  name: "InnerProduct277"
  type: "InnerProduct"
  bottom: "InnerProduct15"
  top: "InnerProduct277"
  inner_product_param {
    num_output: 2
  }
}
layer {
  name: "ReLU277"
  type: "ReLU"
  bottom: "InnerProduct277"
  top: "InnerProduct277"
}
layer {
  name: "InnerProduct278"
  type: "InnerProduct"
  bottom: "InnerProduct15"
  top: "InnerProduct278"
  inner_product_param {
    num_output: 2
  }
}
layer {
  name: "ReLU278"
  type: "ReLU"
  bottom: "InnerProduct278"
  top: "InnerProduct278"
}
layer {
  name: "InnerProduct279"
  type: "InnerProduct"
  bottom: "InnerProduct15"
  top: "InnerProduct279"
  inner_product_param {
    num_output: 2
  }
}
layer {
  name: "ReLU279"
  type: "ReLU"
  bottom: "InnerProduct279"
  top: "InnerProduct279"
}
layer {
  name: "InnerProduct280"
  type: "InnerProduct"
  bottom: "InnerProduct15"
  top: "InnerProduct280"
  inner_product_param {
    num_output: 2
  }
}
layer {
  name: "ReLU280"
  type: "ReLU"
  bottom: "InnerProduct280"
  top: "InnerProduct280"
}
layer {
  name: "InnerProduct281"
  type: "InnerProduct"
  bottom: "InnerProduct15"
  top: "InnerProduct281"
  inner_product_param {
    num_output: 2
  }
}
layer {
  name: "ReLU281"
  type: "ReLU"
  bottom: "InnerProduct281"
  top: "InnerProduct281"
}
layer {
  name: "InnerProduct282"
  type: "InnerProduct"
  bottom: "InnerProduct15"
  top: "InnerProduct282"
  inner_product_param {
    num_output: 2
  }
}
layer {
  name: "ReLU282"
  type: "ReLU"
  bottom: "InnerProduct282"
  top: "InnerProduct282"
}
layer {
  name: "InnerProduct283"
  type: "InnerProduct"
  bottom: "InnerProduct15"
  top: "InnerProduct283"
  inner_product_param {
    num_output: 2
  }
}
layer {
  name: "ReLU283"
  type: "ReLU"
  bottom: "InnerProduct283"
  top: "InnerProduct283"
}
layer {
  name: "InnerProduct284"
  type: "InnerProduct"
  bottom: "InnerProduct15"
  top: "InnerProduct284"
  inner_product_param {
    num_output: 2
  }
}
layer {
  name: "ReLU284"
  type: "ReLU"
  bottom: "InnerProduct284"
  top: "InnerProduct284"
}
layer {
  name: "InnerProduct285"
  type: "InnerProduct"
  bottom: "InnerProduct15"
  top: "InnerProduct285"
  inner_product_param {
    num_output: 2
  }
}
layer {
  name: "ReLU285"
  type: "ReLU"
  bottom: "InnerProduct285"
  top: "InnerProduct285"
}
layer {
  name: "InnerProduct286"
  type: "InnerProduct"
  bottom: "InnerProduct15"
  top: "InnerProduct286"
  inner_product_param {
    num_output: 2
  }
}
layer {
  name: "ReLU286"
  type: "ReLU"
  bottom: "InnerProduct286"
  top: "InnerProduct286"
}
layer {
  name: "InnerProduct287"
  type: "InnerProduct"
  bottom: "InnerProduct15"
  top: "InnerProduct287"
  inner_product_param {
    num_output: 2
  }
}
layer {
  name: "ReLU287"
  type: "ReLU"
  bottom: "InnerProduct287"
  top: "InnerProduct287"
}
layer {
  name: "InnerProduct288"
  type: "InnerProduct"
  bottom: "InnerProduct15"
  top: "InnerProduct288"
  inner_product_param {
    num_output: 2
  }
}
layer {
  name: "ReLU288"
  type: "ReLU"
  bottom: "InnerProduct288"
  top: "InnerProduct288"
}
layer {
  name: "InnerProduct289"
  type: "InnerProduct"
  bottom: "InnerProduct15"
  top: "InnerProduct289"
  inner_product_param {
    num_output: 2
  }
}
layer {
  name: "ReLU289"
  type: "ReLU"
  bottom: "InnerProduct289"
  top: "InnerProduct289"
}
layer {
  name: "InnerProduct290"
  type: "InnerProduct"
  bottom: "InnerProduct15"
  top: "InnerProduct290"
  inner_product_param {
    num_output: 2
  }
}
layer {
  name: "ReLU290"
  type: "ReLU"
  bottom: "InnerProduct290"
  top: "InnerProduct290"
}
layer {
  name: "InnerProduct291"
  type: "InnerProduct"
  bottom: "InnerProduct15"
  top: "InnerProduct291"
  inner_product_param {
    num_output: 2
  }
}
layer {
  name: "ReLU291"
  type: "ReLU"
  bottom: "InnerProduct291"
  top: "InnerProduct291"
}
layer {
  name: "InnerProduct292"
  type: "InnerProduct"
  bottom: "InnerProduct15"
  top: "InnerProduct292"
  inner_product_param {
    num_output: 2
  }
}
layer {
  name: "ReLU292"
  type: "ReLU"
  bottom: "InnerProduct292"
  top: "InnerProduct292"
}
layer {
  name: "InnerProduct293"
  type: "InnerProduct"
  bottom: "InnerProduct15"
  top: "InnerProduct293"
  inner_product_param {
    num_output: 2
  }
}
layer {
  name: "ReLU293"
  type: "ReLU"
  bottom: "InnerProduct293"
  top: "InnerProduct293"
}
layer {
  name: "InnerProduct294"
  type: "InnerProduct"
  bottom: "InnerProduct15"
  top: "InnerProduct294"
  inner_product_param {
    num_output: 2
  }
}
layer {
  name: "ReLU294"
  type: "ReLU"
  bottom: "InnerProduct294"
  top: "InnerProduct294"
}
layer {
  name: "InnerProduct295"
  type: "InnerProduct"
  bottom: "InnerProduct15"
  top: "InnerProduct295"
  inner_product_param {
    num_output: 2
  }
}
layer {
  name: "ReLU295"
  type: "ReLU"
  bottom: "InnerProduct295"
  top: "InnerProduct295"
}
layer {
  name: "InnerProduct296"
  type: "InnerProduct"
  bottom: "InnerProduct15"
  top: "InnerProduct296"
  inner_product_param {
    num_output: 2
  }
}
layer {
  name: "ReLU296"
  type: "ReLU"
  bottom: "InnerProduct296"
  top: "InnerProduct296"
}
layer {
  name: "InnerProduct297"
  type: "InnerProduct"
  bottom: "InnerProduct15"
  top: "InnerProduct297"
  inner_product_param {
    num_output: 2
  }
}
layer {
  name: "ReLU297"
  type: "ReLU"
  bottom: "InnerProduct297"
  top: "InnerProduct297"
}
layer {
  name: "InnerProduct298"
  type: "InnerProduct"
  bottom: "InnerProduct15"
  top: "InnerProduct298"
  inner_product_param {
    num_output: 2
  }
}
layer {
  name: "ReLU298"
  type: "ReLU"
  bottom: "InnerProduct298"
  top: "InnerProduct298"
}
layer {
  name: "InnerProduct299"
  type: "InnerProduct"
  bottom: "InnerProduct15"
  top: "InnerProduct299"
  inner_product_param {
    num_output: 2
  }
}
layer {
  name: "ReLU299"
  type: "ReLU"
  bottom: "InnerProduct299"
  top: "InnerProduct299"
}
layer {
  name: "InnerProduct300"
  type: "InnerProduct"
  bottom: "InnerProduct15"
  top: "InnerProduct300"
  inner_product_param {
    num_output: 2
  }
}
layer {
  name: "ReLU300"
  type: "ReLU"
  bottom: "InnerProduct300"
  top: "InnerProduct300"
}
layer {
  name: "InnerProduct301"
  type: "InnerProduct"
  bottom: "InnerProduct15"
  top: "InnerProduct301"
  inner_product_param {
    num_output: 2
  }
}
layer {
  name: "ReLU301"
  type: "ReLU"
  bottom: "InnerProduct301"
  top: "InnerProduct301"
}
layer {
  name: "InnerProduct302"
  type: "InnerProduct"
  bottom: "InnerProduct15"
  top: "InnerProduct302"
  inner_product_param {
    num_output: 2
  }
}
layer {
  name: "ReLU302"
  type: "ReLU"
  bottom: "InnerProduct302"
  top: "InnerProduct302"
}
layer {
  name: "InnerProduct303"
  type: "InnerProduct"
  bottom: "InnerProduct15"
  top: "InnerProduct303"
  inner_product_param {
    num_output: 2
  }
}
layer {
  name: "ReLU303"
  type: "ReLU"
  bottom: "InnerProduct303"
  top: "InnerProduct303"
}
layer {
  name: "InnerProduct304"
  type: "InnerProduct"
  bottom: "InnerProduct15"
  top: "InnerProduct304"
  inner_product_param {
    num_output: 2
  }
}
layer {
  name: "ReLU304"
  type: "ReLU"
  bottom: "InnerProduct304"
  top: "InnerProduct304"
}
layer {
  name: "InnerProduct305"
  type: "InnerProduct"
  bottom: "InnerProduct15"
  top: "InnerProduct305"
  inner_product_param {
    num_output: 2
  }
}
layer {
  name: "ReLU305"
  type: "ReLU"
  bottom: "InnerProduct305"
  top: "InnerProduct305"
}
layer {
  name: "InnerProduct306"
  type: "InnerProduct"
  bottom: "InnerProduct15"
  top: "InnerProduct306"
  inner_product_param {
    num_output: 2
  }
}
layer {
  name: "ReLU306"
  type: "ReLU"
  bottom: "InnerProduct306"
  top: "InnerProduct306"
}
layer {
  name: "InnerProduct307"
  type: "InnerProduct"
  bottom: "InnerProduct15"
  top: "InnerProduct307"
  inner_product_param {
    num_output: 2
  }
}
layer {
  name: "ReLU307"
  type: "ReLU"
  bottom: "InnerProduct307"
  top: "InnerProduct307"
}
layer {
  name: "InnerProduct308"
  type: "InnerProduct"
  bottom: "InnerProduct15"
  top: "InnerProduct308"
  inner_product_param {
    num_output: 2
  }
}
layer {
  name: "ReLU308"
  type: "ReLU"
  bottom: "InnerProduct308"
  top: "InnerProduct308"
}
layer {
  name: "InnerProduct309"
  type: "InnerProduct"
  bottom: "InnerProduct15"
  top: "InnerProduct309"
  inner_product_param {
    num_output: 2
  }
}
layer {
  name: "ReLU309"
  type: "ReLU"
  bottom: "InnerProduct309"
  top: "InnerProduct309"
}
layer {
  name: "InnerProduct310"
  type: "InnerProduct"
  bottom: "InnerProduct15"
  top: "InnerProduct310"
  inner_product_param {
    num_output: 2
  }
}
layer {
  name: "ReLU310"
  type: "ReLU"
  bottom: "InnerProduct310"
  top: "InnerProduct310"
}
layer {
  name: "InnerProduct311"
  type: "InnerProduct"
  bottom: "InnerProduct15"
  top: "InnerProduct311"
  inner_product_param {
    num_output: 2
  }
}
layer {
  name: "ReLU311"
  type: "ReLU"
  bottom: "InnerProduct311"
  top: "InnerProduct311"
}
layer {
  name: "InnerProduct312"
  type: "InnerProduct"
  bottom: "InnerProduct15"
  top: "InnerProduct312"
  inner_product_param {
    num_output: 2
  }
}
layer {
  name: "ReLU312"
  type: "ReLU"
  bottom: "InnerProduct312"
  top: "InnerProduct312"
}
layer {
  name: "InnerProduct313"
  type: "InnerProduct"
  bottom: "InnerProduct15"
  top: "InnerProduct313"
  inner_product_param {
    num_output: 2
  }
}
layer {
  name: "ReLU313"
  type: "ReLU"
  bottom: "InnerProduct313"
  top: "InnerProduct313"
}
layer {
  name: "InnerProduct314"
  type: "InnerProduct"
  bottom: "InnerProduct15"
  top: "InnerProduct314"
  inner_product_param {
    num_output: 2
  }
}
layer {
  name: "ReLU314"
  type: "ReLU"
  bottom: "InnerProduct314"
  top: "InnerProduct314"
}
layer {
  name: "InnerProduct315"
  type: "InnerProduct"
  bottom: "InnerProduct15"
  top: "InnerProduct315"
  inner_product_param {
    num_output: 2
  }
}
layer {
  name: "ReLU315"
  type: "ReLU"
  bottom: "InnerProduct315"
  top: "InnerProduct315"
}
layer {
  name: "InnerProduct316"
  type: "InnerProduct"
  bottom: "InnerProduct15"
  top: "InnerProduct316"
  inner_product_param {
    num_output: 2
  }
}
layer {
  name: "ReLU316"
  type: "ReLU"
  bottom: "InnerProduct316"
  top: "InnerProduct316"
}
layer {
  name: "InnerProduct317"
  type: "InnerProduct"
  bottom: "InnerProduct15"
  top: "InnerProduct317"
  inner_product_param {
    num_output: 2
  }
}
layer {
  name: "ReLU317"
  type: "ReLU"
  bottom: "InnerProduct317"
  top: "InnerProduct317"
}
layer {
  name: "InnerProduct318"
  type: "InnerProduct"
  bottom: "InnerProduct15"
  top: "InnerProduct318"
  inner_product_param {
    num_output: 2
  }
}
layer {
  name: "ReLU318"
  type: "ReLU"
  bottom: "InnerProduct318"
  top: "InnerProduct318"
}
layer {
  name: "InnerProduct319"
  type: "InnerProduct"
  bottom: "InnerProduct15"
  top: "InnerProduct319"
  inner_product_param {
    num_output: 2
  }
}
layer {
  name: "ReLU319"
  type: "ReLU"
  bottom: "InnerProduct319"
  top: "InnerProduct319"
}
layer {
  name: "InnerProduct320"
  type: "InnerProduct"
  bottom: "InnerProduct15"
  top: "InnerProduct320"
  inner_product_param {
    num_output: 2
  }
}
layer {
  name: "ReLU320"
  type: "ReLU"
  bottom: "InnerProduct320"
  top: "InnerProduct320"
}
layer {
  name: "InnerProduct321"
  type: "InnerProduct"
  bottom: "InnerProduct15"
  top: "InnerProduct321"
  inner_product_param {
    num_output: 2
  }
}
layer {
  name: "ReLU321"
  type: "ReLU"
  bottom: "InnerProduct321"
  top: "InnerProduct321"
}
layer {
  name: "InnerProduct322"
  type: "InnerProduct"
  bottom: "InnerProduct15"
  top: "InnerProduct322"
  inner_product_param {
    num_output: 2
  }
}
layer {
  name: "ReLU322"
  type: "ReLU"
  bottom: "InnerProduct322"
  top: "InnerProduct322"
}
layer {
  name: "InnerProduct323"
  type: "InnerProduct"
  bottom: "InnerProduct15"
  top: "InnerProduct323"
  inner_product_param {
    num_output: 2
  }
}
layer {
  name: "ReLU323"
  type: "ReLU"
  bottom: "InnerProduct323"
  top: "InnerProduct323"
}
layer {
  name: "InnerProduct324"
  type: "InnerProduct"
  bottom: "InnerProduct15"
  top: "InnerProduct324"
  inner_product_param {
    num_output: 2
  }
}
layer {
  name: "ReLU324"
  type: "ReLU"
  bottom: "InnerProduct324"
  top: "InnerProduct324"
}
layer {
  name: "InnerProduct325"
  type: "InnerProduct"
  bottom: "InnerProduct15"
  top: "InnerProduct325"
  inner_product_param {
    num_output: 2
  }
}
layer {
  name: "ReLU325"
  type: "ReLU"
  bottom: "InnerProduct325"
  top: "InnerProduct325"
}
layer {
  name: "InnerProduct326"
  type: "InnerProduct"
  bottom: "InnerProduct15"
  top: "InnerProduct326"
  inner_product_param {
    num_output: 2
  }
}
layer {
  name: "ReLU326"
  type: "ReLU"
  bottom: "InnerProduct326"
  top: "InnerProduct326"
}
layer {
  name: "InnerProduct327"
  type: "InnerProduct"
  bottom: "InnerProduct15"
  top: "InnerProduct327"
  inner_product_param {
    num_output: 2
  }
}
layer {
  name: "ReLU327"
  type: "ReLU"
  bottom: "InnerProduct327"
  top: "InnerProduct327"
}
layer {
  name: "InnerProduct328"
  type: "InnerProduct"
  bottom: "InnerProduct15"
  top: "InnerProduct328"
  inner_product_param {
    num_output: 2
  }
}
layer {
  name: "ReLU328"
  type: "ReLU"
  bottom: "InnerProduct328"
  top: "InnerProduct328"
}
layer {
  name: "InnerProduct329"
  type: "InnerProduct"
  bottom: "InnerProduct15"
  top: "InnerProduct329"
  inner_product_param {
    num_output: 2
  }
}
layer {
  name: "ReLU329"
  type: "ReLU"
  bottom: "InnerProduct329"
  top: "InnerProduct329"
}
layer {
  name: "InnerProduct330"
  type: "InnerProduct"
  bottom: "InnerProduct15"
  top: "InnerProduct330"
  inner_product_param {
    num_output: 2
  }
}
layer {
  name: "ReLU330"
  type: "ReLU"
  bottom: "InnerProduct330"
  top: "InnerProduct330"
}
layer {
  name: "InnerProduct331"
  type: "InnerProduct"
  bottom: "InnerProduct15"
  top: "InnerProduct331"
  inner_product_param {
    num_output: 2
  }
}
layer {
  name: "ReLU331"
  type: "ReLU"
  bottom: "InnerProduct331"
  top: "InnerProduct331"
}
layer {
  name: "InnerProduct332"
  type: "InnerProduct"
  bottom: "InnerProduct15"
  top: "InnerProduct332"
  inner_product_param {
    num_output: 2
  }
}
layer {
  name: "ReLU332"
  type: "ReLU"
  bottom: "InnerProduct332"
  top: "InnerProduct332"
}
layer {
  name: "InnerProduct333"
  type: "InnerProduct"
  bottom: "InnerProduct15"
  top: "InnerProduct333"
  inner_product_param {
    num_output: 2
  }
}
layer {
  name: "ReLU333"
  type: "ReLU"
  bottom: "InnerProduct333"
  top: "InnerProduct333"
}
layer {
  name: "InnerProduct334"
  type: "InnerProduct"
  bottom: "InnerProduct15"
  top: "InnerProduct334"
  inner_product_param {
    num_output: 2
  }
}
layer {
  name: "ReLU334"
  type: "ReLU"
  bottom: "InnerProduct334"
  top: "InnerProduct334"
}
layer {
  name: "InnerProduct335"
  type: "InnerProduct"
  bottom: "InnerProduct15"
  top: "InnerProduct335"
  inner_product_param {
    num_output: 2
  }
}
layer {
  name: "ReLU335"
  type: "ReLU"
  bottom: "InnerProduct335"
  top: "InnerProduct335"
}
layer {
  name: "InnerProduct336"
  type: "InnerProduct"
  bottom: "InnerProduct15"
  top: "InnerProduct336"
  inner_product_param {
    num_output: 2
  }
}
layer {
  name: "ReLU336"
  type: "ReLU"
  bottom: "InnerProduct336"
  top: "InnerProduct336"
}
layer {
  name: "InnerProduct337"
  type: "InnerProduct"
  bottom: "InnerProduct15"
  top: "InnerProduct337"
  inner_product_param {
    num_output: 2
  }
}
layer {
  name: "ReLU337"
  type: "ReLU"
  bottom: "InnerProduct337"
  top: "InnerProduct337"
}
layer {
  name: "InnerProduct338"
  type: "InnerProduct"
  bottom: "InnerProduct15"
  top: "InnerProduct338"
  inner_product_param {
    num_output: 2
  }
}
layer {
  name: "ReLU338"
  type: "ReLU"
  bottom: "InnerProduct338"
  top: "InnerProduct338"
}
layer {
  name: "InnerProduct339"
  type: "InnerProduct"
  bottom: "InnerProduct15"
  top: "InnerProduct339"
  inner_product_param {
    num_output: 2
  }
}
layer {
  name: "ReLU339"
  type: "ReLU"
  bottom: "InnerProduct339"
  top: "InnerProduct339"
}
layer {
  name: "InnerProduct340"
  type: "InnerProduct"
  bottom: "InnerProduct15"
  top: "InnerProduct340"
  inner_product_param {
    num_output: 2
  }
}
layer {
  name: "ReLU340"
  type: "ReLU"
  bottom: "InnerProduct340"
  top: "InnerProduct340"
}
layer {
  name: "InnerProduct341"
  type: "InnerProduct"
  bottom: "InnerProduct15"
  top: "InnerProduct341"
  inner_product_param {
    num_output: 2
  }
}
layer {
  name: "ReLU341"
  type: "ReLU"
  bottom: "InnerProduct341"
  top: "InnerProduct341"
}
layer {
  name: "InnerProduct342"
  type: "InnerProduct"
  bottom: "InnerProduct15"
  top: "InnerProduct342"
  inner_product_param {
    num_output: 2
  }
}
layer {
  name: "ReLU342"
  type: "ReLU"
  bottom: "InnerProduct342"
  top: "InnerProduct342"
}
layer {
  name: "InnerProduct343"
  type: "InnerProduct"
  bottom: "InnerProduct15"
  top: "InnerProduct343"
  inner_product_param {
    num_output: 2
  }
}
layer {
  name: "ReLU343"
  type: "ReLU"
  bottom: "InnerProduct343"
  top: "InnerProduct343"
}
layer {
  name: "InnerProduct344"
  type: "InnerProduct"
  bottom: "InnerProduct15"
  top: "InnerProduct344"
  inner_product_param {
    num_output: 2
  }
}
layer {
  name: "ReLU344"
  type: "ReLU"
  bottom: "InnerProduct344"
  top: "InnerProduct344"
}
layer {
  name: "InnerProduct345"
  type: "InnerProduct"
  bottom: "InnerProduct15"
  top: "InnerProduct345"
  inner_product_param {
    num_output: 2
  }
}
layer {
  name: "ReLU345"
  type: "ReLU"
  bottom: "InnerProduct345"
  top: "InnerProduct345"
}
layer {
  name: "InnerProduct346"
  type: "InnerProduct"
  bottom: "InnerProduct15"
  top: "InnerProduct346"
  inner_product_param {
    num_output: 2
  }
}
layer {
  name: "ReLU346"
  type: "ReLU"
  bottom: "InnerProduct346"
  top: "InnerProduct346"
}
layer {
  name: "InnerProduct347"
  type: "InnerProduct"
  bottom: "InnerProduct15"
  top: "InnerProduct347"
  inner_product_param {
    num_output: 2
  }
}
layer {
  name: "ReLU347"
  type: "ReLU"
  bottom: "InnerProduct347"
  top: "InnerProduct347"
}
layer {
  name: "InnerProduct348"
  type: "InnerProduct"
  bottom: "InnerProduct15"
  top: "InnerProduct348"
  inner_product_param {
    num_output: 2
  }
}
layer {
  name: "ReLU348"
  type: "ReLU"
  bottom: "InnerProduct348"
  top: "InnerProduct348"
}
layer {
  name: "InnerProduct349"
  type: "InnerProduct"
  bottom: "InnerProduct15"
  top: "InnerProduct349"
  inner_product_param {
    num_output: 2
  }
}
layer {
  name: "ReLU349"
  type: "ReLU"
  bottom: "InnerProduct349"
  top: "InnerProduct349"
}
layer {
  name: "InnerProduct350"
  type: "InnerProduct"
  bottom: "InnerProduct15"
  top: "InnerProduct350"
  inner_product_param {
    num_output: 2
  }
}
layer {
  name: "ReLU350"
  type: "ReLU"
  bottom: "InnerProduct350"
  top: "InnerProduct350"
}
layer {
  name: "InnerProduct351"
  type: "InnerProduct"
  bottom: "InnerProduct15"
  top: "InnerProduct351"
  inner_product_param {
    num_output: 2
  }
}
layer {
  name: "ReLU351"
  type: "ReLU"
  bottom: "InnerProduct351"
  top: "InnerProduct351"
}
layer {
  name: "InnerProduct352"
  type: "InnerProduct"
  bottom: "InnerProduct15"
  top: "InnerProduct352"
  inner_product_param {
    num_output: 2
  }
}
layer {
  name: "ReLU352"
  type: "ReLU"
  bottom: "InnerProduct352"
  top: "InnerProduct352"
}
layer {
  name: "InnerProduct353"
  type: "InnerProduct"
  bottom: "InnerProduct15"
  top: "InnerProduct353"
  inner_product_param {
    num_output: 2
  }
}
layer {
  name: "ReLU353"
  type: "ReLU"
  bottom: "InnerProduct353"
  top: "InnerProduct353"
}
layer {
  name: "InnerProduct354"
  type: "InnerProduct"
  bottom: "InnerProduct15"
  top: "InnerProduct354"
  inner_product_param {
    num_output: 2
  }
}
layer {
  name: "ReLU354"
  type: "ReLU"
  bottom: "InnerProduct354"
  top: "InnerProduct354"
}
layer {
  name: "InnerProduct355"
  type: "InnerProduct"
  bottom: "InnerProduct15"
  top: "InnerProduct355"
  inner_product_param {
    num_output: 2
  }
}
layer {
  name: "ReLU355"
  type: "ReLU"
  bottom: "InnerProduct355"
  top: "InnerProduct355"
}
layer {
  name: "InnerProduct356"
  type: "InnerProduct"
  bottom: "InnerProduct15"
  top: "InnerProduct356"
  inner_product_param {
    num_output: 2
  }
}
layer {
  name: "ReLU356"
  type: "ReLU"
  bottom: "InnerProduct356"
  top: "InnerProduct356"
}
layer {
  name: "InnerProduct357"
  type: "InnerProduct"
  bottom: "InnerProduct15"
  top: "InnerProduct357"
  inner_product_param {
    num_output: 2
  }
}
layer {
  name: "ReLU357"
  type: "ReLU"
  bottom: "InnerProduct357"
  top: "InnerProduct357"
}
layer {
  name: "InnerProduct358"
  type: "InnerProduct"
  bottom: "InnerProduct15"
  top: "InnerProduct358"
  inner_product_param {
    num_output: 2
  }
}
layer {
  name: "ReLU358"
  type: "ReLU"
  bottom: "InnerProduct358"
  top: "InnerProduct358"
}
layer {
  name: "InnerProduct359"
  type: "InnerProduct"
  bottom: "InnerProduct15"
  top: "InnerProduct359"
  inner_product_param {
    num_output: 2
  }
}
layer {
  name: "ReLU359"
  type: "ReLU"
  bottom: "InnerProduct359"
  top: "InnerProduct359"
}
layer {
  name: "InnerProduct360"
  type: "InnerProduct"
  bottom: "InnerProduct15"
  top: "InnerProduct360"
  inner_product_param {
    num_output: 2
  }
}
layer {
  name: "ReLU360"
  type: "ReLU"
  bottom: "InnerProduct360"
  top: "InnerProduct360"
}
layer {
  name: "InnerProduct361"
  type: "InnerProduct"
  bottom: "InnerProduct15"
  top: "InnerProduct361"
  inner_product_param {
    num_output: 2
  }
}
layer {
  name: "ReLU361"
  type: "ReLU"
  bottom: "InnerProduct361"
  top: "InnerProduct361"
}
layer {
  name: "InnerProduct362"
  type: "InnerProduct"
  bottom: "InnerProduct15"
  top: "InnerProduct362"
  inner_product_param {
    num_output: 2
  }
}
layer {
  name: "ReLU362"
  type: "ReLU"
  bottom: "InnerProduct362"
  top: "InnerProduct362"
}
layer {
  name: "InnerProduct363"
  type: "InnerProduct"
  bottom: "InnerProduct15"
  top: "InnerProduct363"
  inner_product_param {
    num_output: 2
  }
}
layer {
  name: "ReLU363"
  type: "ReLU"
  bottom: "InnerProduct363"
  top: "InnerProduct363"
}
layer {
  name: "InnerProduct364"
  type: "InnerProduct"
  bottom: "InnerProduct15"
  top: "InnerProduct364"
  inner_product_param {
    num_output: 2
  }
}
layer {
  name: "ReLU364"
  type: "ReLU"
  bottom: "InnerProduct364"
  top: "InnerProduct364"
}
layer {
  name: "InnerProduct365"
  type: "InnerProduct"
  bottom: "InnerProduct15"
  top: "InnerProduct365"
  inner_product_param {
    num_output: 2
  }
}
layer {
  name: "ReLU365"
  type: "ReLU"
  bottom: "InnerProduct365"
  top: "InnerProduct365"
}
layer {
  name: "InnerProduct366"
  type: "InnerProduct"
  bottom: "InnerProduct15"
  top: "InnerProduct366"
  inner_product_param {
    num_output: 2
  }
}
layer {
  name: "ReLU366"
  type: "ReLU"
  bottom: "InnerProduct366"
  top: "InnerProduct366"
}
layer {
  name: "InnerProduct367"
  type: "InnerProduct"
  bottom: "InnerProduct15"
  top: "InnerProduct367"
  inner_product_param {
    num_output: 2
  }
}
layer {
  name: "ReLU367"
  type: "ReLU"
  bottom: "InnerProduct367"
  top: "InnerProduct367"
}
layer {
  name: "InnerProduct368"
  type: "InnerProduct"
  bottom: "InnerProduct15"
  top: "InnerProduct368"
  inner_product_param {
    num_output: 2
  }
}
layer {
  name: "ReLU368"
  type: "ReLU"
  bottom: "InnerProduct368"
  top: "InnerProduct368"
}
layer {
  name: "InnerProduct369"
  type: "InnerProduct"
  bottom: "InnerProduct15"
  top: "InnerProduct369"
  inner_product_param {
    num_output: 2
  }
}
layer {
  name: "ReLU369"
  type: "ReLU"
  bottom: "InnerProduct369"
  top: "InnerProduct369"
}
layer {
  name: "InnerProduct370"
  type: "InnerProduct"
  bottom: "InnerProduct15"
  top: "InnerProduct370"
  inner_product_param {
    num_output: 2
  }
}
layer {
  name: "ReLU370"
  type: "ReLU"
  bottom: "InnerProduct370"
  top: "InnerProduct370"
}
layer {
  name: "InnerProduct371"
  type: "InnerProduct"
  bottom: "InnerProduct15"
  top: "InnerProduct371"
  inner_product_param {
    num_output: 2
  }
}
layer {
  name: "ReLU371"
  type: "ReLU"
  bottom: "InnerProduct371"
  top: "InnerProduct371"
}
layer {
  name: "InnerProduct372"
  type: "InnerProduct"
  bottom: "InnerProduct15"
  top: "InnerProduct372"
  inner_product_param {
    num_output: 2
  }
}
layer {
  name: "ReLU372"
  type: "ReLU"
  bottom: "InnerProduct372"
  top: "InnerProduct372"
}
layer {
  name: "InnerProduct373"
  type: "InnerProduct"
  bottom: "InnerProduct15"
  top: "InnerProduct373"
  inner_product_param {
    num_output: 2
  }
}
layer {
  name: "ReLU373"
  type: "ReLU"
  bottom: "InnerProduct373"
  top: "InnerProduct373"
}
layer {
  name: "InnerProduct374"
  type: "InnerProduct"
  bottom: "InnerProduct15"
  top: "InnerProduct374"
  inner_product_param {
    num_output: 2
  }
}
layer {
  name: "ReLU374"
  type: "ReLU"
  bottom: "InnerProduct374"
  top: "InnerProduct374"
}
layer {
  name: "InnerProduct375"
  type: "InnerProduct"
  bottom: "InnerProduct15"
  top: "InnerProduct375"
  inner_product_param {
    num_output: 2
  }
}
layer {
  name: "ReLU375"
  type: "ReLU"
  bottom: "InnerProduct375"
  top: "InnerProduct375"
}
layer {
  name: "InnerProduct376"
  type: "InnerProduct"
  bottom: "InnerProduct15"
  top: "InnerProduct376"
  inner_product_param {
    num_output: 2
  }
}
layer {
  name: "ReLU376"
  type: "ReLU"
  bottom: "InnerProduct376"
  top: "InnerProduct376"
}
layer {
  name: "InnerProduct377"
  type: "InnerProduct"
  bottom: "InnerProduct15"
  top: "InnerProduct377"
  inner_product_param {
    num_output: 2
  }
}
layer {
  name: "ReLU377"
  type: "ReLU"
  bottom: "InnerProduct377"
  top: "InnerProduct377"
}
layer {
  name: "InnerProduct378"
  type: "InnerProduct"
  bottom: "InnerProduct15"
  top: "InnerProduct378"
  inner_product_param {
    num_output: 2
  }
}
layer {
  name: "ReLU378"
  type: "ReLU"
  bottom: "InnerProduct378"
  top: "InnerProduct378"
}
layer {
  name: "InnerProduct379"
  type: "InnerProduct"
  bottom: "InnerProduct15"
  top: "InnerProduct379"
  inner_product_param {
    num_output: 2
  }
}
layer {
  name: "ReLU379"
  type: "ReLU"
  bottom: "InnerProduct379"
  top: "InnerProduct379"
}
layer {
  name: "InnerProduct380"
  type: "InnerProduct"
  bottom: "InnerProduct15"
  top: "InnerProduct380"
  inner_product_param {
    num_output: 2
  }
}
layer {
  name: "ReLU380"
  type: "ReLU"
  bottom: "InnerProduct380"
  top: "InnerProduct380"
}
layer {
  name: "InnerProduct381"
  type: "InnerProduct"
  bottom: "InnerProduct15"
  top: "InnerProduct381"
  inner_product_param {
    num_output: 2
  }
}
layer {
  name: "ReLU381"
  type: "ReLU"
  bottom: "InnerProduct381"
  top: "InnerProduct381"
}
layer {
  name: "InnerProduct382"
  type: "InnerProduct"
  bottom: "InnerProduct15"
  top: "InnerProduct382"
  inner_product_param {
    num_output: 2
  }
}
layer {
  name: "ReLU382"
  type: "ReLU"
  bottom: "InnerProduct382"
  top: "InnerProduct382"
}
layer {
  name: "InnerProduct383"
  type: "InnerProduct"
  bottom: "InnerProduct15"
  top: "InnerProduct383"
  inner_product_param {
    num_output: 2
  }
}
layer {
  name: "ReLU383"
  type: "ReLU"
  bottom: "InnerProduct383"
  top: "InnerProduct383"
}
layer {
  name: "InnerProduct384"
  type: "InnerProduct"
  bottom: "InnerProduct15"
  top: "InnerProduct384"
  inner_product_param {
    num_output: 2
  }
}
layer {
  name: "ReLU384"
  type: "ReLU"
  bottom: "InnerProduct384"
  top: "InnerProduct384"
}
layer {
  name: "InnerProduct385"
  type: "InnerProduct"
  bottom: "InnerProduct15"
  top: "InnerProduct385"
  inner_product_param {
    num_output: 2
  }
}
layer {
  name: "ReLU385"
  type: "ReLU"
  bottom: "InnerProduct385"
  top: "InnerProduct385"
}
layer {
  name: "InnerProduct386"
  type: "InnerProduct"
  bottom: "InnerProduct15"
  top: "InnerProduct386"
  inner_product_param {
    num_output: 2
  }
}
layer {
  name: "ReLU386"
  type: "ReLU"
  bottom: "InnerProduct386"
  top: "InnerProduct386"
}
layer {
  name: "InnerProduct387"
  type: "InnerProduct"
  bottom: "InnerProduct15"
  top: "InnerProduct387"
  inner_product_param {
    num_output: 2
  }
}
layer {
  name: "ReLU387"
  type: "ReLU"
  bottom: "InnerProduct387"
  top: "InnerProduct387"
}
layer {
  name: "InnerProduct388"
  type: "InnerProduct"
  bottom: "InnerProduct15"
  top: "InnerProduct388"
  inner_product_param {
    num_output: 2
  }
}
layer {
  name: "ReLU388"
  type: "ReLU"
  bottom: "InnerProduct388"
  top: "InnerProduct388"
}
layer {
  name: "InnerProduct389"
  type: "InnerProduct"
  bottom: "InnerProduct15"
  top: "InnerProduct389"
  inner_product_param {
    num_output: 2
  }
}
layer {
  name: "ReLU389"
  type: "ReLU"
  bottom: "InnerProduct389"
  top: "InnerProduct389"
}
layer {
  name: "InnerProduct390"
  type: "InnerProduct"
  bottom: "InnerProduct15"
  top: "InnerProduct390"
  inner_product_param {
    num_output: 2
  }
}
layer {
  name: "ReLU390"
  type: "ReLU"
  bottom: "InnerProduct390"
  top: "InnerProduct390"
}
layer {
  name: "InnerProduct391"
  type: "InnerProduct"
  bottom: "InnerProduct15"
  top: "InnerProduct391"
  inner_product_param {
    num_output: 2
  }
}
layer {
  name: "ReLU391"
  type: "ReLU"
  bottom: "InnerProduct391"
  top: "InnerProduct391"
}
layer {
  name: "InnerProduct392"
  type: "InnerProduct"
  bottom: "InnerProduct15"
  top: "InnerProduct392"
  inner_product_param {
    num_output: 2
  }
}
layer {
  name: "ReLU392"
  type: "ReLU"
  bottom: "InnerProduct392"
  top: "InnerProduct392"
}
layer {
  name: "InnerProduct393"
  type: "InnerProduct"
  bottom: "InnerProduct15"
  top: "InnerProduct393"
  inner_product_param {
    num_output: 2
  }
}
layer {
  name: "ReLU393"
  type: "ReLU"
  bottom: "InnerProduct393"
  top: "InnerProduct393"
}
layer {
  name: "InnerProduct394"
  type: "InnerProduct"
  bottom: "InnerProduct15"
  top: "InnerProduct394"
  inner_product_param {
    num_output: 2
  }
}
layer {
  name: "ReLU394"
  type: "ReLU"
  bottom: "InnerProduct394"
  top: "InnerProduct394"
}
layer {
  name: "InnerProduct395"
  type: "InnerProduct"
  bottom: "InnerProduct15"
  top: "InnerProduct395"
  inner_product_param {
    num_output: 2
  }
}
layer {
  name: "ReLU395"
  type: "ReLU"
  bottom: "InnerProduct395"
  top: "InnerProduct395"
}
layer {
  name: "InnerProduct396"
  type: "InnerProduct"
  bottom: "InnerProduct15"
  top: "InnerProduct396"
  inner_product_param {
    num_output: 2
  }
}
layer {
  name: "ReLU396"
  type: "ReLU"
  bottom: "InnerProduct396"
  top: "InnerProduct396"
}
layer {
  name: "InnerProduct397"
  type: "InnerProduct"
  bottom: "InnerProduct15"
  top: "InnerProduct397"
  inner_product_param {
    num_output: 2
  }
}
layer {
  name: "ReLU397"
  type: "ReLU"
  bottom: "InnerProduct397"
  top: "InnerProduct397"
}
layer {
  name: "InnerProduct398"
  type: "InnerProduct"
  bottom: "InnerProduct15"
  top: "InnerProduct398"
  inner_product_param {
    num_output: 2
  }
}
layer {
  name: "ReLU398"
  type: "ReLU"
  bottom: "InnerProduct398"
  top: "InnerProduct398"
}
layer {
  name: "InnerProduct399"
  type: "InnerProduct"
  bottom: "InnerProduct15"
  top: "InnerProduct399"
  inner_product_param {
    num_output: 2
  }
}
layer {
  name: "ReLU399"
  type: "ReLU"
  bottom: "InnerProduct399"
  top: "InnerProduct399"
}
layer {
  name: "InnerProduct400"
  type: "InnerProduct"
  bottom: "InnerProduct15"
  top: "InnerProduct400"
  inner_product_param {
    num_output: 2
  }
}
layer {
  name: "ReLU400"
  type: "ReLU"
  bottom: "InnerProduct400"
  top: "InnerProduct400"
}
layer {
  name: "InnerProduct401"
  type: "InnerProduct"
  bottom: "InnerProduct15"
  top: "InnerProduct401"
  inner_product_param {
    num_output: 2
  }
}
layer {
  name: "ReLU401"
  type: "ReLU"
  bottom: "InnerProduct401"
  top: "InnerProduct401"
}
layer {
  name: "InnerProduct402"
  type: "InnerProduct"
  bottom: "InnerProduct15"
  top: "InnerProduct402"
  inner_product_param {
    num_output: 2
  }
}
layer {
  name: "ReLU402"
  type: "ReLU"
  bottom: "InnerProduct402"
  top: "InnerProduct402"
}
layer {
  name: "InnerProduct403"
  type: "InnerProduct"
  bottom: "InnerProduct15"
  top: "InnerProduct403"
  inner_product_param {
    num_output: 2
  }
}
layer {
  name: "ReLU403"
  type: "ReLU"
  bottom: "InnerProduct403"
  top: "InnerProduct403"
}
layer {
  name: "InnerProduct404"
  type: "InnerProduct"
  bottom: "InnerProduct15"
  top: "InnerProduct404"
  inner_product_param {
    num_output: 2
  }
}
layer {
  name: "ReLU404"
  type: "ReLU"
  bottom: "InnerProduct404"
  top: "InnerProduct404"
}
layer {
  name: "InnerProduct405"
  type: "InnerProduct"
  bottom: "InnerProduct15"
  top: "InnerProduct405"
  inner_product_param {
    num_output: 2
  }
}
layer {
  name: "ReLU405"
  type: "ReLU"
  bottom: "InnerProduct405"
  top: "InnerProduct405"
}
layer {
  name: "InnerProduct406"
  type: "InnerProduct"
  bottom: "InnerProduct15"
  top: "InnerProduct406"
  inner_product_param {
    num_output: 2
  }
}
layer {
  name: "ReLU406"
  type: "ReLU"
  bottom: "InnerProduct406"
  top: "InnerProduct406"
}
layer {
  name: "InnerProduct407"
  type: "InnerProduct"
  bottom: "InnerProduct15"
  top: "InnerProduct407"
  inner_product_param {
    num_output: 2
  }
}
layer {
  name: "ReLU407"
  type: "ReLU"
  bottom: "InnerProduct407"
  top: "InnerProduct407"
}
layer {
  name: "InnerProduct408"
  type: "InnerProduct"
  bottom: "InnerProduct15"
  top: "InnerProduct408"
  inner_product_param {
    num_output: 2
  }
}
layer {
  name: "ReLU408"
  type: "ReLU"
  bottom: "InnerProduct408"
  top: "InnerProduct408"
}
layer {
  name: "InnerProduct409"
  type: "InnerProduct"
  bottom: "InnerProduct15"
  top: "InnerProduct409"
  inner_product_param {
    num_output: 2
  }
}
layer {
  name: "ReLU409"
  type: "ReLU"
  bottom: "InnerProduct409"
  top: "InnerProduct409"
}
layer {
  name: "InnerProduct410"
  type: "InnerProduct"
  bottom: "InnerProduct15"
  top: "InnerProduct410"
  inner_product_param {
    num_output: 2
  }
}
layer {
  name: "ReLU410"
  type: "ReLU"
  bottom: "InnerProduct410"
  top: "InnerProduct410"
}
layer {
  name: "InnerProduct411"
  type: "InnerProduct"
  bottom: "InnerProduct15"
  top: "InnerProduct411"
  inner_product_param {
    num_output: 2
  }
}
layer {
  name: "ReLU411"
  type: "ReLU"
  bottom: "InnerProduct411"
  top: "InnerProduct411"
}
layer {
  name: "InnerProduct412"
  type: "InnerProduct"
  bottom: "InnerProduct15"
  top: "InnerProduct412"
  inner_product_param {
    num_output: 2
  }
}
layer {
  name: "ReLU412"
  type: "ReLU"
  bottom: "InnerProduct412"
  top: "InnerProduct412"
}
layer {
  name: "InnerProduct413"
  type: "InnerProduct"
  bottom: "InnerProduct15"
  top: "InnerProduct413"
  inner_product_param {
    num_output: 2
  }
}
layer {
  name: "ReLU413"
  type: "ReLU"
  bottom: "InnerProduct413"
  top: "InnerProduct413"
}
layer {
  name: "InnerProduct414"
  type: "InnerProduct"
  bottom: "InnerProduct15"
  top: "InnerProduct414"
  inner_product_param {
    num_output: 2
  }
}
layer {
  name: "ReLU414"
  type: "ReLU"
  bottom: "InnerProduct414"
  top: "InnerProduct414"
}
layer {
  name: "InnerProduct415"
  type: "InnerProduct"
  bottom: "InnerProduct15"
  top: "InnerProduct415"
  inner_product_param {
    num_output: 2
  }
}
layer {
  name: "ReLU415"
  type: "ReLU"
  bottom: "InnerProduct415"
  top: "InnerProduct415"
}
layer {
  name: "InnerProduct416"
  type: "InnerProduct"
  bottom: "InnerProduct15"
  top: "InnerProduct416"
  inner_product_param {
    num_output: 2
  }
}
layer {
  name: "ReLU416"
  type: "ReLU"
  bottom: "InnerProduct416"
  top: "InnerProduct416"
}
layer {
  name: "InnerProduct417"
  type: "InnerProduct"
  bottom: "InnerProduct15"
  top: "InnerProduct417"
  inner_product_param {
    num_output: 2
  }
}
layer {
  name: "ReLU417"
  type: "ReLU"
  bottom: "InnerProduct417"
  top: "InnerProduct417"
}
layer {
  name: "InnerProduct418"
  type: "InnerProduct"
  bottom: "InnerProduct15"
  top: "InnerProduct418"
  inner_product_param {
    num_output: 2
  }
}
layer {
  name: "ReLU418"
  type: "ReLU"
  bottom: "InnerProduct418"
  top: "InnerProduct418"
}
layer {
  name: "InnerProduct419"
  type: "InnerProduct"
  bottom: "InnerProduct15"
  top: "InnerProduct419"
  inner_product_param {
    num_output: 2
  }
}
layer {
  name: "ReLU419"
  type: "ReLU"
  bottom: "InnerProduct419"
  top: "InnerProduct419"
}
layer {
  name: "InnerProduct420"
  type: "InnerProduct"
  bottom: "InnerProduct15"
  top: "InnerProduct420"
  inner_product_param {
    num_output: 2
  }
}
layer {
  name: "ReLU420"
  type: "ReLU"
  bottom: "InnerProduct420"
  top: "InnerProduct420"
}
layer {
  name: "InnerProduct421"
  type: "InnerProduct"
  bottom: "InnerProduct15"
  top: "InnerProduct421"
  inner_product_param {
    num_output: 2
  }
}
layer {
  name: "ReLU421"
  type: "ReLU"
  bottom: "InnerProduct421"
  top: "InnerProduct421"
}
layer {
  name: "InnerProduct422"
  type: "InnerProduct"
  bottom: "InnerProduct15"
  top: "InnerProduct422"
  inner_product_param {
    num_output: 2
  }
}
layer {
  name: "ReLU422"
  type: "ReLU"
  bottom: "InnerProduct422"
  top: "InnerProduct422"
}
layer {
  name: "InnerProduct423"
  type: "InnerProduct"
  bottom: "InnerProduct15"
  top: "InnerProduct423"
  inner_product_param {
    num_output: 2
  }
}
layer {
  name: "ReLU423"
  type: "ReLU"
  bottom: "InnerProduct423"
  top: "InnerProduct423"
}
layer {
  name: "InnerProduct424"
  type: "InnerProduct"
  bottom: "InnerProduct15"
  top: "InnerProduct424"
  inner_product_param {
    num_output: 2
  }
}
layer {
  name: "ReLU424"
  type: "ReLU"
  bottom: "InnerProduct424"
  top: "InnerProduct424"
}
layer {
  name: "InnerProduct425"
  type: "InnerProduct"
  bottom: "InnerProduct15"
  top: "InnerProduct425"
  inner_product_param {
    num_output: 2
  }
}
layer {
  name: "ReLU425"
  type: "ReLU"
  bottom: "InnerProduct425"
  top: "InnerProduct425"
}
layer {
  name: "InnerProduct426"
  type: "InnerProduct"
  bottom: "InnerProduct15"
  top: "InnerProduct426"
  inner_product_param {
    num_output: 2
  }
}
layer {
  name: "ReLU426"
  type: "ReLU"
  bottom: "InnerProduct426"
  top: "InnerProduct426"
}
layer {
  name: "InnerProduct427"
  type: "InnerProduct"
  bottom: "InnerProduct15"
  top: "InnerProduct427"
  inner_product_param {
    num_output: 2
  }
}
layer {
  name: "ReLU427"
  type: "ReLU"
  bottom: "InnerProduct427"
  top: "InnerProduct427"
}
layer {
  name: "InnerProduct428"
  type: "InnerProduct"
  bottom: "InnerProduct15"
  top: "InnerProduct428"
  inner_product_param {
    num_output: 2
  }
}
layer {
  name: "ReLU428"
  type: "ReLU"
  bottom: "InnerProduct428"
  top: "InnerProduct428"
}
layer {
  name: "InnerProduct429"
  type: "InnerProduct"
  bottom: "InnerProduct15"
  top: "InnerProduct429"
  inner_product_param {
    num_output: 2
  }
}
layer {
  name: "ReLU429"
  type: "ReLU"
  bottom: "InnerProduct429"
  top: "InnerProduct429"
}
layer {
  name: "InnerProduct430"
  type: "InnerProduct"
  bottom: "InnerProduct15"
  top: "InnerProduct430"
  inner_product_param {
    num_output: 2
  }
}
layer {
  name: "ReLU430"
  type: "ReLU"
  bottom: "InnerProduct430"
  top: "InnerProduct430"
}
layer {
  name: "InnerProduct431"
  type: "InnerProduct"
  bottom: "InnerProduct15"
  top: "InnerProduct431"
  inner_product_param {
    num_output: 2
  }
}
layer {
  name: "ReLU431"
  type: "ReLU"
  bottom: "InnerProduct431"
  top: "InnerProduct431"
}
layer {
  name: "InnerProduct432"
  type: "InnerProduct"
  bottom: "InnerProduct15"
  top: "InnerProduct432"
  inner_product_param {
    num_output: 2
  }
}
layer {
  name: "ReLU432"
  type: "ReLU"
  bottom: "InnerProduct432"
  top: "InnerProduct432"
}
layer {
  name: "InnerProduct433"
  type: "InnerProduct"
  bottom: "InnerProduct15"
  top: "InnerProduct433"
  inner_product_param {
    num_output: 2
  }
}
layer {
  name: "ReLU433"
  type: "ReLU"
  bottom: "InnerProduct433"
  top: "InnerProduct433"
}
layer {
  name: "InnerProduct434"
  type: "InnerProduct"
  bottom: "InnerProduct15"
  top: "InnerProduct434"
  inner_product_param {
    num_output: 2
  }
}
layer {
  name: "ReLU434"
  type: "ReLU"
  bottom: "InnerProduct434"
  top: "InnerProduct434"
}
layer {
  name: "InnerProduct435"
  type: "InnerProduct"
  bottom: "InnerProduct15"
  top: "InnerProduct435"
  inner_product_param {
    num_output: 2
  }
}
layer {
  name: "ReLU435"
  type: "ReLU"
  bottom: "InnerProduct435"
  top: "InnerProduct435"
}
layer {
  name: "InnerProduct436"
  type: "InnerProduct"
  bottom: "InnerProduct15"
  top: "InnerProduct436"
  inner_product_param {
    num_output: 2
  }
}
layer {
  name: "ReLU436"
  type: "ReLU"
  bottom: "InnerProduct436"
  top: "InnerProduct436"
}
layer {
  name: "InnerProduct437"
  type: "InnerProduct"
  bottom: "InnerProduct15"
  top: "InnerProduct437"
  inner_product_param {
    num_output: 2
  }
}
layer {
  name: "ReLU437"
  type: "ReLU"
  bottom: "InnerProduct437"
  top: "InnerProduct437"
}
layer {
  name: "InnerProduct438"
  type: "InnerProduct"
  bottom: "InnerProduct15"
  top: "InnerProduct438"
  inner_product_param {
    num_output: 2
  }
}
layer {
  name: "ReLU438"
  type: "ReLU"
  bottom: "InnerProduct438"
  top: "InnerProduct438"
}
layer {
  name: "InnerProduct439"
  type: "InnerProduct"
  bottom: "InnerProduct15"
  top: "InnerProduct439"
  inner_product_param {
    num_output: 2
  }
}
layer {
  name: "ReLU439"
  type: "ReLU"
  bottom: "InnerProduct439"
  top: "InnerProduct439"
}
layer {
  name: "InnerProduct440"
  type: "InnerProduct"
  bottom: "InnerProduct15"
  top: "InnerProduct440"
  inner_product_param {
    num_output: 2
  }
}
layer {
  name: "ReLU440"
  type: "ReLU"
  bottom: "InnerProduct440"
  top: "InnerProduct440"
}
layer {
  name: "InnerProduct441"
  type: "InnerProduct"
  bottom: "InnerProduct15"
  top: "InnerProduct441"
  inner_product_param {
    num_output: 2
  }
}
layer {
  name: "ReLU441"
  type: "ReLU"
  bottom: "InnerProduct441"
  top: "InnerProduct441"
}
layer {
  name: "InnerProduct442"
  type: "InnerProduct"
  bottom: "InnerProduct15"
  top: "InnerProduct442"
  inner_product_param {
    num_output: 2
  }
}
layer {
  name: "ReLU442"
  type: "ReLU"
  bottom: "InnerProduct442"
  top: "InnerProduct442"
}
layer {
  name: "InnerProduct443"
  type: "InnerProduct"
  bottom: "InnerProduct15"
  top: "InnerProduct443"
  inner_product_param {
    num_output: 2
  }
}
layer {
  name: "ReLU443"
  type: "ReLU"
  bottom: "InnerProduct443"
  top: "InnerProduct443"
}
layer {
  name: "InnerProduct444"
  type: "InnerProduct"
  bottom: "InnerProduct15"
  top: "InnerProduct444"
  inner_product_param {
    num_output: 2
  }
}
layer {
  name: "ReLU444"
  type: "ReLU"
  bottom: "InnerProduct444"
  top: "InnerProduct444"
}
layer {
  name: "InnerProduct445"
  type: "InnerProduct"
  bottom: "InnerProduct15"
  top: "InnerProduct445"
  inner_product_param {
    num_output: 2
  }
}
layer {
  name: "ReLU445"
  type: "ReLU"
  bottom: "InnerProduct445"
  top: "InnerProduct445"
}
layer {
  name: "InnerProduct446"
  type: "InnerProduct"
  bottom: "InnerProduct15"
  top: "InnerProduct446"
  inner_product_param {
    num_output: 2
  }
}
layer {
  name: "ReLU446"
  type: "ReLU"
  bottom: "InnerProduct446"
  top: "InnerProduct446"
}
layer {
  name: "InnerProduct447"
  type: "InnerProduct"
  bottom: "InnerProduct15"
  top: "InnerProduct447"
  inner_product_param {
    num_output: 2
  }
}
layer {
  name: "ReLU447"
  type: "ReLU"
  bottom: "InnerProduct447"
  top: "InnerProduct447"
}
layer {
  name: "InnerProduct448"
  type: "InnerProduct"
  bottom: "InnerProduct15"
  top: "InnerProduct448"
  inner_product_param {
    num_output: 2
  }
}
layer {
  name: "ReLU448"
  type: "ReLU"
  bottom: "InnerProduct448"
  top: "InnerProduct448"
}
layer {
  name: "InnerProduct449"
  type: "InnerProduct"
  bottom: "InnerProduct15"
  top: "InnerProduct449"
  inner_product_param {
    num_output: 2
  }
}
layer {
  name: "ReLU449"
  type: "ReLU"
  bottom: "InnerProduct449"
  top: "InnerProduct449"
}
layer {
  name: "InnerProduct450"
  type: "InnerProduct"
  bottom: "InnerProduct15"
  top: "InnerProduct450"
  inner_product_param {
    num_output: 2
  }
}
layer {
  name: "ReLU450"
  type: "ReLU"
  bottom: "InnerProduct450"
  top: "InnerProduct450"
}
layer {
  name: "InnerProduct451"
  type: "InnerProduct"
  bottom: "InnerProduct15"
  top: "InnerProduct451"
  inner_product_param {
    num_output: 2
  }
}
layer {
  name: "ReLU451"
  type: "ReLU"
  bottom: "InnerProduct451"
  top: "InnerProduct451"
}
layer {
  name: "InnerProduct452"
  type: "InnerProduct"
  bottom: "InnerProduct15"
  top: "InnerProduct452"
  inner_product_param {
    num_output: 2
  }
}
layer {
  name: "ReLU452"
  type: "ReLU"
  bottom: "InnerProduct452"
  top: "InnerProduct452"
}
layer {
  name: "InnerProduct453"
  type: "InnerProduct"
  bottom: "InnerProduct15"
  top: "InnerProduct453"
  inner_product_param {
    num_output: 2
  }
}
layer {
  name: "ReLU453"
  type: "ReLU"
  bottom: "InnerProduct453"
  top: "InnerProduct453"
}
layer {
  name: "InnerProduct454"
  type: "InnerProduct"
  bottom: "InnerProduct15"
  top: "InnerProduct454"
  inner_product_param {
    num_output: 2
  }
}
layer {
  name: "ReLU454"
  type: "ReLU"
  bottom: "InnerProduct454"
  top: "InnerProduct454"
}
layer {
  name: "InnerProduct455"
  type: "InnerProduct"
  bottom: "InnerProduct15"
  top: "InnerProduct455"
  inner_product_param {
    num_output: 2
  }
}
layer {
  name: "ReLU455"
  type: "ReLU"
  bottom: "InnerProduct455"
  top: "InnerProduct455"
}
layer {
  name: "InnerProduct456"
  type: "InnerProduct"
  bottom: "InnerProduct15"
  top: "InnerProduct456"
  inner_product_param {
    num_output: 2
  }
}
layer {
  name: "ReLU456"
  type: "ReLU"
  bottom: "InnerProduct456"
  top: "InnerProduct456"
}
layer {
  name: "InnerProduct457"
  type: "InnerProduct"
  bottom: "InnerProduct15"
  top: "InnerProduct457"
  inner_product_param {
    num_output: 2
  }
}
layer {
  name: "ReLU457"
  type: "ReLU"
  bottom: "InnerProduct457"
  top: "InnerProduct457"
}
layer {
  name: "InnerProduct458"
  type: "InnerProduct"
  bottom: "InnerProduct15"
  top: "InnerProduct458"
  inner_product_param {
    num_output: 2
  }
}
layer {
  name: "ReLU458"
  type: "ReLU"
  bottom: "InnerProduct458"
  top: "InnerProduct458"
}
layer {
  name: "InnerProduct459"
  type: "InnerProduct"
  bottom: "InnerProduct15"
  top: "InnerProduct459"
  inner_product_param {
    num_output: 2
  }
}
layer {
  name: "ReLU459"
  type: "ReLU"
  bottom: "InnerProduct459"
  top: "InnerProduct459"
}
layer {
  name: "InnerProduct460"
  type: "InnerProduct"
  bottom: "InnerProduct15"
  top: "InnerProduct460"
  inner_product_param {
    num_output: 2
  }
}
layer {
  name: "ReLU460"
  type: "ReLU"
  bottom: "InnerProduct460"
  top: "InnerProduct460"
}
layer {
  name: "InnerProduct461"
  type: "InnerProduct"
  bottom: "InnerProduct15"
  top: "InnerProduct461"
  inner_product_param {
    num_output: 2
  }
}
layer {
  name: "ReLU461"
  type: "ReLU"
  bottom: "InnerProduct461"
  top: "InnerProduct461"
}
layer {
  name: "InnerProduct462"
  type: "InnerProduct"
  bottom: "InnerProduct15"
  top: "InnerProduct462"
  inner_product_param {
    num_output: 2
  }
}
layer {
  name: "ReLU462"
  type: "ReLU"
  bottom: "InnerProduct462"
  top: "InnerProduct462"
}
layer {
  name: "InnerProduct463"
  type: "InnerProduct"
  bottom: "InnerProduct15"
  top: "InnerProduct463"
  inner_product_param {
    num_output: 2
  }
}
layer {
  name: "ReLU463"
  type: "ReLU"
  bottom: "InnerProduct463"
  top: "InnerProduct463"
}
layer {
  name: "InnerProduct464"
  type: "InnerProduct"
  bottom: "InnerProduct15"
  top: "InnerProduct464"
  inner_product_param {
    num_output: 2
  }
}
layer {
  name: "ReLU464"
  type: "ReLU"
  bottom: "InnerProduct464"
  top: "InnerProduct464"
}
layer {
  name: "InnerProduct465"
  type: "InnerProduct"
  bottom: "InnerProduct15"
  top: "InnerProduct465"
  inner_product_param {
    num_output: 2
  }
}
layer {
  name: "ReLU465"
  type: "ReLU"
  bottom: "InnerProduct465"
  top: "InnerProduct465"
}
layer {
  name: "InnerProduct466"
  type: "InnerProduct"
  bottom: "InnerProduct15"
  top: "InnerProduct466"
  inner_product_param {
    num_output: 2
  }
}
layer {
  name: "ReLU466"
  type: "ReLU"
  bottom: "InnerProduct466"
  top: "InnerProduct466"
}
layer {
  name: "InnerProduct467"
  type: "InnerProduct"
  bottom: "InnerProduct15"
  top: "InnerProduct467"
  inner_product_param {
    num_output: 2
  }
}
layer {
  name: "ReLU467"
  type: "ReLU"
  bottom: "InnerProduct467"
  top: "InnerProduct467"
}
layer {
  name: "InnerProduct468"
  type: "InnerProduct"
  bottom: "InnerProduct15"
  top: "InnerProduct468"
  inner_product_param {
    num_output: 2
  }
}
layer {
  name: "ReLU468"
  type: "ReLU"
  bottom: "InnerProduct468"
  top: "InnerProduct468"
}
layer {
  name: "InnerProduct469"
  type: "InnerProduct"
  bottom: "InnerProduct15"
  top: "InnerProduct469"
  inner_product_param {
    num_output: 2
  }
}
layer {
  name: "ReLU469"
  type: "ReLU"
  bottom: "InnerProduct469"
  top: "InnerProduct469"
}
layer {
  name: "InnerProduct470"
  type: "InnerProduct"
  bottom: "InnerProduct15"
  top: "InnerProduct470"
  inner_product_param {
    num_output: 2
  }
}
layer {
  name: "ReLU470"
  type: "ReLU"
  bottom: "InnerProduct470"
  top: "InnerProduct470"
}
layer {
  name: "InnerProduct471"
  type: "InnerProduct"
  bottom: "InnerProduct15"
  top: "InnerProduct471"
  inner_product_param {
    num_output: 2
  }
}
layer {
  name: "ReLU471"
  type: "ReLU"
  bottom: "InnerProduct471"
  top: "InnerProduct471"
}
layer {
  name: "InnerProduct472"
  type: "InnerProduct"
  bottom: "InnerProduct15"
  top: "InnerProduct472"
  inner_product_param {
    num_output: 2
  }
}
layer {
  name: "ReLU472"
  type: "ReLU"
  bottom: "InnerProduct472"
  top: "InnerProduct472"
}
layer {
  name: "InnerProduct473"
  type: "InnerProduct"
  bottom: "InnerProduct15"
  top: "InnerProduct473"
  inner_product_param {
    num_output: 2
  }
}
layer {
  name: "ReLU473"
  type: "ReLU"
  bottom: "InnerProduct473"
  top: "InnerProduct473"
}
layer {
  name: "InnerProduct474"
  type: "InnerProduct"
  bottom: "InnerProduct15"
  top: "InnerProduct474"
  inner_product_param {
    num_output: 2
  }
}
layer {
  name: "ReLU474"
  type: "ReLU"
  bottom: "InnerProduct474"
  top: "InnerProduct474"
}
layer {
  name: "InnerProduct475"
  type: "InnerProduct"
  bottom: "InnerProduct15"
  top: "InnerProduct475"
  inner_product_param {
    num_output: 2
  }
}
layer {
  name: "ReLU475"
  type: "ReLU"
  bottom: "InnerProduct475"
  top: "InnerProduct475"
}
layer {
  name: "InnerProduct476"
  type: "InnerProduct"
  bottom: "InnerProduct15"
  top: "InnerProduct476"
  inner_product_param {
    num_output: 2
  }
}
layer {
  name: "ReLU476"
  type: "ReLU"
  bottom: "InnerProduct476"
  top: "InnerProduct476"
}
layer {
  name: "InnerProduct477"
  type: "InnerProduct"
  bottom: "InnerProduct15"
  top: "InnerProduct477"
  inner_product_param {
    num_output: 2
  }
}
layer {
  name: "ReLU477"
  type: "ReLU"
  bottom: "InnerProduct477"
  top: "InnerProduct477"
}
layer {
  name: "InnerProduct478"
  type: "InnerProduct"
  bottom: "InnerProduct15"
  top: "InnerProduct478"
  inner_product_param {
    num_output: 2
  }
}
layer {
  name: "ReLU478"
  type: "ReLU"
  bottom: "InnerProduct478"
  top: "InnerProduct478"
}
layer {
  name: "InnerProduct479"
  type: "InnerProduct"
  bottom: "InnerProduct15"
  top: "InnerProduct479"
  inner_product_param {
    num_output: 2
  }
}
layer {
  name: "ReLU479"
  type: "ReLU"
  bottom: "InnerProduct479"
  top: "InnerProduct479"
}
layer {
  name: "InnerProduct480"
  type: "InnerProduct"
  bottom: "InnerProduct15"
  top: "InnerProduct480"
  inner_product_param {
    num_output: 2
  }
}
layer {
  name: "ReLU480"
  type: "ReLU"
  bottom: "InnerProduct480"
  top: "InnerProduct480"
}
layer {
  name: "InnerProduct481"
  type: "InnerProduct"
  bottom: "InnerProduct15"
  top: "InnerProduct481"
  inner_product_param {
    num_output: 2
  }
}
layer {
  name: "ReLU481"
  type: "ReLU"
  bottom: "InnerProduct481"
  top: "InnerProduct481"
}
layer {
  name: "InnerProduct482"
  type: "InnerProduct"
  bottom: "InnerProduct15"
  top: "InnerProduct482"
  inner_product_param {
    num_output: 2
  }
}
layer {
  name: "ReLU482"
  type: "ReLU"
  bottom: "InnerProduct482"
  top: "InnerProduct482"
}
layer {
  name: "InnerProduct483"
  type: "InnerProduct"
  bottom: "InnerProduct15"
  top: "InnerProduct483"
  inner_product_param {
    num_output: 2
  }
}
layer {
  name: "ReLU483"
  type: "ReLU"
  bottom: "InnerProduct483"
  top: "InnerProduct483"
}
layer {
  name: "InnerProduct484"
  type: "InnerProduct"
  bottom: "InnerProduct15"
  top: "InnerProduct484"
  inner_product_param {
    num_output: 2
  }
}
layer {
  name: "ReLU484"
  type: "ReLU"
  bottom: "InnerProduct484"
  top: "InnerProduct484"
}
layer {
  name: "InnerProduct485"
  type: "InnerProduct"
  bottom: "InnerProduct15"
  top: "InnerProduct485"
  inner_product_param {
    num_output: 2
  }
}
layer {
  name: "ReLU485"
  type: "ReLU"
  bottom: "InnerProduct485"
  top: "InnerProduct485"
}
layer {
  name: "InnerProduct486"
  type: "InnerProduct"
  bottom: "InnerProduct15"
  top: "InnerProduct486"
  inner_product_param {
    num_output: 2
  }
}
layer {
  name: "ReLU486"
  type: "ReLU"
  bottom: "InnerProduct486"
  top: "InnerProduct486"
}
layer {
  name: "InnerProduct487"
  type: "InnerProduct"
  bottom: "InnerProduct15"
  top: "InnerProduct487"
  inner_product_param {
    num_output: 2
  }
}
layer {
  name: "ReLU487"
  type: "ReLU"
  bottom: "InnerProduct487"
  top: "InnerProduct487"
}
layer {
  name: "InnerProduct488"
  type: "InnerProduct"
  bottom: "InnerProduct15"
  top: "InnerProduct488"
  inner_product_param {
    num_output: 2
  }
}
layer {
  name: "ReLU488"
  type: "ReLU"
  bottom: "InnerProduct488"
  top: "InnerProduct488"
}
layer {
  name: "InnerProduct489"
  type: "InnerProduct"
  bottom: "InnerProduct15"
  top: "InnerProduct489"
  inner_product_param {
    num_output: 2
  }
}
layer {
  name: "ReLU489"
  type: "ReLU"
  bottom: "InnerProduct489"
  top: "InnerProduct489"
}
layer {
  name: "InnerProduct490"
  type: "InnerProduct"
  bottom: "InnerProduct15"
  top: "InnerProduct490"
  inner_product_param {
    num_output: 2
  }
}
layer {
  name: "ReLU490"
  type: "ReLU"
  bottom: "InnerProduct490"
  top: "InnerProduct490"
}
layer {
  name: "InnerProduct491"
  type: "InnerProduct"
  bottom: "InnerProduct15"
  top: "InnerProduct491"
  inner_product_param {
    num_output: 2
  }
}
layer {
  name: "ReLU491"
  type: "ReLU"
  bottom: "InnerProduct491"
  top: "InnerProduct491"
}
layer {
  name: "InnerProduct492"
  type: "InnerProduct"
  bottom: "InnerProduct15"
  top: "InnerProduct492"
  inner_product_param {
    num_output: 2
  }
}
layer {
  name: "ReLU492"
  type: "ReLU"
  bottom: "InnerProduct492"
  top: "InnerProduct492"
}
layer {
  name: "InnerProduct493"
  type: "InnerProduct"
  bottom: "InnerProduct15"
  top: "InnerProduct493"
  inner_product_param {
    num_output: 2
  }
}
layer {
  name: "ReLU493"
  type: "ReLU"
  bottom: "InnerProduct493"
  top: "InnerProduct493"
}
layer {
  name: "InnerProduct494"
  type: "InnerProduct"
  bottom: "InnerProduct15"
  top: "InnerProduct494"
  inner_product_param {
    num_output: 2
  }
}
layer {
  name: "ReLU494"
  type: "ReLU"
  bottom: "InnerProduct494"
  top: "InnerProduct494"
}
layer {
  name: "InnerProduct495"
  type: "InnerProduct"
  bottom: "InnerProduct15"
  top: "InnerProduct495"
  inner_product_param {
    num_output: 2
  }
}
layer {
  name: "ReLU495"
  type: "ReLU"
  bottom: "InnerProduct495"
  top: "InnerProduct495"
}
layer {
  name: "InnerProduct496"
  type: "InnerProduct"
  bottom: "InnerProduct15"
  top: "InnerProduct496"
  inner_product_param {
    num_output: 2
  }
}
layer {
  name: "ReLU496"
  type: "ReLU"
  bottom: "InnerProduct496"
  top: "InnerProduct496"
}
layer {
  name: "InnerProduct497"
  type: "InnerProduct"
  bottom: "InnerProduct15"
  top: "InnerProduct497"
  inner_product_param {
    num_output: 2
  }
}
layer {
  name: "ReLU497"
  type: "ReLU"
  bottom: "InnerProduct497"
  top: "InnerProduct497"
}
layer {
  name: "InnerProduct498"
  type: "InnerProduct"
  bottom: "InnerProduct15"
  top: "InnerProduct498"
  inner_product_param {
    num_output: 2
  }
}
layer {
  name: "ReLU498"
  type: "ReLU"
  bottom: "InnerProduct498"
  top: "InnerProduct498"
}
layer {
  name: "InnerProduct499"
  type: "InnerProduct"
  bottom: "InnerProduct15"
  top: "InnerProduct499"
  inner_product_param {
    num_output: 2
  }
}
layer {
  name: "ReLU499"
  type: "ReLU"
  bottom: "InnerProduct499"
  top: "InnerProduct499"
}
layer {
  name: "InnerProduct500"
  type: "InnerProduct"
  bottom: "InnerProduct15"
  top: "InnerProduct500"
  inner_product_param {
    num_output: 2
  }
}
layer {
  name: "ReLU500"
  type: "ReLU"
  bottom: "InnerProduct500"
  top: "InnerProduct500"
}
layer {
  name: "InnerProduct501"
  type: "InnerProduct"
  bottom: "InnerProduct15"
  top: "InnerProduct501"
  inner_product_param {
    num_output: 2
  }
}
layer {
  name: "ReLU501"
  type: "ReLU"
  bottom: "InnerProduct501"
  top: "InnerProduct501"
}
layer {
  name: "InnerProduct502"
  type: "InnerProduct"
  bottom: "InnerProduct15"
  top: "InnerProduct502"
  inner_product_param {
    num_output: 2
  }
}
layer {
  name: "ReLU502"
  type: "ReLU"
  bottom: "InnerProduct502"
  top: "InnerProduct502"
}
layer {
  name: "InnerProduct503"
  type: "InnerProduct"
  bottom: "InnerProduct15"
  top: "InnerProduct503"
  inner_product_param {
    num_output: 2
  }
}
layer {
  name: "ReLU503"
  type: "ReLU"
  bottom: "InnerProduct503"
  top: "InnerProduct503"
}
layer {
  name: "InnerProduct504"
  type: "InnerProduct"
  bottom: "InnerProduct15"
  top: "InnerProduct504"
  inner_product_param {
    num_output: 2
  }
}
layer {
  name: "ReLU504"
  type: "ReLU"
  bottom: "InnerProduct504"
  top: "InnerProduct504"
}
layer {
  name: "InnerProduct505"
  type: "InnerProduct"
  bottom: "InnerProduct15"
  top: "InnerProduct505"
  inner_product_param {
    num_output: 2
  }
}
layer {
  name: "ReLU505"
  type: "ReLU"
  bottom: "InnerProduct505"
  top: "InnerProduct505"
}
layer {
  name: "InnerProduct506"
  type: "InnerProduct"
  bottom: "InnerProduct15"
  top: "InnerProduct506"
  inner_product_param {
    num_output: 2
  }
}
layer {
  name: "ReLU506"
  type: "ReLU"
  bottom: "InnerProduct506"
  top: "InnerProduct506"
}
layer {
  name: "InnerProduct507"
  type: "InnerProduct"
  bottom: "InnerProduct15"
  top: "InnerProduct507"
  inner_product_param {
    num_output: 2
  }
}
layer {
  name: "ReLU507"
  type: "ReLU"
  bottom: "InnerProduct507"
  top: "InnerProduct507"
}
layer {
  name: "InnerProduct508"
  type: "InnerProduct"
  bottom: "InnerProduct15"
  top: "InnerProduct508"
  inner_product_param {
    num_output: 2
  }
}
layer {
  name: "ReLU508"
  type: "ReLU"
  bottom: "InnerProduct508"
  top: "InnerProduct508"
}
layer {
  name: "InnerProduct509"
  type: "InnerProduct"
  bottom: "InnerProduct15"
  top: "InnerProduct509"
  inner_product_param {
    num_output: 2
  }
}
layer {
  name: "ReLU509"
  type: "ReLU"
  bottom: "InnerProduct509"
  top: "InnerProduct509"
}
layer {
  name: "InnerProduct510"
  type: "InnerProduct"
  bottom: "InnerProduct15"
  top: "InnerProduct510"
  inner_product_param {
    num_output: 2
  }
}
layer {
  name: "ReLU510"
  type: "ReLU"
  bottom: "InnerProduct510"
  top: "InnerProduct510"
}
layer {
  name: "InnerProduct511"
  type: "InnerProduct"
  bottom: "InnerProduct15"
  top: "InnerProduct511"
  inner_product_param {
    num_output: 2
  }
}
layer {
  name: "ReLU511"
  type: "ReLU"
  bottom: "InnerProduct511"
  top: "InnerProduct511"
}
layer {
  name: "InnerProduct512"
  type: "InnerProduct"
  bottom: "InnerProduct15"
  top: "InnerProduct512"
  inner_product_param {
    num_output: 2
  }
}
layer {
  name: "ReLU512"
  type: "ReLU"
  bottom: "InnerProduct512"
  top: "InnerProduct512"
}
layer {
  name: "InnerProduct513"
  type: "InnerProduct"
  bottom: "InnerProduct15"
  top: "InnerProduct513"
  inner_product_param {
    num_output: 2
  }
}
layer {
  name: "ReLU513"
  type: "ReLU"
  bottom: "InnerProduct513"
  top: "InnerProduct513"
}
layer {
  name: "InnerProduct514"
  type: "InnerProduct"
  bottom: "InnerProduct15"
  top: "InnerProduct514"
  inner_product_param {
    num_output: 2
  }
}
layer {
  name: "ReLU514"
  type: "ReLU"
  bottom: "InnerProduct514"
  top: "InnerProduct514"
}
layer {
  name: "InnerProduct515"
  type: "InnerProduct"
  bottom: "InnerProduct15"
  top: "InnerProduct515"
  inner_product_param {
    num_output: 2
  }
}
layer {
  name: "ReLU515"
  type: "ReLU"
  bottom: "InnerProduct515"
  top: "InnerProduct515"
}
layer {
  name: "InnerProduct516"
  type: "InnerProduct"
  bottom: "InnerProduct15"
  top: "InnerProduct516"
  inner_product_param {
    num_output: 2
  }
}
layer {
  name: "ReLU516"
  type: "ReLU"
  bottom: "InnerProduct516"
  top: "InnerProduct516"
}
layer {
  name: "InnerProduct517"
  type: "InnerProduct"
  bottom: "InnerProduct15"
  top: "InnerProduct517"
  inner_product_param {
    num_output: 2
  }
}
layer {
  name: "ReLU517"
  type: "ReLU"
  bottom: "InnerProduct517"
  top: "InnerProduct517"
}
layer {
  name: "InnerProduct518"
  type: "InnerProduct"
  bottom: "InnerProduct15"
  top: "InnerProduct518"
  inner_product_param {
    num_output: 2
  }
}
layer {
  name: "ReLU518"
  type: "ReLU"
  bottom: "InnerProduct518"
  top: "InnerProduct518"
}
layer {
  name: "InnerProduct519"
  type: "InnerProduct"
  bottom: "InnerProduct15"
  top: "InnerProduct519"
  inner_product_param {
    num_output: 2
  }
}
layer {
  name: "ReLU519"
  type: "ReLU"
  bottom: "InnerProduct519"
  top: "InnerProduct519"
}
layer {
  name: "InnerProduct520"
  type: "InnerProduct"
  bottom: "InnerProduct15"
  top: "InnerProduct520"
  inner_product_param {
    num_output: 2
  }
}
layer {
  name: "ReLU520"
  type: "ReLU"
  bottom: "InnerProduct520"
  top: "InnerProduct520"
}
layer {
  name: "InnerProduct521"
  type: "InnerProduct"
  bottom: "InnerProduct15"
  top: "InnerProduct521"
  inner_product_param {
    num_output: 2
  }
}
layer {
  name: "ReLU521"
  type: "ReLU"
  bottom: "InnerProduct521"
  top: "InnerProduct521"
}
layer {
  name: "InnerProduct522"
  type: "InnerProduct"
  bottom: "InnerProduct15"
  top: "InnerProduct522"
  inner_product_param {
    num_output: 2
  }
}
layer {
  name: "ReLU522"
  type: "ReLU"
  bottom: "InnerProduct522"
  top: "InnerProduct522"
}
layer {
  name: "InnerProduct523"
  type: "InnerProduct"
  bottom: "InnerProduct15"
  top: "InnerProduct523"
  inner_product_param {
    num_output: 2
  }
}
layer {
  name: "ReLU523"
  type: "ReLU"
  bottom: "InnerProduct523"
  top: "InnerProduct523"
}
layer {
  name: "InnerProduct524"
  type: "InnerProduct"
  bottom: "InnerProduct15"
  top: "InnerProduct524"
  inner_product_param {
    num_output: 2
  }
}
layer {
  name: "ReLU524"
  type: "ReLU"
  bottom: "InnerProduct524"
  top: "InnerProduct524"
}
layer {
  name: "InnerProduct525"
  type: "InnerProduct"
  bottom: "InnerProduct15"
  top: "InnerProduct525"
  inner_product_param {
    num_output: 2
  }
}
layer {
  name: "ReLU525"
  type: "ReLU"
  bottom: "InnerProduct525"
  top: "InnerProduct525"
}
layer {
  name: "InnerProduct526"
  type: "InnerProduct"
  bottom: "InnerProduct15"
  top: "InnerProduct526"
  inner_product_param {
    num_output: 2
  }
}
layer {
  name: "ReLU526"
  type: "ReLU"
  bottom: "InnerProduct526"
  top: "InnerProduct526"
}
layer {
  name: "InnerProduct527"
  type: "InnerProduct"
  bottom: "InnerProduct15"
  top: "InnerProduct527"
  inner_product_param {
    num_output: 2
  }
}
layer {
  name: "ReLU527"
  type: "ReLU"
  bottom: "InnerProduct527"
  top: "InnerProduct527"
}
layer {
  name: "InnerProduct528"
  type: "InnerProduct"
  bottom: "InnerProduct15"
  top: "InnerProduct528"
  inner_product_param {
    num_output: 2
  }
}
layer {
  name: "ReLU528"
  type: "ReLU"
  bottom: "InnerProduct528"
  top: "InnerProduct528"
}
layer {
  name: "InnerProduct529"
  type: "InnerProduct"
  bottom: "InnerProduct15"
  top: "InnerProduct529"
  inner_product_param {
    num_output: 2
  }
}
layer {
  name: "ReLU529"
  type: "ReLU"
  bottom: "InnerProduct529"
  top: "InnerProduct529"
}
layer {
  name: "InnerProduct530"
  type: "InnerProduct"
  bottom: "InnerProduct15"
  top: "InnerProduct530"
  inner_product_param {
    num_output: 2
  }
}
layer {
  name: "ReLU530"
  type: "ReLU"
  bottom: "InnerProduct530"
  top: "InnerProduct530"
}
layer {
  name: "InnerProduct531"
  type: "InnerProduct"
  bottom: "InnerProduct15"
  top: "InnerProduct531"
  inner_product_param {
    num_output: 2
  }
}
layer {
  name: "ReLU531"
  type: "ReLU"
  bottom: "InnerProduct531"
  top: "InnerProduct531"
}
layer {
  name: "InnerProduct532"
  type: "InnerProduct"
  bottom: "InnerProduct15"
  top: "InnerProduct532"
  inner_product_param {
    num_output: 2
  }
}
layer {
  name: "ReLU532"
  type: "ReLU"
  bottom: "InnerProduct532"
  top: "InnerProduct532"
}
layer {
  name: "InnerProduct533"
  type: "InnerProduct"
  bottom: "InnerProduct15"
  top: "InnerProduct533"
  inner_product_param {
    num_output: 2
  }
}
layer {
  name: "ReLU533"
  type: "ReLU"
  bottom: "InnerProduct533"
  top: "InnerProduct533"
}
layer {
  name: "InnerProduct534"
  type: "InnerProduct"
  bottom: "InnerProduct15"
  top: "InnerProduct534"
  inner_product_param {
    num_output: 2
  }
}
layer {
  name: "ReLU534"
  type: "ReLU"
  bottom: "InnerProduct534"
  top: "InnerProduct534"
}
layer {
  name: "InnerProduct535"
  type: "InnerProduct"
  bottom: "InnerProduct15"
  top: "InnerProduct535"
  inner_product_param {
    num_output: 2
  }
}
layer {
  name: "ReLU535"
  type: "ReLU"
  bottom: "InnerProduct535"
  top: "InnerProduct535"
}
layer {
  name: "InnerProduct536"
  type: "InnerProduct"
  bottom: "InnerProduct15"
  top: "InnerProduct536"
  inner_product_param {
    num_output: 2
  }
}
layer {
  name: "ReLU536"
  type: "ReLU"
  bottom: "InnerProduct536"
  top: "InnerProduct536"
}
layer {
  name: "InnerProduct537"
  type: "InnerProduct"
  bottom: "InnerProduct15"
  top: "InnerProduct537"
  inner_product_param {
    num_output: 2
  }
}
layer {
  name: "ReLU537"
  type: "ReLU"
  bottom: "InnerProduct537"
  top: "InnerProduct537"
}
layer {
  name: "InnerProduct538"
  type: "InnerProduct"
  bottom: "InnerProduct15"
  top: "InnerProduct538"
  inner_product_param {
    num_output: 2
  }
}
layer {
  name: "ReLU538"
  type: "ReLU"
  bottom: "InnerProduct538"
  top: "InnerProduct538"
}
layer {
  name: "InnerProduct539"
  type: "InnerProduct"
  bottom: "InnerProduct15"
  top: "InnerProduct539"
  inner_product_param {
    num_output: 2
  }
}
layer {
  name: "ReLU539"
  type: "ReLU"
  bottom: "InnerProduct539"
  top: "InnerProduct539"
}
layer {
  name: "InnerProduct540"
  type: "InnerProduct"
  bottom: "InnerProduct15"
  top: "InnerProduct540"
  inner_product_param {
    num_output: 2
  }
}
layer {
  name: "ReLU540"
  type: "ReLU"
  bottom: "InnerProduct540"
  top: "InnerProduct540"
}
layer {
  name: "InnerProduct541"
  type: "InnerProduct"
  bottom: "InnerProduct15"
  top: "InnerProduct541"
  inner_product_param {
    num_output: 2
  }
}
layer {
  name: "ReLU541"
  type: "ReLU"
  bottom: "InnerProduct541"
  top: "InnerProduct541"
}
layer {
  name: "InnerProduct542"
  type: "InnerProduct"
  bottom: "InnerProduct15"
  top: "InnerProduct542"
  inner_product_param {
    num_output: 2
  }
}
layer {
  name: "ReLU542"
  type: "ReLU"
  bottom: "InnerProduct542"
  top: "InnerProduct542"
}
layer {
  name: "InnerProduct543"
  type: "InnerProduct"
  bottom: "InnerProduct15"
  top: "InnerProduct543"
  inner_product_param {
    num_output: 2
  }
}
layer {
  name: "ReLU543"
  type: "ReLU"
  bottom: "InnerProduct543"
  top: "InnerProduct543"
}
layer {
  name: "InnerProduct544"
  type: "InnerProduct"
  bottom: "InnerProduct15"
  top: "InnerProduct544"
  inner_product_param {
    num_output: 2
  }
}
layer {
  name: "ReLU544"
  type: "ReLU"
  bottom: "InnerProduct544"
  top: "InnerProduct544"
}
layer {
  name: "InnerProduct545"
  type: "InnerProduct"
  bottom: "InnerProduct15"
  top: "InnerProduct545"
  inner_product_param {
    num_output: 2
  }
}
layer {
  name: "ReLU545"
  type: "ReLU"
  bottom: "InnerProduct545"
  top: "InnerProduct545"
}
layer {
  name: "InnerProduct546"
  type: "InnerProduct"
  bottom: "InnerProduct15"
  top: "InnerProduct546"
  inner_product_param {
    num_output: 2
  }
}
layer {
  name: "ReLU546"
  type: "ReLU"
  bottom: "InnerProduct546"
  top: "InnerProduct546"
}
layer {
  name: "InnerProduct547"
  type: "InnerProduct"
  bottom: "InnerProduct15"
  top: "InnerProduct547"
  inner_product_param {
    num_output: 2
  }
}
layer {
  name: "ReLU547"
  type: "ReLU"
  bottom: "InnerProduct547"
  top: "InnerProduct547"
}
layer {
  name: "InnerProduct548"
  type: "InnerProduct"
  bottom: "InnerProduct15"
  top: "InnerProduct548"
  inner_product_param {
    num_output: 2
  }
}
layer {
  name: "ReLU548"
  type: "ReLU"
  bottom: "InnerProduct548"
  top: "InnerProduct548"
}
layer {
  name: "InnerProduct549"
  type: "InnerProduct"
  bottom: "InnerProduct15"
  top: "InnerProduct549"
  inner_product_param {
    num_output: 2
  }
}
layer {
  name: "ReLU549"
  type: "ReLU"
  bottom: "InnerProduct549"
  top: "InnerProduct549"
}
layer {
  name: "InnerProduct550"
  type: "InnerProduct"
  bottom: "InnerProduct15"
  top: "InnerProduct550"
  inner_product_param {
    num_output: 2
  }
}
layer {
  name: "ReLU550"
  type: "ReLU"
  bottom: "InnerProduct550"
  top: "InnerProduct550"
}
layer {
  name: "InnerProduct551"
  type: "InnerProduct"
  bottom: "InnerProduct15"
  top: "InnerProduct551"
  inner_product_param {
    num_output: 2
  }
}
layer {
  name: "ReLU551"
  type: "ReLU"
  bottom: "InnerProduct551"
  top: "InnerProduct551"
}
layer {
  name: "InnerProduct552"
  type: "InnerProduct"
  bottom: "InnerProduct15"
  top: "InnerProduct552"
  inner_product_param {
    num_output: 2
  }
}
layer {
  name: "ReLU552"
  type: "ReLU"
  bottom: "InnerProduct552"
  top: "InnerProduct552"
}
layer {
  name: "InnerProduct553"
  type: "InnerProduct"
  bottom: "InnerProduct15"
  top: "InnerProduct553"
  inner_product_param {
    num_output: 2
  }
}
layer {
  name: "ReLU553"
  type: "ReLU"
  bottom: "InnerProduct553"
  top: "InnerProduct553"
}
layer {
  name: "InnerProduct554"
  type: "InnerProduct"
  bottom: "InnerProduct15"
  top: "InnerProduct554"
  inner_product_param {
    num_output: 2
  }
}
layer {
  name: "ReLU554"
  type: "ReLU"
  bottom: "InnerProduct554"
  top: "InnerProduct554"
}
layer {
  name: "InnerProduct555"
  type: "InnerProduct"
  bottom: "InnerProduct15"
  top: "InnerProduct555"
  inner_product_param {
    num_output: 2
  }
}
layer {
  name: "ReLU555"
  type: "ReLU"
  bottom: "InnerProduct555"
  top: "InnerProduct555"
}
layer {
  name: "InnerProduct556"
  type: "InnerProduct"
  bottom: "InnerProduct15"
  top: "InnerProduct556"
  inner_product_param {
    num_output: 2
  }
}
layer {
  name: "ReLU556"
  type: "ReLU"
  bottom: "InnerProduct556"
  top: "InnerProduct556"
}
layer {
  name: "InnerProduct557"
  type: "InnerProduct"
  bottom: "InnerProduct15"
  top: "InnerProduct557"
  inner_product_param {
    num_output: 2
  }
}
layer {
  name: "ReLU557"
  type: "ReLU"
  bottom: "InnerProduct557"
  top: "InnerProduct557"
}
layer {
  name: "InnerProduct558"
  type: "InnerProduct"
  bottom: "InnerProduct15"
  top: "InnerProduct558"
  inner_product_param {
    num_output: 2
  }
}
layer {
  name: "ReLU558"
  type: "ReLU"
  bottom: "InnerProduct558"
  top: "InnerProduct558"
}
layer {
  name: "InnerProduct559"
  type: "InnerProduct"
  bottom: "InnerProduct15"
  top: "InnerProduct559"
  inner_product_param {
    num_output: 2
  }
}
layer {
  name: "ReLU559"
  type: "ReLU"
  bottom: "InnerProduct559"
  top: "InnerProduct559"
}
layer {
  name: "InnerProduct560"
  type: "InnerProduct"
  bottom: "InnerProduct15"
  top: "InnerProduct560"
  inner_product_param {
    num_output: 2
  }
}
layer {
  name: "ReLU560"
  type: "ReLU"
  bottom: "InnerProduct560"
  top: "InnerProduct560"
}
layer {
  name: "InnerProduct561"
  type: "InnerProduct"
  bottom: "InnerProduct15"
  top: "InnerProduct561"
  inner_product_param {
    num_output: 2
  }
}
layer {
  name: "ReLU561"
  type: "ReLU"
  bottom: "InnerProduct561"
  top: "InnerProduct561"
}
layer {
  name: "InnerProduct562"
  type: "InnerProduct"
  bottom: "InnerProduct15"
  top: "InnerProduct562"
  inner_product_param {
    num_output: 2
  }
}
layer {
  name: "ReLU562"
  type: "ReLU"
  bottom: "InnerProduct562"
  top: "InnerProduct562"
}
layer {
  name: "InnerProduct563"
  type: "InnerProduct"
  bottom: "InnerProduct15"
  top: "InnerProduct563"
  inner_product_param {
    num_output: 2
  }
}
layer {
  name: "ReLU563"
  type: "ReLU"
  bottom: "InnerProduct563"
  top: "InnerProduct563"
}
layer {
  name: "InnerProduct564"
  type: "InnerProduct"
  bottom: "InnerProduct15"
  top: "InnerProduct564"
  inner_product_param {
    num_output: 2
  }
}
layer {
  name: "ReLU564"
  type: "ReLU"
  bottom: "InnerProduct564"
  top: "InnerProduct564"
}
layer {
  name: "InnerProduct565"
  type: "InnerProduct"
  bottom: "InnerProduct15"
  top: "InnerProduct565"
  inner_product_param {
    num_output: 2
  }
}
layer {
  name: "ReLU565"
  type: "ReLU"
  bottom: "InnerProduct565"
  top: "InnerProduct565"
}
layer {
  name: "InnerProduct566"
  type: "InnerProduct"
  bottom: "InnerProduct15"
  top: "InnerProduct566"
  inner_product_param {
    num_output: 2
  }
}
layer {
  name: "ReLU566"
  type: "ReLU"
  bottom: "InnerProduct566"
  top: "InnerProduct566"
}
layer {
  name: "InnerProduct567"
  type: "InnerProduct"
  bottom: "InnerProduct15"
  top: "InnerProduct567"
  inner_product_param {
    num_output: 2
  }
}
layer {
  name: "ReLU567"
  type: "ReLU"
  bottom: "InnerProduct567"
  top: "InnerProduct567"
}
layer {
  name: "InnerProduct568"
  type: "InnerProduct"
  bottom: "InnerProduct15"
  top: "InnerProduct568"
  inner_product_param {
    num_output: 2
  }
}
layer {
  name: "ReLU568"
  type: "ReLU"
  bottom: "InnerProduct568"
  top: "InnerProduct568"
}
layer {
  name: "InnerProduct569"
  type: "InnerProduct"
  bottom: "InnerProduct15"
  top: "InnerProduct569"
  inner_product_param {
    num_output: 2
  }
}
layer {
  name: "ReLU569"
  type: "ReLU"
  bottom: "InnerProduct569"
  top: "InnerProduct569"
}
layer {
  name: "InnerProduct570"
  type: "InnerProduct"
  bottom: "InnerProduct15"
  top: "InnerProduct570"
  inner_product_param {
    num_output: 2
  }
}
layer {
  name: "ReLU570"
  type: "ReLU"
  bottom: "InnerProduct570"
  top: "InnerProduct570"
}
layer {
  name: "InnerProduct571"
  type: "InnerProduct"
  bottom: "InnerProduct15"
  top: "InnerProduct571"
  inner_product_param {
    num_output: 2
  }
}
layer {
  name: "ReLU571"
  type: "ReLU"
  bottom: "InnerProduct571"
  top: "InnerProduct571"
}
layer {
  name: "InnerProduct572"
  type: "InnerProduct"
  bottom: "InnerProduct15"
  top: "InnerProduct572"
  inner_product_param {
    num_output: 2
  }
}
layer {
  name: "ReLU572"
  type: "ReLU"
  bottom: "InnerProduct572"
  top: "InnerProduct572"
}
layer {
  name: "InnerProduct573"
  type: "InnerProduct"
  bottom: "InnerProduct15"
  top: "InnerProduct573"
  inner_product_param {
    num_output: 2
  }
}
layer {
  name: "ReLU573"
  type: "ReLU"
  bottom: "InnerProduct573"
  top: "InnerProduct573"
}
layer {
  name: "InnerProduct574"
  type: "InnerProduct"
  bottom: "InnerProduct15"
  top: "InnerProduct574"
  inner_product_param {
    num_output: 2
  }
}
layer {
  name: "ReLU574"
  type: "ReLU"
  bottom: "InnerProduct574"
  top: "InnerProduct574"
}
layer {
  name: "InnerProduct575"
  type: "InnerProduct"
  bottom: "InnerProduct15"
  top: "InnerProduct575"
  inner_product_param {
    num_output: 2
  }
}
layer {
  name: "ReLU575"
  type: "ReLU"
  bottom: "InnerProduct575"
  top: "InnerProduct575"
}
layer {
  name: "InnerProduct576"
  type: "InnerProduct"
  bottom: "InnerProduct15"
  top: "InnerProduct576"
  inner_product_param {
    num_output: 2
  }
}
layer {
  name: "ReLU576"
  type: "ReLU"
  bottom: "InnerProduct576"
  top: "InnerProduct576"
}
layer {
  name: "InnerProduct577"
  type: "InnerProduct"
  bottom: "InnerProduct15"
  top: "InnerProduct577"
  inner_product_param {
    num_output: 2
  }
}
layer {
  name: "ReLU577"
  type: "ReLU"
  bottom: "InnerProduct577"
  top: "InnerProduct577"
}
layer {
  name: "InnerProduct578"
  type: "InnerProduct"
  bottom: "InnerProduct15"
  top: "InnerProduct578"
  inner_product_param {
    num_output: 2
  }
}
layer {
  name: "ReLU578"
  type: "ReLU"
  bottom: "InnerProduct578"
  top: "InnerProduct578"
}
layer {
  name: "InnerProduct579"
  type: "InnerProduct"
  bottom: "InnerProduct15"
  top: "InnerProduct579"
  inner_product_param {
    num_output: 2
  }
}
layer {
  name: "ReLU579"
  type: "ReLU"
  bottom: "InnerProduct579"
  top: "InnerProduct579"
}
layer {
  name: "InnerProduct580"
  type: "InnerProduct"
  bottom: "InnerProduct15"
  top: "InnerProduct580"
  inner_product_param {
    num_output: 2
  }
}
layer {
  name: "ReLU580"
  type: "ReLU"
  bottom: "InnerProduct580"
  top: "InnerProduct580"
}
layer {
  name: "InnerProduct581"
  type: "InnerProduct"
  bottom: "InnerProduct15"
  top: "InnerProduct581"
  inner_product_param {
    num_output: 2
  }
}
layer {
  name: "ReLU581"
  type: "ReLU"
  bottom: "InnerProduct581"
  top: "InnerProduct581"
}
layer {
  name: "InnerProduct582"
  type: "InnerProduct"
  bottom: "InnerProduct15"
  top: "InnerProduct582"
  inner_product_param {
    num_output: 2
  }
}
layer {
  name: "ReLU582"
  type: "ReLU"
  bottom: "InnerProduct582"
  top: "InnerProduct582"
}
layer {
  name: "InnerProduct583"
  type: "InnerProduct"
  bottom: "InnerProduct15"
  top: "InnerProduct583"
  inner_product_param {
    num_output: 2
  }
}
layer {
  name: "ReLU583"
  type: "ReLU"
  bottom: "InnerProduct583"
  top: "InnerProduct583"
}
layer {
  name: "InnerProduct584"
  type: "InnerProduct"
  bottom: "InnerProduct15"
  top: "InnerProduct584"
  inner_product_param {
    num_output: 2
  }
}
layer {
  name: "ReLU584"
  type: "ReLU"
  bottom: "InnerProduct584"
  top: "InnerProduct584"
}
layer {
  name: "InnerProduct585"
  type: "InnerProduct"
  bottom: "InnerProduct15"
  top: "InnerProduct585"
  inner_product_param {
    num_output: 2
  }
}
layer {
  name: "ReLU585"
  type: "ReLU"
  bottom: "InnerProduct585"
  top: "InnerProduct585"
}
layer {
  name: "InnerProduct586"
  type: "InnerProduct"
  bottom: "InnerProduct15"
  top: "InnerProduct586"
  inner_product_param {
    num_output: 2
  }
}
layer {
  name: "ReLU586"
  type: "ReLU"
  bottom: "InnerProduct586"
  top: "InnerProduct586"
}
layer {
  name: "InnerProduct587"
  type: "InnerProduct"
  bottom: "InnerProduct15"
  top: "InnerProduct587"
  inner_product_param {
    num_output: 2
  }
}
layer {
  name: "ReLU587"
  type: "ReLU"
  bottom: "InnerProduct587"
  top: "InnerProduct587"
}
layer {
  name: "InnerProduct588"
  type: "InnerProduct"
  bottom: "InnerProduct15"
  top: "InnerProduct588"
  inner_product_param {
    num_output: 2
  }
}
layer {
  name: "ReLU588"
  type: "ReLU"
  bottom: "InnerProduct588"
  top: "InnerProduct588"
}
layer {
  name: "InnerProduct589"
  type: "InnerProduct"
  bottom: "InnerProduct15"
  top: "InnerProduct589"
  inner_product_param {
    num_output: 2
  }
}
layer {
  name: "ReLU589"
  type: "ReLU"
  bottom: "InnerProduct589"
  top: "InnerProduct589"
}
layer {
…
  name: "InnerProduct957"
  type: "InnerProduct"
  bottom: "InnerProduct15"
  top: "InnerProduct957"
  inner_product_param {
    num_output: 2
  }
}
layer {
  name: "ReLU957"
  type: "ReLU"
  bottom: "InnerProduct957"
  top: "InnerProduct957"
}
layer {
  name: "InnerProduct958"
  type: "InnerProduct"
  bottom: "InnerProduct15"
  top: "InnerProduct958"
  inner_product_param {
    num_output: 2
  }
}
layer {
  name: "ReLU958"
  type: "ReLU"
  bottom: "InnerProduct958"
  top: "InnerProduct958"
}
layer {
  name: "InnerProduct959"
  type: "InnerProduct"
  bottom: "InnerProduct15"
  top: "InnerProduct959"
  inner_product_param {
    num_output: 2
  }
}
layer {
  name: "ReLU959"
  type: "ReLU"
  bottom: "InnerProduct959"
  top: "InnerProduct959"
}
layer {
  name: "InnerProduct960"
  type: "InnerProduct"
  bottom: "InnerProduct15"
  top: "InnerProduct960"
  inner_product_param {
    num_output: 2
  }
}
layer {
  name: "ReLU960"
  type: "ReLU"
  bottom: "InnerProduct960"
  top: "InnerProduct960"
}
layer {
  name: "InnerProduct961"
  type: "InnerProduct"
  bottom: "InnerProduct15"
  top: "InnerProduct961"
  inner_product_param {
    num_output: 2
  }
}
layer {
  name: "ReLU961"
  type: "ReLU"
  bottom: "InnerProduct961"
  top: "InnerProduct961"
}
layer {
  name: "InnerProduct962"
  type: "InnerProduct"
  bottom: "InnerProduct15"
  top: "InnerProduct962"
  inner_product_param {
    num_output: 2
  }
}
layer {
  name: "ReLU962"
  type: "ReLU"
  bottom: "InnerProduct962"
  top: "InnerProduct962"
}
layer {
  name: "InnerProduct963"
  type: "InnerProduct"
  bottom: "InnerProduct15"
  top: "InnerProduct963"
  inner_product_param {
    num_output: 2
  }
}
layer {
  name: "ReLU963"
  type: "ReLU"
  bottom: "InnerProduct963"
  top: "InnerProduct963"
}
layer {
  name: "InnerProduct964"
  type: "InnerProduct"
  bottom: "InnerProduct15"
  top: "InnerProduct964"
  inner_product_param {
    num_output: 2
  }
}
layer {
  name: "ReLU964"
  type: "ReLU"
  bottom: "InnerProduct964"
  top: "InnerProduct964"
}
layer {
  name: "InnerProduct965"
  type: "InnerProduct"
  bottom: "InnerProduct15"
  top: "InnerProduct965"
  inner_product_param {
    num_output: 2
  }
}
layer {
  name: "ReLU965"
  type: "ReLU"
  bottom: "InnerProduct965"
  top: "InnerProduct965"
}
layer {
  name: "InnerProduct966"
  type: "InnerProduct"
  bottom: "InnerProduct15"
  top: "InnerProduct966"
  inner_product_param {
    num_output: 2
  }
}
layer {
  name: "ReLU966"
  type: "ReLU"
  bottom: "InnerProduct966"
  top: "InnerProduct966"
}
layer {
  name: "InnerProduct967"
  type: "InnerProduct"
  bottom: "InnerProduct15"
  top: "InnerProduct967"
  inner_product_param {
    num_output: 2
  }
}
layer {
  name: "ReLU967"
  type: "ReLU"
  bottom: "InnerProduct967"
  top: "InnerProduct967"
}
layer {
  name: "InnerProduct968"
  type: "InnerProduct"
  bottom: "InnerProduct15"
  top: "InnerProduct968"
  inner_product_param {
    num_output: 2
  }
}
layer {
  name: "ReLU968"
  type: "ReLU"
  bottom: "InnerProduct968"
  top: "InnerProduct968"
}
layer {
  name: "InnerProduct969"
  type: "InnerProduct"
  bottom: "InnerProduct15"
  top: "InnerProduct969"
  inner_product_param {
    num_output: 2
  }
}
layer {
  name: "ReLU969"
  type: "ReLU"
  bottom: "InnerProduct969"
  top: "InnerProduct969"
}
layer {
  name: "InnerProduct970"
  type: "InnerProduct"
  bottom: "InnerProduct15"
  top: "InnerProduct970"
  inner_product_param {
    num_output: 2
  }
}
layer {
  name: "ReLU970"
  type: "ReLU"
  bottom: "InnerProduct970"
  top: "InnerProduct970"
}
layer {
  name: "InnerProduct971"
  type: "InnerProduct"
  bottom: "InnerProduct15"
  top: "InnerProduct971"
  inner_product_param {
    num_output: 2
  }
}
layer {
  name: "ReLU971"
  type: "ReLU"
  bottom: "InnerProduct971"
  top: "InnerProduct971"
}
layer {
  name: "InnerProduct972"
  type: "InnerProduct"
  bottom: "InnerProduct15"
  top: "InnerProduct972"
  inner_product_param {
    num_output: 2
  }
}
layer {
  name: "ReLU972"
  type: "ReLU"
  bottom: "InnerProduct972"
  top: "InnerProduct972"
}
layer {
  name: "InnerProduct973"
  type: "InnerProduct"
  bottom: "InnerProduct15"
  top: "InnerProduct973"
  inner_product_param {
    num_output: 2
  }
}
layer {
  name: "ReLU973"
  type: "ReLU"
  bottom: "InnerProduct973"
  top: "InnerProduct973"
}
layer {
  name: "InnerProduct974"
  type: "InnerProduct"
  bottom: "InnerProduct15"
  top: "InnerProduct974"
  inner_product_param {
    num_output: 2
  }
}
layer {
  name: "ReLU974"
  type: "ReLU"
  bottom: "InnerProduct974"
  top: "InnerProduct974"
}
layer {
  name: "InnerProduct975"
  type: "InnerProduct"
  bottom: "InnerProduct15"
  top: "InnerProduct975"
  inner_product_param {
    num_output: 2
  }
}
layer {
  name: "ReLU975"
  type: "ReLU"
  bottom: "InnerProduct975"
  top: "InnerProduct975"
}
layer {
  name: "InnerProduct976"
  type: "InnerProduct"
  bottom: "InnerProduct15"
  top: "InnerProduct976"
  inner_product_param {
    num_output: 2
  }
}
layer {
  name: "ReLU976"
  type: "ReLU"
  bottom: "InnerProduct976"
  top: "InnerProduct976"
}
layer {
  name: "InnerProduct977"
  type: "InnerProduct"
  bottom: "InnerProduct15"
  top: "InnerProduct977"
  inner_product_param {
    num_output: 2
  }
}
layer {
  name: "ReLU977"
  type: "ReLU"
  bottom: "InnerProduct977"
  top: "InnerProduct977"
}
layer {
  name: "InnerProduct978"
  type: "InnerProduct"
  bottom: "InnerProduct15"
  top: "InnerProduct978"
  inner_product_param {
    num_output: 2
  }
}
layer {
  name: "ReLU978"
  type: "ReLU"
  bottom: "InnerProduct978"
  top: "InnerProduct978"
}
layer {
  name: "InnerProduct979"
  type: "InnerProduct"
  bottom: "InnerProduct15"
  top: "InnerProduct979"
  inner_product_param {
    num_output: 2
  }
}
layer {
  name: "ReLU979"
  type: "ReLU"
  bottom: "InnerProduct979"
  top: "InnerProduct979"
}
layer {
  name: "InnerProduct980"
  type: "InnerProduct"
  bottom: "InnerProduct15"
  top: "InnerProduct980"
  inner_product_param {
    num_output: 2
  }
}
layer {
  name: "ReLU980"
  type: "ReLU"
  bottom: "InnerProduct980"
  top: "InnerProduct980"
}
layer {
  name: "InnerProduct981"
  type: "InnerProduct"
  bottom: "InnerProduct15"
  top: "InnerProduct981"
  inner_product_param {
    num_output: 2
  }
}
layer {
  name: "ReLU981"
  type: "ReLU"
  bottom: "InnerProduct981"
  top: "InnerProduct981"
}
layer {
  name: "InnerProduct982"
  type: "InnerProduct"
  bottom: "InnerProduct15"
  top: "InnerProduct982"
  inner_product_param {
    num_output: 2
  }
}
layer {
  name: "ReLU982"
  type: "ReLU"
  bottom: "InnerProduct982"
  top: "InnerProduct982"
}
layer {
  name: "InnerProduct983"
  type: "InnerProduct"
  bottom: "InnerProduct15"
  top: "InnerProduct983"
  inner_product_param {
    num_output: 2
  }
}
layer {
  name: "ReLU983"
  type: "ReLU"
  bottom: "InnerProduct983"
  top: "InnerProduct983"
}
layer {
  name: "InnerProduct984"
  type: "InnerProduct"
  bottom: "InnerProduct15"
  top: "InnerProduct984"
  inner_product_param {
    num_output: 2
  }
}
layer {
  name: "ReLU984"
  type: "ReLU"
  bottom: "InnerProduct984"
  top: "InnerProduct984"
}
layer {
  name: "InnerProduct985"
  type: "InnerProduct"
  bottom: "InnerProduct15"
  top: "InnerProduct985"
  inner_product_param {
    num_output: 2
  }
}
layer {
  name: "ReLU985"
  type: "ReLU"
  bottom: "InnerProduct985"
  top: "InnerProduct985"
}
layer {
  name: "InnerProduct986"
  type: "InnerProduct"
  bottom: "InnerProduct15"
  top: "InnerProduct986"
  inner_product_param {
    num_output: 2
  }
}
layer {
  name: "ReLU986"
  type: "ReLU"
  bottom: "InnerProduct986"
  top: "InnerProduct986"
}
layer {
  name: "InnerProduct987"
  type: "InnerProduct"
  bottom: "InnerProduct15"
  top: "InnerProduct987"
  inner_product_param {
    num_output: 2
  }
}
layer {
  name: "ReLU987"
  type: "ReLU"
  bottom: "InnerProduct987"
  top: "InnerProduct987"
}
layer {
  name: "InnerProduct988"
  type: "InnerProduct"
  bottom: "InnerProduct15"
  top: "InnerProduct988"
  inner_product_param {
    num_output: 2
  }
}
layer {
  name: "ReLU988"
  type: "ReLU"
  bottom: "InnerProduct988"
  top: "InnerProduct988"
}
layer {
  name: "InnerProduct989"
  type: "InnerProduct"
  bottom: "InnerProduct15"
  top: "InnerProduct989"
  inner_product_param {
    num_output: 2
  }
}
layer {
  name: "ReLU989"
  type: "ReLU"
  bottom: "InnerProduct989"
  top: "InnerProduct989"
}
layer {
  name: "InnerProduct990"
  type: "InnerProduct"
  bottom: "InnerProduct15"
  top: "InnerProduct990"
  inner_product_param {
    num_output: 2
  }
}
layer {
  name: "ReLU990"
  type: "ReLU"
  bottom: "InnerProduct990"
  top: "InnerProduct990"
}
layer {
  name: "InnerProduct991"
  type: "InnerProduct"
  bottom: "InnerProduct15"
  top: "InnerProduct991"
  inner_product_param {
    num_output: 2
  }
}
layer {
  name: "ReLU991"
  type: "ReLU"
  bottom: "InnerProduct991"
  top: "InnerProduct991"
}
layer {
  name: "InnerProduct992"
  type: "InnerProduct"
  bottom: "InnerProduct15"
  top: "InnerProduct992"
  inner_product_param {
    num_output: 1
  }
}
layer {
  name: "ReLU992"
  type: "ReLU"
  bottom: "InnerProduct992"
  top: "InnerProduct992"
}
layer {
  name: "InnerProduct993"
  type: "InnerProduct"
  bottom: "InnerProduct15"
  top: "InnerProduct993"
  inner_product_param {
    num_output: 1
  }
}
layer {
  name: "ReLU993"
  type: "ReLU"
  bottom: "InnerProduct993"
  top: "InnerProduct993"
}
layer {
  name: "InnerProduct994"
  type: "InnerProduct"
  bottom: "InnerProduct15"
  top: "InnerProduct994"
  inner_product_param {
    num_output: 1
  }
}
layer {
  name: "ReLU994"
  type: "ReLU"
  bottom: "InnerProduct994"
  top: "InnerProduct994"
}
layer {
  name: "InnerProduct995"
  type: "InnerProduct"
  bottom: "InnerProduct15"
  top: "InnerProduct995"
  inner_product_param {
    num_output: 1
  }
}
layer {
  name: "ReLU995"
  type: "ReLU"
  bottom: "InnerProduct995"
  top: "InnerProduct995"
}
layer {
  name: "InnerProduct996"
  type: "InnerProduct"
  bottom: "InnerProduct15"
  top: "InnerProduct996"
  inner_product_param {
    num_output: 1
  }
}
layer {
  name: "ReLU996"
  type: "ReLU"
  bottom: "InnerProduct996"
  top: "InnerProduct996"
}
layer {
  name: "InnerProduct997"
  type: "InnerProduct"
  bottom: "InnerProduct15"
  top: "InnerProduct997"
  inner_product_param {
    num_output: 1
  }
}
layer {
  name: "ReLU997"
  type: "ReLU"
  bottom: "InnerProduct997"
  top: "InnerProduct997"
}
layer {
  name: "InnerProduct998"
  type: "InnerProduct"
  bottom: "InnerProduct15"
  top: "InnerProduct998"
  inner_product_param {
    num_output: 1
  }
}
layer {
  name: "ReLU998"
  type: "ReLU"
  bottom: "InnerProduct998"
  top: "InnerProduct998"
}
layer {
  name: "InnerProduct999"
  type: "InnerProduct"
  bottom: "InnerProduct15"
  top: "InnerProduct999"
  inner_product_param {
    num_output: 1
  }
}
layer {
  name: "ReLU999"
  type: "ReLU"
  bottom: "InnerProduct999"
  top: "InnerProduct999"
}
layer {
  name: "InnerProduct1000"
  type: "InnerProduct"
  bottom: "InnerProduct15"
  top: "InnerProduct1000"
  inner_product_param {
    num_output: 1
  }
}
layer {
  name: "ReLU1000"
  type: "ReLU"
  bottom: "InnerProduct1000"
  top: "InnerProduct1000"
}
layer {
  name: "InnerProduct1001"
  type: "InnerProduct"
  bottom: "InnerProduct15"
  top: "InnerProduct1001"
  inner_product_param {
    num_output: 1
  }
}
layer {
  name: "ReLU1001"
  type: "ReLU"
  bottom: "InnerProduct1001"
  top: "InnerProduct1001"
}
layer {
  name: "InnerProduct1002"
  type: "InnerProduct"
  bottom: "InnerProduct15"
  top: "InnerProduct1002"
  inner_product_param {
    num_output: 1
  }
}
layer {
  name: "ReLU1002"
  type: "ReLU"
  bottom: "InnerProduct1002"
  top: "InnerProduct1002"
}
layer {
  name: "InnerProduct1003"
  type: "InnerProduct"
  bottom: "InnerProduct15"
  top: "InnerProduct1003"
  inner_product_param {
    num_output: 1
  }
}
layer {
  name: "ReLU1003"
  type: "ReLU"
  bottom: "InnerProduct1003"
  top: "InnerProduct1003"
}
layer {
  name: "InnerProduct1004"
  type: "InnerProduct"
  bottom: "InnerProduct15"
  top: "InnerProduct1004"
  inner_product_param {
    num_output: 1
  }
}
layer {
  name: "ReLU1004"
  type: "ReLU"
  bottom: "InnerProduct1004"
  top: "InnerProduct1004"
}
layer {
  name: "InnerProduct1005"
  type: "InnerProduct"
  bottom: "InnerProduct15"
  top: "InnerProduct1005"
  inner_product_param {
    num_output: 1
  }
}
layer {
  name: "ReLU1005"
  type: "ReLU"
  bottom: "InnerProduct1005"
  top: "InnerProduct1005"
}
layer {
  name: "InnerProduct1006"
  type: "InnerProduct"
  bottom: "InnerProduct15"
  top: "InnerProduct1006"
  inner_product_param {
    num_output: 1
  }
}
layer {
  name: "ReLU1006"
  type: "ReLU"
  bottom: "InnerProduct1006"
  top: "InnerProduct1006"
}
layer {
  name: "InnerProduct1007"
  type: "InnerProduct"
  bottom: "InnerProduct15"
  top: "InnerProduct1007"
  inner_product_param {
    num_output: 1
  }
}
layer {
  name: "ReLU1007"
  type: "ReLU"
  bottom: "InnerProduct1007"
  top: "InnerProduct1007"
}
layer {
  name: "InnerProduct1008"
  type: "InnerProduct"
  bottom: "InnerProduct15"
  top: "InnerProduct1008"
  inner_product_param {
    num_output: 1
  }
}
layer {
  name: "ReLU1008"
  type: "ReLU"
  bottom: "InnerProduct1008"
  top: "InnerProduct1008"
}
layer {
  name: "InnerProduct1009"
  type: "InnerProduct"
  bottom: "InnerProduct15"
  top: "InnerProduct1009"
  inner_product_param {
    num_output: 1
  }
}
layer {
  name: "ReLU1009"
  type: "ReLU"
  bottom: "InnerProduct1009"
  top: "InnerProduct1009"
}
layer {
  name: "InnerProduct1010"
  type: "InnerProduct"
  bottom: "InnerProduct15"
  top: "InnerProduct1010"
  inner_product_param {
    num_output: 1
  }
}
layer {
  name: "ReLU1010"
  type: "ReLU"
  bottom: "InnerProduct1010"
  top: "InnerProduct1010"
}
layer {
  name: "InnerProduct1011"
  type: "InnerProduct"
  bottom: "InnerProduct15"
  top: "InnerProduct1011"
  inner_product_param {
    num_output: 1
  }
}
layer {
  name: "ReLU1011"
  type: "ReLU"
  bottom: "InnerProduct1011"
  top: "InnerProduct1011"
}
layer {
  name: "InnerProduct1012"
  type: "InnerProduct"
  bottom: "InnerProduct15"
  top: "InnerProduct1012"
  inner_product_param {
    num_output: 1
  }
}
layer {
  name: "ReLU1012"
  type: "ReLU"
  bottom: "InnerProduct1012"
  top: "InnerProduct1012"
}
layer {
  name: "InnerProduct1013"
  type: "InnerProduct"
  bottom: "InnerProduct15"
  top: "InnerProduct1013"
  inner_product_param {
    num_output: 1
  }
}
layer {
  name: "ReLU1013"
  type: "ReLU"
  bottom: "InnerProduct1013"
  top: "InnerProduct1013"
}
layer {
  name: "InnerProduct1014"
  type: "InnerProduct"
  bottom: "InnerProduct15"
  top: "InnerProduct1014"
  inner_product_param {
    num_output: 1
  }
}
layer {
  name: "ReLU1014"
  type: "ReLU"
  bottom: "InnerProduct1014"
  top: "InnerProduct1014"
}
layer {
  name: "InnerProduct1015"
  type: "InnerProduct"
  bottom: "InnerProduct15"
  top: "InnerProduct1015"
  inner_product_param {
    num_output: 1
  }
}
layer {
  name: "ReLU1015"
  type: "ReLU"
  bottom: "InnerProduct1015"
  top: "InnerProduct1015"
}
layer {
  name: "InnerProduct1016"
  type: "InnerProduct"
  bottom: "InnerProduct15"
  top: "InnerProduct1016"
  inner_product_param {
    num_output: 1
  }
}
layer {
  name: "ReLU1016"
  type: "ReLU"
  bottom: "InnerProduct1016"
  top: "InnerProduct1016"
}
layer {
  name: "InnerProduct1017"
  type: "InnerProduct"
  bottom: "InnerProduct15"
  top: "InnerProduct1017"
  inner_product_param {
    num_output: 1
  }
}
layer {
  name: "ReLU1017"
  type: "ReLU"
  bottom: "InnerProduct1017"
  top: "InnerProduct1017"
}
layer {
  name: "InnerProduct1018"
  type: "InnerProduct"
  bottom: "InnerProduct15"
  top: "InnerProduct1018"
  inner_product_param {
    num_output: 1
  }
}
layer {
  name: "ReLU1018"
  type: "ReLU"
  bottom: "InnerProduct1018"
  top: "InnerProduct1018"
}
layer {
  name: "InnerProduct1019"
  type: "InnerProduct"
  bottom: "InnerProduct15"
  top: "InnerProduct1019"
  inner_product_param {
    num_output: 1
  }
}
layer {
  name: "ReLU1019"
  type: "ReLU"
  bottom: "InnerProduct1019"
  top: "InnerProduct1019"
}
layer {
  name: "InnerProduct1020"
  type: "InnerProduct"
  bottom: "InnerProduct15"
  top: "InnerProduct1020"
  inner_product_param {
    num_output: 1
  }
}
layer {
  name: "ReLU1020"
  type: "ReLU"
  bottom: "InnerProduct1020"
  top: "InnerProduct1020"
}
layer {
  name: "InnerProduct1021"
  type: "InnerProduct"
  bottom: "InnerProduct15"
  top: "InnerProduct1021"
  inner_product_param {
    num_output: 1
  }
}
layer {
  name: "ReLU1021"
  type: "ReLU"
  bottom: "InnerProduct1021"
  top: "InnerProduct1021"
}
layer {
  name: "InnerProduct1022"
  type: "InnerProduct"
  bottom: "InnerProduct15"
  top: "InnerProduct1022"
  inner_product_param {
    num_output: 1
  }
}
layer {
  name: "ReLU1022"
  type: "ReLU"
  bottom: "InnerProduct1022"
  top: "InnerProduct1022"
}
layer {
  name: "InnerProduct1023"
  type: "InnerProduct"
  bottom: "InnerProduct15"
  top: "InnerProduct1023"
  inner_product_param {
    num_output: 1
  }
}
layer {
  name: "ReLU1023"
  type: "ReLU"
  bottom: "InnerProduct1023"
  top: "InnerProduct1023"
}
layer {
  name: "InnerProduct1024"
  type: "InnerProduct"
  bottom: "InnerProduct15"
  top: "InnerProduct1024"
  inner_product_param {
    num_output: 1
  }
}
layer {
  name: "ReLU1024"
  type: "ReLU"
  bottom: "InnerProduct1024"
  top: "InnerProduct1024"
}
layer {
  name: "InnerProduct1025"
  type: "InnerProduct"
  bottom: "InnerProduct15"
  top: "InnerProduct1025"
  inner_product_param {
    num_output: 1
  }
}
layer {
  name: "ReLU1025"
  type: "ReLU"
  bottom: "InnerProduct1025"
  top: "InnerProduct1025"
}
layer {
  name: "InnerProduct1026"
  type: "InnerProduct"
  bottom: "InnerProduct15"
  top: "InnerProduct1026"
  inner_product_param {
    num_output: 1
  }
}
layer {
  name: "ReLU1026"
  type: "ReLU"
  bottom: "InnerProduct1026"
  top: "InnerProduct1026"
}
layer {
  name: "InnerProduct1027"
  type: "InnerProduct"
  bottom: "InnerProduct15"
  top: "InnerProduct1027"
  inner_product_param {
    num_output: 1
  }
}
layer {
  name: "ReLU1027"
  type: "ReLU"
  bottom: "InnerProduct1027"
  top: "InnerProduct1027"
}
layer {
  name: "InnerProduct1028"
  type: "InnerProduct"
  bottom: "InnerProduct15"
  top: "InnerProduct1028"
  inner_product_param {
    num_output: 1
  }
}
layer {
  name: "ReLU1028"
  type: "ReLU"
  bottom: "InnerProduct1028"
  top: "InnerProduct1028"
}
layer {
  name: "InnerProduct1029"
  type: "InnerProduct"
  bottom: "InnerProduct15"
  top: "InnerProduct1029"
  inner_product_param {
    num_output: 1
  }
}
layer {
  name: "ReLU1029"
  type: "ReLU"
  bottom: "InnerProduct1029"
  top: "InnerProduct1029"
}
layer {
  name: "InnerProduct1030"
  type: "InnerProduct"
  bottom: "InnerProduct15"
  top: "InnerProduct1030"
  inner_product_param {
    num_output: 1
  }
}
layer {
  name: "ReLU1030"
  type: "ReLU"
  bottom: "InnerProduct1030"
  top: "InnerProduct1030"
}
layer {
  name: "InnerProduct1031"
  type: "InnerProduct"
  bottom: "InnerProduct15"
  top: "InnerProduct1031"
  inner_product_param {
    num_output: 1
  }
}
layer {
  name: "ReLU1031"
  type: "ReLU"
  bottom: "InnerProduct1031"
  top: "InnerProduct1031"
}
layer {
  name: "InnerProduct1032"
  type: "InnerProduct"
  bottom: "InnerProduct15"
  top: "InnerProduct1032"
  inner_product_param {
    num_output: 1
  }
}
layer {
  name: "ReLU1032"
  type: "ReLU"
  bottom: "InnerProduct1032"
  top: "InnerProduct1032"
}
layer {
  name: "InnerProduct1033"
  type: "InnerProduct"
  bottom: "InnerProduct15"
  top: "InnerProduct1033"
  inner_product_param {
    num_output: 1
  }
}
layer {
  name: "ReLU1033"
  type: "ReLU"
  bottom: "InnerProduct1033"
  top: "InnerProduct1033"
}
layer {
  name: "InnerProduct1034"
  type: "InnerProduct"
  bottom: "InnerProduct15"
  top: "InnerProduct1034"
  inner_product_param {
    num_output: 1
  }
}
layer {
  name: "ReLU1034"
  type: "ReLU"
  bottom: "InnerProduct1034"
  top: "InnerProduct1034"
}
layer {
  name: "InnerProduct1035"
  type: "InnerProduct"
  bottom: "InnerProduct15"
  top: "InnerProduct1035"
  inner_product_param {
    num_output: 1
  }
}
layer {
  name: "ReLU1035"
  type: "ReLU"
  bottom: "InnerProduct1035"
  top: "InnerProduct1035"
}
layer {
  name: "InnerProduct1036"
  type: "InnerProduct"
  bottom: "InnerProduct15"
  top: "InnerProduct1036"
  inner_product_param {
    num_output: 1
  }
}
layer {
  name: "ReLU1036"
  type: "ReLU"
  bottom: "InnerProduct1036"
  top: "InnerProduct1036"
}
layer {
  name: "InnerProduct1037"
  type: "InnerProduct"
  bottom: "InnerProduct15"
  top: "InnerProduct1037"
  inner_product_param {
    num_output: 1
  }
}
layer {
  name: "ReLU1037"
  type: "ReLU"
  bottom: "InnerProduct1037"
  top: "InnerProduct1037"
}
layer {
  name: "InnerProduct1038"
  type: "InnerProduct"
  bottom: "InnerProduct15"
  top: "InnerProduct1038"
  inner_product_param {
    num_output: 1
  }
}
layer {
  name: "ReLU1038"
  type: "ReLU"
  bottom: "InnerProduct1038"
  top: "InnerProduct1038"
}
layer {
  name: "InnerProduct1039"
  type: "InnerProduct"
  bottom: "InnerProduct15"
  top: "InnerProduct1039"
  inner_product_param {
    num_output: 1
  }
}
layer {
  name: "ReLU1039"
  type: "ReLU"
  bottom: "InnerProduct1039"
  top: "InnerProduct1039"
}
layer {
  name: "Concat2"
  type: "Concat"
  bottom: "InnerProduct16"
  bottom: "InnerProduct17"
  bottom: "InnerProduct18"
  bottom: "InnerProduct19"
  bottom: "InnerProduct20"
  bottom: "InnerProduct21"
  bottom: "InnerProduct22"
  bottom: "InnerProduct23"
  bottom: "InnerProduct24"
  bottom: "InnerProduct25"
  bottom: "InnerProduct26"
  bottom: "InnerProduct27"
  bottom: "InnerProduct28"
  bottom: "InnerProduct29"
  bottom: "InnerProduct30"
  bottom: "InnerProduct31"
  bottom: "InnerProduct32"
  bottom: "InnerProduct33"
  bottom: "InnerProduct34"
  bottom: "InnerProduct35"
  bottom: "InnerProduct36"
  bottom: "InnerProduct37"
  bottom: "InnerProduct38"
  bottom: "InnerProduct39"
  bottom: "InnerProduct40"
  bottom: "InnerProduct41"
  bottom: "InnerProduct42"
  bottom: "InnerProduct43"
  bottom: "InnerProduct44"
  bottom: "InnerProduct45"
  bottom: "InnerProduct46"
  bottom: "InnerProduct47"
  bottom: "InnerProduct48"
  bottom: "InnerProduct49"
  bottom: "InnerProduct50"
  bottom: "InnerProduct51"
  bottom: "InnerProduct52"
  bottom: "InnerProduct53"
  bottom: "InnerProduct54"
  bottom: "InnerProduct55"
  bottom: "InnerProduct56"
  bottom: "InnerProduct57"
  bottom: "InnerProduct58"
  bottom: "InnerProduct59"
  bottom: "InnerProduct60"
  bottom: "InnerProduct61"
  bottom: "InnerProduct62"
  bottom: "InnerProduct63"
  bottom: "InnerProduct64"
  bottom: "InnerProduct65"
  bottom: "InnerProduct66"
  bottom: "InnerProduct67"
  bottom: "InnerProduct68"
  bottom: "InnerProduct69"
  bottom: "InnerProduct70"
  bottom: "InnerProduct71"
  bottom: "InnerProduct72"
  bottom: "InnerProduct73"
  bottom: "InnerProduct74"
  bottom: "InnerProduct75"
  bottom: "InnerProduct76"
  bottom: "InnerProduct77"
  bottom: "InnerProduct78"
  bottom: "InnerProduct79"
  bottom: "InnerProduct80"
  bottom: "InnerProduct81"
  bottom: "InnerProduct82"
  bottom: "InnerProduct83"
  bottom: "InnerProduct84"
  bottom: "InnerProduct85"
  bottom: "InnerProduct86"
  bottom: "InnerProduct87"
  bottom: "InnerProduct88"
  bottom: "InnerProduct89"
  bottom: "InnerProduct90"
  bottom: "InnerProduct91"
  bottom: "InnerProduct92"
  bottom: "InnerProduct93"
  bottom: "InnerProduct94"
  bottom: "InnerProduct95"
  bottom: "InnerProduct96"
  bottom: "InnerProduct97"
  bottom: "InnerProduct98"
  bottom: "InnerProduct99"
  bottom: "InnerProduct100"
  bottom: "InnerProduct101"
  bottom: "InnerProduct102"
  bottom: "InnerProduct103"
  bottom: "InnerProduct104"
  bottom: "InnerProduct105"
  bottom: "InnerProduct106"
  bottom: "InnerProduct107"
  bottom: "InnerProduct108"
  bottom: "InnerProduct109"
  bottom: "InnerProduct110"
  bottom: "InnerProduct111"
  bottom: "InnerProduct112"
  bottom: "InnerProduct113"
  bottom: "InnerProduct114"
  bottom: "InnerProduct115"
  bottom: "InnerProduct116"
  bottom: "InnerProduct117"
  bottom: "InnerProduct118"
  bottom: "InnerProduct119"
  bottom: "InnerProduct120"
  bottom: "InnerProduct121"
  bottom: "InnerProduct122"
  bottom: "InnerProduct123"
  bottom: "InnerProduct124"
  bottom: "InnerProduct125"
  bottom: "InnerProduct126"
  bottom: "InnerProduct127"
  bottom: "InnerProduct128"
  bottom: "InnerProduct129"
  bottom: "InnerProduct130"
  bottom: "InnerProduct131"
  bottom: "InnerProduct132"
  bottom: "InnerProduct133"
  bottom: "InnerProduct134"
  bottom: "InnerProduct135"
  bottom: "InnerProduct136"
  bottom: "InnerProduct137"
  bottom: "InnerProduct138"
  bottom: "InnerProduct139"
  bottom: "InnerProduct140"
  bottom: "InnerProduct141"
  bottom: "InnerProduct142"
  bottom: "InnerProduct143"
  bottom: "InnerProduct144"
  bottom: "InnerProduct145"
  bottom: "InnerProduct146"
  bottom: "InnerProduct147"
  bottom: "InnerProduct148"
  bottom: "InnerProduct149"
  bottom: "InnerProduct150"
  bottom: "InnerProduct151"
  bottom: "InnerProduct152"
  bottom: "InnerProduct153"
  bottom: "InnerProduct154"
  bottom: "InnerProduct155"
  bottom: "InnerProduct156"
  bottom: "InnerProduct157"
  bottom: "InnerProduct158"
  bottom: "InnerProduct159"
  bottom: "InnerProduct160"
  bottom: "InnerProduct161"
  bottom: "InnerProduct162"
  bottom: "InnerProduct163"
  bottom: "InnerProduct164"
  bottom: "InnerProduct165"
  bottom: "InnerProduct166"
  bottom: "InnerProduct167"
  bottom: "InnerProduct168"
  bottom: "InnerProduct169"
  bottom: "InnerProduct170"
  bottom: "InnerProduct171"
  bottom: "InnerProduct172"
  bottom: "InnerProduct173"
  bottom: "InnerProduct174"
  bottom: "InnerProduct175"
  bottom: "InnerProduct176"
  bottom: "InnerProduct177"
  bottom: "InnerProduct178"
  bottom: "InnerProduct179"
  bottom: "InnerProduct180"
  bottom: "InnerProduct181"
  bottom: "InnerProduct182"
  bottom: "InnerProduct183"
  bottom: "InnerProduct184"
  bottom: "InnerProduct185"
  bottom: "InnerProduct186"
  bottom: "InnerProduct187"
  bottom: "InnerProduct188"
  bottom: "InnerProduct189"
  bottom: "InnerProduct190"
  bottom: "InnerProduct191"
  bottom: "InnerProduct192"
  bottom: "InnerProduct193"
  bottom: "InnerProduct194"
  bottom: "InnerProduct195"
  bottom: "InnerProduct196"
  bottom: "InnerProduct197"
  bottom: "InnerProduct198"
  bottom: "InnerProduct199"
  bottom: "InnerProduct200"
  bottom: "InnerProduct201"
  bottom: "InnerProduct202"
  bottom: "InnerProduct203"
  bottom: "InnerProduct204"
  bottom: "InnerProduct205"
  bottom: "InnerProduct206"
  bottom: "InnerProduct207"
  bottom: "InnerProduct208"
  bottom: "InnerProduct209"
  bottom: "InnerProduct210"
  bottom: "InnerProduct211"
  bottom: "InnerProduct212"
  bottom: "InnerProduct213"
  bottom: "InnerProduct214"
  bottom: "InnerProduct215"
  bottom: "InnerProduct216"
  bottom: "InnerProduct217"
  bottom: "InnerProduct218"
  bottom: "InnerProduct219"
  bottom: "InnerProduct220"
  bottom: "InnerProduct221"
  bottom: "InnerProduct222"
  bottom: "InnerProduct223"
  bottom: "InnerProduct224"
  bottom: "InnerProduct225"
  bottom: "InnerProduct226"
  bottom: "InnerProduct227"
  bottom: "InnerProduct228"
  bottom: "InnerProduct229"
  bottom: "InnerProduct230"
  bottom: "InnerProduct231"
  bottom: "InnerProduct232"
  bottom: "InnerProduct233"
  bottom: "InnerProduct234"
  bottom: "InnerProduct235"
  bottom: "InnerProduct236"
  bottom: "InnerProduct237"
  bottom: "InnerProduct238"
  bottom: "InnerProduct239"
  bottom: "InnerProduct240"
  bottom: "InnerProduct241"
  bottom: "InnerProduct242"
  bottom: "InnerProduct243"
  bottom: "InnerProduct244"
  bottom: "InnerProduct245"
  bottom: "InnerProduct246"
  bottom: "InnerProduct247"
  bottom: "InnerProduct248"
  bottom: "InnerProduct249"
  bottom: "InnerProduct250"
  bottom: "InnerProduct251"
  bottom: "InnerProduct252"
  bottom: "InnerProduct253"
  bottom: "InnerProduct254"
  bottom: "InnerProduct255"
  bottom: "InnerProduct256"
  bottom: "InnerProduct257"
  bottom: "InnerProduct258"
  bottom: "InnerProduct259"
  bottom: "InnerProduct260"
  bottom: "InnerProduct261"
  bottom: "InnerProduct262"
  bottom: "InnerProduct263"
  bottom: "InnerProduct264"
  bottom: "InnerProduct265"
  bottom: "InnerProduct266"
  bottom: "InnerProduct267"
  bottom: "InnerProduct268"
  bottom: "InnerProduct269"
  bottom: "InnerProduct270"
  bottom: "InnerProduct271"
  bottom: "InnerProduct272"
  bottom: "InnerProduct273"
  bottom: "InnerProduct274"
  bottom: "InnerProduct275"
  bottom: "InnerProduct276"
  bottom: "InnerProduct277"
  bottom: "InnerProduct278"
  bottom: "InnerProduct279"
  bottom: "InnerProduct280"
  bottom: "InnerProduct281"
  bottom: "InnerProduct282"
  bottom: "InnerProduct283"
  bottom: "InnerProduct284"
  bottom: "InnerProduct285"
  bottom: "InnerProduct286"
  bottom: "InnerProduct287"
  bottom: "InnerProduct288"
  bottom: "InnerProduct289"
  bottom: "InnerProduct290"
  bottom: "InnerProduct291"
  bottom: "InnerProduct292"
  bottom: "InnerProduct293"
  bottom: "InnerProduct294"
  bottom: "InnerProduct295"
  bottom: "InnerProduct296"
  bottom: "InnerProduct297"
  bottom: "InnerProduct298"
  bottom: "InnerProduct299"
  bottom: "InnerProduct300"
  bottom: "InnerProduct301"
  bottom: "InnerProduct302"
  bottom: "InnerProduct303"
  bottom: "InnerProduct304"
  bottom: "InnerProduct305"
  bottom: "InnerProduct306"
  bottom: "InnerProduct307"
  bottom: "InnerProduct308"
  bottom: "InnerProduct309"
  bottom: "InnerProduct310"
  bottom: "InnerProduct311"
  bottom: "InnerProduct312"
  bottom: "InnerProduct313"
  bottom: "InnerProduct314"
  bottom: "InnerProduct315"
  bottom: "InnerProduct316"
  bottom: "InnerProduct317"
  bottom: "InnerProduct318"
  bottom: "InnerProduct319"
  bottom: "InnerProduct320"
  bottom: "InnerProduct321"
  bottom: "InnerProduct322"
  bottom: "InnerProduct323"
  bottom: "InnerProduct324"
  bottom: "InnerProduct325"
  bottom: "InnerProduct326"
  bottom: "InnerProduct327"
  bottom: "InnerProduct328"
  bottom: "InnerProduct329"
  bottom: "InnerProduct330"
  bottom: "InnerProduct331"
  bottom: "InnerProduct332"
  bottom: "InnerProduct333"
  bottom: "InnerProduct334"
  bottom: "InnerProduct335"
  bottom: "InnerProduct336"
  bottom: "InnerProduct337"
  bottom: "InnerProduct338"
  bottom: "InnerProduct339"
  bottom: "InnerProduct340"
  bottom: "InnerProduct341"
  bottom: "InnerProduct342"
  bottom: "InnerProduct343"
  bottom: "InnerProduct344"
  bottom: "InnerProduct345"
  bottom: "InnerProduct346"
  bottom: "InnerProduct347"
  bottom: "InnerProduct348"
  bottom: "InnerProduct349"
  bottom: "InnerProduct350"
  bottom: "InnerProduct351"
  bottom: "InnerProduct352"
  bottom: "InnerProduct353"
  bottom: "InnerProduct354"
  bottom: "InnerProduct355"
  bottom: "InnerProduct356"
  bottom: "InnerProduct357"
  bottom: "InnerProduct358"
  bottom: "InnerProduct359"
  bottom: "InnerProduct360"
  bottom: "InnerProduct361"
  bottom: "InnerProduct362"
  bottom: "InnerProduct363"
  bottom: "InnerProduct364"
  bottom: "InnerProduct365"
  bottom: "InnerProduct366"
  bottom: "InnerProduct367"
  bottom: "InnerProduct368"
  bottom: "InnerProduct369"
  bottom: "InnerProduct370"
  bottom: "InnerProduct371"
  bottom: "InnerProduct372"
  bottom: "InnerProduct373"
  bottom: "InnerProduct374"
  bottom: "InnerProduct375"
  bottom: "InnerProduct376"
  bottom: "InnerProduct377"
  bottom: "InnerProduct378"
  bottom: "InnerProduct379"
  bottom: "InnerProduct380"
  bottom: "InnerProduct381"
  bottom: "InnerProduct382"
  bottom: "InnerProduct383"
  bottom: "InnerProduct384"
  bottom: "InnerProduct385"
  bottom: "InnerProduct386"
  bottom: "InnerProduct387"
  bottom: "InnerProduct388"
  bottom: "InnerProduct389"
  bottom: "InnerProduct390"
  bottom: "InnerProduct391"
  bottom: "InnerProduct392"
  bottom: "InnerProduct393"
  bottom: "InnerProduct394"
  bottom: "InnerProduct395"
  bottom: "InnerProduct396"
  bottom: "InnerProduct397"
  bottom: "InnerProduct398"
  bottom: "InnerProduct399"
  bottom: "InnerProduct400"
  bottom: "InnerProduct401"
  bottom: "InnerProduct402"
  bottom: "InnerProduct403"
  bottom: "InnerProduct404"
  bottom: "InnerProduct405"
  bottom: "InnerProduct406"
  bottom: "InnerProduct407"
  bottom: "InnerProduct408"
  bottom: "InnerProduct409"
  bottom: "InnerProduct410"
  bottom: "InnerProduct411"
  bottom: "InnerProduct412"
  bottom: "InnerProduct413"
  bottom: "InnerProduct414"
  bottom: "InnerProduct415"
  bottom: "InnerProduct416"
  bottom: "InnerProduct417"
  bottom: "InnerProduct418"
  bottom: "InnerProduct419"
  bottom: "InnerProduct420"
  bottom: "InnerProduct421"
  bottom: "InnerProduct422"
  bottom: "InnerProduct423"
  bottom: "InnerProduct424"
  bottom: "InnerProduct425"
  bottom: "InnerProduct426"
  bottom: "InnerProduct427"
  bottom: "InnerProduct428"
  bottom: "InnerProduct429"
  bottom: "InnerProduct430"
  bottom: "InnerProduct431"
  bottom: "InnerProduct432"
  bottom: "InnerProduct433"
  bottom: "InnerProduct434"
  bottom: "InnerProduct435"
  bottom: "InnerProduct436"
  bottom: "InnerProduct437"
  bottom: "InnerProduct438"
  bottom: "InnerProduct439"
  bottom: "InnerProduct440"
  bottom: "InnerProduct441"
  bottom: "InnerProduct442"
  bottom: "InnerProduct443"
  bottom: "InnerProduct444"
  bottom: "InnerProduct445"
  bottom: "InnerProduct446"
  bottom: "InnerProduct447"
  bottom: "InnerProduct448"
  bottom: "InnerProduct449"
  bottom: "InnerProduct450"
  bottom: "InnerProduct451"
  bottom: "InnerProduct452"
  bottom: "InnerProduct453"
  bottom: "InnerProduct454"
  bottom: "InnerProduct455"
  bottom: "InnerProduct456"
  bottom: "InnerProduct457"
  bottom: "InnerProduct458"
  bottom: "InnerProduct459"
  bottom: "InnerProduct460"
  bottom: "InnerProduct461"
  bottom: "InnerProduct462"
  bottom: "InnerProduct463"
  bottom: "InnerProduct464"
  bottom: "InnerProduct465"
  bottom: "InnerProduct466"
  bottom: "InnerProduct467"
  bottom: "InnerProduct468"
  bottom: "InnerProduct469"
  bottom: "InnerProduct470"
  bottom: "InnerProduct471"
  bottom: "InnerProduct472"
  bottom: "InnerProduct473"
  bottom: "InnerProduct474"
  bottom: "InnerProduct475"
  bottom: "InnerProduct476"
  bottom: "InnerProduct477"
  bottom: "InnerProduct478"
  bottom: "InnerProduct479"
  bottom: "InnerProduct480"
  bottom: "InnerProduct481"
  bottom: "InnerProduct482"
  bottom: "InnerProduct483"
  bottom: "InnerProduct484"
  bottom: "InnerProduct485"
  bottom: "InnerProduct486"
  bottom: "InnerProduct487"
  bottom: "InnerProduct488"
  bottom: "InnerProduct489"
  bottom: "InnerProduct490"
  bottom: "InnerProduct491"
  bottom: "InnerProduct492"
  bottom: "InnerProduct493"
  bottom: "InnerProduct494"
  bottom: "InnerProduct495"
  bottom: "InnerProduct496"
  bottom: "InnerProduct497"
  bottom: "InnerProduct498"
  bottom: "InnerProduct499"
  bottom: "InnerProduct500"
  bottom: "InnerProduct501"
  bottom: "InnerProduct502"
  bottom: "InnerProduct503"
  bottom: "InnerProduct504"
  bottom: "InnerProduct505"
  bottom: "InnerProduct506"
  bottom: "InnerProduct507"
  bottom: "InnerProduct508"
  bottom: "InnerProduct509"
  bottom: "InnerProduct510"
  bottom: "InnerProduct511"
  bottom: "InnerProduct512"
  bottom: "InnerProduct513"
  bottom: "InnerProduct514"
  bottom: "InnerProduct515"
  bottom: "InnerProduct516"
  bottom: "InnerProduct517"
  bottom: "InnerProduct518"
  bottom: "InnerProduct519"
  bottom: "InnerProduct520"
  bottom: "InnerProduct521"
  bottom: "InnerProduct522"
  bottom: "InnerProduct523"
  bottom: "InnerProduct524"
  bottom: "InnerProduct525"
  bottom: "InnerProduct526"
  bottom: "InnerProduct527"
  bottom: "InnerProduct528"
  bottom: "InnerProduct529"
  bottom: "InnerProduct530"
  bottom: "InnerProduct531"
  bottom: "InnerProduct532"
  bottom: "InnerProduct533"
  bottom: "InnerProduct534"
  bottom: "InnerProduct535"
  bottom: "InnerProduct536"
  bottom: "InnerProduct537"
  bottom: "InnerProduct538"
  bottom: "InnerProduct539"
  bottom: "InnerProduct540"
  bottom: "InnerProduct541"
  bottom: "InnerProduct542"
  bottom: "InnerProduct543"
  bottom: "InnerProduct544"
  bottom: "InnerProduct545"
  bottom: "InnerProduct546"
  bottom: "InnerProduct547"
  bottom: "InnerProduct548"
  bottom: "InnerProduct549"
  bottom: "InnerProduct550"
  bottom: "InnerProduct551"
  bottom: "InnerProduct552"
  bottom: "InnerProduct553"
  bottom: "InnerProduct554"
  bottom: "InnerProduct555"
  bottom: "InnerProduct556"
  bottom: "InnerProduct557"
  bottom: "InnerProduct558"
  bottom: "InnerProduct559"
  bottom: "InnerProduct560"
  bottom: "InnerProduct561"
  bottom: "InnerProduct562"
  bottom: "InnerProduct563"
  bottom: "InnerProduct564"
  bottom: "InnerProduct565"
  bottom: "InnerProduct566"
  bottom: "InnerProduct567"
  bottom: "InnerProduct568"
  bottom: "InnerProduct569"
  bottom: "InnerProduct570"
  bottom: "InnerProduct571"
  bottom: "InnerProduct572"
  bottom: "InnerProduct573"
  bottom: "InnerProduct574"
  bottom: "InnerProduct575"
  bottom: "InnerProduct576"
  bottom: "InnerProduct577"
  bottom: "InnerProduct578"
  bottom: "InnerProduct579"
  bottom: "InnerProduct580"
  bottom: "InnerProduct581"
  bottom: "InnerProduct582"
  bottom: "InnerProduct583"
  bottom: "InnerProduct584"
  bottom: "InnerProduct585"
  bottom: "InnerProduct586"
  bottom: "InnerProduct587"
  bottom: "InnerProduct588"
  bottom: "InnerProduct589"
  bottom: "InnerProduct590"
  bottom: "InnerProduct591"
  bottom: "InnerProduct592"
  bottom: "InnerProduct593"
  bottom: "InnerProduct594"
  bottom: "InnerProduct595"
  bottom: "InnerProduct596"
  bottom: "InnerProduct597"
  bottom: "InnerProduct598"
  bottom: "InnerProduct599"
  bottom: "InnerProduct600"
  bottom: "InnerProduct601"
  bottom: "InnerProduct602"
  bottom: "InnerProduct603"
  bottom: "InnerProduct604"
  bottom: "InnerProduct605"
  bottom: "InnerProduct606"
  bottom: "InnerProduct607"
  bottom: "InnerProduct608"
  bottom: "InnerProduct609"
  bottom: "InnerProduct610"
  bottom: "InnerProduct611"
  bottom: "InnerProduct612"
  bottom: "InnerProduct613"
  bottom: "InnerProduct614"
  bottom: "InnerProduct615"
  bottom: "InnerProduct616"
  bottom: "InnerProduct617"
  bottom: "InnerProduct618"
  bottom: "InnerProduct619"
  bottom: "InnerProduct620"
  bottom: "InnerProduct621"
  bottom: "InnerProduct622"
  bottom: "InnerProduct623"
  bottom: "InnerProduct624"
  bottom: "InnerProduct625"
  bottom: "InnerProduct626"
  bottom: "InnerProduct627"
  bottom: "InnerProduct628"
  bottom: "InnerProduct629"
  bottom: "InnerProduct630"
  bottom: "InnerProduct631"
  bottom: "InnerProduct632"
  bottom: "InnerProduct633"
  bottom: "InnerProduct634"
  bottom: "InnerProduct635"
  bottom: "InnerProduct636"
  bottom: "InnerProduct637"
  bottom: "InnerProduct638"
  bottom: "InnerProduct639"
  bottom: "InnerProduct640"
  bottom: "InnerProduct641"
  bottom: "InnerProduct642"
  bottom: "InnerProduct643"
  bottom: "InnerProduct644"
  bottom: "InnerProduct645"
  bottom: "InnerProduct646"
  bottom: "InnerProduct647"
  bottom: "InnerProduct648"
  bottom: "InnerProduct649"
  bottom: "InnerProduct650"
  bottom: "InnerProduct651"
  bottom: "InnerProduct652"
  bottom: "InnerProduct653"
  bottom: "InnerProduct654"
  bottom: "InnerProduct655"
  bottom: "InnerProduct656"
  bottom: "InnerProduct657"
  bottom: "InnerProduct658"
  bottom: "InnerProduct659"
  bottom: "InnerProduct660"
  bottom: "InnerProduct661"
  bottom: "InnerProduct662"
  bottom: "InnerProduct663"
  bottom: "InnerProduct664"
  bottom: "InnerProduct665"
  bottom: "InnerProduct666"
  bottom: "InnerProduct667"
  bottom: "InnerProduct668"
  bottom: "InnerProduct669"
  bottom: "InnerProduct670"
  bottom: "InnerProduct671"
  bottom: "InnerProduct672"
  bottom: "InnerProduct673"
  bottom: "InnerProduct674"
  bottom: "InnerProduct675"
  bottom: "InnerProduct676"
  bottom: "InnerProduct677"
  bottom: "InnerProduct678"
  bottom: "InnerProduct679"
  bottom: "InnerProduct680"
  bottom: "InnerProduct681"
  bottom: "InnerProduct682"
  bottom: "InnerProduct683"
  bottom: "InnerProduct684"
  bottom: "InnerProduct685"
  bottom: "InnerProduct686"
  bottom: "InnerProduct687"
  bottom: "InnerProduct688"
  bottom: "InnerProduct689"
  bottom: "InnerProduct690"
  bottom: "InnerProduct691"
  bottom: "InnerProduct692"
  bottom: "InnerProduct693"
  bottom: "InnerProduct694"
  bottom: "InnerProduct695"
  bottom: "InnerProduct696"
  bottom: "InnerProduct697"
  bottom: "InnerProduct698"
  bottom: "InnerProduct699"
  bottom: "InnerProduct700"
  bottom: "InnerProduct701"
  bottom: "InnerProduct702"
  bottom: "InnerProduct703"
  bottom: "InnerProduct704"
  bottom: "InnerProduct705"
  bottom: "InnerProduct706"
  bottom: "InnerProduct707"
  bottom: "InnerProduct708"
  bottom: "InnerProduct709"
  bottom: "InnerProduct710"
  bottom: "InnerProduct711"
  bottom: "InnerProduct712"
  bottom: "InnerProduct713"
  bottom: "InnerProduct714"
  bottom: "InnerProduct715"
  bottom: "InnerProduct716"
  bottom: "InnerProduct717"
  bottom: "InnerProduct718"
  bottom: "InnerProduct719"
  bottom: "InnerProduct720"
  bottom: "InnerProduct721"
  bottom: "InnerProduct722"
  bottom: "InnerProduct723"
  bottom: "InnerProduct724"
  bottom: "InnerProduct725"
  bottom: "InnerProduct726"
  bottom: "InnerProduct727"
  bottom: "InnerProduct728"
  bottom: "InnerProduct729"
  bottom: "InnerProduct730"
  bottom: "InnerProduct731"
  bottom: "InnerProduct732"
  bottom: "InnerProduct733"
  bottom: "InnerProduct734"
  bottom: "InnerProduct735"
  bottom: "InnerProduct736"
  bottom: "InnerProduct737"
  bottom: "InnerProduct738"
  bottom: "InnerProduct739"
  bottom: "InnerProduct740"
  bottom: "InnerProduct741"
  bottom: "InnerProduct742"
  bottom: "InnerProduct743"
  bottom: "InnerProduct744"
  bottom: "InnerProduct745"
  bottom: "InnerProduct746"
  bottom: "InnerProduct747"
  bottom: "InnerProduct748"
  bottom: "InnerProduct749"
  bottom: "InnerProduct750"
  bottom: "InnerProduct751"
  bottom: "InnerProduct752"
  bottom: "InnerProduct753"
  bottom: "InnerProduct754"
  bottom: "InnerProduct755"
  bottom: "InnerProduct756"
  bottom: "InnerProduct757"
  bottom: "InnerProduct758"
  bottom: "InnerProduct759"
  bottom: "InnerProduct760"
  bottom: "InnerProduct761"
  bottom: "InnerProduct762"
  bottom: "InnerProduct763"
  bottom: "InnerProduct764"
  bottom: "InnerProduct765"
  bottom: "InnerProduct766"
  bottom: "InnerProduct767"
  bottom: "InnerProduct768"
  bottom: "InnerProduct769"
  bottom: "InnerProduct770"
  bottom: "InnerProduct771"
  bottom: "InnerProduct772"
  bottom: "InnerProduct773"
  bottom: "InnerProduct774"
  bottom: "InnerProduct775"
  bottom: "InnerProduct776"
  bottom: "InnerProduct777"
  bottom: "InnerProduct778"
  bottom: "InnerProduct779"
  bottom: "InnerProduct780"
  bottom: "InnerProduct781"
  bottom: "InnerProduct782"
  bottom: "InnerProduct783"
  bottom: "InnerProduct784"
  bottom: "InnerProduct785"
  bottom: "InnerProduct786"
  bottom: "InnerProduct787"
  bottom: "InnerProduct788"
  bottom: "InnerProduct789"
  bottom: "InnerProduct790"
  bottom: "InnerProduct791"
  bottom: "InnerProduct792"
  bottom: "InnerProduct793"
  bottom: "InnerProduct794"
  bottom: "InnerProduct795"
  bottom: "InnerProduct796"
  bottom: "InnerProduct797"
  bottom: "InnerProduct798"
  bottom: "InnerProduct799"
  bottom: "InnerProduct800"
  bottom: "InnerProduct801"
  bottom: "InnerProduct802"
  bottom: "InnerProduct803"
  bottom: "InnerProduct804"
  bottom: "InnerProduct805"
  bottom: "InnerProduct806"
  bottom: "InnerProduct807"
  bottom: "InnerProduct808"
  bottom: "InnerProduct809"
  bottom: "InnerProduct810"
  bottom: "InnerProduct811"
  bottom: "InnerProduct812"
  bottom: "InnerProduct813"
  bottom: "InnerProduct814"
  bottom: "InnerProduct815"
  bottom: "InnerProduct816"
  bottom: "InnerProduct817"
  bottom: "InnerProduct818"
  bottom: "InnerProduct819"
  bottom: "InnerProduct820"
  bottom: "InnerProduct821"
  bottom: "InnerProduct822"
  bottom: "InnerProduct823"
  bottom: "InnerProduct824"
  bottom: "InnerProduct825"
  bottom: "InnerProduct826"
  bottom: "InnerProduct827"
  bottom: "InnerProduct828"
  bottom: "InnerProduct829"
  bottom: "InnerProduct830"
  bottom: "InnerProduct831"
  bottom: "InnerProduct832"
  bottom: "InnerProduct833"
  bottom: "InnerProduct834"
  bottom: "InnerProduct835"
  bottom: "InnerProduct836"
  bottom: "InnerProduct837"
  bottom: "InnerProduct838"
  bottom: "InnerProduct839"
  bottom: "InnerProduct840"
  bottom: "InnerProduct841"
  bottom: "InnerProduct842"
  bottom: "InnerProduct843"
  bottom: "InnerProduct844"
  bottom: "InnerProduct845"
  bottom: "InnerProduct846"
  bottom: "InnerProduct847"
  bottom: "InnerProduct848"
  bottom: "InnerProduct849"
  bottom: "InnerProduct850"
  bottom: "InnerProduct851"
  bottom: "InnerProduct852"
  bottom: "InnerProduct853"
  bottom: "InnerProduct854"
  bottom: "InnerProduct855"
  bottom: "InnerProduct856"
  bottom: "InnerProduct857"
  bottom: "InnerProduct858"
  bottom: "InnerProduct859"
  bottom: "InnerProduct860"
  bottom: "InnerProduct861"
  bottom: "InnerProduct862"
  bottom: "InnerProduct863"
  bottom: "InnerProduct864"
  bottom: "InnerProduct865"
  bottom: "InnerProduct866"
  bottom: "InnerProduct867"
  bottom: "InnerProduct868"
  bottom: "InnerProduct869"
  bottom: "InnerProduct870"
  bottom: "InnerProduct871"
  bottom: "InnerProduct872"
  bottom: "InnerProduct873"
  bottom: "InnerProduct874"
  bottom: "InnerProduct875"
  bottom: "InnerProduct876"
  bottom: "InnerProduct877"
  bottom: "InnerProduct878"
  bottom: "InnerProduct879"
  bottom: "InnerProduct880"
  bottom: "InnerProduct881"
  bottom: "InnerProduct882"
  bottom: "InnerProduct883"
  bottom: "InnerProduct884"
  bottom: "InnerProduct885"
  bottom: "InnerProduct886"
  bottom: "InnerProduct887"
  bottom: "InnerProduct888"
  bottom: "InnerProduct889"
  bottom: "InnerProduct890"
  bottom: "InnerProduct891"
  bottom: "InnerProduct892"
  bottom: "InnerProduct893"
  bottom: "InnerProduct894"
  bottom: "InnerProduct895"
  bottom: "InnerProduct896"
  bottom: "InnerProduct897"
  bottom: "InnerProduct898"
  bottom: "InnerProduct899"
  bottom: "InnerProduct900"
  bottom: "InnerProduct901"
  bottom: "InnerProduct902"
  bottom: "InnerProduct903"
  bottom: "InnerProduct904"
  bottom: "InnerProduct905"
  bottom: "InnerProduct906"
  bottom: "InnerProduct907"
  bottom: "InnerProduct908"
  bottom: "InnerProduct909"
  bottom: "InnerProduct910"
  bottom: "InnerProduct911"
  bottom: "InnerProduct912"
  bottom: "InnerProduct913"
  bottom: "InnerProduct914"
  bottom: "InnerProduct915"
  bottom: "InnerProduct916"
  bottom: "InnerProduct917"
  bottom: "InnerProduct918"
  bottom: "InnerProduct919"
  bottom: "InnerProduct920"
  bottom: "InnerProduct921"
  bottom: "InnerProduct922"
  bottom: "InnerProduct923"
  bottom: "InnerProduct924"
  bottom: "InnerProduct925"
  bottom: "InnerProduct926"
  bottom: "InnerProduct927"
  bottom: "InnerProduct928"
  bottom: "InnerProduct929"
  bottom: "InnerProduct930"
  bottom: "InnerProduct931"
  bottom: "InnerProduct932"
  bottom: "InnerProduct933"
  bottom: "InnerProduct934"
  bottom: "InnerProduct935"
  bottom: "InnerProduct936"
  bottom: "InnerProduct937"
  bottom: "InnerProduct938"
  bottom: "InnerProduct939"
  bottom: "InnerProduct940"
  bottom: "InnerProduct941"
  bottom: "InnerProduct942"
  bottom: "InnerProduct943"
  bottom: "InnerProduct944"
  bottom: "InnerProduct945"
  bottom: "InnerProduct946"
  bottom: "InnerProduct947"
  bottom: "InnerProduct948"
  bottom: "InnerProduct949"
  bottom: "InnerProduct950"
  bottom: "InnerProduct951"
  bottom: "InnerProduct952"
  bottom: "InnerProduct953"
  bottom: "InnerProduct954"
  bottom: "InnerProduct955"
  bottom: "InnerProduct956"
  bottom: "InnerProduct957"
  bottom: "InnerProduct958"
  bottom: "InnerProduct959"
  bottom: "InnerProduct960"
  bottom: "InnerProduct961"
  bottom: "InnerProduct962"
  bottom: "InnerProduct963"
  bottom: "InnerProduct964"
  bottom: "InnerProduct965"
  bottom: "InnerProduct966"
  bottom: "InnerProduct967"
  bottom: "InnerProduct968"
  bottom: "InnerProduct969"
  bottom: "InnerProduct970"
  bottom: "InnerProduct971"
  bottom: "InnerProduct972"
  bottom: "InnerProduct973"
  bottom: "InnerProduct974"
  bottom: "InnerProduct975"
  bottom: "InnerProduct976"
  bottom: "InnerProduct977"
  bottom: "InnerProduct978"
  bottom: "InnerProduct979"
  bottom: "InnerProduct980"
  bottom: "InnerProduct981"
  bottom: "InnerProduct982"
  bottom: "InnerProduct983"
  bottom: "InnerProduct984"
  bottom: "InnerProduct985"
  bottom: "InnerProduct986"
  bottom: "InnerProduct987"
  bottom: "InnerProduct988"
  bottom: "InnerProduct989"
  bottom: "InnerProduct990"
  bottom: "InnerProduct991"
  bottom: "InnerProduct992"
  bottom: "InnerProduct993"
  bottom: "InnerProduct994"
  bottom: "InnerProduct995"
  bottom: "InnerProduct996"
  bottom: "InnerProduct997"
  bottom: "InnerProduct998"
  bottom: "InnerProduct999"
  bottom: "InnerProduct1000"
  bottom: "InnerProduct1001"
  bottom: "InnerProduct1002"
  bottom: "InnerProduct1003"
  bottom: "InnerProduct1004"
  bottom: "InnerProduct1005"
  bottom: "InnerProduct1006"
  bottom: "InnerProduct1007"
  bottom: "InnerProduct1008"
  bottom: "InnerProduct1009"
  bottom: "InnerProduct1010"
  bottom: "InnerProduct1011"
  bottom: "InnerProduct1012"
  bottom: "InnerProduct1013"
  bottom: "InnerProduct1014"
  bottom: "InnerProduct1015"
  bottom: "InnerProduct1016"
  bottom: "InnerProduct1017"
  bottom: "InnerProduct1018"
  bottom: "InnerProduct1019"
  bottom: "InnerProduct1020"
  bottom: "InnerProduct1021"
  bottom: "InnerProduct1022"
  bottom: "InnerProduct1023"
  bottom: "InnerProduct1024"
  bottom: "InnerProduct1025"
  bottom: "InnerProduct1026"
  bottom: "InnerProduct1027"
  bottom: "InnerProduct1028"
  bottom: "InnerProduct1029"
  bottom: "InnerProduct1030"
  bottom: "InnerProduct1031"
  bottom: "InnerProduct1032"
  bottom: "InnerProduct1033"
  bottom: "InnerProduct1034"
  bottom: "InnerProduct1035"
  bottom: "InnerProduct1036"
  bottom: "InnerProduct1037"
  bottom: "InnerProduct1038"
  bottom: "InnerProduct1039"
  top: "Concat2"
}
layer {
  name: "EuclideanLoss1"
  type: "EuclideanLoss"
  bottom: "Concat2"
  bottom: "data"
  top: "EuclideanLoss1"
  loss_weight: 1.0
}
