name: "Sauron Net"
# note: 
layer {
  name: "data"
  type: "Data"
  top: "data"
  top: "label"
  data_param {
    source: "./abs.h5"
    batch_size: 128
    backend: LMDB
  }
}
layer {
  name: "Slice1"
  type: "Slice"
  bottom: "data"
  top: "Slice1"
  top: "Slice2"
  top: "Slice3"
  top: "Slice4"
  top: "Slice5"
  top: "Slice6"
  top: "Slice7"
  top: "Slice8"
  top: "Slice9"
  top: "Slice10"
  top: "Slice11"
  top: "Slice12"
  top: "Slice13"
  top: "Slice14"
  top: "Slice15"
  top: "Slice16"
  top: "Slice17"
  top: "Slice18"
  top: "Slice19"
  top: "Slice20"
  top: "Slice21"
  top: "Slice22"
  top: "Slice23"
  top: "Slice24"
  top: "Slice25"
  top: "Slice26"
  top: "Slice27"
  top: "Slice28"
  top: "Slice29"
  top: "Slice30"
  top: "Slice31"
  top: "Slice32"
  top: "Slice33"
  top: "Slice34"
  top: "Slice35"
  top: "Slice36"
  top: "Slice37"
  top: "Slice38"
  top: "Slice39"
  top: "Slice40"
  top: "Slice41"
  top: "Slice42"
  top: "Slice43"
  top: "Slice44"
  top: "Slice45"
  top: "Slice46"
  top: "Slice47"
  top: "Slice48"
  top: "Slice49"
  top: "Slice50"
  top: "Slice51"
  top: "Slice52"
  top: "Slice53"
  top: "Slice54"
  top: "Slice55"
  top: "Slice56"
  top: "Slice57"
  top: "Slice58"
  top: "Slice59"
  top: "Slice60"
  top: "Slice61"
  top: "Slice62"
  top: "Slice63"
  top: "Slice64"
  top: "Slice65"
  top: "Slice66"
  top: "Slice67"
  top: "Slice68"
  top: "Slice69"
  top: "Slice70"
  top: "Slice71"
  top: "Slice72"
  top: "Slice73"
  top: "Slice74"
  top: "Slice75"
  top: "Slice76"
  top: "Slice77"
  top: "Slice78"
  top: "Slice79"
  top: "Slice80"
  top: "Slice81"
  top: "Slice82"
  top: "Slice83"
  top: "Slice84"
  top: "Slice85"
  top: "Slice86"
  top: "Slice87"
  top: "Slice88"
  top: "Slice89"
  top: "Slice90"
  top: "Slice91"
  top: "Slice92"
  top: "Slice93"
  top: "Slice94"
  top: "Slice95"
  top: "Slice96"
  top: "Slice97"
  top: "Slice98"
  top: "Slice99"
  top: "Slice100"
  top: "Slice101"
  top: "Slice102"
  top: "Slice103"
  top: "Slice104"
  top: "Slice105"
  top: "Slice106"
  top: "Slice107"
  top: "Slice108"
  top: "Slice109"
  top: "Slice110"
  top: "Slice111"
  top: "Slice112"
  top: "Slice113"
  top: "Slice114"
  top: "Slice115"
  top: "Slice116"
  top: "Slice117"
  top: "Slice118"
  top: "Slice119"
  top: "Slice120"
  top: "Slice121"
  top: "Slice122"
  top: "Slice123"
  top: "Slice124"
  top: "Slice125"
  top: "Slice126"
  top: "Slice127"
  top: "Slice128"
  top: "Slice129"
  top: "Slice130"
  top: "Slice131"
  top: "Slice132"
  top: "Slice133"
  top: "Slice134"
  top: "Slice135"
  top: "Slice136"
  top: "Slice137"
  top: "Slice138"
  top: "Slice139"
  top: "Slice140"
  top: "Slice141"
  top: "Slice142"
  top: "Slice143"
  top: "Slice144"
  top: "Slice145"
  top: "Slice146"
  top: "Slice147"
  top: "Slice148"
  top: "Slice149"
  top: "Slice150"
  top: "Slice151"
  top: "Slice152"
  top: "Slice153"
  top: "Slice154"
  top: "Slice155"
  top: "Slice156"
  top: "Slice157"
  top: "Slice158"
  top: "Slice159"
  top: "Slice160"
  top: "Slice161"
  top: "Slice162"
  top: "Slice163"
  top: "Slice164"
  top: "Slice165"
  top: "Slice166"
  top: "Slice167"
  top: "Slice168"
  top: "Slice169"
  top: "Slice170"
  top: "Slice171"
  top: "Slice172"
  top: "Slice173"
  top: "Slice174"
  top: "Slice175"
  top: "Slice176"
  top: "Slice177"
  top: "Slice178"
  top: "Slice179"
  top: "Slice180"
  top: "Slice181"
  top: "Slice182"
  top: "Slice183"
  top: "Slice184"
  top: "Slice185"
  top: "Slice186"
  top: "Slice187"
  top: "Slice188"
  top: "Slice189"
  top: "Slice190"
  top: "Slice191"
  top: "Slice192"
  top: "Slice193"
  top: "Slice194"
  top: "Slice195"
  top: "Slice196"
  top: "Slice197"
  top: "Slice198"
  top: "Slice199"
  top: "Slice200"
  top: "Slice201"
  top: "Slice202"
  top: "Slice203"
  top: "Slice204"
  top: "Slice205"
  top: "Slice206"
  top: "Slice207"
  top: "Slice208"
  top: "Slice209"
  top: "Slice210"
  top: "Slice211"
  top: "Slice212"
  top: "Slice213"
  top: "Slice214"
  top: "Slice215"
  top: "Slice216"
  top: "Slice217"
  top: "Slice218"
  top: "Slice219"
  top: "Slice220"
  top: "Slice221"
  top: "Slice222"
  top: "Slice223"
  top: "Slice224"
  top: "Slice225"
  top: "Slice226"
  top: "Slice227"
  top: "Slice228"
  top: "Slice229"
  top: "Slice230"
  top: "Slice231"
  top: "Slice232"
  top: "Slice233"
  top: "Slice234"
  top: "Slice235"
  top: "Slice236"
  top: "Slice237"
  top: "Slice238"
  top: "Slice239"
  top: "Slice240"
  top: "Slice241"
  top: "Slice242"
  top: "Slice243"
  top: "Slice244"
  top: "Slice245"
  top: "Slice246"
  top: "Slice247"
  top: "Slice248"
  top: "Slice249"
  top: "Slice250"
  top: "Slice251"
  top: "Slice252"
  top: "Slice253"
  top: "Slice254"
  top: "Slice255"
  top: "Slice256"
  top: "Slice257"
  top: "Slice258"
  top: "Slice259"
  top: "Slice260"
  top: "Slice261"
  top: "Slice262"
  top: "Slice263"
  top: "Slice264"
  top: "Slice265"
  top: "Slice266"
  top: "Slice267"
  top: "Slice268"
  top: "Slice269"
  top: "Slice270"
  top: "Slice271"
  top: "Slice272"
  top: "Slice273"
  top: "Slice274"
  top: "Slice275"
  top: "Slice276"
  top: "Slice277"
  top: "Slice278"
  top: "Slice279"
  top: "Slice280"
  top: "Slice281"
  top: "Slice282"
  top: "Slice283"
  top: "Slice284"
  top: "Slice285"
  top: "Slice286"
  top: "Slice287"
  top: "Slice288"
  top: "Slice289"
  top: "Slice290"
  top: "Slice291"
  top: "Slice292"
  top: "Slice293"
  top: "Slice294"
  top: "Slice295"
  top: "Slice296"
  top: "Slice297"
  top: "Slice298"
  top: "Slice299"
  top: "Slice300"
  top: "Slice301"
  top: "Slice302"
  top: "Slice303"
  top: "Slice304"
  top: "Slice305"
  top: "Slice306"
  top: "Slice307"
  top: "Slice308"
  top: "Slice309"
  top: "Slice310"
  top: "Slice311"
  top: "Slice312"
  top: "Slice313"
  top: "Slice314"
  top: "Slice315"
  top: "Slice316"
  top: "Slice317"
  top: "Slice318"
  top: "Slice319"
  top: "Slice320"
  top: "Slice321"
  top: "Slice322"
  top: "Slice323"
  top: "Slice324"
  top: "Slice325"
  top: "Slice326"
  top: "Slice327"
  top: "Slice328"
  top: "Slice329"
  top: "Slice330"
  top: "Slice331"
  top: "Slice332"
  top: "Slice333"
  top: "Slice334"
  top: "Slice335"
  top: "Slice336"
  top: "Slice337"
  top: "Slice338"
  top: "Slice339"
  top: "Slice340"
  top: "Slice341"
  top: "Slice342"
  top: "Slice343"
  top: "Slice344"
  top: "Slice345"
  top: "Slice346"
  top: "Slice347"
  top: "Slice348"
  top: "Slice349"
  top: "Slice350"
  top: "Slice351"
  top: "Slice352"
  top: "Slice353"
  top: "Slice354"
  top: "Slice355"
  top: "Slice356"
  top: "Slice357"
  top: "Slice358"
  top: "Slice359"
  top: "Slice360"
  top: "Slice361"
  top: "Slice362"
  top: "Slice363"
  top: "Slice364"
  top: "Slice365"
  top: "Slice366"
  top: "Slice367"
  top: "Slice368"
  top: "Slice369"
  top: "Slice370"
  top: "Slice371"
  top: "Slice372"
  top: "Slice373"
  top: "Slice374"
  top: "Slice375"
  top: "Slice376"
  top: "Slice377"
  top: "Slice378"
  top: "Slice379"
  top: "Slice380"
  top: "Slice381"
  top: "Slice382"
  top: "Slice383"
  top: "Slice384"
  top: "Slice385"
  top: "Slice386"
  top: "Slice387"
  top: "Slice388"
  top: "Slice389"
  top: "Slice390"
  top: "Slice391"
  top: "Slice392"
  top: "Slice393"
  top: "Slice394"
  top: "Slice395"
  top: "Slice396"
  top: "Slice397"
  top: "Slice398"
  top: "Slice399"
  top: "Slice400"
  top: "Slice401"
  top: "Slice402"
  top: "Slice403"
  top: "Slice404"
  top: "Slice405"
  top: "Slice406"
  top: "Slice407"
  top: "Slice408"
  top: "Slice409"
  top: "Slice410"
  top: "Slice411"
  top: "Slice412"
  top: "Slice413"
  top: "Slice414"
  top: "Slice415"
  top: "Slice416"
  top: "Slice417"
  top: "Slice418"
  top: "Slice419"
  top: "Slice420"
  top: "Slice421"
  top: "Slice422"
  top: "Slice423"
  top: "Slice424"
  top: "Slice425"
  top: "Slice426"
  top: "Slice427"
  top: "Slice428"
  top: "Slice429"
  top: "Slice430"
  top: "Slice431"
  top: "Slice432"
  top: "Slice433"
  top: "Slice434"
  top: "Slice435"
  top: "Slice436"
  top: "Slice437"
  top: "Slice438"
  top: "Slice439"
  top: "Slice440"
  top: "Slice441"
  top: "Slice442"
  top: "Slice443"
  top: "Slice444"
  top: "Slice445"
  top: "Slice446"
  top: "Slice447"
  top: "Slice448"
  top: "Slice449"
  top: "Slice450"
  top: "Slice451"
  top: "Slice452"
  top: "Slice453"
  top: "Slice454"
  top: "Slice455"
  top: "Slice456"
  top: "Slice457"
  top: "Slice458"
  top: "Slice459"
  top: "Slice460"
  top: "Slice461"
  top: "Slice462"
  top: "Slice463"
  top: "Slice464"
  top: "Slice465"
  top: "Slice466"
  top: "Slice467"
  top: "Slice468"
  top: "Slice469"
  top: "Slice470"
  top: "Slice471"
  top: "Slice472"
  top: "Slice473"
  top: "Slice474"
  top: "Slice475"
  top: "Slice476"
  top: "Slice477"
  top: "Slice478"
  top: "Slice479"
  top: "Slice480"
  top: "Slice481"
  top: "Slice482"
  top: "Slice483"
  top: "Slice484"
  top: "Slice485"
  top: "Slice486"
  top: "Slice487"
  top: "Slice488"
  top: "Slice489"
  top: "Slice490"
  top: "Slice491"
  top: "Slice492"
  top: "Slice493"
  top: "Slice494"
  top: "Slice495"
  top: "Slice496"
  top: "Slice497"
  top: "Slice498"
  top: "Slice499"
  top: "Slice500"
  top: "Slice501"
  top: "Slice502"
  top: "Slice503"
  top: "Slice504"
  top: "Slice505"
  top: "Slice506"
  top: "Slice507"
  top: "Slice508"
  top: "Slice509"
  top: "Slice510"
  top: "Slice511"
  top: "Slice512"
  top: "Slice513"
  top: "Slice514"
  top: "Slice515"
  top: "Slice516"
  top: "Slice517"
  top: "Slice518"
  top: "Slice519"
  top: "Slice520"
  top: "Slice521"
  top: "Slice522"
  top: "Slice523"
  top: "Slice524"
  top: "Slice525"
  top: "Slice526"
  top: "Slice527"
  top: "Slice528"
  top: "Slice529"
  top: "Slice530"
  top: "Slice531"
  top: "Slice532"
  top: "Slice533"
  top: "Slice534"
  top: "Slice535"
  top: "Slice536"
  top: "Slice537"
  top: "Slice538"
  top: "Slice539"
  top: "Slice540"
  top: "Slice541"
  top: "Slice542"
  top: "Slice543"
  top: "Slice544"
  top: "Slice545"
  top: "Slice546"
  top: "Slice547"
  top: "Slice548"
  top: "Slice549"
  top: "Slice550"
  top: "Slice551"
  top: "Slice552"
  top: "Slice553"
  top: "Slice554"
  top: "Slice555"
  top: "Slice556"
  top: "Slice557"
  top: "Slice558"
  top: "Slice559"
  top: "Slice560"
  top: "Slice561"
  top: "Slice562"
  top: "Slice563"
  top: "Slice564"
  top: "Slice565"
  top: "Slice566"
  top: "Slice567"
  top: "Slice568"
  top: "Slice569"
  top: "Slice570"
  top: "Slice571"
  top: "Slice572"
  top: "Slice573"
  top: "Slice574"
  top: "Slice575"
  top: "Slice576"
  top: "Slice577"
  top: "Slice578"
  top: "Slice579"
  top: "Slice580"
  top: "Slice581"
  top: "Slice582"
  top: "Slice583"
  top: "Slice584"
  top: "Slice585"
  top: "Slice586"
  top: "Slice587"
  top: "Slice588"
  top: "Slice589"
  top: "Slice590"
  top: "Slice591"
  top: "Slice592"
  top: "Slice593"
  top: "Slice594"
  top: "Slice595"
  top: "Slice596"
  top: "Slice597"
  top: "Slice598"
  top: "Slice599"
  top: "Slice600"
  top: "Slice601"
  top: "Slice602"
  top: "Slice603"
  top: "Slice604"
  top: "Slice605"
  top: "Slice606"
  top: "Slice607"
  top: "Slice608"
  top: "Slice609"
  top: "Slice610"
  top: "Slice611"
  top: "Slice612"
  top: "Slice613"
  top: "Slice614"
  top: "Slice615"
  top: "Slice616"
  top: "Slice617"
  top: "Slice618"
  top: "Slice619"
  top: "Slice620"
  top: "Slice621"
  top: "Slice622"
  top: "Slice623"
  top: "Slice624"
  top: "Slice625"
  top: "Slice626"
  top: "Slice627"
  top: "Slice628"
  top: "Slice629"
  top: "Slice630"
  top: "Slice631"
  top: "Slice632"
  top: "Slice633"
  top: "Slice634"
  top: "Slice635"
  top: "Slice636"
  top: "Slice637"
  top: "Slice638"
  top: "Slice639"
  top: "Slice640"
  top: "Slice641"
  top: "Slice642"
  top: "Slice643"
  top: "Slice644"
  top: "Slice645"
  top: "Slice646"
  top: "Slice647"
  top: "Slice648"
  top: "Slice649"
  top: "Slice650"
  top: "Slice651"
  top: "Slice652"
  top: "Slice653"
  top: "Slice654"
  top: "Slice655"
  top: "Slice656"
  top: "Slice657"
  top: "Slice658"
  top: "Slice659"
  top: "Slice660"
  top: "Slice661"
  top: "Slice662"
  top: "Slice663"
  top: "Slice664"
  top: "Slice665"
  top: "Slice666"
  top: "Slice667"
  top: "Slice668"
  top: "Slice669"
  top: "Slice670"
  top: "Slice671"
  top: "Slice672"
  top: "Slice673"
  top: "Slice674"
  top: "Slice675"
  top: "Slice676"
  top: "Slice677"
  top: "Slice678"
  top: "Slice679"
  top: "Slice680"
  top: "Slice681"
  top: "Slice682"
  top: "Slice683"
  top: "Slice684"
  top: "Slice685"
  top: "Slice686"
  top: "Slice687"
  top: "Slice688"
  top: "Slice689"
  top: "Slice690"
  top: "Slice691"
  top: "Slice692"
  top: "Slice693"
  top: "Slice694"
  top: "Slice695"
  top: "Slice696"
  top: "Slice697"
  top: "Slice698"
  top: "Slice699"
  top: "Slice700"
  top: "Slice701"
  top: "Slice702"
  top: "Slice703"
  top: "Slice704"
  top: "Slice705"
  top: "Slice706"
  top: "Slice707"
  top: "Slice708"
  top: "Slice709"
  top: "Slice710"
  top: "Slice711"
  top: "Slice712"
  top: "Slice713"
  top: "Slice714"
  top: "Slice715"
  top: "Slice716"
  top: "Slice717"
  top: "Slice718"
  top: "Slice719"
  top: "Slice720"
  top: "Slice721"
  top: "Slice722"
  top: "Slice723"
  top: "Slice724"
  top: "Slice725"
  top: "Slice726"
  top: "Slice727"
  top: "Slice728"
  top: "Slice729"
  top: "Slice730"
  top: "Slice731"
  top: "Slice732"
  top: "Slice733"
  top: "Slice734"
  top: "Slice735"
  top: "Slice736"
  top: "Slice737"
  top: "Slice738"
  top: "Slice739"
  top: "Slice740"
  top: "Slice741"
  top: "Slice742"
  top: "Slice743"
  top: "Slice744"
  top: "Slice745"
  top: "Slice746"
  top: "Slice747"
  top: "Slice748"
  top: "Slice749"
  top: "Slice750"
  top: "Slice751"
  top: "Slice752"
  top: "Slice753"
  top: "Slice754"
  top: "Slice755"
  top: "Slice756"
  top: "Slice757"
  top: "Slice758"
  top: "Slice759"
  top: "Slice760"
  top: "Slice761"
  top: "Slice762"
  top: "Slice763"
  top: "Slice764"
  top: "Slice765"
  top: "Slice766"
  top: "Slice767"
  top: "Slice768"
  top: "Slice769"
  top: "Slice770"
  top: "Slice771"
  top: "Slice772"
  top: "Slice773"
  top: "Slice774"
  top: "Slice775"
  top: "Slice776"
  top: "Slice777"
  top: "Slice778"
  top: "Slice779"
  top: "Slice780"
  top: "Slice781"
  top: "Slice782"
  top: "Slice783"
  top: "Slice784"
  top: "Slice785"
  top: "Slice786"
  top: "Slice787"
  top: "Slice788"
  top: "Slice789"
  top: "Slice790"
  top: "Slice791"
  top: "Slice792"
  top: "Slice793"
  top: "Slice794"
  top: "Slice795"
  top: "Slice796"
  top: "Slice797"
  top: "Slice798"
  top: "Slice799"
  top: "Slice800"
  top: "Slice801"
  top: "Slice802"
  top: "Slice803"
  top: "Slice804"
  top: "Slice805"
  top: "Slice806"
  top: "Slice807"
  top: "Slice808"
  top: "Slice809"
  top: "Slice810"
  top: "Slice811"
  top: "Slice812"
  top: "Slice813"
  top: "Slice814"
  top: "Slice815"
  top: "Slice816"
  top: "Slice817"
  top: "Slice818"
  top: "Slice819"
  top: "Slice820"
  top: "Slice821"
  top: "Slice822"
  top: "Slice823"
  top: "Slice824"
  top: "Slice825"
  top: "Slice826"
  top: "Slice827"
  top: "Slice828"
  top: "Slice829"
  top: "Slice830"
  top: "Slice831"
  top: "Slice832"
  top: "Slice833"
  top: "Slice834"
  top: "Slice835"
  top: "Slice836"
  top: "Slice837"
  top: "Slice838"
  top: "Slice839"
  top: "Slice840"
  top: "Slice841"
  top: "Slice842"
  top: "Slice843"
  top: "Slice844"
  top: "Slice845"
  top: "Slice846"
  top: "Slice847"
  top: "Slice848"
  top: "Slice849"
  top: "Slice850"
  top: "Slice851"
  top: "Slice852"
  top: "Slice853"
  top: "Slice854"
  top: "Slice855"
  top: "Slice856"
  top: "Slice857"
  top: "Slice858"
  top: "Slice859"
  top: "Slice860"
  top: "Slice861"
  top: "Slice862"
  top: "Slice863"
  top: "Slice864"
  top: "Slice865"
  top: "Slice866"
  top: "Slice867"
  top: "Slice868"
  top: "Slice869"
  top: "Slice870"
  top: "Slice871"
  top: "Slice872"
  top: "Slice873"
  top: "Slice874"
  top: "Slice875"
  top: "Slice876"
  top: "Slice877"
  top: "Slice878"
  top: "Slice879"
  top: "Slice880"
  top: "Slice881"
  top: "Slice882"
  top: "Slice883"
  top: "Slice884"
  top: "Slice885"
  top: "Slice886"
  top: "Slice887"
  top: "Slice888"
  top: "Slice889"
  top: "Slice890"
  top: "Slice891"
  top: "Slice892"
  top: "Slice893"
  top: "Slice894"
  top: "Slice895"
  top: "Slice896"
  top: "Slice897"
  top: "Slice898"
  top: "Slice899"
  top: "Slice900"
  top: "Slice901"
  top: "Slice902"
  top: "Slice903"
  top: "Slice904"
  top: "Slice905"
  top: "Slice906"
  top: "Slice907"
  top: "Slice908"
  top: "Slice909"
  top: "Slice910"
  top: "Slice911"
  top: "Slice912"
  top: "Slice913"
  top: "Slice914"
  top: "Slice915"
  top: "Slice916"
  top: "Slice917"
  top: "Slice918"
  top: "Slice919"
  top: "Slice920"
  top: "Slice921"
  top: "Slice922"
  top: "Slice923"
  top: "Slice924"
  top: "Slice925"
  top: "Slice926"
  top: "Slice927"
  top: "Slice928"
  top: "Slice929"
  top: "Slice930"
  top: "Slice931"
  top: "Slice932"
  top: "Slice933"
  top: "Slice934"
  top: "Slice935"
  top: "Slice936"
  top: "Slice937"
  top: "Slice938"
  top: "Slice939"
  top: "Slice940"
  top: "Slice941"
  top: "Slice942"
  top: "Slice943"
  top: "Slice944"
  top: "Slice945"
  top: "Slice946"
  top: "Slice947"
  top: "Slice948"
  top: "Slice949"
  top: "Slice950"
  top: "Slice951"
  top: "Slice952"
  top: "Slice953"
  top: "Slice954"
  top: "Slice955"
  top: "Slice956"
  top: "Slice957"
  top: "Slice958"
  top: "Slice959"
  top: "Slice960"
  top: "Slice961"
  top: "Slice962"
  top: "Slice963"
  top: "Slice964"
  top: "Slice965"
  top: "Slice966"
  top: "Slice967"
  top: "Slice968"
  top: "Slice969"
  top: "Slice970"
  top: "Slice971"
  top: "Slice972"
  top: "Slice973"
  top: "Slice974"
  top: "Slice975"
  top: "Slice976"
  top: "Slice977"
  top: "Slice978"
  top: "Slice979"
  top: "Slice980"
  top: "Slice981"
  top: "Slice982"
  top: "Slice983"
  top: "Slice984"
  top: "Slice985"
  top: "Slice986"
  top: "Slice987"
  top: "Slice988"
  top: "Slice989"
  top: "Slice990"
  top: "Slice991"
  top: "Slice992"
  top: "Slice993"
  top: "Slice994"
  top: "Slice995"
  top: "Slice996"
  top: "Slice997"
  top: "Slice998"
  top: "Slice999"
  top: "Slice1000"
  slice_param {
    slice_point: 900
    slice_point: 1800
    slice_point: 2700
    slice_point: 3600
    slice_point: 4500
    slice_point: 5400
    slice_point: 6300
    slice_point: 7200
    slice_point: 8100
    slice_point: 9000
    slice_point: 9900
    slice_point: 10800
    slice_point: 11700
    slice_point: 12600
    slice_point: 13500
    slice_point: 14400
    slice_point: 15300
    slice_point: 16200
    slice_point: 17100
    slice_point: 18000
    slice_point: 18900
    slice_point: 19800
    slice_point: 20700
    slice_point: 21600
    slice_point: 22500
    slice_point: 23400
    slice_point: 24300
    slice_point: 25200
    slice_point: 26100
    slice_point: 27000
    slice_point: 27900
    slice_point: 28800
    slice_point: 29700
    slice_point: 30600
    slice_point: 31500
    slice_point: 32400
    slice_point: 33300
    slice_point: 34200
    slice_point: 35100
    slice_point: 36000
    slice_point: 36900
    slice_point: 37800
    slice_point: 38700
    slice_point: 39600
    slice_point: 40500
    slice_point: 41400
    slice_point: 42300
    slice_point: 43200
    slice_point: 44100
    slice_point: 45000
    slice_point: 45900
    slice_point: 46800
    slice_point: 47700
    slice_point: 48600
    slice_point: 49500
    slice_point: 50400
    slice_point: 51300
    slice_point: 52200
    slice_point: 53100
    slice_point: 54000
    slice_point: 54900
    slice_point: 55800
    slice_point: 56700
    slice_point: 57600
    slice_point: 58500
    slice_point: 59400
    slice_point: 60300
    slice_point: 61200
    slice_point: 62100
    slice_point: 63000
    slice_point: 63900
    slice_point: 64800
    slice_point: 65700
    slice_point: 66600
    slice_point: 67500
    slice_point: 68400
    slice_point: 69300
    slice_point: 70200
    slice_point: 71100
    slice_point: 72000
    slice_point: 72900
    slice_point: 73800
    slice_point: 74700
    slice_point: 75600
    slice_point: 76500
    slice_point: 77400
    slice_point: 78300
    slice_point: 79200
    slice_point: 80100
    slice_point: 81000
    slice_point: 81900
    slice_point: 82800
    slice_point: 83700
    slice_point: 84600
    slice_point: 85500
    slice_point: 86400
    slice_point: 87300
    slice_point: 88200
    slice_point: 89100
    slice_point: 90000
    slice_point: 90900
    slice_point: 91800
    slice_point: 92700
    slice_point: 93600
    slice_point: 94500
    slice_point: 95400
    slice_point: 96300
    slice_point: 97200
    slice_point: 98100
    slice_point: 99000
    slice_point: 99900
    slice_point: 100800
    slice_point: 101700
    slice_point: 102600
    slice_point: 103500
    slice_point: 104400
    slice_point: 105300
    slice_point: 106200
    slice_point: 107100
    slice_point: 108000
    slice_point: 108900
    slice_point: 109800
    slice_point: 110700
    slice_point: 111600
    slice_point: 112500
    slice_point: 113400
    slice_point: 114300
    slice_point: 115200
    slice_point: 116100
    slice_point: 117000
    slice_point: 117900
    slice_point: 118800
    slice_point: 119700
    slice_point: 120600
    slice_point: 121500
    slice_point: 122400
    slice_point: 123300
    slice_point: 124200
    slice_point: 125100
    slice_point: 126000
    slice_point: 126900
    slice_point: 127800
    slice_point: 128700
    slice_point: 129600
    slice_point: 130500
    slice_point: 131400
    slice_point: 132300
    slice_point: 133200
    slice_point: 134100
    slice_point: 135000
    slice_point: 135900
    slice_point: 136800
    slice_point: 137700
    slice_point: 138600
    slice_point: 139500
    slice_point: 140400
    slice_point: 141300
    slice_point: 142200
    slice_point: 143100
    slice_point: 144000
    slice_point: 144900
    slice_point: 145800
    slice_point: 146700
    slice_point: 147600
    slice_point: 148500
    slice_point: 149400
    slice_point: 150300
    slice_point: 151200
    slice_point: 152100
    slice_point: 153000
    slice_point: 153900
    slice_point: 154800
    slice_point: 155700
    slice_point: 156600
    slice_point: 157500
    slice_point: 158400
    slice_point: 159300
    slice_point: 160200
    slice_point: 161100
    slice_point: 162000
    slice_point: 162900
    slice_point: 163800
    slice_point: 164700
    slice_point: 165600
    slice_point: 166500
    slice_point: 167400
    slice_point: 168300
    slice_point: 169200
    slice_point: 170100
    slice_point: 171000
    slice_point: 171900
    slice_point: 172800
    slice_point: 173700
    slice_point: 174600
    slice_point: 175500
    slice_point: 176400
    slice_point: 177300
    slice_point: 178200
    slice_point: 179100
    slice_point: 180000
    slice_point: 180900
    slice_point: 181800
    slice_point: 182700
    slice_point: 183600
    slice_point: 184500
    slice_point: 185400
    slice_point: 186300
    slice_point: 187200
    slice_point: 188100
    slice_point: 189000
    slice_point: 189900
    slice_point: 190800
    slice_point: 191700
    slice_point: 192600
    slice_point: 193500
    slice_point: 194400
    slice_point: 195300
    slice_point: 196200
    slice_point: 197100
    slice_point: 198000
    slice_point: 198900
    slice_point: 199800
    slice_point: 200700
    slice_point: 201600
    slice_point: 202500
    slice_point: 203400
    slice_point: 204300
    slice_point: 205200
    slice_point: 206100
    slice_point: 207000
    slice_point: 207900
    slice_point: 208800
    slice_point: 209700
    slice_point: 210600
    slice_point: 211500
    slice_point: 212400
    slice_point: 213300
    slice_point: 214200
    slice_point: 215100
    slice_point: 216000
    slice_point: 216900
    slice_point: 217800
    slice_point: 218700
    slice_point: 219600
    slice_point: 220500
    slice_point: 221400
    slice_point: 222300
    slice_point: 223200
    slice_point: 224100
    slice_point: 225000
    slice_point: 225900
    slice_point: 226800
    slice_point: 227700
    slice_point: 228600
    slice_point: 229500
    slice_point: 230400
    slice_point: 231300
    slice_point: 232200
    slice_point: 233100
    slice_point: 234000
    slice_point: 234900
    slice_point: 235800
    slice_point: 236700
    slice_point: 237600
    slice_point: 238500
    slice_point: 239400
    slice_point: 240300
    slice_point: 241200
    slice_point: 242100
    slice_point: 243000
    slice_point: 243900
    slice_point: 244800
    slice_point: 245700
    slice_point: 246600
    slice_point: 247500
    slice_point: 248400
    slice_point: 249300
    slice_point: 250200
    slice_point: 251100
    slice_point: 252000
    slice_point: 252900
    slice_point: 253800
    slice_point: 254700
    slice_point: 255600
    slice_point: 256500
    slice_point: 257400
    slice_point: 258300
    slice_point: 259200
    slice_point: 260100
    slice_point: 261000
    slice_point: 261900
    slice_point: 262800
    slice_point: 263700
    slice_point: 264600
    slice_point: 265500
    slice_point: 266400
    slice_point: 267300
    slice_point: 268200
    slice_point: 269100
    slice_point: 270000
    slice_point: 270900
    slice_point: 271800
    slice_point: 272700
    slice_point: 273600
    slice_point: 274500
    slice_point: 275400
    slice_point: 276300
    slice_point: 277200
    slice_point: 278100
    slice_point: 279000
    slice_point: 279900
    slice_point: 280800
    slice_point: 281700
    slice_point: 282600
    slice_point: 283500
    slice_point: 284400
    slice_point: 285300
    slice_point: 286200
    slice_point: 287100
    slice_point: 288000
    slice_point: 288900
    slice_point: 289800
    slice_point: 290700
    slice_point: 291600
    slice_point: 292500
    slice_point: 293400
    slice_point: 294300
    slice_point: 295200
    slice_point: 296100
    slice_point: 297000
    slice_point: 297900
    slice_point: 298800
    slice_point: 299700
    slice_point: 300600
    slice_point: 301500
    slice_point: 302400
    slice_point: 303300
    slice_point: 304200
    slice_point: 305100
    slice_point: 306000
    slice_point: 306900
    slice_point: 307800
    slice_point: 308700
    slice_point: 309600
    slice_point: 310500
    slice_point: 311400
    slice_point: 312300
    slice_point: 313200
    slice_point: 314100
    slice_point: 315000
    slice_point: 315900
    slice_point: 316800
    slice_point: 317700
    slice_point: 318600
    slice_point: 319500
    slice_point: 320400
    slice_point: 321300
    slice_point: 322200
    slice_point: 323100
    slice_point: 324000
    slice_point: 324900
    slice_point: 325800
    slice_point: 326700
    slice_point: 327600
    slice_point: 328500
    slice_point: 329400
    slice_point: 330300
    slice_point: 331200
    slice_point: 332100
    slice_point: 333000
    slice_point: 333900
    slice_point: 334800
    slice_point: 335700
    slice_point: 336600
    slice_point: 337500
    slice_point: 338400
    slice_point: 339300
    slice_point: 340200
    slice_point: 341100
    slice_point: 342000
    slice_point: 342900
    slice_point: 343800
    slice_point: 344700
    slice_point: 345600
    slice_point: 346500
    slice_point: 347400
    slice_point: 348300
    slice_point: 349200
    slice_point: 350100
    slice_point: 351000
    slice_point: 351900
    slice_point: 352800
    slice_point: 353700
    slice_point: 354600
    slice_point: 355500
    slice_point: 356400
    slice_point: 357300
    slice_point: 358200
    slice_point: 359100
    slice_point: 360000
    slice_point: 360900
    slice_point: 361800
    slice_point: 362700
    slice_point: 363600
    slice_point: 364500
    slice_point: 365400
    slice_point: 366300
    slice_point: 367200
    slice_point: 368100
    slice_point: 369000
    slice_point: 369900
    slice_point: 370800
    slice_point: 371700
    slice_point: 372600
    slice_point: 373500
    slice_point: 374400
    slice_point: 375300
    slice_point: 376200
    slice_point: 377100
    slice_point: 378000
    slice_point: 378900
    slice_point: 379800
    slice_point: 380700
    slice_point: 381600
    slice_point: 382500
    slice_point: 383400
    slice_point: 384300
    slice_point: 385200
    slice_point: 386100
    slice_point: 387000
    slice_point: 387900
    slice_point: 388800
    slice_point: 389700
    slice_point: 390600
    slice_point: 391500
    slice_point: 392400
    slice_point: 393300
    slice_point: 394200
    slice_point: 395100
    slice_point: 396000
    slice_point: 396900
    slice_point: 397800
    slice_point: 398700
    slice_point: 399600
    slice_point: 400500
    slice_point: 401400
    slice_point: 402300
    slice_point: 403200
    slice_point: 404100
    slice_point: 405000
    slice_point: 405900
    slice_point: 406800
    slice_point: 407700
    slice_point: 408600
    slice_point: 409500
    slice_point: 410400
    slice_point: 411300
    slice_point: 412200
    slice_point: 413100
    slice_point: 414000
    slice_point: 414900
    slice_point: 415800
    slice_point: 416700
    slice_point: 417600
    slice_point: 418500
    slice_point: 419400
    slice_point: 420300
    slice_point: 421200
    slice_point: 422100
    slice_point: 423000
    slice_point: 423900
    slice_point: 424800
    slice_point: 425700
    slice_point: 426600
    slice_point: 427500
    slice_point: 428400
    slice_point: 429300
    slice_point: 430200
    slice_point: 431100
    slice_point: 432000
    slice_point: 432900
    slice_point: 433800
    slice_point: 434700
    slice_point: 435600
    slice_point: 436500
    slice_point: 437400
    slice_point: 438300
    slice_point: 439200
    slice_point: 440100
    slice_point: 441000
    slice_point: 441900
    slice_point: 442800
    slice_point: 443700
    slice_point: 444600
    slice_point: 445500
    slice_point: 446400
    slice_point: 447300
    slice_point: 448200
    slice_point: 449100
    slice_point: 450000
    slice_point: 450900
    slice_point: 451800
    slice_point: 452700
    slice_point: 453600
    slice_point: 454500
    slice_point: 455400
    slice_point: 456300
    slice_point: 457200
    slice_point: 458100
    slice_point: 459000
    slice_point: 459900
    slice_point: 460800
    slice_point: 461700
    slice_point: 462600
    slice_point: 463500
    slice_point: 464400
    slice_point: 465300
    slice_point: 466200
    slice_point: 467100
    slice_point: 468000
    slice_point: 468900
    slice_point: 469800
    slice_point: 470700
    slice_point: 471600
    slice_point: 472500
    slice_point: 473400
    slice_point: 474300
    slice_point: 475200
    slice_point: 476100
    slice_point: 477000
    slice_point: 477900
    slice_point: 478800
    slice_point: 479700
    slice_point: 480600
    slice_point: 481500
    slice_point: 482400
    slice_point: 483300
    slice_point: 484200
    slice_point: 485100
    slice_point: 486000
    slice_point: 486900
    slice_point: 487800
    slice_point: 488700
    slice_point: 489600
    slice_point: 490500
    slice_point: 491400
    slice_point: 492300
    slice_point: 493200
    slice_point: 494100
    slice_point: 495000
    slice_point: 495900
    slice_point: 496800
    slice_point: 497700
    slice_point: 498600
    slice_point: 499500
    slice_point: 500400
    slice_point: 501300
    slice_point: 502200
    slice_point: 503100
    slice_point: 504000
    slice_point: 504900
    slice_point: 505800
    slice_point: 506700
    slice_point: 507600
    slice_point: 508500
    slice_point: 509400
    slice_point: 510300
    slice_point: 511200
    slice_point: 512100
    slice_point: 513000
    slice_point: 513900
    slice_point: 514800
    slice_point: 515700
    slice_point: 516600
    slice_point: 517500
    slice_point: 518400
    slice_point: 519300
    slice_point: 520200
    slice_point: 521100
    slice_point: 522000
    slice_point: 522900
    slice_point: 523800
    slice_point: 524700
    slice_point: 525600
    slice_point: 526500
    slice_point: 527400
    slice_point: 528300
    slice_point: 529200
    slice_point: 530100
    slice_point: 531000
    slice_point: 531900
    slice_point: 532800
    slice_point: 533700
    slice_point: 534600
    slice_point: 535500
    slice_point: 536400
    slice_point: 537300
    slice_point: 538200
    slice_point: 539100
    slice_point: 540000
    slice_point: 540900
    slice_point: 541800
    slice_point: 542700
    slice_point: 543600
    slice_point: 544500
    slice_point: 545400
    slice_point: 546300
    slice_point: 547200
    slice_point: 548100
    slice_point: 549000
    slice_point: 549900
    slice_point: 550800
    slice_point: 551700
    slice_point: 552600
    slice_point: 553500
    slice_point: 554400
    slice_point: 555300
    slice_point: 556200
    slice_point: 557100
    slice_point: 558000
    slice_point: 558900
    slice_point: 559800
    slice_point: 560700
    slice_point: 561600
    slice_point: 562500
    slice_point: 563400
    slice_point: 564300
    slice_point: 565200
    slice_point: 566100
    slice_point: 567000
    slice_point: 567900
    slice_point: 568800
    slice_point: 569700
    slice_point: 570600
    slice_point: 571500
    slice_point: 572400
    slice_point: 573300
    slice_point: 574200
    slice_point: 575100
    slice_point: 576000
    slice_point: 576900
    slice_point: 577800
    slice_point: 578700
    slice_point: 579600
    slice_point: 580500
    slice_point: 581400
    slice_point: 582300
    slice_point: 583200
    slice_point: 584100
    slice_point: 585000
    slice_point: 585900
    slice_point: 586800
    slice_point: 587700
    slice_point: 588600
    slice_point: 589500
    slice_point: 590400
    slice_point: 591300
    slice_point: 592200
    slice_point: 593100
    slice_point: 594000
    slice_point: 594900
    slice_point: 595800
    slice_point: 596700
    slice_point: 597600
    slice_point: 598500
    slice_point: 599400
    slice_point: 600300
    slice_point: 601200
    slice_point: 602100
    slice_point: 603000
    slice_point: 603900
    slice_point: 604800
    slice_point: 605700
    slice_point: 606600
    slice_point: 607500
    slice_point: 608400
    slice_point: 609300
    slice_point: 610200
    slice_point: 611100
    slice_point: 612000
    slice_point: 612900
    slice_point: 613800
    slice_point: 614700
    slice_point: 615600
    slice_point: 616500
    slice_point: 617400
    slice_point: 618300
    slice_point: 619200
    slice_point: 620100
    slice_point: 621000
    slice_point: 621900
    slice_point: 622800
    slice_point: 623700
    slice_point: 624600
    slice_point: 625500
    slice_point: 626400
    slice_point: 627300
    slice_point: 628200
    slice_point: 629100
    slice_point: 630000
    slice_point: 630900
    slice_point: 631800
    slice_point: 632700
    slice_point: 633600
    slice_point: 634500
    slice_point: 635400
    slice_point: 636300
    slice_point: 637200
    slice_point: 638100
    slice_point: 639000
    slice_point: 639900
    slice_point: 640800
    slice_point: 641700
    slice_point: 642600
    slice_point: 643500
    slice_point: 644400
    slice_point: 645300
    slice_point: 646200
    slice_point: 647100
    slice_point: 648000
    slice_point: 648900
    slice_point: 649800
    slice_point: 650700
    slice_point: 651600
    slice_point: 652500
    slice_point: 653400
    slice_point: 654300
    slice_point: 655200
    slice_point: 656100
    slice_point: 657000
    slice_point: 657900
    slice_point: 658800
    slice_point: 659700
    slice_point: 660600
    slice_point: 661500
    slice_point: 662400
    slice_point: 663300
    slice_point: 664200
    slice_point: 665100
    slice_point: 666000
    slice_point: 666900
    slice_point: 667800
    slice_point: 668700
    slice_point: 669600
    slice_point: 670500
    slice_point: 671400
    slice_point: 672300
    slice_point: 673200
    slice_point: 674100
    slice_point: 675000
    slice_point: 675900
    slice_point: 676800
    slice_point: 677700
    slice_point: 678600
    slice_point: 679500
    slice_point: 680400
    slice_point: 681300
    slice_point: 682200
    slice_point: 683100
    slice_point: 684000
    slice_point: 684900
    slice_point: 685800
    slice_point: 686700
    slice_point: 687600
    slice_point: 688500
    slice_point: 689400
    slice_point: 690300
    slice_point: 691200
    slice_point: 692100
    slice_point: 693000
    slice_point: 693900
    slice_point: 694800
    slice_point: 695700
    slice_point: 696600
    slice_point: 697500
    slice_point: 698400
    slice_point: 699300
    slice_point: 700200
    slice_point: 701100
    slice_point: 702000
    slice_point: 702900
    slice_point: 703800
    slice_point: 704700
    slice_point: 705600
    slice_point: 706500
    slice_point: 707400
    slice_point: 708300
    slice_point: 709200
    slice_point: 710100
    slice_point: 711000
    slice_point: 711900
    slice_point: 712800
    slice_point: 713700
    slice_point: 714600
    slice_point: 715500
    slice_point: 716400
    slice_point: 717300
    slice_point: 718200
    slice_point: 719100
    slice_point: 720000
    slice_point: 720900
    slice_point: 721800
    slice_point: 722700
    slice_point: 723600
    slice_point: 724500
    slice_point: 725400
    slice_point: 726300
    slice_point: 727200
    slice_point: 728100
    slice_point: 729000
    slice_point: 729900
    slice_point: 730800
    slice_point: 731700
    slice_point: 732600
    slice_point: 733500
    slice_point: 734400
    slice_point: 735300
    slice_point: 736200
    slice_point: 737100
    slice_point: 738000
    slice_point: 738900
    slice_point: 739800
    slice_point: 740700
    slice_point: 741600
    slice_point: 742500
    slice_point: 743400
    slice_point: 744300
    slice_point: 745200
    slice_point: 746100
    slice_point: 747000
    slice_point: 747900
    slice_point: 748800
    slice_point: 749700
    slice_point: 750600
    slice_point: 751500
    slice_point: 752400
    slice_point: 753300
    slice_point: 754200
    slice_point: 755100
    slice_point: 756000
    slice_point: 756900
    slice_point: 757800
    slice_point: 758700
    slice_point: 759600
    slice_point: 760500
    slice_point: 761400
    slice_point: 762300
    slice_point: 763200
    slice_point: 764100
    slice_point: 765000
    slice_point: 765900
    slice_point: 766800
    slice_point: 767700
    slice_point: 768600
    slice_point: 769500
    slice_point: 770400
    slice_point: 771300
    slice_point: 772200
    slice_point: 773100
    slice_point: 774000
    slice_point: 774900
    slice_point: 775800
    slice_point: 776700
    slice_point: 777600
    slice_point: 778500
    slice_point: 779400
    slice_point: 780300
    slice_point: 781200
    slice_point: 782100
    slice_point: 783000
    slice_point: 783900
    slice_point: 784800
    slice_point: 785700
    slice_point: 786600
    slice_point: 787500
    slice_point: 788400
    slice_point: 789300
    slice_point: 790200
    slice_point: 791100
    slice_point: 792000
    slice_point: 792900
    slice_point: 793800
    slice_point: 794700
    slice_point: 795600
    slice_point: 796500
    slice_point: 797400
    slice_point: 798300
    slice_point: 799200
    slice_point: 800100
    slice_point: 801000
    slice_point: 801900
    slice_point: 802800
    slice_point: 803700
    slice_point: 804600
    slice_point: 805500
    slice_point: 806400
    slice_point: 807300
    slice_point: 808200
    slice_point: 809100
    slice_point: 810000
    slice_point: 810900
    slice_point: 811800
    slice_point: 812700
    slice_point: 813600
    slice_point: 814500
    slice_point: 815400
    slice_point: 816300
    slice_point: 817200
    slice_point: 818100
    slice_point: 819000
    slice_point: 819900
    slice_point: 820800
    slice_point: 821700
    slice_point: 822600
    slice_point: 823500
    slice_point: 824400
    slice_point: 825300
    slice_point: 826200
    slice_point: 827100
    slice_point: 828000
    slice_point: 828900
    slice_point: 829800
    slice_point: 830700
    slice_point: 831600
    slice_point: 832500
    slice_point: 833400
    slice_point: 834300
    slice_point: 835200
    slice_point: 836100
    slice_point: 837000
    slice_point: 837900
    slice_point: 838800
    slice_point: 839700
    slice_point: 840600
    slice_point: 841500
    slice_point: 842400
    slice_point: 843300
    slice_point: 844200
    slice_point: 845100
    slice_point: 846000
    slice_point: 846900
    slice_point: 847800
    slice_point: 848700
    slice_point: 849600
    slice_point: 850500
    slice_point: 851400
    slice_point: 852300
    slice_point: 853200
    slice_point: 854100
    slice_point: 855000
    slice_point: 855900
    slice_point: 856800
    slice_point: 857700
    slice_point: 858600
    slice_point: 859500
    slice_point: 860400
    slice_point: 861300
    slice_point: 862200
    slice_point: 863100
    slice_point: 864000
    slice_point: 864900
    slice_point: 865800
    slice_point: 866700
    slice_point: 867600
    slice_point: 868500
    slice_point: 869400
    slice_point: 870300
    slice_point: 871200
    slice_point: 872100
    slice_point: 873000
    slice_point: 873900
    slice_point: 874800
    slice_point: 875700
    slice_point: 876600
    slice_point: 877500
    slice_point: 878400
    slice_point: 879300
    slice_point: 880200
    slice_point: 881100
    slice_point: 882000
    slice_point: 882900
    slice_point: 883800
    slice_point: 884700
    slice_point: 885600
    slice_point: 886500
    slice_point: 887400
    slice_point: 888300
    slice_point: 889200
    slice_point: 890100
    slice_point: 891000
    slice_point: 891900
    slice_point: 892800
    slice_point: 893700
    slice_point: 894600
    slice_point: 895500
    slice_point: 896400
    slice_point: 897300
    slice_point: 898200
    slice_point: 899100
  }
}
layer {
  name: "InnerProduct1"
  type: "InnerProduct"
  bottom: "Slice1"
  top: "InnerProduct1"
  param {
    lr_mult: 1
    decay_mult: 1
  }
  param {
    lr_mult: 2
    decay_mult: 0
  }
  inner_product_param {
    num_output: 10
    weight_filler {
      type: "gaussian"
      std: 0.0098765
    }
    bias_filler {
      type: "constant"
      value: 0
    }
  }
}
layer {
  name: "ReLU1"
  type: "ReLU"
  bottom: "InnerProduct1"
  top: "InnerProduct1"
}
layer {
  name: "InnerProduct2"
  type: "InnerProduct"
  bottom: "Slice2"
  top: "InnerProduct2"
  param {
    lr_mult: 1
    decay_mult: 1
  }
  param {
    lr_mult: 2
    decay_mult: 0
  }
  inner_product_param {
    num_output: 10
    weight_filler {
      type: "gaussian"
      std: 0.0098765
    }
    bias_filler {
      type: "constant"
      value: 0
    }
  }
}
layer {
  name: "ReLU2"
  type: "ReLU"
  bottom: "InnerProduct2"
  top: "InnerProduct2"
}
layer {
  name: "InnerProduct3"
  type: "InnerProduct"
  bottom: "Slice3"
  top: "InnerProduct3"
  param {
    lr_mult: 1
    decay_mult: 1
  }
  param {
    lr_mult: 2
    decay_mult: 0
  }
  inner_product_param {
    num_output: 10
    weight_filler {
      type: "gaussian"
      std: 0.0098765
    }
    bias_filler {
      type: "constant"
      value: 0
    }
  }
}
layer {
  name: "ReLU3"
  type: "ReLU"
  bottom: "InnerProduct3"
  top: "InnerProduct3"
}
layer {
  name: "InnerProduct4"
  type: "InnerProduct"
  bottom: "Slice4"
  top: "InnerProduct4"
  param {
    lr_mult: 1
    decay_mult: 1
  }
  param {
    lr_mult: 2
    decay_mult: 0
  }
  inner_product_param {
    num_output: 10
    weight_filler {
      type: "gaussian"
      std: 0.0098765
    }
    bias_filler {
      type: "constant"
      value: 0
    }
  }
}
layer {
  name: "ReLU4"
  type: "ReLU"
  bottom: "InnerProduct4"
  top: "InnerProduct4"
}
layer {
  name: "InnerProduct5"
  type: "InnerProduct"
  bottom: "Slice5"
  top: "InnerProduct5"
  param {
    lr_mult: 1
    decay_mult: 1
  }
  param {
    lr_mult: 2
    decay_mult: 0
  }
  inner_product_param {
    num_output: 10
    weight_filler {
      type: "gaussian"
      std: 0.0098765
    }
    bias_filler {
      type: "constant"
      value: 0
    }
  }
}
layer {
  name: "ReLU5"
  type: "ReLU"
  bottom: "InnerProduct5"
  top: "InnerProduct5"
}
layer {
  name: "InnerProduct6"
  type: "InnerProduct"
  bottom: "Slice6"
  top: "InnerProduct6"
  param {
    lr_mult: 1
    decay_mult: 1
  }
  param {
    lr_mult: 2
    decay_mult: 0
  }
  inner_product_param {
    num_output: 10
    weight_filler {
      type: "gaussian"
      std: 0.0098765
    }
    bias_filler {
      type: "constant"
      value: 0
    }
  }
}
layer {
  name: "ReLU6"
  type: "ReLU"
  bottom: "InnerProduct6"
  top: "InnerProduct6"
}
layer {
  name: "InnerProduct7"
  type: "InnerProduct"
  bottom: "Slice7"
  top: "InnerProduct7"
  param {
    lr_mult: 1
    decay_mult: 1
  }
  param {
    lr_mult: 2
    decay_mult: 0
  }
  inner_product_param {
    num_output: 10
    weight_filler {
      type: "gaussian"
      std: 0.0098765
    }
    bias_filler {
      type: "constant"
      value: 0
    }
  }
}
layer {
  name: "ReLU7"
  type: "ReLU"
  bottom: "InnerProduct7"
  top: "InnerProduct7"
}
layer {
  name: "InnerProduct8"
  type: "InnerProduct"
  bottom: "Slice8"
  top: "InnerProduct8"
  param {
    lr_mult: 1
    decay_mult: 1
  }
  param {
    lr_mult: 2
    decay_mult: 0
  }
  inner_product_param {
    num_output: 10
    weight_filler {
      type: "gaussian"
      std: 0.0098765
    }
    bias_filler {
      type: "constant"
      value: 0
    }
  }
}
layer {
  name: "ReLU8"
  type: "ReLU"
  bottom: "InnerProduct8"
  top: "InnerProduct8"
}
layer {
  name: "InnerProduct9"
  type: "InnerProduct"
  bottom: "Slice9"
  top: "InnerProduct9"
  param {
    lr_mult: 1
    decay_mult: 1
  }
  param {
    lr_mult: 2
    decay_mult: 0
  }
  inner_product_param {
    num_output: 10
    weight_filler {
      type: "gaussian"
      std: 0.0098765
    }
    bias_filler {
      type: "constant"
      value: 0
    }
  }
}
layer {
  name: "ReLU9"
  type: "ReLU"
  bottom: "InnerProduct9"
  top: "InnerProduct9"
}
layer {
  name: "InnerProduct10"
  type: "InnerProduct"
  bottom: "Slice10"
  top: "InnerProduct10"
  param {
    lr_mult: 1
    decay_mult: 1
  }
  param {
    lr_mult: 2
    decay_mult: 0
  }
  inner_product_param {
    num_output: 10
    weight_filler {
      type: "gaussian"
      std: 0.0098765
    }
    bias_filler {
      type: "constant"
      value: 0
    }
  }
}
layer {
  name: "ReLU10"
  type: "ReLU"
  bottom: "InnerProduct10"
  top: "InnerProduct10"
}
layer {
  name: "InnerProduct11"
  type: "InnerProduct"
  bottom: "Slice11"
  top: "InnerProduct11"
  param {
    lr_mult: 1
    decay_mult: 1
  }
  param {
    lr_mult: 2
    decay_mult: 0
  }
  inner_product_param {
    num_output: 10
    weight_filler {
      type: "gaussian"
      std: 0.0098765
    }
    bias_filler {
      type: "constant"
      value: 0
    }
  }
}
layer {
  name: "ReLU11"
  type: "ReLU"
  bottom: "InnerProduct11"
  top: "InnerProduct11"
}
layer {
  name: "InnerProduct12"
  type: "InnerProduct"
  bottom: "Slice12"
  top: "InnerProduct12"
  param {
    lr_mult: 1
    decay_mult: 1
  }
  param {
    lr_mult: 2
    decay_mult: 0
  }
  inner_product_param {
    num_output: 10
    weight_filler {
      type: "gaussian"
      std: 0.0098765
    }
    bias_filler {
      type: "constant"
      value: 0
    }
  }
}
layer {
  name: "ReLU12"
  type: "ReLU"
  bottom: "InnerProduct12"
  top: "InnerProduct12"
}
layer {
  name: "InnerProduct13"
  type: "InnerProduct"
  bottom: "Slice13"
  top: "InnerProduct13"
  param {
    lr_mult: 1
    decay_mult: 1
  }
  param {
    lr_mult: 2
    decay_mult: 0
  }
  inner_product_param {
    num_output: 10
    weight_filler {
      type: "gaussian"
      std: 0.0098765
    }
    bias_filler {
      type: "constant"
      value: 0
    }
  }
}
layer {
  name: "ReLU13"
  type: "ReLU"
  bottom: "InnerProduct13"
  top: "InnerProduct13"
}
layer {
  name: "InnerProduct14"
  type: "InnerProduct"
  bottom: "Slice14"
  top: "InnerProduct14"
  param {
    lr_mult: 1
    decay_mult: 1
  }
  param {
    lr_mult: 2
    decay_mult: 0
  }
  inner_product_param {
    num_output: 10
    weight_filler {
      type: "gaussian"
      std: 0.0098765
    }
    bias_filler {
      type: "constant"
      value: 0
    }
  }
}
layer {
  name: "ReLU14"
  type: "ReLU"
  bottom: "InnerProduct14"
  top: "InnerProduct14"
}
layer {
  name: "InnerProduct15"
  type: "InnerProduct"
  bottom: "Slice15"
  top: "InnerProduct15"
  param {
    lr_mult: 1
    decay_mult: 1
  }
  param {
    lr_mult: 2
    decay_mult: 0
  }
  inner_product_param {
    num_output: 10
    weight_filler {
      type: "gaussian"
      std: 0.0098765
    }
    bias_filler {
      type: "constant"
      value: 0
    }
  }
}
layer {
  name: "ReLU15"
  type: "ReLU"
  bottom: "InnerProduct15"
  top: "InnerProduct15"
}
layer {
  name: "InnerProduct16"
  type: "InnerProduct"
  bottom: "Slice16"
  top: "InnerProduct16"
  param {
    lr_mult: 1
    decay_mult: 1
  }
  param {
    lr_mult: 2
    decay_mult: 0
  }
  inner_product_param {
    num_output: 10
    weight_filler {
      type: "gaussian"
      std: 0.0098765
    }
    bias_filler {
      type: "constant"
      value: 0
    }
  }
}
layer {
  name: "ReLU16"
  type: "ReLU"
  bottom: "InnerProduct16"
  top: "InnerProduct16"
}
layer {
  name: "InnerProduct17"
  type: "InnerProduct"
  bottom: "Slice17"
  top: "InnerProduct17"
  param {
    lr_mult: 1
    decay_mult: 1
  }
  param {
    lr_mult: 2
    decay_mult: 0
  }
  inner_product_param {
    num_output: 10
    weight_filler {
      type: "gaussian"
      std: 0.0098765
    }
    bias_filler {
      type: "constant"
      value: 0
    }
  }
}
layer {
  name: "ReLU17"
  type: "ReLU"
  bottom: "InnerProduct17"
  top: "InnerProduct17"
}
layer {
  name: "InnerProduct18"
  type: "InnerProduct"
  bottom: "Slice18"
  top: "InnerProduct18"
  param {
    lr_mult: 1
    decay_mult: 1
  }
  param {
    lr_mult: 2
    decay_mult: 0
  }
  inner_product_param {
    num_output: 10
    weight_filler {
      type: "gaussian"
      std: 0.0098765
    }
    bias_filler {
      type: "constant"
      value: 0
    }
  }
}
layer {
  name: "ReLU18"
  type: "ReLU"
  bottom: "InnerProduct18"
  top: "InnerProduct18"
}
layer {
  name: "InnerProduct19"
  type: "InnerProduct"
  bottom: "Slice19"
  top: "InnerProduct19"
  param {
    lr_mult: 1
    decay_mult: 1
  }
  param {
    lr_mult: 2
    decay_mult: 0
  }
  inner_product_param {
    num_output: 10
    weight_filler {
      type: "gaussian"
      std: 0.0098765
    }
    bias_filler {
      type: "constant"
      value: 0
    }
  }
}
layer {
  name: "ReLU19"
  type: "ReLU"
  bottom: "InnerProduct19"
  top: "InnerProduct19"
}
layer {
  name: "InnerProduct20"
  type: "InnerProduct"
  bottom: "Slice20"
  top: "InnerProduct20"
  param {
    lr_mult: 1
    decay_mult: 1
  }
  param {
    lr_mult: 2
    decay_mult: 0
  }
  inner_product_param {
    num_output: 10
    weight_filler {
      type: "gaussian"
      std: 0.0098765
    }
    bias_filler {
      type: "constant"
      value: 0
    }
  }
}
layer {
  name: "ReLU20"
  type: "ReLU"
  bottom: "InnerProduct20"
  top: "InnerProduct20"
}
layer {
  name: "InnerProduct21"
  type: "InnerProduct"
  bottom: "Slice21"
  top: "InnerProduct21"
  param {
    lr_mult: 1
    decay_mult: 1
  }
  param {
    lr_mult: 2
    decay_mult: 0
  }
  inner_product_param {
    num_output: 10
    weight_filler {
      type: "gaussian"
      std: 0.0098765
    }
    bias_filler {
      type: "constant"
      value: 0
    }
  }
}
layer {
  name: "ReLU21"
  type: "ReLU"
  bottom: "InnerProduct21"
  top: "InnerProduct21"
}
layer {
  name: "InnerProduct22"
  type: "InnerProduct"
  bottom: "Slice22"
  top: "InnerProduct22"
  param {
    lr_mult: 1
    decay_mult: 1
  }
  param {
    lr_mult: 2
    decay_mult: 0
  }
  inner_product_param {
    num_output: 10
    weight_filler {
      type: "gaussian"
      std: 0.0098765
    }
    bias_filler {
      type: "constant"
      value: 0
    }
  }
}
layer {
  name: "ReLU22"
  type: "ReLU"
  bottom: "InnerProduct22"
  top: "InnerProduct22"
}
layer {
  name: "InnerProduct23"
  type: "InnerProduct"
  bottom: "Slice23"
  top: "InnerProduct23"
  param {
    lr_mult: 1
    decay_mult: 1
  }
  param {
    lr_mult: 2
    decay_mult: 0
  }
  inner_product_param {
    num_output: 10
    weight_filler {
      type: "gaussian"
      std: 0.0098765
    }
    bias_filler {
      type: "constant"
      value: 0
    }
  }
}
layer {
  name: "ReLU23"
  type: "ReLU"
  bottom: "InnerProduct23"
  top: "InnerProduct23"
}
layer {
  name: "InnerProduct24"
  type: "InnerProduct"
  bottom: "Slice24"
  top: "InnerProduct24"
  param {
    lr_mult: 1
    decay_mult: 1
  }
  param {
    lr_mult: 2
    decay_mult: 0
  }
  inner_product_param {
    num_output: 10
    weight_filler {
      type: "gaussian"
      std: 0.0098765
    }
    bias_filler {
      type: "constant"
      value: 0
    }
  }
}
layer {
  name: "ReLU24"
  type: "ReLU"
  bottom: "InnerProduct24"
  top: "InnerProduct24"
}
layer {
  name: "InnerProduct25"
  type: "InnerProduct"
  bottom: "Slice25"
  top: "InnerProduct25"
  param {
    lr_mult: 1
    decay_mult: 1
  }
  param {
    lr_mult: 2
    decay_mult: 0
  }
  inner_product_param {
    num_output: 10
    weight_filler {
      type: "gaussian"
      std: 0.0098765
    }
    bias_filler {
      type: "constant"
      value: 0
    }
  }
}
layer {
  name: "ReLU25"
  type: "ReLU"
  bottom: "InnerProduct25"
  top: "InnerProduct25"
}
layer {
  name: "InnerProduct26"
  type: "InnerProduct"
  bottom: "Slice26"
  top: "InnerProduct26"
  param {
    lr_mult: 1
    decay_mult: 1
  }
  param {
    lr_mult: 2
    decay_mult: 0
  }
  inner_product_param {
    num_output: 10
    weight_filler {
      type: "gaussian"
      std: 0.0098765
    }
    bias_filler {
      type: "constant"
      value: 0
    }
  }
}
layer {
  name: "ReLU26"
  type: "ReLU"
  bottom: "InnerProduct26"
  top: "InnerProduct26"
}
layer {
  name: "InnerProduct27"
  type: "InnerProduct"
  bottom: "Slice27"
  top: "InnerProduct27"
  param {
    lr_mult: 1
    decay_mult: 1
  }
  param {
    lr_mult: 2
    decay_mult: 0
  }
  inner_product_param {
    num_output: 10
    weight_filler {
      type: "gaussian"
      std: 0.0098765
    }
    bias_filler {
      type: "constant"
      value: 0
    }
  }
}
layer {
  name: "ReLU27"
  type: "ReLU"
  bottom: "InnerProduct27"
  top: "InnerProduct27"
}
layer {
  name: "InnerProduct28"
  type: "InnerProduct"
  bottom: "Slice28"
  top: "InnerProduct28"
  param {
    lr_mult: 1
    decay_mult: 1
  }
  param {
    lr_mult: 2
    decay_mult: 0
  }
  inner_product_param {
    num_output: 10
    weight_filler {
      type: "gaussian"
      std: 0.0098765
    }
    bias_filler {
      type: "constant"
      value: 0
    }
  }
}
layer {
  name: "ReLU28"
  type: "ReLU"
  bottom: "InnerProduct28"
  top: "InnerProduct28"
}
layer {
  name: "InnerProduct29"
  type: "InnerProduct"
  bottom: "Slice29"
  top: "InnerProduct29"
  param {
    lr_mult: 1
    decay_mult: 1
  }
  param {
    lr_mult: 2
    decay_mult: 0
  }
  inner_product_param {
    num_output: 10
    weight_filler {
      type: "gaussian"
      std: 0.0098765
    }
    bias_filler {
      type: "constant"
      value: 0
    }
  }
}
layer {
  name: "ReLU29"
  type: "ReLU"
  bottom: "InnerProduct29"
  top: "InnerProduct29"
}
layer {
  name: "InnerProduct30"
  type: "InnerProduct"
  bottom: "Slice30"
  top: "InnerProduct30"
  param {
    lr_mult: 1
    decay_mult: 1
  }
  param {
    lr_mult: 2
    decay_mult: 0
  }
  inner_product_param {
    num_output: 10
    weight_filler {
      type: "gaussian"
      std: 0.0098765
    }
    bias_filler {
      type: "constant"
      value: 0
    }
  }
}
layer {
  name: "ReLU30"
  type: "ReLU"
  bottom: "InnerProduct30"
  top: "InnerProduct30"
}
layer {
  name: "InnerProduct31"
  type: "InnerProduct"
  bottom: "Slice31"
  top: "InnerProduct31"
  param {
    lr_mult: 1
    decay_mult: 1
  }
  param {
    lr_mult: 2
    decay_mult: 0
  }
  inner_product_param {
    num_output: 10
    weight_filler {
      type: "gaussian"
      std: 0.0098765
    }
    bias_filler {
      type: "constant"
      value: 0
    }
  }
}
layer {
  name: "ReLU31"
  type: "ReLU"
  bottom: "InnerProduct31"
  top: "InnerProduct31"
}
layer {
  name: "InnerProduct32"
  type: "InnerProduct"
  bottom: "Slice32"
  top: "InnerProduct32"
  param {
    lr_mult: 1
    decay_mult: 1
  }
  param {
    lr_mult: 2
    decay_mult: 0
  }
  inner_product_param {
    num_output: 10
    weight_filler {
      type: "gaussian"
      std: 0.0098765
    }
    bias_filler {
      type: "constant"
      value: 0
    }
  }
}
layer {
  name: "ReLU32"
  type: "ReLU"
  bottom: "InnerProduct32"
  top: "InnerProduct32"
}
layer {
  name: "InnerProduct33"
  type: "InnerProduct"
  bottom: "Slice33"
  top: "InnerProduct33"
  param {
    lr_mult: 1
    decay_mult: 1
  }
  param {
    lr_mult: 2
    decay_mult: 0
  }
  inner_product_param {
    num_output: 10
    weight_filler {
      type: "gaussian"
      std: 0.0098765
    }
    bias_filler {
      type: "constant"
      value: 0
    }
  }
}
layer {
  name: "ReLU33"
  type: "ReLU"
  bottom: "InnerProduct33"
  top: "InnerProduct33"
}
layer {
  name: "InnerProduct34"
  type: "InnerProduct"
  bottom: "Slice34"
  top: "InnerProduct34"
  param {
    lr_mult: 1
    decay_mult: 1
  }
  param {
    lr_mult: 2
    decay_mult: 0
  }
  inner_product_param {
    num_output: 10
    weight_filler {
      type: "gaussian"
      std: 0.0098765
    }
    bias_filler {
      type: "constant"
      value: 0
    }
  }
}
layer {
  name: "ReLU34"
  type: "ReLU"
  bottom: "InnerProduct34"
  top: "InnerProduct34"
}
layer {
  name: "InnerProduct35"
  type: "InnerProduct"
  bottom: "Slice35"
  top: "InnerProduct35"
  param {
    lr_mult: 1
    decay_mult: 1
  }
  param {
    lr_mult: 2
    decay_mult: 0
  }
  inner_product_param {
    num_output: 10
    weight_filler {
      type: "gaussian"
      std: 0.0098765
    }
    bias_filler {
      type: "constant"
      value: 0
    }
  }
}
layer {
  name: "ReLU35"
  type: "ReLU"
  bottom: "InnerProduct35"
  top: "InnerProduct35"
}
layer {
  name: "InnerProduct36"
  type: "InnerProduct"
  bottom: "Slice36"
  top: "InnerProduct36"
  param {
    lr_mult: 1
    decay_mult: 1
  }
  param {
    lr_mult: 2
    decay_mult: 0
  }
  inner_product_param {
    num_output: 10
    weight_filler {
      type: "gaussian"
      std: 0.0098765
    }
    bias_filler {
      type: "constant"
      value: 0
    }
  }
}
layer {
  name: "ReLU36"
  type: "ReLU"
  bottom: "InnerProduct36"
  top: "InnerProduct36"
}
layer {
  name: "InnerProduct37"
  type: "InnerProduct"
  bottom: "Slice37"
  top: "InnerProduct37"
  param {
    lr_mult: 1
    decay_mult: 1
  }
  param {
    lr_mult: 2
    decay_mult: 0
  }
  inner_product_param {
    num_output: 10
    weight_filler {
      type: "gaussian"
      std: 0.0098765
    }
    bias_filler {
      type: "constant"
      value: 0
    }
  }
}
layer {
  name: "ReLU37"
  type: "ReLU"
  bottom: "InnerProduct37"
  top: "InnerProduct37"
}
layer {
  name: "InnerProduct38"
  type: "InnerProduct"
  bottom: "Slice38"
  top: "InnerProduct38"
  param {
    lr_mult: 1
    decay_mult: 1
  }
  param {
    lr_mult: 2
    decay_mult: 0
  }
  inner_product_param {
    num_output: 10
    weight_filler {
      type: "gaussian"
      std: 0.0098765
    }
    bias_filler {
      type: "constant"
      value: 0
    }
  }
}
layer {
  name: "ReLU38"
  type: "ReLU"
  bottom: "InnerProduct38"
  top: "InnerProduct38"
}
layer {
  name: "InnerProduct39"
  type: "InnerProduct"
  bottom: "Slice39"
  top: "InnerProduct39"
  param {
    lr_mult: 1
    decay_mult: 1
  }
  param {
    lr_mult: 2
    decay_mult: 0
  }
  inner_product_param {
    num_output: 10
    weight_filler {
      type: "gaussian"
      std: 0.0098765
    }
    bias_filler {
      type: "constant"
      value: 0
    }
  }
}
layer {
  name: "ReLU39"
  type: "ReLU"
  bottom: "InnerProduct39"
  top: "InnerProduct39"
}
layer {
  name: "InnerProduct40"
  type: "InnerProduct"
  bottom: "Slice40"
  top: "InnerProduct40"
  param {
    lr_mult: 1
    decay_mult: 1
  }
  param {
    lr_mult: 2
    decay_mult: 0
  }
  inner_product_param {
    num_output: 10
    weight_filler {
      type: "gaussian"
      std: 0.0098765
    }
    bias_filler {
      type: "constant"
      value: 0
    }
  }
}
layer {
  name: "ReLU40"
  type: "ReLU"
  bottom: "InnerProduct40"
  top: "InnerProduct40"
}
layer {
  name: "InnerProduct41"
  type: "InnerProduct"
  bottom: "Slice41"
  top: "InnerProduct41"
  param {
    lr_mult: 1
    decay_mult: 1
  }
  param {
    lr_mult: 2
    decay_mult: 0
  }
  inner_product_param {
    num_output: 10
    weight_filler {
      type: "gaussian"
      std: 0.0098765
    }
    bias_filler {
      type: "constant"
      value: 0
    }
  }
}
layer {
  name: "ReLU41"
  type: "ReLU"
  bottom: "InnerProduct41"
  top: "InnerProduct41"
}
layer {
  name: "InnerProduct42"
  type: "InnerProduct"
  bottom: "Slice42"
  top: "InnerProduct42"
  param {
    lr_mult: 1
    decay_mult: 1
  }
  param {
    lr_mult: 2
    decay_mult: 0
  }
  inner_product_param {
    num_output: 10
    weight_filler {
      type: "gaussian"
      std: 0.0098765
    }
    bias_filler {
      type: "constant"
      value: 0
    }
  }
}
layer {
  name: "ReLU42"
  type: "ReLU"
  bottom: "InnerProduct42"
  top: "InnerProduct42"
}
layer {
  name: "InnerProduct43"
  type: "InnerProduct"
  bottom: "Slice43"
  top: "InnerProduct43"
  param {
    lr_mult: 1
    decay_mult: 1
  }
  param {
    lr_mult: 2
    decay_mult: 0
  }
  inner_product_param {
    num_output: 10
    weight_filler {
      type: "gaussian"
      std: 0.0098765
    }
    bias_filler {
      type: "constant"
      value: 0
    }
  }
}
layer {
  name: "ReLU43"
  type: "ReLU"
  bottom: "InnerProduct43"
  top: "InnerProduct43"
}
layer {
  name: "InnerProduct44"
  type: "InnerProduct"
  bottom: "Slice44"
  top: "InnerProduct44"
  param {
    lr_mult: 1
    decay_mult: 1
  }
  param {
    lr_mult: 2
    decay_mult: 0
  }
  inner_product_param {
    num_output: 10
    weight_filler {
      type: "gaussian"
      std: 0.0098765
    }
    bias_filler {
      type: "constant"
      value: 0
    }
  }
}
layer {
  name: "ReLU44"
  type: "ReLU"
  bottom: "InnerProduct44"
  top: "InnerProduct44"
}
layer {
  name: "InnerProduct45"
  type: "InnerProduct"
  bottom: "Slice45"
  top: "InnerProduct45"
  param {
    lr_mult: 1
    decay_mult: 1
  }
  param {
    lr_mult: 2
    decay_mult: 0
  }
  inner_product_param {
    num_output: 10
    weight_filler {
      type: "gaussian"
      std: 0.0098765
    }
    bias_filler {
      type: "constant"
      value: 0
    }
  }
}
layer {
  name: "ReLU45"
  type: "ReLU"
  bottom: "InnerProduct45"
  top: "InnerProduct45"
}
layer {
  name: "InnerProduct46"
  type: "InnerProduct"
  bottom: "Slice46"
  top: "InnerProduct46"
  param {
    lr_mult: 1
    decay_mult: 1
  }
  param {
    lr_mult: 2
    decay_mult: 0
  }
  inner_product_param {
    num_output: 10
    weight_filler {
      type: "gaussian"
      std: 0.0098765
    }
    bias_filler {
      type: "constant"
      value: 0
    }
  }
}
layer {
  name: "ReLU46"
  type: "ReLU"
  bottom: "InnerProduct46"
  top: "InnerProduct46"
}
layer {
  name: "InnerProduct47"
  type: "InnerProduct"
  bottom: "Slice47"
  top: "InnerProduct47"
  param {
    lr_mult: 1
    decay_mult: 1
  }
  param {
    lr_mult: 2
    decay_mult: 0
  }
  inner_product_param {
    num_output: 10
    weight_filler {
      type: "gaussian"
      std: 0.0098765
    }
    bias_filler {
      type: "constant"
      value: 0
    }
  }
}
layer {
  name: "ReLU47"
  type: "ReLU"
  bottom: "InnerProduct47"
  top: "InnerProduct47"
}
layer {
  name: "InnerProduct48"
  type: "InnerProduct"
  bottom: "Slice48"
  top: "InnerProduct48"
  param {
    lr_mult: 1
    decay_mult: 1
  }
  param {
    lr_mult: 2
    decay_mult: 0
  }
  inner_product_param {
    num_output: 10
    weight_filler {
      type: "gaussian"
      std: 0.0098765
    }
    bias_filler {
      type: "constant"
      value: 0
    }
  }
}
layer {
  name: "ReLU48"
  type: "ReLU"
  bottom: "InnerProduct48"
  top: "InnerProduct48"
}
layer {
  name: "InnerProduct49"
  type: "InnerProduct"
  bottom: "Slice49"
  top: "InnerProduct49"
  param {
    lr_mult: 1
    decay_mult: 1
  }
  param {
    lr_mult: 2
    decay_mult: 0
  }
  inner_product_param {
    num_output: 10
    weight_filler {
      type: "gaussian"
      std: 0.0098765
    }
    bias_filler {
      type: "constant"
      value: 0
    }
  }
}
layer {
  name: "ReLU49"
  type: "ReLU"
  bottom: "InnerProduct49"
  top: "InnerProduct49"
}
layer {
  name: "InnerProduct50"
  type: "InnerProduct"
  bottom: "Slice50"
  top: "InnerProduct50"
  param {
    lr_mult: 1
    decay_mult: 1
  }
  param {
    lr_mult: 2
    decay_mult: 0
  }
  inner_product_param {
    num_output: 10
    weight_filler {
      type: "gaussian"
      std: 0.0098765
    }
    bias_filler {
      type: "constant"
      value: 0
    }
  }
}
layer {
  name: "ReLU50"
  type: "ReLU"
  bottom: "InnerProduct50"
  top: "InnerProduct50"
}
layer {
  name: "InnerProduct51"
  type: "InnerProduct"
  bottom: "Slice51"
  top: "InnerProduct51"
  param {
    lr_mult: 1
    decay_mult: 1
  }
  param {
    lr_mult: 2
    decay_mult: 0
  }
  inner_product_param {
    num_output: 10
    weight_filler {
      type: "gaussian"
      std: 0.0098765
    }
    bias_filler {
      type: "constant"
      value: 0
    }
  }
}
layer {
  name: "ReLU51"
  type: "ReLU"
  bottom: "InnerProduct51"
  top: "InnerProduct51"
}
layer {
  name: "InnerProduct52"
  type: "InnerProduct"
  bottom: "Slice52"
  top: "InnerProduct52"
  param {
    lr_mult: 1
    decay_mult: 1
  }
  param {
    lr_mult: 2
    decay_mult: 0
  }
  inner_product_param {
    num_output: 10
    weight_filler {
      type: "gaussian"
      std: 0.0098765
    }
    bias_filler {
      type: "constant"
      value: 0
    }
  }
}
layer {
  name: "ReLU52"
  type: "ReLU"
  bottom: "InnerProduct52"
  top: "InnerProduct52"
}
layer {
  name: "InnerProduct53"
  type: "InnerProduct"
  bottom: "Slice53"
  top: "InnerProduct53"
  param {
    lr_mult: 1
    decay_mult: 1
  }
  param {
    lr_mult: 2
    decay_mult: 0
  }
  inner_product_param {
    num_output: 10
    weight_filler {
      type: "gaussian"
      std: 0.0098765
    }
    bias_filler {
      type: "constant"
      value: 0
    }
  }
}
layer {
  name: "ReLU53"
  type: "ReLU"
  bottom: "InnerProduct53"
  top: "InnerProduct53"
}
layer {
  name: "InnerProduct54"
  type: "InnerProduct"
  bottom: "Slice54"
  top: "InnerProduct54"
  param {
    lr_mult: 1
    decay_mult: 1
  }
  param {
    lr_mult: 2
    decay_mult: 0
  }
  inner_product_param {
    num_output: 10
    weight_filler {
      type: "gaussian"
      std: 0.0098765
    }
    bias_filler {
      type: "constant"
      value: 0
    }
  }
}
layer {
  name: "ReLU54"
  type: "ReLU"
  bottom: "InnerProduct54"
  top: "InnerProduct54"
}
layer {
  name: "InnerProduct55"
  type: "InnerProduct"
  bottom: "Slice55"
  top: "InnerProduct55"
  param {
    lr_mult: 1
    decay_mult: 1
  }
  param {
    lr_mult: 2
    decay_mult: 0
  }
  inner_product_param {
    num_output: 10
    weight_filler {
      type: "gaussian"
      std: 0.0098765
    }
    bias_filler {
      type: "constant"
      value: 0
    }
  }
}
layer {
  name: "ReLU55"
  type: "ReLU"
  bottom: "InnerProduct55"
  top: "InnerProduct55"
}
layer {
  name: "InnerProduct56"
  type: "InnerProduct"
  bottom: "Slice56"
  top: "InnerProduct56"
  param {
    lr_mult: 1
    decay_mult: 1
  }
  param {
    lr_mult: 2
    decay_mult: 0
  }
  inner_product_param {
    num_output: 10
    weight_filler {
      type: "gaussian"
      std: 0.0098765
    }
    bias_filler {
      type: "constant"
      value: 0
    }
  }
}
layer {
  name: "ReLU56"
  type: "ReLU"
  bottom: "InnerProduct56"
  top: "InnerProduct56"
}
layer {
  name: "InnerProduct57"
  type: "InnerProduct"
  bottom: "Slice57"
  top: "InnerProduct57"
  param {
    lr_mult: 1
    decay_mult: 1
  }
  param {
    lr_mult: 2
    decay_mult: 0
  }
  inner_product_param {
    num_output: 10
    weight_filler {
      type: "gaussian"
      std: 0.0098765
    }
    bias_filler {
      type: "constant"
      value: 0
    }
  }
}
layer {
  name: "ReLU57"
  type: "ReLU"
  bottom: "InnerProduct57"
  top: "InnerProduct57"
}
layer {
  name: "InnerProduct58"
  type: "InnerProduct"
  bottom: "Slice58"
  top: "InnerProduct58"
  param {
    lr_mult: 1
    decay_mult: 1
  }
  param {
    lr_mult: 2
    decay_mult: 0
  }
  inner_product_param {
    num_output: 10
    weight_filler {
      type: "gaussian"
      std: 0.0098765
    }
    bias_filler {
      type: "constant"
      value: 0
    }
  }
}
layer {
  name: "ReLU58"
  type: "ReLU"
  bottom: "InnerProduct58"
  top: "InnerProduct58"
}
layer {
  name: "InnerProduct59"
  type: "InnerProduct"
  bottom: "Slice59"
  top: "InnerProduct59"
  param {
    lr_mult: 1
    decay_mult: 1
  }
  param {
    lr_mult: 2
    decay_mult: 0
  }
  inner_product_param {
    num_output: 10
    weight_filler {
      type: "gaussian"
      std: 0.0098765
    }
    bias_filler {
      type: "constant"
      value: 0
    }
  }
}
layer {
  name: "ReLU59"
  type: "ReLU"
  bottom: "InnerProduct59"
  top: "InnerProduct59"
}
layer {
  name: "InnerProduct60"
  type: "InnerProduct"
  bottom: "Slice60"
  top: "InnerProduct60"
  param {
    lr_mult: 1
    decay_mult: 1
  }
  param {
    lr_mult: 2
    decay_mult: 0
  }
  inner_product_param {
    num_output: 10
    weight_filler {
      type: "gaussian"
      std: 0.0098765
    }
    bias_filler {
      type: "constant"
      value: 0
    }
  }
}
layer {
  name: "ReLU60"
  type: "ReLU"
  bottom: "InnerProduct60"
  top: "InnerProduct60"
}
layer {
  name: "InnerProduct61"
  type: "InnerProduct"
  bottom: "Slice61"
  top: "InnerProduct61"
  param {
    lr_mult: 1
    decay_mult: 1
  }
  param {
    lr_mult: 2
    decay_mult: 0
  }
  inner_product_param {
    num_output: 10
    weight_filler {
      type: "gaussian"
      std: 0.0098765
    }
    bias_filler {
      type: "constant"
      value: 0
    }
  }
}
layer {
  name: "ReLU61"
  type: "ReLU"
  bottom: "InnerProduct61"
  top: "InnerProduct61"
}
layer {
  name: "InnerProduct62"
  type: "InnerProduct"
  bottom: "Slice62"
  top: "InnerProduct62"
  param {
    lr_mult: 1
    decay_mult: 1
  }
  param {
    lr_mult: 2
    decay_mult: 0
  }
  inner_product_param {
    num_output: 10
    weight_filler {
      type: "gaussian"
      std: 0.0098765
    }
    bias_filler {
      type: "constant"
      value: 0
    }
  }
}
layer {
  name: "ReLU62"
  type: "ReLU"
  bottom: "InnerProduct62"
  top: "InnerProduct62"
}
layer {
  name: "InnerProduct63"
  type: "InnerProduct"
  bottom: "Slice63"
  top: "InnerProduct63"
  param {
    lr_mult: 1
    decay_mult: 1
  }
  param {
    lr_mult: 2
    decay_mult: 0
  }
  inner_product_param {
    num_output: 10
    weight_filler {
      type: "gaussian"
      std: 0.0098765
    }
    bias_filler {
      type: "constant"
      value: 0
    }
  }
}
layer {
  name: "ReLU63"
  type: "ReLU"
  bottom: "InnerProduct63"
  top: "InnerProduct63"
}
layer {
  name: "InnerProduct64"
  type: "InnerProduct"
  bottom: "Slice64"
  top: "InnerProduct64"
  param {
    lr_mult: 1
    decay_mult: 1
  }
  param {
    lr_mult: 2
    decay_mult: 0
  }
  inner_product_param {
    num_output: 10
    weight_filler {
      type: "gaussian"
      std: 0.0098765
    }
    bias_filler {
      type: "constant"
      value: 0
    }
  }
}
layer {
  name: "ReLU64"
  type: "ReLU"
  bottom: "InnerProduct64"
  top: "InnerProduct64"
}
layer {
  name: "InnerProduct65"
  type: "InnerProduct"
  bottom: "Slice65"
  top: "InnerProduct65"
  param {
    lr_mult: 1
    decay_mult: 1
  }
  param {
    lr_mult: 2
    decay_mult: 0
  }
  inner_product_param {
    num_output: 10
    weight_filler {
      type: "gaussian"
      std: 0.0098765
    }
    bias_filler {
      type: "constant"
      value: 0
    }
  }
}
layer {
  name: "ReLU65"
  type: "ReLU"
  bottom: "InnerProduct65"
  top: "InnerProduct65"
}
layer {
  name: "InnerProduct66"
  type: "InnerProduct"
  bottom: "Slice66"
  top: "InnerProduct66"
  param {
    lr_mult: 1
    decay_mult: 1
  }
  param {
    lr_mult: 2
    decay_mult: 0
  }
  inner_product_param {
    num_output: 10
    weight_filler {
      type: "gaussian"
      std: 0.0098765
    }
    bias_filler {
      type: "constant"
      value: 0
    }
  }
}
layer {
  name: "ReLU66"
  type: "ReLU"
  bottom: "InnerProduct66"
  top: "InnerProduct66"
}
layer {
  name: "InnerProduct67"
  type: "InnerProduct"
  bottom: "Slice67"
  top: "InnerProduct67"
  param {
    lr_mult: 1
    decay_mult: 1
  }
  param {
    lr_mult: 2
    decay_mult: 0
  }
  inner_product_param {
    num_output: 10
    weight_filler {
      type: "gaussian"
      std: 0.0098765
    }
    bias_filler {
      type: "constant"
      value: 0
    }
  }
}
layer {
  name: "ReLU67"
  type: "ReLU"
  bottom: "InnerProduct67"
  top: "InnerProduct67"
}
layer {
  name: "InnerProduct68"
  type: "InnerProduct"
  bottom: "Slice68"
  top: "InnerProduct68"
  param {
    lr_mult: 1
    decay_mult: 1
  }
  param {
    lr_mult: 2
    decay_mult: 0
  }
  inner_product_param {
    num_output: 10
    weight_filler {
      type: "gaussian"
      std: 0.0098765
    }
    bias_filler {
      type: "constant"
      value: 0
    }
  }
}
layer {
  name: "ReLU68"
  type: "ReLU"
  bottom: "InnerProduct68"
  top: "InnerProduct68"
}
layer {
  name: "InnerProduct69"
  type: "InnerProduct"
  bottom: "Slice69"
  top: "InnerProduct69"
  param {
    lr_mult: 1
    decay_mult: 1
  }
  param {
    lr_mult: 2
    decay_mult: 0
  }
  inner_product_param {
    num_output: 10
    weight_filler {
      type: "gaussian"
      std: 0.0098765
    }
    bias_filler {
      type: "constant"
      value: 0
    }
  }
}
layer {
  name: "ReLU69"
  type: "ReLU"
  bottom: "InnerProduct69"
  top: "InnerProduct69"
}
layer {
  name: "InnerProduct70"
  type: "InnerProduct"
  bottom: "Slice70"
  top: "InnerProduct70"
  param {
    lr_mult: 1
    decay_mult: 1
  }
  param {
    lr_mult: 2
    decay_mult: 0
  }
  inner_product_param {
    num_output: 10
    weight_filler {
      type: "gaussian"
      std: 0.0098765
    }
    bias_filler {
      type: "constant"
      value: 0
    }
  }
}
layer {
  name: "ReLU70"
  type: "ReLU"
  bottom: "InnerProduct70"
  top: "InnerProduct70"
}
layer {
  name: "InnerProduct71"
  type: "InnerProduct"
  bottom: "Slice71"
  top: "InnerProduct71"
  param {
    lr_mult: 1
    decay_mult: 1
  }
  param {
    lr_mult: 2
    decay_mult: 0
  }
  inner_product_param {
    num_output: 10
    weight_filler {
      type: "gaussian"
      std: 0.0098765
    }
    bias_filler {
      type: "constant"
      value: 0
    }
  }
}
layer {
  name: "ReLU71"
  type: "ReLU"
  bottom: "InnerProduct71"
  top: "InnerProduct71"
}
layer {
  name: "InnerProduct72"
  type: "InnerProduct"
  bottom: "Slice72"
  top: "InnerProduct72"
  param {
    lr_mult: 1
    decay_mult: 1
  }
  param {
    lr_mult: 2
    decay_mult: 0
  }
  inner_product_param {
    num_output: 10
    weight_filler {
      type: "gaussian"
      std: 0.0098765
    }
    bias_filler {
      type: "constant"
      value: 0
    }
  }
}
layer {
  name: "ReLU72"
  type: "ReLU"
  bottom: "InnerProduct72"
  top: "InnerProduct72"
}
layer {
  name: "InnerProduct73"
  type: "InnerProduct"
  bottom: "Slice73"
  top: "InnerProduct73"
  param {
    lr_mult: 1
    decay_mult: 1
  }
  param {
    lr_mult: 2
    decay_mult: 0
  }
  inner_product_param {
    num_output: 10
    weight_filler {
      type: "gaussian"
      std: 0.0098765
    }
    bias_filler {
      type: "constant"
      value: 0
    }
  }
}
layer {
  name: "ReLU73"
  type: "ReLU"
  bottom: "InnerProduct73"
  top: "InnerProduct73"
}
layer {
  name: "InnerProduct74"
  type: "InnerProduct"
  bottom: "Slice74"
  top: "InnerProduct74"
  param {
    lr_mult: 1
    decay_mult: 1
  }
  param {
    lr_mult: 2
    decay_mult: 0
  }
  inner_product_param {
    num_output: 10
    weight_filler {
      type: "gaussian"
      std: 0.0098765
    }
    bias_filler {
      type: "constant"
      value: 0
    }
  }
}
layer {
  name: "ReLU74"
  type: "ReLU"
  bottom: "InnerProduct74"
  top: "InnerProduct74"
}
layer {
  name: "InnerProduct75"
  type: "InnerProduct"
  bottom: "Slice75"
  top: "InnerProduct75"
  param {
    lr_mult: 1
    decay_mult: 1
  }
  param {
    lr_mult: 2
    decay_mult: 0
  }
  inner_product_param {
    num_output: 10
    weight_filler {
      type: "gaussian"
      std: 0.0098765
    }
    bias_filler {
      type: "constant"
      value: 0
    }
  }
}
layer {
  name: "ReLU75"
  type: "ReLU"
  bottom: "InnerProduct75"
  top: "InnerProduct75"
}
layer {
  name: "InnerProduct76"
  type: "InnerProduct"
  bottom: "Slice76"
  top: "InnerProduct76"
  param {
    lr_mult: 1
    decay_mult: 1
  }
  param {
    lr_mult: 2
    decay_mult: 0
  }
  inner_product_param {
    num_output: 10
    weight_filler {
      type: "gaussian"
      std: 0.0098765
    }
    bias_filler {
      type: "constant"
      value: 0
    }
  }
}
layer {
  name: "ReLU76"
  type: "ReLU"
  bottom: "InnerProduct76"
  top: "InnerProduct76"
}
layer {
  name: "InnerProduct77"
  type: "InnerProduct"
  bottom: "Slice77"
  top: "InnerProduct77"
  param {
    lr_mult: 1
    decay_mult: 1
  }
  param {
    lr_mult: 2
    decay_mult: 0
  }
  inner_product_param {
    num_output: 10
    weight_filler {
      type: "gaussian"
      std: 0.0098765
    }
    bias_filler {
      type: "constant"
      value: 0
    }
  }
}
layer {
  name: "ReLU77"
  type: "ReLU"
  bottom: "InnerProduct77"
  top: "InnerProduct77"
}
layer {
  name: "InnerProduct78"
  type: "InnerProduct"
  bottom: "Slice78"
  top: "InnerProduct78"
  param {
    lr_mult: 1
    decay_mult: 1
  }
  param {
    lr_mult: 2
    decay_mult: 0
  }
  inner_product_param {
    num_output: 10
    weight_filler {
      type: "gaussian"
      std: 0.0098765
    }
    bias_filler {
      type: "constant"
      value: 0
    }
  }
}
layer {
  name: "ReLU78"
  type: "ReLU"
  bottom: "InnerProduct78"
  top: "InnerProduct78"
}
layer {
  name: "InnerProduct79"
  type: "InnerProduct"
  bottom: "Slice79"
  top: "InnerProduct79"
  param {
    lr_mult: 1
    decay_mult: 1
  }
  param {
    lr_mult: 2
    decay_mult: 0
  }
  inner_product_param {
    num_output: 10
    weight_filler {
      type: "gaussian"
      std: 0.0098765
    }
    bias_filler {
      type: "constant"
      value: 0
    }
  }
}
layer {
  name: "ReLU79"
  type: "ReLU"
  bottom: "InnerProduct79"
  top: "InnerProduct79"
}
layer {
  name: "InnerProduct80"
  type: "InnerProduct"
  bottom: "Slice80"
  top: "InnerProduct80"
  param {
    lr_mult: 1
    decay_mult: 1
  }
  param {
    lr_mult: 2
    decay_mult: 0
  }
  inner_product_param {
    num_output: 10
    weight_filler {
      type: "gaussian"
      std: 0.0098765
    }
    bias_filler {
      type: "constant"
      value: 0
    }
  }
}
layer {
  name: "ReLU80"
  type: "ReLU"
  bottom: "InnerProduct80"
  top: "InnerProduct80"
}
layer {
  name: "InnerProduct81"
  type: "InnerProduct"
  bottom: "Slice81"
  top: "InnerProduct81"
  param {
    lr_mult: 1
    decay_mult: 1
  }
  param {
    lr_mult: 2
    decay_mult: 0
  }
  inner_product_param {
    num_output: 10
    weight_filler {
      type: "gaussian"
      std: 0.0098765
    }
    bias_filler {
      type: "constant"
      value: 0
    }
  }
}
layer {
  name: "ReLU81"
  type: "ReLU"
  bottom: "InnerProduct81"
  top: "InnerProduct81"
}
layer {
  name: "InnerProduct82"
  type: "InnerProduct"
  bottom: "Slice82"
  top: "InnerProduct82"
  param {
    lr_mult: 1
    decay_mult: 1
  }
  param {
    lr_mult: 2
    decay_mult: 0
  }
  inner_product_param {
    num_output: 10
    weight_filler {
      type: "gaussian"
      std: 0.0098765
    }
    bias_filler {
      type: "constant"
      value: 0
    }
  }
}
layer {
  name: "ReLU82"
  type: "ReLU"
  bottom: "InnerProduct82"
  top: "InnerProduct82"
}
layer {
  name: "InnerProduct83"
  type: "InnerProduct"
  bottom: "Slice83"
  top: "InnerProduct83"
  param {
    lr_mult: 1
    decay_mult: 1
  }
  param {
    lr_mult: 2
    decay_mult: 0
  }
  inner_product_param {
    num_output: 10
    weight_filler {
      type: "gaussian"
      std: 0.0098765
    }
    bias_filler {
      type: "constant"
      value: 0
    }
  }
}
layer {
  name: "ReLU83"
  type: "ReLU"
  bottom: "InnerProduct83"
  top: "InnerProduct83"
}
layer {
  name: "InnerProduct84"
  type: "InnerProduct"
  bottom: "Slice84"
  top: "InnerProduct84"
  param {
    lr_mult: 1
    decay_mult: 1
  }
  param {
    lr_mult: 2
    decay_mult: 0
  }
  inner_product_param {
    num_output: 10
    weight_filler {
      type: "gaussian"
      std: 0.0098765
    }
    bias_filler {
      type: "constant"
      value: 0
    }
  }
}
layer {
  name: "ReLU84"
  type: "ReLU"
  bottom: "InnerProduct84"
  top: "InnerProduct84"
}
layer {
  name: "InnerProduct85"
  type: "InnerProduct"
  bottom: "Slice85"
  top: "InnerProduct85"
  param {
    lr_mult: 1
    decay_mult: 1
  }
  param {
    lr_mult: 2
    decay_mult: 0
  }
  inner_product_param {
    num_output: 10
    weight_filler {
      type: "gaussian"
      std: 0.0098765
    }
    bias_filler {
      type: "constant"
      value: 0
    }
  }
}
layer {
  name: "ReLU85"
  type: "ReLU"
  bottom: "InnerProduct85"
  top: "InnerProduct85"
}
layer {
  name: "InnerProduct86"
  type: "InnerProduct"
  bottom: "Slice86"
  top: "InnerProduct86"
  param {
    lr_mult: 1
    decay_mult: 1
  }
  param {
    lr_mult: 2
    decay_mult: 0
  }
  inner_product_param {
    num_output: 10
    weight_filler {
      type: "gaussian"
      std: 0.0098765
    }
    bias_filler {
      type: "constant"
      value: 0
    }
  }
}
layer {
  name: "ReLU86"
  type: "ReLU"
  bottom: "InnerProduct86"
  top: "InnerProduct86"
}
layer {
  name: "InnerProduct87"
  type: "InnerProduct"
  bottom: "Slice87"
  top: "InnerProduct87"
  param {
    lr_mult: 1
    decay_mult: 1
  }
  param {
    lr_mult: 2
    decay_mult: 0
  }
  inner_product_param {
    num_output: 10
    weight_filler {
      type: "gaussian"
      std: 0.0098765
    }
    bias_filler {
      type: "constant"
      value: 0
    }
  }
}
layer {
  name: "ReLU87"
  type: "ReLU"
  bottom: "InnerProduct87"
  top: "InnerProduct87"
}
layer {
  name: "InnerProduct88"
  type: "InnerProduct"
  bottom: "Slice88"
  top: "InnerProduct88"
  param {
    lr_mult: 1
    decay_mult: 1
  }
  param {
    lr_mult: 2
    decay_mult: 0
  }
  inner_product_param {
    num_output: 10
    weight_filler {
      type: "gaussian"
      std: 0.0098765
    }
    bias_filler {
      type: "constant"
      value: 0
    }
  }
}
layer {
  name: "ReLU88"
  type: "ReLU"
  bottom: "InnerProduct88"
  top: "InnerProduct88"
}
layer {
  name: "InnerProduct89"
  type: "InnerProduct"
  bottom: "Slice89"
  top: "InnerProduct89"
  param {
    lr_mult: 1
    decay_mult: 1
  }
  param {
    lr_mult: 2
    decay_mult: 0
  }
  inner_product_param {
    num_output: 10
    weight_filler {
      type: "gaussian"
      std: 0.0098765
    }
    bias_filler {
      type: "constant"
      value: 0
    }
  }
}
layer {
  name: "ReLU89"
  type: "ReLU"
  bottom: "InnerProduct89"
  top: "InnerProduct89"
}
layer {
  name: "InnerProduct90"
  type: "InnerProduct"
  bottom: "Slice90"
  top: "InnerProduct90"
  param {
    lr_mult: 1
    decay_mult: 1
  }
  param {
    lr_mult: 2
    decay_mult: 0
  }
  inner_product_param {
    num_output: 10
    weight_filler {
      type: "gaussian"
      std: 0.0098765
    }
    bias_filler {
      type: "constant"
      value: 0
    }
  }
}
layer {
  name: "ReLU90"
  type: "ReLU"
  bottom: "InnerProduct90"
  top: "InnerProduct90"
}
layer {
  name: "InnerProduct91"
  type: "InnerProduct"
  bottom: "Slice91"
  top: "InnerProduct91"
  param {
    lr_mult: 1
    decay_mult: 1
  }
  param {
    lr_mult: 2
    decay_mult: 0
  }
  inner_product_param {
    num_output: 10
    weight_filler {
      type: "gaussian"
      std: 0.0098765
    }
    bias_filler {
      type: "constant"
      value: 0
    }
  }
}
layer {
  name: "ReLU91"
  type: "ReLU"
  bottom: "InnerProduct91"
  top: "InnerProduct91"
}
layer {
  name: "InnerProduct92"
  type: "InnerProduct"
  bottom: "Slice92"
  top: "InnerProduct92"
  param {
    lr_mult: 1
    decay_mult: 1
  }
  param {
    lr_mult: 2
    decay_mult: 0
  }
  inner_product_param {
    num_output: 10
    weight_filler {
      type: "gaussian"
      std: 0.0098765
    }
    bias_filler {
      type: "constant"
      value: 0
    }
  }
}
layer {
  name: "ReLU92"
  type: "ReLU"
  bottom: "InnerProduct92"
  top: "InnerProduct92"
}
layer {
  name: "InnerProduct93"
  type: "InnerProduct"
  bottom: "Slice93"
  top: "InnerProduct93"
  param {
    lr_mult: 1
    decay_mult: 1
  }
  param {
    lr_mult: 2
    decay_mult: 0
  }
  inner_product_param {
    num_output: 10
    weight_filler {
      type: "gaussian"
      std: 0.0098765
    }
    bias_filler {
      type: "constant"
      value: 0
    }
  }
}
layer {
  name: "ReLU93"
  type: "ReLU"
  bottom: "InnerProduct93"
  top: "InnerProduct93"
}
layer {
  name: "InnerProduct94"
  type: "InnerProduct"
  bottom: "Slice94"
  top: "InnerProduct94"
  param {
    lr_mult: 1
    decay_mult: 1
  }
  param {
    lr_mult: 2
    decay_mult: 0
  }
  inner_product_param {
    num_output: 10
    weight_filler {
      type: "gaussian"
      std: 0.0098765
    }
    bias_filler {
      type: "constant"
      value: 0
    }
  }
}
layer {
  name: "ReLU94"
  type: "ReLU"
  bottom: "InnerProduct94"
  top: "InnerProduct94"
}
layer {
  name: "InnerProduct95"
  type: "InnerProduct"
  bottom: "Slice95"
  top: "InnerProduct95"
  param {
    lr_mult: 1
    decay_mult: 1
  }
  param {
    lr_mult: 2
    decay_mult: 0
  }
  inner_product_param {
    num_output: 10
    weight_filler {
      type: "gaussian"
      std: 0.0098765
    }
    bias_filler {
      type: "constant"
      value: 0
    }
  }
}
layer {
  name: "ReLU95"
  type: "ReLU"
  bottom: "InnerProduct95"
  top: "InnerProduct95"
}
layer {
  name: "InnerProduct96"
  type: "InnerProduct"
  bottom: "Slice96"
  top: "InnerProduct96"
  param {
    lr_mult: 1
    decay_mult: 1
  }
  param {
    lr_mult: 2
    decay_mult: 0
  }
  inner_product_param {
    num_output: 10
    weight_filler {
      type: "gaussian"
      std: 0.0098765
    }
    bias_filler {
      type: "constant"
      value: 0
    }
  }
}
layer {
  name: "ReLU96"
  type: "ReLU"
  bottom: "InnerProduct96"
  top: "InnerProduct96"
}
layer {
  name: "InnerProduct97"
  type: "InnerProduct"
  bottom: "Slice97"
  top: "InnerProduct97"
  param {
    lr_mult: 1
    decay_mult: 1
  }
  param {
    lr_mult: 2
    decay_mult: 0
  }
  inner_product_param {
    num_output: 10
    weight_filler {
      type: "gaussian"
      std: 0.0098765
    }
    bias_filler {
      type: "constant"
      value: 0
    }
  }
}
layer {
  name: "ReLU97"
  type: "ReLU"
  bottom: "InnerProduct97"
  top: "InnerProduct97"
}
layer {
  name: "InnerProduct98"
  type: "InnerProduct"
  bottom: "Slice98"
  top: "InnerProduct98"
  param {
    lr_mult: 1
    decay_mult: 1
  }
  param {
    lr_mult: 2
    decay_mult: 0
  }
  inner_product_param {
    num_output: 10
    weight_filler {
      type: "gaussian"
      std: 0.0098765
    }
    bias_filler {
      type: "constant"
      value: 0
    }
  }
}
layer {
  name: "ReLU98"
  type: "ReLU"
  bottom: "InnerProduct98"
  top: "InnerProduct98"
}
layer {
  name: "InnerProduct99"
  type: "InnerProduct"
  bottom: "Slice99"
  top: "InnerProduct99"
  param {
    lr_mult: 1
    decay_mult: 1
  }
  param {
    lr_mult: 2
    decay_mult: 0
  }
  inner_product_param {
    num_output: 10
    weight_filler {
      type: "gaussian"
      std: 0.0098765
    }
    bias_filler {
      type: "constant"
      value: 0
    }
  }
}
layer {
  name: "ReLU99"
  type: "ReLU"
  bottom: "InnerProduct99"
  top: "InnerProduct99"
}
layer {
  name: "InnerProduct100"
  type: "InnerProduct"
  bottom: "Slice100"
  top: "InnerProduct100"
  param {
    lr_mult: 1
    decay_mult: 1
  }
  param {
    lr_mult: 2
    decay_mult: 0
  }
  inner_product_param {
    num_output: 10
    weight_filler {
      type: "gaussian"
      std: 0.0098765
    }
    bias_filler {
      type: "constant"
      value: 0
    }
  }
}
layer {
  name: "ReLU100"
  type: "ReLU"
  bottom: "InnerProduct100"
  top: "InnerProduct100"
}
layer {
  name: "InnerProduct101"
  type: "InnerProduct"
  bottom: "Slice101"
  top: "InnerProduct101"
  param {
    lr_mult: 1
    decay_mult: 1
  }
  param {
    lr_mult: 2
    decay_mult: 0
  }
  inner_product_param {
    num_output: 10
    weight_filler {
      type: "gaussian"
      std: 0.0098765
    }
    bias_filler {
      type: "constant"
      value: 0
    }
  }
}
layer {
  name: "ReLU101"
  type: "ReLU"
  bottom: "InnerProduct101"
  top: "InnerProduct101"
}
layer {
  name: "InnerProduct102"
  type: "InnerProduct"
  bottom: "Slice102"
  top: "InnerProduct102"
  param {
    lr_mult: 1
    decay_mult: 1
  }
  param {
    lr_mult: 2
    decay_mult: 0
  }
  inner_product_param {
    num_output: 10
    weight_filler {
      type: "gaussian"
      std: 0.0098765
    }
    bias_filler {
      type: "constant"
      value: 0
    }
  }
}
layer {
  name: "ReLU102"
  type: "ReLU"
  bottom: "InnerProduct102"
  top: "InnerProduct102"
}
layer {
  name: "InnerProduct103"
  type: "InnerProduct"
  bottom: "Slice103"
  top: "InnerProduct103"
  param {
    lr_mult: 1
    decay_mult: 1
  }
  param {
    lr_mult: 2
    decay_mult: 0
  }
  inner_product_param {
    num_output: 10
    weight_filler {
      type: "gaussian"
      std: 0.0098765
    }
    bias_filler {
      type: "constant"
      value: 0
    }
  }
}
layer {
  name: "ReLU103"
  type: "ReLU"
  bottom: "InnerProduct103"
  top: "InnerProduct103"
}
layer {
  name: "InnerProduct104"
  type: "InnerProduct"
  bottom: "Slice104"
  top: "InnerProduct104"
  param {
    lr_mult: 1
    decay_mult: 1
  }
  param {
    lr_mult: 2
    decay_mult: 0
  }
  inner_product_param {
    num_output: 10
    weight_filler {
      type: "gaussian"
      std: 0.0098765
    }
    bias_filler {
      type: "constant"
      value: 0
    }
  }
}
layer {
  name: "ReLU104"
  type: "ReLU"
  bottom: "InnerProduct104"
  top: "InnerProduct104"
}
layer {
  name: "InnerProduct105"
  type: "InnerProduct"
  bottom: "Slice105"
  top: "InnerProduct105"
  param {
    lr_mult: 1
    decay_mult: 1
  }
  param {
    lr_mult: 2
    decay_mult: 0
  }
  inner_product_param {
    num_output: 10
    weight_filler {
      type: "gaussian"
      std: 0.0098765
    }
    bias_filler {
      type: "constant"
      value: 0
    }
  }
}
layer {
  name: "ReLU105"
  type: "ReLU"
  bottom: "InnerProduct105"
  top: "InnerProduct105"
}
layer {
  name: "InnerProduct106"
  type: "InnerProduct"
  bottom: "Slice106"
  top: "InnerProduct106"
  param {
    lr_mult: 1
    decay_mult: 1
  }
  param {
    lr_mult: 2
    decay_mult: 0
  }
  inner_product_param {
    num_output: 10
    weight_filler {
      type: "gaussian"
      std: 0.0098765
    }
    bias_filler {
      type: "constant"
      value: 0
    }
  }
}
layer {
  name: "ReLU106"
  type: "ReLU"
  bottom: "InnerProduct106"
  top: "InnerProduct106"
}
layer {
  name: "InnerProduct107"
  type: "InnerProduct"
  bottom: "Slice107"
  top: "InnerProduct107"
  param {
    lr_mult: 1
    decay_mult: 1
  }
  param {
    lr_mult: 2
    decay_mult: 0
  }
  inner_product_param {
    num_output: 10
    weight_filler {
      type: "gaussian"
      std: 0.0098765
    }
    bias_filler {
      type: "constant"
      value: 0
    }
  }
}
layer {
  name: "ReLU107"
  type: "ReLU"
  bottom: "InnerProduct107"
  top: "InnerProduct107"
}
layer {
  name: "InnerProduct108"
  type: "InnerProduct"
  bottom: "Slice108"
  top: "InnerProduct108"
  param {
    lr_mult: 1
    decay_mult: 1
  }
  param {
    lr_mult: 2
    decay_mult: 0
  }
  inner_product_param {
    num_output: 10
    weight_filler {
      type: "gaussian"
      std: 0.0098765
    }
    bias_filler {
      type: "constant"
      value: 0
    }
  }
}
layer {
  name: "ReLU108"
  type: "ReLU"
  bottom: "InnerProduct108"
  top: "InnerProduct108"
}
layer {
  name: "InnerProduct109"
  type: "InnerProduct"
  bottom: "Slice109"
  top: "InnerProduct109"
  param {
    lr_mult: 1
    decay_mult: 1
  }
  param {
    lr_mult: 2
    decay_mult: 0
  }
  inner_product_param {
    num_output: 10
    weight_filler {
      type: "gaussian"
      std: 0.0098765
    }
    bias_filler {
      type: "constant"
      value: 0
    }
  }
}
layer {
  name: "ReLU109"
  type: "ReLU"
  bottom: "InnerProduct109"
  top: "InnerProduct109"
}
layer {
  name: "InnerProduct110"
  type: "InnerProduct"
  bottom: "Slice110"
  top: "InnerProduct110"
  param {
    lr_mult: 1
    decay_mult: 1
  }
  param {
    lr_mult: 2
    decay_mult: 0
  }
  inner_product_param {
    num_output: 10
    weight_filler {
      type: "gaussian"
      std: 0.0098765
    }
    bias_filler {
      type: "constant"
      value: 0
    }
  }
}
layer {
  name: "ReLU110"
  type: "ReLU"
  bottom: "InnerProduct110"
  top: "InnerProduct110"
}
layer {
  name: "InnerProduct111"
  type: "InnerProduct"
  bottom: "Slice111"
  top: "InnerProduct111"
  param {
    lr_mult: 1
    decay_mult: 1
  }
  param {
    lr_mult: 2
    decay_mult: 0
  }
  inner_product_param {
    num_output: 10
    weight_filler {
      type: "gaussian"
      std: 0.0098765
    }
    bias_filler {
      type: "constant"
      value: 0
    }
  }
}
layer {
  name: "ReLU111"
  type: "ReLU"
  bottom: "InnerProduct111"
  top: "InnerProduct111"
}
layer {
  name: "InnerProduct112"
  type: "InnerProduct"
  bottom: "Slice112"
  top: "InnerProduct112"
  param {
    lr_mult: 1
    decay_mult: 1
  }
  param {
    lr_mult: 2
    decay_mult: 0
  }
  inner_product_param {
    num_output: 10
    weight_filler {
      type: "gaussian"
      std: 0.0098765
    }
    bias_filler {
      type: "constant"
      value: 0
    }
  }
}
layer {
  name: "ReLU112"
  type: "ReLU"
  bottom: "InnerProduct112"
  top: "InnerProduct112"
}
layer {
  name: "InnerProduct113"
  type: "InnerProduct"
  bottom: "Slice113"
  top: "InnerProduct113"
  param {
    lr_mult: 1
    decay_mult: 1
  }
  param {
    lr_mult: 2
    decay_mult: 0
  }
  inner_product_param {
    num_output: 10
    weight_filler {
      type: "gaussian"
      std: 0.0098765
    }
    bias_filler {
      type: "constant"
      value: 0
    }
  }
}
layer {
  name: "ReLU113"
  type: "ReLU"
  bottom: "InnerProduct113"
  top: "InnerProduct113"
}
layer {
  name: "InnerProduct114"
  type: "InnerProduct"
  bottom: "Slice114"
  top: "InnerProduct114"
  param {
    lr_mult: 1
    decay_mult: 1
  }
  param {
    lr_mult: 2
    decay_mult: 0
  }
  inner_product_param {
    num_output: 10
    weight_filler {
      type: "gaussian"
      std: 0.0098765
    }
    bias_filler {
      type: "constant"
      value: 0
    }
  }
}
layer {
  name: "ReLU114"
  type: "ReLU"
  bottom: "InnerProduct114"
  top: "InnerProduct114"
}
layer {
  name: "InnerProduct115"
  type: "InnerProduct"
  bottom: "Slice115"
  top: "InnerProduct115"
  param {
    lr_mult: 1
    decay_mult: 1
  }
  param {
    lr_mult: 2
    decay_mult: 0
  }
  inner_product_param {
    num_output: 10
    weight_filler {
      type: "gaussian"
      std: 0.0098765
    }
    bias_filler {
      type: "constant"
      value: 0
    }
  }
}
layer {
  name: "ReLU115"
  type: "ReLU"
  bottom: "InnerProduct115"
  top: "InnerProduct115"
}
layer {
  name: "InnerProduct116"
  type: "InnerProduct"
  bottom: "Slice116"
  top: "InnerProduct116"
  param {
    lr_mult: 1
    decay_mult: 1
  }
  param {
    lr_mult: 2
    decay_mult: 0
  }
  inner_product_param {
    num_output: 10
    weight_filler {
      type: "gaussian"
      std: 0.0098765
    }
    bias_filler {
      type: "constant"
      value: 0
    }
  }
}
layer {
  name: "ReLU116"
  type: "ReLU"
  bottom: "InnerProduct116"
  top: "InnerProduct116"
}
layer {
  name: "InnerProduct117"
  type: "InnerProduct"
  bottom: "Slice117"
  top: "InnerProduct117"
  param {
    lr_mult: 1
    decay_mult: 1
  }
  param {
    lr_mult: 2
    decay_mult: 0
  }
  inner_product_param {
    num_output: 10
    weight_filler {
      type: "gaussian"
      std: 0.0098765
    }
    bias_filler {
      type: "constant"
      value: 0
    }
  }
}
layer {
  name: "ReLU117"
  type: "ReLU"
  bottom: "InnerProduct117"
  top: "InnerProduct117"
}
layer {
  name: "InnerProduct118"
  type: "InnerProduct"
  bottom: "Slice118"
  top: "InnerProduct118"
  param {
    lr_mult: 1
    decay_mult: 1
  }
  param {
    lr_mult: 2
    decay_mult: 0
  }
  inner_product_param {
    num_output: 10
    weight_filler {
      type: "gaussian"
      std: 0.0098765
    }
    bias_filler {
      type: "constant"
      value: 0
    }
  }
}
layer {
  name: "ReLU118"
  type: "ReLU"
  bottom: "InnerProduct118"
  top: "InnerProduct118"
}
layer {
  name: "InnerProduct119"
  type: "InnerProduct"
  bottom: "Slice119"
  top: "InnerProduct119"
  param {
    lr_mult: 1
    decay_mult: 1
  }
  param {
    lr_mult: 2
    decay_mult: 0
  }
  inner_product_param {
    num_output: 10
    weight_filler {
      type: "gaussian"
      std: 0.0098765
    }
    bias_filler {
      type: "constant"
      value: 0
    }
  }
}
layer {
  name: "ReLU119"
  type: "ReLU"
  bottom: "InnerProduct119"
  top: "InnerProduct119"
}
layer {
  name: "InnerProduct120"
  type: "InnerProduct"
  bottom: "Slice120"
  top: "InnerProduct120"
  param {
    lr_mult: 1
    decay_mult: 1
  }
  param {
    lr_mult: 2
    decay_mult: 0
  }
  inner_product_param {
    num_output: 10
    weight_filler {
      type: "gaussian"
      std: 0.0098765
    }
    bias_filler {
      type: "constant"
      value: 0
    }
  }
}
layer {
  name: "ReLU120"
  type: "ReLU"
  bottom: "InnerProduct120"
  top: "InnerProduct120"
}
layer {
  name: "InnerProduct121"
  type: "InnerProduct"
  bottom: "Slice121"
  top: "InnerProduct121"
  param {
    lr_mult: 1
    decay_mult: 1
  }
  param {
    lr_mult: 2
    decay_mult: 0
  }
  inner_product_param {
    num_output: 10
    weight_filler {
      type: "gaussian"
      std: 0.0098765
    }
    bias_filler {
      type: "constant"
      value: 0
    }
  }
}
layer {
  name: "ReLU121"
  type: "ReLU"
  bottom: "InnerProduct121"
  top: "InnerProduct121"
}
layer {
  name: "InnerProduct122"
  type: "InnerProduct"
  bottom: "Slice122"
  top: "InnerProduct122"
  param {
    lr_mult: 1
    decay_mult: 1
  }
  param {
    lr_mult: 2
    decay_mult: 0
  }
  inner_product_param {
    num_output: 10
    weight_filler {
      type: "gaussian"
      std: 0.0098765
    }
    bias_filler {
      type: "constant"
      value: 0
    }
  }
}
layer {
  name: "ReLU122"
  type: "ReLU"
  bottom: "InnerProduct122"
  top: "InnerProduct122"
}
layer {
  name: "InnerProduct123"
  type: "InnerProduct"
  bottom: "Slice123"
  top: "InnerProduct123"
  param {
    lr_mult: 1
    decay_mult: 1
  }
  param {
    lr_mult: 2
    decay_mult: 0
  }
  inner_product_param {
    num_output: 10
    weight_filler {
      type: "gaussian"
      std: 0.0098765
    }
    bias_filler {
      type: "constant"
      value: 0
    }
  }
}
layer {
  name: "ReLU123"
  type: "ReLU"
  bottom: "InnerProduct123"
  top: "InnerProduct123"
}
layer {
  name: "InnerProduct124"
  type: "InnerProduct"
  bottom: "Slice124"
  top: "InnerProduct124"
  param {
    lr_mult: 1
    decay_mult: 1
  }
  param {
    lr_mult: 2
    decay_mult: 0
  }
  inner_product_param {
    num_output: 10
    weight_filler {
      type: "gaussian"
      std: 0.0098765
    }
    bias_filler {
      type: "constant"
      value: 0
    }
  }
}
layer {
  name: "ReLU124"
  type: "ReLU"
  bottom: "InnerProduct124"
  top: "InnerProduct124"
}
layer {
  name: "InnerProduct125"
  type: "InnerProduct"
  bottom: "Slice125"
  top: "InnerProduct125"
  param {
    lr_mult: 1
    decay_mult: 1
  }
  param {
    lr_mult: 2
    decay_mult: 0
  }
  inner_product_param {
    num_output: 10
    weight_filler {
      type: "gaussian"
      std: 0.0098765
    }
    bias_filler {
      type: "constant"
      value: 0
    }
  }
}
layer {
  name: "ReLU125"
  type: "ReLU"
  bottom: "InnerProduct125"
  top: "InnerProduct125"
}
layer {
  name: "InnerProduct126"
  type: "InnerProduct"
  bottom: "Slice126"
  top: "InnerProduct126"
  param {
    lr_mult: 1
    decay_mult: 1
  }
  param {
    lr_mult: 2
    decay_mult: 0
  }
  inner_product_param {
    num_output: 10
    weight_filler {
      type: "gaussian"
      std: 0.0098765
    }
    bias_filler {
      type: "constant"
      value: 0
    }
  }
}
layer {
  name: "ReLU126"
  type: "ReLU"
  bottom: "InnerProduct126"
  top: "InnerProduct126"
}
layer {
  name: "InnerProduct127"
  type: "InnerProduct"
  bottom: "Slice127"
  top: "InnerProduct127"
  param {
    lr_mult: 1
    decay_mult: 1
  }
  param {
    lr_mult: 2
    decay_mult: 0
  }
  inner_product_param {
    num_output: 10
    weight_filler {
      type: "gaussian"
      std: 0.0098765
    }
    bias_filler {
      type: "constant"
      value: 0
    }
  }
}
layer {
  name: "ReLU127"
  type: "ReLU"
  bottom: "InnerProduct127"
  top: "InnerProduct127"
}
layer {
  name: "InnerProduct128"
  type: "InnerProduct"
  bottom: "Slice128"
  top: "InnerProduct128"
  param {
    lr_mult: 1
    decay_mult: 1
  }
  param {
    lr_mult: 2
    decay_mult: 0
  }
  inner_product_param {
    num_output: 10
    weight_filler {
      type: "gaussian"
      std: 0.0098765
    }
    bias_filler {
      type: "constant"
      value: 0
    }
  }
}
layer {
  name: "ReLU128"
  type: "ReLU"
  bottom: "InnerProduct128"
  top: "InnerProduct128"
}
layer {
  name: "InnerProduct129"
  type: "InnerProduct"
  bottom: "Slice129"
  top: "InnerProduct129"
  param {
    lr_mult: 1
    decay_mult: 1
  }
  param {
    lr_mult: 2
    decay_mult: 0
  }
  inner_product_param {
    num_output: 10
    weight_filler {
      type: "gaussian"
      std: 0.0098765
    }
    bias_filler {
      type: "constant"
      value: 0
    }
  }
}
layer {
  name: "ReLU129"
  type: "ReLU"
  bottom: "InnerProduct129"
  top: "InnerProduct129"
}
layer {
  name: "InnerProduct130"
  type: "InnerProduct"
  bottom: "Slice130"
  top: "InnerProduct130"
  param {
    lr_mult: 1
    decay_mult: 1
  }
  param {
    lr_mult: 2
    decay_mult: 0
  }
  inner_product_param {
    num_output: 10
    weight_filler {
      type: "gaussian"
      std: 0.0098765
    }
    bias_filler {
      type: "constant"
      value: 0
    }
  }
}
layer {
  name: "ReLU130"
  type: "ReLU"
  bottom: "InnerProduct130"
  top: "InnerProduct130"
}
layer {
  name: "InnerProduct131"
  type: "InnerProduct"
  bottom: "Slice131"
  top: "InnerProduct131"
  param {
    lr_mult: 1
    decay_mult: 1
  }
  param {
    lr_mult: 2
    decay_mult: 0
  }
  inner_product_param {
    num_output: 10
    weight_filler {
      type: "gaussian"
      std: 0.0098765
    }
    bias_filler {
      type: "constant"
      value: 0
    }
  }
}
layer {
  name: "ReLU131"
  type: "ReLU"
  bottom: "InnerProduct131"
  top: "InnerProduct131"
}
layer {
  name: "InnerProduct132"
  type: "InnerProduct"
  bottom: "Slice132"
  top: "InnerProduct132"
  param {
    lr_mult: 1
    decay_mult: 1
  }
  param {
    lr_mult: 2
    decay_mult: 0
  }
  inner_product_param {
    num_output: 10
    weight_filler {
      type: "gaussian"
      std: 0.0098765
    }
    bias_filler {
      type: "constant"
      value: 0
    }
  }
}
layer {
  name: "ReLU132"
  type: "ReLU"
  bottom: "InnerProduct132"
  top: "InnerProduct132"
}
layer {
  name: "InnerProduct133"
  type: "InnerProduct"
  bottom: "Slice133"
  top: "InnerProduct133"
  param {
    lr_mult: 1
    decay_mult: 1
  }
  param {
    lr_mult: 2
    decay_mult: 0
  }
  inner_product_param {
    num_output: 10
    weight_filler {
      type: "gaussian"
      std: 0.0098765
    }
    bias_filler {
      type: "constant"
      value: 0
    }
  }
}
layer {
  name: "ReLU133"
  type: "ReLU"
  bottom: "InnerProduct133"
  top: "InnerProduct133"
}
layer {
  name: "InnerProduct134"
  type: "InnerProduct"
  bottom: "Slice134"
  top: "InnerProduct134"
  param {
    lr_mult: 1
    decay_mult: 1
  }
  param {
    lr_mult: 2
    decay_mult: 0
  }
  inner_product_param {
    num_output: 10
    weight_filler {
      type: "gaussian"
      std: 0.0098765
    }
    bias_filler {
      type: "constant"
      value: 0
    }
  }
}
layer {
  name: "ReLU134"
  type: "ReLU"
  bottom: "InnerProduct134"
  top: "InnerProduct134"
}
layer {
  name: "InnerProduct135"
  type: "InnerProduct"
  bottom: "Slice135"
  top: "InnerProduct135"
  param {
    lr_mult: 1
    decay_mult: 1
  }
  param {
    lr_mult: 2
    decay_mult: 0
  }
  inner_product_param {
    num_output: 10
    weight_filler {
      type: "gaussian"
      std: 0.0098765
    }
    bias_filler {
      type: "constant"
      value: 0
    }
  }
}
layer {
  name: "ReLU135"
  type: "ReLU"
  bottom: "InnerProduct135"
  top: "InnerProduct135"
}
layer {
  name: "InnerProduct136"
  type: "InnerProduct"
  bottom: "Slice136"
  top: "InnerProduct136"
  param {
    lr_mult: 1
    decay_mult: 1
  }
  param {
    lr_mult: 2
    decay_mult: 0
  }
  inner_product_param {
    num_output: 10
    weight_filler {
      type: "gaussian"
      std: 0.0098765
    }
    bias_filler {
      type: "constant"
      value: 0
    }
  }
}
layer {
  name: "ReLU136"
  type: "ReLU"
  bottom: "InnerProduct136"
  top: "InnerProduct136"
}
layer {
  name: "InnerProduct137"
  type: "InnerProduct"
  bottom: "Slice137"
  top: "InnerProduct137"
  param {
    lr_mult: 1
    decay_mult: 1
  }
  param {
    lr_mult: 2
    decay_mult: 0
  }
  inner_product_param {
    num_output: 10
    weight_filler {
      type: "gaussian"
      std: 0.0098765
    }
    bias_filler {
      type: "constant"
      value: 0
    }
  }
}
layer {
  name: "ReLU137"
  type: "ReLU"
  bottom: "InnerProduct137"
  top: "InnerProduct137"
}
layer {
  name: "InnerProduct138"
  type: "InnerProduct"
  bottom: "Slice138"
  top: "InnerProduct138"
  param {
    lr_mult: 1
    decay_mult: 1
  }
  param {
    lr_mult: 2
    decay_mult: 0
  }
  inner_product_param {
    num_output: 10
    weight_filler {
      type: "gaussian"
      std: 0.0098765
    }
    bias_filler {
      type: "constant"
      value: 0
    }
  }
}
layer {
  name: "ReLU138"
  type: "ReLU"
  bottom: "InnerProduct138"
  top: "InnerProduct138"
}
layer {
  name: "InnerProduct139"
  type: "InnerProduct"
  bottom: "Slice139"
  top: "InnerProduct139"
  param {
    lr_mult: 1
    decay_mult: 1
  }
  param {
    lr_mult: 2
    decay_mult: 0
  }
  inner_product_param {
    num_output: 10
    weight_filler {
      type: "gaussian"
      std: 0.0098765
    }
    bias_filler {
      type: "constant"
      value: 0
    }
  }
}
layer {
  name: "ReLU139"
  type: "ReLU"
  bottom: "InnerProduct139"
  top: "InnerProduct139"
}
layer {
  name: "InnerProduct140"
  type: "InnerProduct"
  bottom: "Slice140"
  top: "InnerProduct140"
  param {
    lr_mult: 1
    decay_mult: 1
  }
  param {
    lr_mult: 2
    decay_mult: 0
  }
  inner_product_param {
    num_output: 10
    weight_filler {
      type: "gaussian"
      std: 0.0098765
    }
    bias_filler {
      type: "constant"
      value: 0
    }
  }
}
layer {
  name: "ReLU140"
  type: "ReLU"
  bottom: "InnerProduct140"
  top: "InnerProduct140"
}
layer {
  name: "InnerProduct141"
  type: "InnerProduct"
  bottom: "Slice141"
  top: "InnerProduct141"
  param {
    lr_mult: 1
    decay_mult: 1
  }
  param {
    lr_mult: 2
    decay_mult: 0
  }
  inner_product_param {
    num_output: 10
    weight_filler {
      type: "gaussian"
      std: 0.0098765
    }
    bias_filler {
      type: "constant"
      value: 0
    }
  }
}
layer {
  name: "ReLU141"
  type: "ReLU"
  bottom: "InnerProduct141"
  top: "InnerProduct141"
}
layer {
  name: "InnerProduct142"
  type: "InnerProduct"
  bottom: "Slice142"
  top: "InnerProduct142"
  param {
    lr_mult: 1
    decay_mult: 1
  }
  param {
    lr_mult: 2
    decay_mult: 0
  }
  inner_product_param {
    num_output: 10
    weight_filler {
      type: "gaussian"
      std: 0.0098765
    }
    bias_filler {
      type: "constant"
      value: 0
    }
  }
}
layer {
  name: "ReLU142"
  type: "ReLU"
  bottom: "InnerProduct142"
  top: "InnerProduct142"
}
layer {
  name: "InnerProduct143"
  type: "InnerProduct"
  bottom: "Slice143"
  top: "InnerProduct143"
  param {
    lr_mult: 1
    decay_mult: 1
  }
  param {
    lr_mult: 2
    decay_mult: 0
  }
  inner_product_param {
    num_output: 10
    weight_filler {
      type: "gaussian"
      std: 0.0098765
    }
    bias_filler {
      type: "constant"
      value: 0
    }
  }
}
layer {
  name: "ReLU143"
  type: "ReLU"
  bottom: "InnerProduct143"
  top: "InnerProduct143"
}
layer {
  name: "InnerProduct144"
  type: "InnerProduct"
  bottom: "Slice144"
  top: "InnerProduct144"
  param {
    lr_mult: 1
    decay_mult: 1
  }
  param {
    lr_mult: 2
    decay_mult: 0
  }
  inner_product_param {
    num_output: 10
    weight_filler {
      type: "gaussian"
      std: 0.0098765
    }
    bias_filler {
      type: "constant"
      value: 0
    }
  }
}
layer {
  name: "ReLU144"
  type: "ReLU"
  bottom: "InnerProduct144"
  top: "InnerProduct144"
}
layer {
  name: "InnerProduct145"
  type: "InnerProduct"
  bottom: "Slice145"
  top: "InnerProduct145"
  param {
    lr_mult: 1
    decay_mult: 1
  }
  param {
    lr_mult: 2
    decay_mult: 0
  }
  inner_product_param {
    num_output: 10
    weight_filler {
      type: "gaussian"
      std: 0.0098765
    }
    bias_filler {
      type: "constant"
      value: 0
    }
  }
}
layer {
  name: "ReLU145"
  type: "ReLU"
  bottom: "InnerProduct145"
  top: "InnerProduct145"
}
layer {
  name: "InnerProduct146"
  type: "InnerProduct"
  bottom: "Slice146"
  top: "InnerProduct146"
  param {
    lr_mult: 1
    decay_mult: 1
  }
  param {
    lr_mult: 2
    decay_mult: 0
  }
  inner_product_param {
    num_output: 10
    weight_filler {
      type: "gaussian"
      std: 0.0098765
    }
    bias_filler {
      type: "constant"
      value: 0
    }
  }
}
layer {
  name: "ReLU146"
  type: "ReLU"
  bottom: "InnerProduct146"
  top: "InnerProduct146"
}
layer {
  name: "InnerProduct147"
  type: "InnerProduct"
  bottom: "Slice147"
  top: "InnerProduct147"
  param {
    lr_mult: 1
    decay_mult: 1
  }
  param {
    lr_mult: 2
    decay_mult: 0
  }
  inner_product_param {
    num_output: 10
    weight_filler {
      type: "gaussian"
      std: 0.0098765
    }
    bias_filler {
      type: "constant"
      value: 0
    }
  }
}
layer {
  name: "ReLU147"
  type: "ReLU"
  bottom: "InnerProduct147"
  top: "InnerProduct147"
}
layer {
  name: "InnerProduct148"
  type: "InnerProduct"
  bottom: "Slice148"
  top: "InnerProduct148"
  param {
    lr_mult: 1
    decay_mult: 1
  }
  param {
    lr_mult: 2
    decay_mult: 0
  }
  inner_product_param {
    num_output: 10
    weight_filler {
      type: "gaussian"
      std: 0.0098765
    }
    bias_filler {
      type: "constant"
      value: 0
    }
  }
}
layer {
  name: "ReLU148"
  type: "ReLU"
  bottom: "InnerProduct148"
  top: "InnerProduct148"
}
layer {
  name: "InnerProduct149"
  type: "InnerProduct"
  bottom: "Slice149"
  top: "InnerProduct149"
  param {
    lr_mult: 1
    decay_mult: 1
  }
  param {
    lr_mult: 2
    decay_mult: 0
  }
  inner_product_param {
    num_output: 10
    weight_filler {
      type: "gaussian"
      std: 0.0098765
    }
    bias_filler {
      type: "constant"
      value: 0
    }
  }
}
layer {
  name: "ReLU149"
  type: "ReLU"
  bottom: "InnerProduct149"
  top: "InnerProduct149"
}
layer {
  name: "InnerProduct150"
  type: "InnerProduct"
  bottom: "Slice150"
  top: "InnerProduct150"
  param {
    lr_mult: 1
    decay_mult: 1
  }
  param {
    lr_mult: 2
    decay_mult: 0
  }
  inner_product_param {
    num_output: 10
    weight_filler {
      type: "gaussian"
      std: 0.0098765
    }
    bias_filler {
      type: "constant"
      value: 0
    }
  }
}
layer {
  name: "ReLU150"
  type: "ReLU"
  bottom: "InnerProduct150"
  top: "InnerProduct150"
}
layer {
  name: "InnerProduct151"
  type: "InnerProduct"
  bottom: "Slice151"
  top: "InnerProduct151"
  param {
    lr_mult: 1
    decay_mult: 1
  }
  param {
    lr_mult: 2
    decay_mult: 0
  }
  inner_product_param {
    num_output: 10
    weight_filler {
      type: "gaussian"
      std: 0.0098765
    }
    bias_filler {
      type: "constant"
      value: 0
    }
  }
}
layer {
  name: "ReLU151"
  type: "ReLU"
  bottom: "InnerProduct151"
  top: "InnerProduct151"
}
layer {
  name: "InnerProduct152"
  type: "InnerProduct"
  bottom: "Slice152"
  top: "InnerProduct152"
  param {
    lr_mult: 1
    decay_mult: 1
  }
  param {
    lr_mult: 2
    decay_mult: 0
  }
  inner_product_param {
    num_output: 10
    weight_filler {
      type: "gaussian"
      std: 0.0098765
    }
    bias_filler {
      type: "constant"
      value: 0
    }
  }
}
layer {
  name: "ReLU152"
  type: "ReLU"
  bottom: "InnerProduct152"
  top: "InnerProduct152"
}
layer {
  name: "InnerProduct153"
  type: "InnerProduct"
  bottom: "Slice153"
  top: "InnerProduct153"
  param {
    lr_mult: 1
    decay_mult: 1
  }
  param {
    lr_mult: 2
    decay_mult: 0
  }
  inner_product_param {
    num_output: 10
    weight_filler {
      type: "gaussian"
      std: 0.0098765
    }
    bias_filler {
      type: "constant"
      value: 0
    }
  }
}
layer {
  name: "ReLU153"
  type: "ReLU"
  bottom: "InnerProduct153"
  top: "InnerProduct153"
}
layer {
  name: "InnerProduct154"
  type: "InnerProduct"
  bottom: "Slice154"
  top: "InnerProduct154"
  param {
    lr_mult: 1
    decay_mult: 1
  }
  param {
    lr_mult: 2
    decay_mult: 0
  }
  inner_product_param {
    num_output: 10
    weight_filler {
      type: "gaussian"
      std: 0.0098765
    }
    bias_filler {
      type: "constant"
      value: 0
    }
  }
}
layer {
  name: "ReLU154"
  type: "ReLU"
  bottom: "InnerProduct154"
  top: "InnerProduct154"
}
layer {
  name: "InnerProduct155"
  type: "InnerProduct"
  bottom: "Slice155"
  top: "InnerProduct155"
  param {
    lr_mult: 1
    decay_mult: 1
  }
  param {
    lr_mult: 2
    decay_mult: 0
  }
  inner_product_param {
    num_output: 10
    weight_filler {
      type: "gaussian"
      std: 0.0098765
    }
    bias_filler {
      type: "constant"
      value: 0
    }
  }
}
layer {
  name: "ReLU155"
  type: "ReLU"
  bottom: "InnerProduct155"
  top: "InnerProduct155"
}
layer {
  name: "InnerProduct156"
  type: "InnerProduct"
  bottom: "Slice156"
  top: "InnerProduct156"
  param {
    lr_mult: 1
    decay_mult: 1
  }
  param {
    lr_mult: 2
    decay_mult: 0
  }
  inner_product_param {
    num_output: 10
    weight_filler {
      type: "gaussian"
      std: 0.0098765
    }
    bias_filler {
      type: "constant"
      value: 0
    }
  }
}
layer {
  name: "ReLU156"
  type: "ReLU"
  bottom: "InnerProduct156"
  top: "InnerProduct156"
}
layer {
  name: "InnerProduct157"
  type: "InnerProduct"
  bottom: "Slice157"
  top: "InnerProduct157"
  param {
    lr_mult: 1
    decay_mult: 1
  }
  param {
    lr_mult: 2
    decay_mult: 0
  }
  inner_product_param {
    num_output: 10
    weight_filler {
      type: "gaussian"
      std: 0.0098765
    }
    bias_filler {
      type: "constant"
      value: 0
    }
  }
}
layer {
  name: "ReLU157"
  type: "ReLU"
  bottom: "InnerProduct157"
  top: "InnerProduct157"
}
layer {
  name: "InnerProduct158"
  type: "InnerProduct"
  bottom: "Slice158"
  top: "InnerProduct158"
  param {
    lr_mult: 1
    decay_mult: 1
  }
  param {
    lr_mult: 2
    decay_mult: 0
  }
  inner_product_param {
    num_output: 10
    weight_filler {
      type: "gaussian"
      std: 0.0098765
    }
    bias_filler {
      type: "constant"
      value: 0
    }
  }
}
layer {
  name: "ReLU158"
  type: "ReLU"
  bottom: "InnerProduct158"
  top: "InnerProduct158"
}
layer {
  name: "InnerProduct159"
  type: "InnerProduct"
  bottom: "Slice159"
  top: "InnerProduct159"
  param {
    lr_mult: 1
    decay_mult: 1
  }
  param {
    lr_mult: 2
    decay_mult: 0
  }
  inner_product_param {
    num_output: 10
    weight_filler {
      type: "gaussian"
      std: 0.0098765
    }
    bias_filler {
      type: "constant"
      value: 0
    }
  }
}
layer {
  name: "ReLU159"
  type: "ReLU"
  bottom: "InnerProduct159"
  top: "InnerProduct159"
}
layer {
  name: "InnerProduct160"
  type: "InnerProduct"
  bottom: "Slice160"
  top: "InnerProduct160"
  param {
    lr_mult: 1
    decay_mult: 1
  }
  param {
    lr_mult: 2
    decay_mult: 0
  }
  inner_product_param {
    num_output: 10
    weight_filler {
      type: "gaussian"
      std: 0.0098765
    }
    bias_filler {
      type: "constant"
      value: 0
    }
  }
}
layer {
  name: "ReLU160"
  type: "ReLU"
  bottom: "InnerProduct160"
  top: "InnerProduct160"
}
layer {
  name: "InnerProduct161"
  type: "InnerProduct"
  bottom: "Slice161"
  top: "InnerProduct161"
  param {
    lr_mult: 1
    decay_mult: 1
  }
  param {
    lr_mult: 2
    decay_mult: 0
  }
  inner_product_param {
    num_output: 10
    weight_filler {
      type: "gaussian"
      std: 0.0098765
    }
    bias_filler {
      type: "constant"
      value: 0
    }
  }
}
layer {
  name: "ReLU161"
  type: "ReLU"
  bottom: "InnerProduct161"
  top: "InnerProduct161"
}
layer {
  name: "InnerProduct162"
  type: "InnerProduct"
  bottom: "Slice162"
  top: "InnerProduct162"
  param {
    lr_mult: 1
    decay_mult: 1
  }
  param {
    lr_mult: 2
    decay_mult: 0
  }
  inner_product_param {
    num_output: 10
    weight_filler {
      type: "gaussian"
      std: 0.0098765
    }
    bias_filler {
      type: "constant"
      value: 0
    }
  }
}
layer {
  name: "ReLU162"
  type: "ReLU"
  bottom: "InnerProduct162"
  top: "InnerProduct162"
}
layer {
  name: "InnerProduct163"
  type: "InnerProduct"
  bottom: "Slice163"
  top: "InnerProduct163"
  param {
    lr_mult: 1
    decay_mult: 1
  }
  param {
    lr_mult: 2
    decay_mult: 0
  }
  inner_product_param {
    num_output: 10
    weight_filler {
      type: "gaussian"
      std: 0.0098765
    }
    bias_filler {
      type: "constant"
      value: 0
    }
  }
}
layer {
  name: "ReLU163"
  type: "ReLU"
  bottom: "InnerProduct163"
  top: "InnerProduct163"
}
layer {
  name: "InnerProduct164"
  type: "InnerProduct"
  bottom: "Slice164"
  top: "InnerProduct164"
  param {
    lr_mult: 1
    decay_mult: 1
  }
  param {
    lr_mult: 2
    decay_mult: 0
  }
  inner_product_param {
    num_output: 10
    weight_filler {
      type: "gaussian"
      std: 0.0098765
    }
    bias_filler {
      type: "constant"
      value: 0
    }
  }
}
layer {
  name: "ReLU164"
  type: "ReLU"
  bottom: "InnerProduct164"
  top: "InnerProduct164"
}
layer {
  name: "InnerProduct165"
  type: "InnerProduct"
  bottom: "Slice165"
  top: "InnerProduct165"
  param {
    lr_mult: 1
    decay_mult: 1
  }
  param {
    lr_mult: 2
    decay_mult: 0
  }
  inner_product_param {
    num_output: 10
    weight_filler {
      type: "gaussian"
      std: 0.0098765
    }
    bias_filler {
      type: "constant"
      value: 0
    }
  }
}
layer {
  name: "ReLU165"
  type: "ReLU"
  bottom: "InnerProduct165"
  top: "InnerProduct165"
}
layer {
  name: "InnerProduct166"
  type: "InnerProduct"
  bottom: "Slice166"
  top: "InnerProduct166"
  param {
    lr_mult: 1
    decay_mult: 1
  }
  param {
    lr_mult: 2
    decay_mult: 0
  }
  inner_product_param {
    num_output: 10
    weight_filler {
      type: "gaussian"
      std: 0.0098765
    }
    bias_filler {
      type: "constant"
      value: 0
    }
  }
}
layer {
  name: "ReLU166"
  type: "ReLU"
  bottom: "InnerProduct166"
  top: "InnerProduct166"
}
layer {
  name: "InnerProduct167"
  type: "InnerProduct"
  bottom: "Slice167"
  top: "InnerProduct167"
  param {
    lr_mult: 1
    decay_mult: 1
  }
  param {
    lr_mult: 2
    decay_mult: 0
  }
  inner_product_param {
    num_output: 10
    weight_filler {
      type: "gaussian"
      std: 0.0098765
    }
    bias_filler {
      type: "constant"
      value: 0
    }
  }
}
layer {
  name: "ReLU167"
  type: "ReLU"
  bottom: "InnerProduct167"
  top: "InnerProduct167"
}
layer {
  name: "InnerProduct168"
  type: "InnerProduct"
  bottom: "Slice168"
  top: "InnerProduct168"
  param {
    lr_mult: 1
    decay_mult: 1
  }
  param {
    lr_mult: 2
    decay_mult: 0
  }
  inner_product_param {
    num_output: 10
    weight_filler {
      type: "gaussian"
      std: 0.0098765
    }
    bias_filler {
      type: "constant"
      value: 0
    }
  }
}
layer {
  name: "ReLU168"
  type: "ReLU"
  bottom: "InnerProduct168"
  top: "InnerProduct168"
}
layer {
  name: "InnerProduct169"
  type: "InnerProduct"
  bottom: "Slice169"
  top: "InnerProduct169"
  param {
    lr_mult: 1
    decay_mult: 1
  }
  param {
    lr_mult: 2
    decay_mult: 0
  }
  inner_product_param {
    num_output: 10
    weight_filler {
      type: "gaussian"
      std: 0.0098765
    }
    bias_filler {
      type: "constant"
      value: 0
    }
  }
}
layer {
  name: "ReLU169"
  type: "ReLU"
  bottom: "InnerProduct169"
  top: "InnerProduct169"
}
layer {
  name: "InnerProduct170"
  type: "InnerProduct"
  bottom: "Slice170"
  top: "InnerProduct170"
  param {
    lr_mult: 1
    decay_mult: 1
  }
  param {
    lr_mult: 2
    decay_mult: 0
  }
  inner_product_param {
    num_output: 10
    weight_filler {
      type: "gaussian"
      std: 0.0098765
    }
    bias_filler {
      type: "constant"
      value: 0
    }
  }
}
layer {
  name: "ReLU170"
  type: "ReLU"
  bottom: "InnerProduct170"
  top: "InnerProduct170"
}
layer {
  name: "InnerProduct171"
  type: "InnerProduct"
  bottom: "Slice171"
  top: "InnerProduct171"
  param {
    lr_mult: 1
    decay_mult: 1
  }
  param {
    lr_mult: 2
    decay_mult: 0
  }
  inner_product_param {
    num_output: 10
    weight_filler {
      type: "gaussian"
      std: 0.0098765
    }
    bias_filler {
      type: "constant"
      value: 0
    }
  }
}
layer {
  name: "ReLU171"
  type: "ReLU"
  bottom: "InnerProduct171"
  top: "InnerProduct171"
}
layer {
  name: "InnerProduct172"
  type: "InnerProduct"
  bottom: "Slice172"
  top: "InnerProduct172"
  param {
    lr_mult: 1
    decay_mult: 1
  }
  param {
    lr_mult: 2
    decay_mult: 0
  }
  inner_product_param {
    num_output: 10
    weight_filler {
      type: "gaussian"
      std: 0.0098765
    }
    bias_filler {
      type: "constant"
      value: 0
    }
  }
}
layer {
  name: "ReLU172"
  type: "ReLU"
  bottom: "InnerProduct172"
  top: "InnerProduct172"
}
layer {
  name: "InnerProduct173"
  type: "InnerProduct"
  bottom: "Slice173"
  top: "InnerProduct173"
  param {
    lr_mult: 1
    decay_mult: 1
  }
  param {
    lr_mult: 2
    decay_mult: 0
  }
  inner_product_param {
    num_output: 10
    weight_filler {
      type: "gaussian"
      std: 0.0098765
    }
    bias_filler {
      type: "constant"
      value: 0
    }
  }
}
layer {
  name: "ReLU173"
  type: "ReLU"
  bottom: "InnerProduct173"
  top: "InnerProduct173"
}
layer {
  name: "InnerProduct174"
  type: "InnerProduct"
  bottom: "Slice174"
  top: "InnerProduct174"
  param {
    lr_mult: 1
    decay_mult: 1
  }
  param {
    lr_mult: 2
    decay_mult: 0
  }
  inner_product_param {
    num_output: 10
    weight_filler {
      type: "gaussian"
      std: 0.0098765
    }
    bias_filler {
      type: "constant"
      value: 0
    }
  }
}
layer {
  name: "ReLU174"
  type: "ReLU"
  bottom: "InnerProduct174"
  top: "InnerProduct174"
}
layer {
  name: "InnerProduct175"
  type: "InnerProduct"
  bottom: "Slice175"
  top: "InnerProduct175"
  param {
    lr_mult: 1
    decay_mult: 1
  }
  param {
    lr_mult: 2
    decay_mult: 0
  }
  inner_product_param {
    num_output: 10
    weight_filler {
      type: "gaussian"
      std: 0.0098765
    }
    bias_filler {
      type: "constant"
      value: 0
    }
  }
}
layer {
  name: "ReLU175"
  type: "ReLU"
  bottom: "InnerProduct175"
  top: "InnerProduct175"
}
layer {
  name: "InnerProduct176"
  type: "InnerProduct"
  bottom: "Slice176"
  top: "InnerProduct176"
  param {
    lr_mult: 1
    decay_mult: 1
  }
  param {
    lr_mult: 2
    decay_mult: 0
  }
  inner_product_param {
    num_output: 10
    weight_filler {
      type: "gaussian"
      std: 0.0098765
    }
    bias_filler {
      type: "constant"
      value: 0
    }
  }
}
layer {
  name: "ReLU176"
  type: "ReLU"
  bottom: "InnerProduct176"
  top: "InnerProduct176"
}
layer {
  name: "InnerProduct177"
  type: "InnerProduct"
  bottom: "Slice177"
  top: "InnerProduct177"
  param {
    lr_mult: 1
    decay_mult: 1
  }
  param {
    lr_mult: 2
    decay_mult: 0
  }
  inner_product_param {
    num_output: 10
    weight_filler {
      type: "gaussian"
      std: 0.0098765
    }
    bias_filler {
      type: "constant"
      value: 0
    }
  }
}
layer {
  name: "ReLU177"
  type: "ReLU"
  bottom: "InnerProduct177"
  top: "InnerProduct177"
}
layer {
  name: "InnerProduct178"
  type: "InnerProduct"
  bottom: "Slice178"
  top: "InnerProduct178"
  param {
    lr_mult: 1
    decay_mult: 1
  }
  param {
    lr_mult: 2
    decay_mult: 0
  }
  inner_product_param {
    num_output: 10
    weight_filler {
      type: "gaussian"
      std: 0.0098765
    }
    bias_filler {
      type: "constant"
      value: 0
    }
  }
}
layer {
  name: "ReLU178"
  type: "ReLU"
  bottom: "InnerProduct178"
  top: "InnerProduct178"
}
layer {
  name: "InnerProduct179"
  type: "InnerProduct"
  bottom: "Slice179"
  top: "InnerProduct179"
  param {
    lr_mult: 1
    decay_mult: 1
  }
  param {
    lr_mult: 2
    decay_mult: 0
  }
  inner_product_param {
    num_output: 10
    weight_filler {
      type: "gaussian"
      std: 0.0098765
    }
    bias_filler {
      type: "constant"
      value: 0
    }
  }
}
layer {
  name: "ReLU179"
  type: "ReLU"
  bottom: "InnerProduct179"
  top: "InnerProduct179"
}
layer {
  name: "InnerProduct180"
  type: "InnerProduct"
  bottom: "Slice180"
  top: "InnerProduct180"
  param {
    lr_mult: 1
    decay_mult: 1
  }
  param {
    lr_mult: 2
    decay_mult: 0
  }
  inner_product_param {
    num_output: 10
    weight_filler {
      type: "gaussian"
      std: 0.0098765
    }
    bias_filler {
      type: "constant"
      value: 0
    }
  }
}
layer {
  name: "ReLU180"
  type: "ReLU"
  bottom: "InnerProduct180"
  top: "InnerProduct180"
}
layer {
  name: "InnerProduct181"
  type: "InnerProduct"
  bottom: "Slice181"
  top: "InnerProduct181"
  param {
    lr_mult: 1
    decay_mult: 1
  }
  param {
    lr_mult: 2
    decay_mult: 0
  }
  inner_product_param {
    num_output: 10
    weight_filler {
      type: "gaussian"
      std: 0.0098765
    }
    bias_filler {
      type: "constant"
      value: 0
    }
  }
}
layer {
  name: "ReLU181"
  type: "ReLU"
  bottom: "InnerProduct181"
  top: "InnerProduct181"
}
layer {
  name: "InnerProduct182"
  type: "InnerProduct"
  bottom: "Slice182"
  top: "InnerProduct182"
  param {
    lr_mult: 1
    decay_mult: 1
  }
  param {
    lr_mult: 2
    decay_mult: 0
  }
  inner_product_param {
    num_output: 10
    weight_filler {
      type: "gaussian"
      std: 0.0098765
    }
    bias_filler {
      type: "constant"
      value: 0
    }
  }
}
layer {
  name: "ReLU182"
  type: "ReLU"
  bottom: "InnerProduct182"
  top: "InnerProduct182"
}
layer {
  name: "InnerProduct183"
  type: "InnerProduct"
  bottom: "Slice183"
  top: "InnerProduct183"
  param {
    lr_mult: 1
    decay_mult: 1
  }
  param {
    lr_mult: 2
    decay_mult: 0
  }
  inner_product_param {
    num_output: 10
    weight_filler {
      type: "gaussian"
      std: 0.0098765
    }
    bias_filler {
      type: "constant"
      value: 0
    }
  }
}
layer {
  name: "ReLU183"
  type: "ReLU"
  bottom: "InnerProduct183"
  top: "InnerProduct183"
}
layer {
  name: "InnerProduct184"
  type: "InnerProduct"
  bottom: "Slice184"
  top: "InnerProduct184"
  param {
    lr_mult: 1
    decay_mult: 1
  }
  param {
    lr_mult: 2
    decay_mult: 0
  }
  inner_product_param {
    num_output: 10
    weight_filler {
      type: "gaussian"
      std: 0.0098765
    }
    bias_filler {
      type: "constant"
      value: 0
    }
  }
}
layer {
  name: "ReLU184"
  type: "ReLU"
  bottom: "InnerProduct184"
  top: "InnerProduct184"
}
layer {
  name: "InnerProduct185"
  type: "InnerProduct"
  bottom: "Slice185"
  top: "InnerProduct185"
  param {
    lr_mult: 1
    decay_mult: 1
  }
  param {
    lr_mult: 2
    decay_mult: 0
  }
  inner_product_param {
    num_output: 10
    weight_filler {
      type: "gaussian"
      std: 0.0098765
    }
    bias_filler {
      type: "constant"
      value: 0
    }
  }
}
layer {
  name: "ReLU185"
  type: "ReLU"
  bottom: "InnerProduct185"
  top: "InnerProduct185"
}
layer {
  name: "InnerProduct186"
  type: "InnerProduct"
  bottom: "Slice186"
  top: "InnerProduct186"
  param {
    lr_mult: 1
    decay_mult: 1
  }
  param {
    lr_mult: 2
    decay_mult: 0
  }
  inner_product_param {
    num_output: 10
    weight_filler {
      type: "gaussian"
      std: 0.0098765
    }
    bias_filler {
      type: "constant"
      value: 0
    }
  }
}
layer {
  name: "ReLU186"
  type: "ReLU"
  bottom: "InnerProduct186"
  top: "InnerProduct186"
}
layer {
  name: "InnerProduct187"
  type: "InnerProduct"
  bottom: "Slice187"
  top: "InnerProduct187"
  param {
    lr_mult: 1
    decay_mult: 1
  }
  param {
    lr_mult: 2
    decay_mult: 0
  }
  inner_product_param {
    num_output: 10
    weight_filler {
      type: "gaussian"
      std: 0.0098765
    }
    bias_filler {
      type: "constant"
      value: 0
    }
  }
}
layer {
  name: "ReLU187"
  type: "ReLU"
  bottom: "InnerProduct187"
  top: "InnerProduct187"
}
layer {
  name: "InnerProduct188"
  type: "InnerProduct"
  bottom: "Slice188"
  top: "InnerProduct188"
  param {
    lr_mult: 1
    decay_mult: 1
  }
  param {
    lr_mult: 2
    decay_mult: 0
  }
  inner_product_param {
    num_output: 10
    weight_filler {
      type: "gaussian"
      std: 0.0098765
    }
    bias_filler {
      type: "constant"
      value: 0
    }
  }
}
layer {
  name: "ReLU188"
  type: "ReLU"
  bottom: "InnerProduct188"
  top: "InnerProduct188"
}
layer {
  name: "InnerProduct189"
  type: "InnerProduct"
  bottom: "Slice189"
  top: "InnerProduct189"
  param {
    lr_mult: 1
    decay_mult: 1
  }
  param {
    lr_mult: 2
    decay_mult: 0
  }
  inner_product_param {
    num_output: 10
    weight_filler {
      type: "gaussian"
      std: 0.0098765
    }
    bias_filler {
      type: "constant"
      value: 0
    }
  }
}
layer {
  name: "ReLU189"
  type: "ReLU"
  bottom: "InnerProduct189"
  top: "InnerProduct189"
}
layer {
  name: "InnerProduct190"
  type: "InnerProduct"
  bottom: "Slice190"
  top: "InnerProduct190"
  param {
    lr_mult: 1
    decay_mult: 1
  }
  param {
    lr_mult: 2
    decay_mult: 0
  }
  inner_product_param {
    num_output: 10
    weight_filler {
      type: "gaussian"
      std: 0.0098765
    }
    bias_filler {
      type: "constant"
      value: 0
    }
  }
}
layer {
  name: "ReLU190"
  type: "ReLU"
  bottom: "InnerProduct190"
  top: "InnerProduct190"
}
layer {
  name: "InnerProduct191"
  type: "InnerProduct"
  bottom: "Slice191"
  top: "InnerProduct191"
  param {
    lr_mult: 1
    decay_mult: 1
  }
  param {
    lr_mult: 2
    decay_mult: 0
  }
  inner_product_param {
    num_output: 10
    weight_filler {
      type: "gaussian"
      std: 0.0098765
    }
    bias_filler {
      type: "constant"
      value: 0
    }
  }
}
layer {
  name: "ReLU191"
  type: "ReLU"
  bottom: "InnerProduct191"
  top: "InnerProduct191"
}
layer {
  name: "InnerProduct192"
  type: "InnerProduct"
  bottom: "Slice192"
  top: "InnerProduct192"
  param {
    lr_mult: 1
    decay_mult: 1
  }
  param {
    lr_mult: 2
    decay_mult: 0
  }
  inner_product_param {
    num_output: 10
    weight_filler {
      type: "gaussian"
      std: 0.0098765
    }
    bias_filler {
      type: "constant"
      value: 0
    }
  }
}
layer {
  name: "ReLU192"
  type: "ReLU"
  bottom: "InnerProduct192"
  top: "InnerProduct192"
}
layer {
  name: "InnerProduct193"
  type: "InnerProduct"
  bottom: "Slice193"
  top: "InnerProduct193"
  param {
    lr_mult: 1
    decay_mult: 1
  }
  param {
    lr_mult: 2
    decay_mult: 0
  }
  inner_product_param {
    num_output: 10
    weight_filler {
      type: "gaussian"
      std: 0.0098765
    }
    bias_filler {
      type: "constant"
      value: 0
    }
  }
}
layer {
  name: "ReLU193"
  type: "ReLU"
  bottom: "InnerProduct193"
  top: "InnerProduct193"
}
layer {
  name: "InnerProduct194"
  type: "InnerProduct"
  bottom: "Slice194"
  top: "InnerProduct194"
  param {
    lr_mult: 1
    decay_mult: 1
  }
  param {
    lr_mult: 2
    decay_mult: 0
  }
  inner_product_param {
    num_output: 10
    weight_filler {
      type: "gaussian"
      std: 0.0098765
    }
    bias_filler {
      type: "constant"
      value: 0
    }
  }
}
layer {
  name: "ReLU194"
  type: "ReLU"
  bottom: "InnerProduct194"
  top: "InnerProduct194"
}
layer {
  name: "InnerProduct195"
  type: "InnerProduct"
  bottom: "Slice195"
  top: "InnerProduct195"
  param {
    lr_mult: 1
    decay_mult: 1
  }
  param {
    lr_mult: 2
    decay_mult: 0
  }
  inner_product_param {
    num_output: 10
    weight_filler {
      type: "gaussian"
      std: 0.0098765
    }
    bias_filler {
      type: "constant"
      value: 0
    }
  }
}
layer {
  name: "ReLU195"
  type: "ReLU"
  bottom: "InnerProduct195"
  top: "InnerProduct195"
}
layer {
  name: "InnerProduct196"
  type: "InnerProduct"
  bottom: "Slice196"
  top: "InnerProduct196"
  param {
    lr_mult: 1
    decay_mult: 1
  }
  param {
    lr_mult: 2
    decay_mult: 0
  }
  inner_product_param {
    num_output: 10
    weight_filler {
      type: "gaussian"
      std: 0.0098765
    }
    bias_filler {
      type: "constant"
      value: 0
    }
  }
}
layer {
  name: "ReLU196"
  type: "ReLU"
  bottom: "InnerProduct196"
  top: "InnerProduct196"
}
layer {
  name: "InnerProduct197"
  type: "InnerProduct"
  bottom: "Slice197"
  top: "InnerProduct197"
  param {
    lr_mult: 1
    decay_mult: 1
  }
  param {
    lr_mult: 2
    decay_mult: 0
  }
  inner_product_param {
    num_output: 10
    weight_filler {
      type: "gaussian"
      std: 0.0098765
    }
    bias_filler {
      type: "constant"
      value: 0
    }
  }
}
layer {
  name: "ReLU197"
  type: "ReLU"
  bottom: "InnerProduct197"
  top: "InnerProduct197"
}
layer {
  name: "InnerProduct198"
  type: "InnerProduct"
  bottom: "Slice198"
  top: "InnerProduct198"
  param {
    lr_mult: 1
    decay_mult: 1
  }
  param {
    lr_mult: 2
    decay_mult: 0
  }
  inner_product_param {
    num_output: 10
    weight_filler {
      type: "gaussian"
      std: 0.0098765
    }
    bias_filler {
      type: "constant"
      value: 0
    }
  }
}
layer {
  name: "ReLU198"
  type: "ReLU"
  bottom: "InnerProduct198"
  top: "InnerProduct198"
}
layer {
  name: "InnerProduct199"
  type: "InnerProduct"
  bottom: "Slice199"
  top: "InnerProduct199"
  param {
    lr_mult: 1
    decay_mult: 1
  }
  param {
    lr_mult: 2
    decay_mult: 0
  }
  inner_product_param {
    num_output: 10
    weight_filler {
      type: "gaussian"
      std: 0.0098765
    }
    bias_filler {
      type: "constant"
      value: 0
    }
  }
}
layer {
  name: "ReLU199"
  type: "ReLU"
  bottom: "InnerProduct199"
  top: "InnerProduct199"
}
layer {
  name: "InnerProduct200"
  type: "InnerProduct"
  bottom: "Slice200"
  top: "InnerProduct200"
  param {
    lr_mult: 1
    decay_mult: 1
  }
  param {
    lr_mult: 2
    decay_mult: 0
  }
  inner_product_param {
    num_output: 10
    weight_filler {
      type: "gaussian"
      std: 0.0098765
    }
    bias_filler {
      type: "constant"
      value: 0
    }
  }
}
layer {
  name: "ReLU200"
  type: "ReLU"
  bottom: "InnerProduct200"
  top: "InnerProduct200"
}
layer {
  name: "InnerProduct201"
  type: "InnerProduct"
  bottom: "Slice201"
  top: "InnerProduct201"
  param {
    lr_mult: 1
    decay_mult: 1
  }
  param {
    lr_mult: 2
    decay_mult: 0
  }
  inner_product_param {
    num_output: 10
    weight_filler {
      type: "gaussian"
      std: 0.0098765
    }
    bias_filler {
      type: "constant"
      value: 0
    }
  }
}
layer {
  name: "ReLU201"
  type: "ReLU"
  bottom: "InnerProduct201"
  top: "InnerProduct201"
}
layer {
  name: "InnerProduct202"
  type: "InnerProduct"
  bottom: "Slice202"
  top: "InnerProduct202"
  param {
    lr_mult: 1
    decay_mult: 1
  }
  param {
    lr_mult: 2
    decay_mult: 0
  }
  inner_product_param {
    num_output: 10
    weight_filler {
      type: "gaussian"
      std: 0.0098765
    }
    bias_filler {
      type: "constant"
      value: 0
    }
  }
}
layer {
  name: "ReLU202"
  type: "ReLU"
  bottom: "InnerProduct202"
  top: "InnerProduct202"
}
layer {
  name: "InnerProduct203"
  type: "InnerProduct"
  bottom: "Slice203"
  top: "InnerProduct203"
  param {
    lr_mult: 1
    decay_mult: 1
  }
  param {
    lr_mult: 2
    decay_mult: 0
  }
  inner_product_param {
    num_output: 10
    weight_filler {
      type: "gaussian"
      std: 0.0098765
    }
    bias_filler {
      type: "constant"
      value: 0
    }
  }
}
layer {
  name: "ReLU203"
  type: "ReLU"
  bottom: "InnerProduct203"
  top: "InnerProduct203"
}
layer {
  name: "InnerProduct204"
  type: "InnerProduct"
  bottom: "Slice204"
  top: "InnerProduct204"
  param {
    lr_mult: 1
    decay_mult: 1
  }
  param {
    lr_mult: 2
    decay_mult: 0
  }
  inner_product_param {
    num_output: 10
    weight_filler {
      type: "gaussian"
      std: 0.0098765
    }
    bias_filler {
      type: "constant"
      value: 0
    }
  }
}
layer {
  name: "ReLU204"
  type: "ReLU"
  bottom: "InnerProduct204"
  top: "InnerProduct204"
}
layer {
  name: "InnerProduct205"
  type: "InnerProduct"
  bottom: "Slice205"
  top: "InnerProduct205"
  param {
    lr_mult: 1
    decay_mult: 1
  }
  param {
    lr_mult: 2
    decay_mult: 0
  }
  inner_product_param {
    num_output: 10
    weight_filler {
      type: "gaussian"
      std: 0.0098765
    }
    bias_filler {
      type: "constant"
      value: 0
    }
  }
}
layer {
  name: "ReLU205"
  type: "ReLU"
  bottom: "InnerProduct205"
  top: "InnerProduct205"
}
layer {
  name: "InnerProduct206"
  type: "InnerProduct"
  bottom: "Slice206"
  top: "InnerProduct206"
  param {
    lr_mult: 1
    decay_mult: 1
  }
  param {
    lr_mult: 2
    decay_mult: 0
  }
  inner_product_param {
    num_output: 10
    weight_filler {
      type: "gaussian"
      std: 0.0098765
    }
    bias_filler {
      type: "constant"
      value: 0
    }
  }
}
layer {
  name: "ReLU206"
  type: "ReLU"
  bottom: "InnerProduct206"
  top: "InnerProduct206"
}
layer {
  name: "InnerProduct207"
  type: "InnerProduct"
  bottom: "Slice207"
  top: "InnerProduct207"
  param {
    lr_mult: 1
    decay_mult: 1
  }
  param {
    lr_mult: 2
    decay_mult: 0
  }
  inner_product_param {
    num_output: 10
    weight_filler {
      type: "gaussian"
      std: 0.0098765
    }
    bias_filler {
      type: "constant"
      value: 0
    }
  }
}
layer {
  name: "ReLU207"
  type: "ReLU"
  bottom: "InnerProduct207"
  top: "InnerProduct207"
}
layer {
  name: "InnerProduct208"
  type: "InnerProduct"
  bottom: "Slice208"
  top: "InnerProduct208"
  param {
    lr_mult: 1
    decay_mult: 1
  }
  param {
    lr_mult: 2
    decay_mult: 0
  }
  inner_product_param {
    num_output: 10
    weight_filler {
      type: "gaussian"
      std: 0.0098765
    }
    bias_filler {
      type: "constant"
      value: 0
    }
  }
}
layer {
  name: "ReLU208"
  type: "ReLU"
  bottom: "InnerProduct208"
  top: "InnerProduct208"
}
layer {
  name: "InnerProduct209"
  type: "InnerProduct"
  bottom: "Slice209"
  top: "InnerProduct209"
  param {
    lr_mult: 1
    decay_mult: 1
  }
  param {
    lr_mult: 2
    decay_mult: 0
  }
  inner_product_param {
    num_output: 10
    weight_filler {
      type: "gaussian"
      std: 0.0098765
    }
    bias_filler {
      type: "constant"
      value: 0
    }
  }
}
layer {
  name: "ReLU209"
  type: "ReLU"
  bottom: "InnerProduct209"
  top: "InnerProduct209"
}
layer {
  name: "InnerProduct210"
  type: "InnerProduct"
  bottom: "Slice210"
  top: "InnerProduct210"
  param {
    lr_mult: 1
    decay_mult: 1
  }
  param {
    lr_mult: 2
    decay_mult: 0
  }
  inner_product_param {
    num_output: 10
    weight_filler {
      type: "gaussian"
      std: 0.0098765
    }
    bias_filler {
      type: "constant"
      value: 0
    }
  }
}
layer {
  name: "ReLU210"
  type: "ReLU"
  bottom: "InnerProduct210"
  top: "InnerProduct210"
}
layer {
  name: "InnerProduct211"
  type: "InnerProduct"
  bottom: "Slice211"
  top: "InnerProduct211"
  param {
    lr_mult: 1
    decay_mult: 1
  }
  param {
    lr_mult: 2
    decay_mult: 0
  }
  inner_product_param {
    num_output: 10
    weight_filler {
      type: "gaussian"
      std: 0.0098765
    }
    bias_filler {
      type: "constant"
      value: 0
    }
  }
}
layer {
  name: "ReLU211"
  type: "ReLU"
  bottom: "InnerProduct211"
  top: "InnerProduct211"
}
layer {
  name: "InnerProduct212"
  type: "InnerProduct"
  bottom: "Slice212"
  top: "InnerProduct212"
  param {
    lr_mult: 1
    decay_mult: 1
  }
  param {
    lr_mult: 2
    decay_mult: 0
  }
  inner_product_param {
    num_output: 10
    weight_filler {
      type: "gaussian"
      std: 0.0098765
    }
    bias_filler {
      type: "constant"
      value: 0
    }
  }
}
layer {
  name: "ReLU212"
  type: "ReLU"
  bottom: "InnerProduct212"
  top: "InnerProduct212"
}
layer {
  name: "InnerProduct213"
  type: "InnerProduct"
  bottom: "Slice213"
  top: "InnerProduct213"
  param {
    lr_mult: 1
    decay_mult: 1
  }
  param {
    lr_mult: 2
    decay_mult: 0
  }
  inner_product_param {
    num_output: 10
    weight_filler {
      type: "gaussian"
      std: 0.0098765
    }
    bias_filler {
      type: "constant"
      value: 0
    }
  }
}
layer {
  name: "ReLU213"
  type: "ReLU"
  bottom: "InnerProduct213"
  top: "InnerProduct213"
}
layer {
  name: "InnerProduct214"
  type: "InnerProduct"
  bottom: "Slice214"
  top: "InnerProduct214"
  param {
    lr_mult: 1
    decay_mult: 1
  }
  param {
    lr_mult: 2
    decay_mult: 0
  }
  inner_product_param {
    num_output: 10
    weight_filler {
      type: "gaussian"
      std: 0.0098765
    }
    bias_filler {
      type: "constant"
      value: 0
    }
  }
}
layer {
  name: "ReLU214"
  type: "ReLU"
  bottom: "InnerProduct214"
  top: "InnerProduct214"
}
layer {
  name: "InnerProduct215"
  type: "InnerProduct"
  bottom: "Slice215"
  top: "InnerProduct215"
  param {
    lr_mult: 1
    decay_mult: 1
  }
  param {
    lr_mult: 2
    decay_mult: 0
  }
  inner_product_param {
    num_output: 10
    weight_filler {
      type: "gaussian"
      std: 0.0098765
    }
    bias_filler {
      type: "constant"
      value: 0
    }
  }
}
layer {
  name: "ReLU215"
  type: "ReLU"
  bottom: "InnerProduct215"
  top: "InnerProduct215"
}
layer {
  name: "InnerProduct216"
  type: "InnerProduct"
  bottom: "Slice216"
  top: "InnerProduct216"
  param {
    lr_mult: 1
    decay_mult: 1
  }
  param {
    lr_mult: 2
    decay_mult: 0
  }
  inner_product_param {
    num_output: 10
    weight_filler {
      type: "gaussian"
      std: 0.0098765
    }
    bias_filler {
      type: "constant"
      value: 0
    }
  }
}
layer {
  name: "ReLU216"
  type: "ReLU"
  bottom: "InnerProduct216"
  top: "InnerProduct216"
}
layer {
  name: "InnerProduct217"
  type: "InnerProduct"
  bottom: "Slice217"
  top: "InnerProduct217"
  param {
    lr_mult: 1
    decay_mult: 1
  }
  param {
    lr_mult: 2
    decay_mult: 0
  }
  inner_product_param {
    num_output: 10
    weight_filler {
      type: "gaussian"
      std: 0.0098765
    }
    bias_filler {
      type: "constant"
      value: 0
    }
  }
}
layer {
  name: "ReLU217"
  type: "ReLU"
  bottom: "InnerProduct217"
  top: "InnerProduct217"
}
layer {
  name: "InnerProduct218"
  type: "InnerProduct"
  bottom: "Slice218"
  top: "InnerProduct218"
  param {
    lr_mult: 1
    decay_mult: 1
  }
  param {
    lr_mult: 2
    decay_mult: 0
  }
  inner_product_param {
    num_output: 10
    weight_filler {
      type: "gaussian"
      std: 0.0098765
    }
    bias_filler {
      type: "constant"
      value: 0
    }
  }
}
layer {
  name: "ReLU218"
  type: "ReLU"
  bottom: "InnerProduct218"
  top: "InnerProduct218"
}
layer {
  name: "InnerProduct219"
  type: "InnerProduct"
  bottom: "Slice219"
  top: "InnerProduct219"
  param {
    lr_mult: 1
    decay_mult: 1
  }
  param {
    lr_mult: 2
    decay_mult: 0
  }
  inner_product_param {
    num_output: 10
    weight_filler {
      type: "gaussian"
      std: 0.0098765
    }
    bias_filler {
      type: "constant"
      value: 0
    }
  }
}
layer {
  name: "ReLU219"
  type: "ReLU"
  bottom: "InnerProduct219"
  top: "InnerProduct219"
}
layer {
  name: "InnerProduct220"
  type: "InnerProduct"
  bottom: "Slice220"
  top: "InnerProduct220"
  param {
    lr_mult: 1
    decay_mult: 1
  }
  param {
    lr_mult: 2
    decay_mult: 0
  }
  inner_product_param {
    num_output: 10
    weight_filler {
      type: "gaussian"
      std: 0.0098765
    }
    bias_filler {
      type: "constant"
      value: 0
    }
  }
}
layer {
  name: "ReLU220"
  type: "ReLU"
  bottom: "InnerProduct220"
  top: "InnerProduct220"
}
layer {
  name: "InnerProduct221"
  type: "InnerProduct"
  bottom: "Slice221"
  top: "InnerProduct221"
  param {
    lr_mult: 1
    decay_mult: 1
  }
  param {
    lr_mult: 2
    decay_mult: 0
  }
  inner_product_param {
    num_output: 10
    weight_filler {
      type: "gaussian"
      std: 0.0098765
    }
    bias_filler {
      type: "constant"
      value: 0
    }
  }
}
layer {
  name: "ReLU221"
  type: "ReLU"
  bottom: "InnerProduct221"
  top: "InnerProduct221"
}
layer {
  name: "InnerProduct222"
  type: "InnerProduct"
  bottom: "Slice222"
  top: "InnerProduct222"
  param {
    lr_mult: 1
    decay_mult: 1
  }
  param {
    lr_mult: 2
    decay_mult: 0
  }
  inner_product_param {
    num_output: 10
    weight_filler {
      type: "gaussian"
      std: 0.0098765
    }
    bias_filler {
      type: "constant"
      value: 0
    }
  }
}
layer {
  name: "ReLU222"
  type: "ReLU"
  bottom: "InnerProduct222"
  top: "InnerProduct222"
}
layer {
  name: "InnerProduct223"
  type: "InnerProduct"
  bottom: "Slice223"
  top: "InnerProduct223"
  param {
    lr_mult: 1
    decay_mult: 1
  }
  param {
    lr_mult: 2
    decay_mult: 0
  }
  inner_product_param {
    num_output: 10
    weight_filler {
      type: "gaussian"
      std: 0.0098765
    }
    bias_filler {
      type: "constant"
      value: 0
    }
  }
}
layer {
  name: "ReLU223"
  type: "ReLU"
  bottom: "InnerProduct223"
  top: "InnerProduct223"
}
layer {
  name: "InnerProduct224"
  type: "InnerProduct"
  bottom: "Slice224"
  top: "InnerProduct224"
  param {
    lr_mult: 1
    decay_mult: 1
  }
  param {
    lr_mult: 2
    decay_mult: 0
  }
  inner_product_param {
    num_output: 10
    weight_filler {
      type: "gaussian"
      std: 0.0098765
    }
    bias_filler {
      type: "constant"
      value: 0
    }
  }
}
layer {
  name: "ReLU224"
  type: "ReLU"
  bottom: "InnerProduct224"
  top: "InnerProduct224"
}
layer {
  name: "InnerProduct225"
  type: "InnerProduct"
  bottom: "Slice225"
  top: "InnerProduct225"
  param {
    lr_mult: 1
    decay_mult: 1
  }
  param {
    lr_mult: 2
    decay_mult: 0
  }
  inner_product_param {
    num_output: 10
    weight_filler {
      type: "gaussian"
      std: 0.0098765
    }
    bias_filler {
      type: "constant"
      value: 0
    }
  }
}
layer {
  name: "ReLU225"
  type: "ReLU"
  bottom: "InnerProduct225"
  top: "InnerProduct225"
}
layer {
  name: "InnerProduct226"
  type: "InnerProduct"
  bottom: "Slice226"
  top: "InnerProduct226"
  param {
    lr_mult: 1
    decay_mult: 1
  }
  param {
    lr_mult: 2
    decay_mult: 0
  }
  inner_product_param {
    num_output: 10
    weight_filler {
      type: "gaussian"
      std: 0.0098765
    }
    bias_filler {
      type: "constant"
      value: 0
    }
  }
}
layer {
  name: "ReLU226"
  type: "ReLU"
  bottom: "InnerProduct226"
  top: "InnerProduct226"
}
layer {
  name: "InnerProduct227"
  type: "InnerProduct"
  bottom: "Slice227"
  top: "InnerProduct227"
  param {
    lr_mult: 1
    decay_mult: 1
  }
  param {
    lr_mult: 2
    decay_mult: 0
  }
  inner_product_param {
    num_output: 10
    weight_filler {
      type: "gaussian"
      std: 0.0098765
    }
    bias_filler {
      type: "constant"
      value: 0
    }
  }
}
layer {
  name: "ReLU227"
  type: "ReLU"
  bottom: "InnerProduct227"
  top: "InnerProduct227"
}
layer {
  name: "InnerProduct228"
  type: "InnerProduct"
  bottom: "Slice228"
  top: "InnerProduct228"
  param {
    lr_mult: 1
    decay_mult: 1
  }
  param {
    lr_mult: 2
    decay_mult: 0
  }
  inner_product_param {
    num_output: 10
    weight_filler {
      type: "gaussian"
      std: 0.0098765
    }
    bias_filler {
      type: "constant"
      value: 0
    }
  }
}
layer {
  name: "ReLU228"
  type: "ReLU"
  bottom: "InnerProduct228"
  top: "InnerProduct228"
}
layer {
  name: "InnerProduct229"
  type: "InnerProduct"
  bottom: "Slice229"
  top: "InnerProduct229"
  param {
    lr_mult: 1
    decay_mult: 1
  }
  param {
    lr_mult: 2
    decay_mult: 0
  }
  inner_product_param {
    num_output: 10
    weight_filler {
      type: "gaussian"
      std: 0.0098765
    }
    bias_filler {
      type: "constant"
      value: 0
    }
  }
}
layer {
  name: "ReLU229"
  type: "ReLU"
  bottom: "InnerProduct229"
  top: "InnerProduct229"
}
layer {
  name: "InnerProduct230"
  type: "InnerProduct"
  bottom: "Slice230"
…
  top: "Concat2"
}
layer {
  name: "InnerProduct1013"
  type: "InnerProduct"
  bottom: "Concat2"
  top: "InnerProduct1013"
  param {
    lr_mult: 1
    decay_mult: 1
  }
  param {
    lr_mult: 2
    decay_mult: 0
  }
  inner_product_param {
    num_output: 4096
    weight_filler {
      type: "gaussian"
      std: 0.0098765
    }
    bias_filler {
      type: "constant"
      value: 0
    }
  }
}
layer {
  name: "ReLU1013"
  type: "ReLU"
  bottom: "InnerProduct1013"
  top: "InnerProduct1013"
}
layer {
  name: "Dropout1"
  type: "Dropout"
  bottom: "InnerProduct1013"
  top: "InnerProduct1013"
  dropout_param {
    dropout_ratio: 0.2
  }
}
layer {
  name: "InnerProduct1014"
  type: "InnerProduct"
  bottom: "InnerProduct1013"
  top: "InnerProduct1014"
  param {
    lr_mult: 1
    decay_mult: 1
  }
  param {
    lr_mult: 2
    decay_mult: 0
  }
  inner_product_param {
    num_output: 4096
    weight_filler {
      type: "gaussian"
      std: 0.0098765
    }
    bias_filler {
      type: "constant"
      value: 0
    }
  }
}
layer {
  name: "ReLU1014"
  type: "ReLU"
  bottom: "InnerProduct1014"
  top: "InnerProduct1014"
}
layer {
  name: "Dropout2"
  type: "Dropout"
  bottom: "InnerProduct1014"
  top: "InnerProduct1014"
  dropout_param {
    dropout_ratio: 0.2
  }
}
layer {
  name: "InnerProduct1015"
  type: "InnerProduct"
  bottom: "InnerProduct1014"
  top: "InnerProduct1015"
  param {
    lr_mult: 1
    decay_mult: 1
  }
  param {
    lr_mult: 2
    decay_mult: 0
  }
  inner_product_param {
    num_output: 4096
    weight_filler {
      type: "gaussian"
      std: 0.0098765
    }
    bias_filler {
      type: "constant"
      value: 0
    }
  }
}
layer {
  name: "ReLU1015"
  type: "ReLU"
  bottom: "InnerProduct1015"
  top: "InnerProduct1015"
}
layer {
  name: "Dropout3"
  type: "Dropout"
  bottom: "InnerProduct1015"
  top: "InnerProduct1015"
  dropout_param {
    dropout_ratio: 0.2
  }
}
layer {
  name: "InnerProduct1016"
  type: "InnerProduct"
  bottom: "InnerProduct1015"
  top: "InnerProduct1016"
  param {
    lr_mult: 1
    decay_mult: 1
  }
  param {
    lr_mult: 2
    decay_mult: 0
  }
  inner_product_param {
    num_output: 4096
    weight_filler {
      type: "gaussian"
      std: 0.0098765
    }
    bias_filler {
      type: "constant"
      value: 0
    }
  }
}
layer {
  name: "ReLU1016"
  type: "ReLU"
  bottom: "InnerProduct1016"
  top: "InnerProduct1016"
}
layer {
  name: "Dropout4"
  type: "Dropout"
  bottom: "InnerProduct1016"
  top: "InnerProduct1016"
  dropout_param {
    dropout_ratio: 0.2
  }
}
layer {
  name: "InnerProduct1017"
  type: "InnerProduct"
  bottom: "InnerProduct1016"
  top: "InnerProduct1017"
  param {
    lr_mult: 1
    decay_mult: 1
  }
  param {
    lr_mult: 2
    decay_mult: 0
  }
  inner_product_param {
    num_output: 4096
    weight_filler {
      type: "gaussian"
      std: 0.0098765
    }
    bias_filler {
      type: "constant"
      value: 0
    }
  }
}
layer {
  name: "ReLU1017"
  type: "ReLU"
  bottom: "InnerProduct1017"
  top: "InnerProduct1017"
}
layer {
  name: "Dropout5"
  type: "Dropout"
  bottom: "InnerProduct1017"
  top: "InnerProduct1017"
  dropout_param {
    dropout_ratio: 0.2
  }
}
layer {
  name: "InnerProduct1018"
  type: "InnerProduct"
  bottom: "InnerProduct1017"
  top: "InnerProduct1018"
  param {
    lr_mult: 1
    decay_mult: 1
  }
  param {
    lr_mult: 2
    decay_mult: 0
  }
  inner_product_param {
    num_output: 4096
    weight_filler {
      type: "gaussian"
      std: 0.0098765
    }
    bias_filler {
      type: "constant"
      value: 0
    }
  }
}
layer {
  name: "ReLU1018"
  type: "ReLU"
  bottom: "InnerProduct1018"
  top: "InnerProduct1018"
}
layer {
  name: "Dropout6"
  type: "Dropout"
  bottom: "InnerProduct1018"
  top: "InnerProduct1018"
  dropout_param {
    dropout_ratio: 0.2
  }
}
layer {
  name: "InnerProduct1019"
  type: "InnerProduct"
  bottom: "InnerProduct1018"
  top: "InnerProduct1019"
  param {
    lr_mult: 1
    decay_mult: 1
  }
  param {
    lr_mult: 2
    decay_mult: 0
  }
  inner_product_param {
    num_output: 1000
    weight_filler {
      type: "gaussian"
      std: 0.0098765
    }
    bias_filler {
      type: "constant"
      value: 0
    }
  }
}
layer {
  name: "ReLU1019"
  type: "ReLU"
  bottom: "InnerProduct1019"
  top: "InnerProduct1019"
}
layer {
  name: "Slice1013"
  type: "Slice"
  bottom: "InnerProduct1019"
  top: "Slice1013"
  top: "Slice1014"
  top: "Slice1015"
  top: "Slice1016"
  top: "Slice1017"
  top: "Slice1018"
  top: "Slice1019"
  top: "Slice1020"
  top: "Slice1021"
  top: "Slice1022"
  top: "Slice1023"
  top: "Slice1024"
  top: "Slice1025"
  top: "Slice1026"
  top: "Slice1027"
  top: "Slice1028"
  top: "Slice1029"
  top: "Slice1030"
  top: "Slice1031"
  top: "Slice1032"
  top: "Slice1033"
  top: "Slice1034"
  top: "Slice1035"
  top: "Slice1036"
  top: "Slice1037"
  top: "Slice1038"
  top: "Slice1039"
  top: "Slice1040"
  top: "Slice1041"
  top: "Slice1042"
  top: "Slice1043"
  top: "Slice1044"
  top: "Slice1045"
  top: "Slice1046"
  top: "Slice1047"
  top: "Slice1048"
  top: "Slice1049"
  top: "Slice1050"
  top: "Slice1051"
  top: "Slice1052"
  top: "Slice1053"
  top: "Slice1054"
  top: "Slice1055"
  top: "Slice1056"
  top: "Slice1057"
  top: "Slice1058"
  top: "Slice1059"
  top: "Slice1060"
  top: "Slice1061"
  top: "Slice1062"
  top: "Slice1063"
  top: "Slice1064"
  top: "Slice1065"
  top: "Slice1066"
  top: "Slice1067"
  top: "Slice1068"
  top: "Slice1069"
  top: "Slice1070"
  top: "Slice1071"
  top: "Slice1072"
  top: "Slice1073"
  top: "Slice1074"
  top: "Slice1075"
  top: "Slice1076"
  top: "Slice1077"
  top: "Slice1078"
  top: "Slice1079"
  top: "Slice1080"
  top: "Slice1081"
  top: "Slice1082"
  top: "Slice1083"
  top: "Slice1084"
  top: "Slice1085"
  top: "Slice1086"
  top: "Slice1087"
  top: "Slice1088"
  top: "Slice1089"
  top: "Slice1090"
  top: "Slice1091"
  top: "Slice1092"
  top: "Slice1093"
  top: "Slice1094"
  top: "Slice1095"
  top: "Slice1096"
  top: "Slice1097"
  top: "Slice1098"
  top: "Slice1099"
  top: "Slice1100"
  top: "Slice1101"
  top: "Slice1102"
  top: "Slice1103"
  top: "Slice1104"
  top: "Slice1105"
  top: "Slice1106"
  top: "Slice1107"
  top: "Slice1108"
  top: "Slice1109"
  top: "Slice1110"
  top: "Slice1111"
  top: "Slice1112"
  slice_param {
    slice_point: 10
    slice_point: 20
    slice_point: 30
    slice_point: 40
    slice_point: 50
    slice_point: 60
    slice_point: 70
    slice_point: 80
    slice_point: 90
    slice_point: 100
    slice_point: 110
    slice_point: 120
    slice_point: 130
    slice_point: 140
    slice_point: 150
    slice_point: 160
    slice_point: 170
    slice_point: 180
    slice_point: 190
    slice_point: 200
    slice_point: 210
    slice_point: 220
    slice_point: 230
    slice_point: 240
    slice_point: 250
    slice_point: 260
    slice_point: 270
    slice_point: 280
    slice_point: 290
    slice_point: 300
    slice_point: 310
    slice_point: 320
    slice_point: 330
    slice_point: 340
    slice_point: 350
    slice_point: 360
    slice_point: 370
    slice_point: 380
    slice_point: 390
    slice_point: 400
    slice_point: 410
    slice_point: 420
    slice_point: 430
    slice_point: 440
    slice_point: 450
    slice_point: 460
    slice_point: 470
    slice_point: 480
    slice_point: 490
    slice_point: 500
    slice_point: 510
    slice_point: 520
    slice_point: 530
    slice_point: 540
    slice_point: 550
    slice_point: 560
    slice_point: 570
    slice_point: 580
    slice_point: 590
    slice_point: 600
    slice_point: 610
    slice_point: 620
    slice_point: 630
    slice_point: 640
    slice_point: 650
    slice_point: 660
    slice_point: 670
    slice_point: 680
    slice_point: 690
    slice_point: 700
    slice_point: 710
    slice_point: 720
    slice_point: 730
    slice_point: 740
    slice_point: 750
    slice_point: 760
    slice_point: 770
    slice_point: 780
    slice_point: 790
    slice_point: 800
    slice_point: 810
    slice_point: 820
    slice_point: 830
    slice_point: 840
    slice_point: 850
    slice_point: 860
    slice_point: 870
    slice_point: 880
    slice_point: 890
    slice_point: 900
    slice_point: 910
    slice_point: 920
    slice_point: 930
    slice_point: 940
    slice_point: 950
    slice_point: 960
    slice_point: 970
    slice_point: 980
    slice_point: 990
  }
}
layer {
  name: "InnerProduct1020"
  type: "InnerProduct"
  bottom: "Slice1013"
  top: "InnerProduct1020"
  param {
    lr_mult: 1
    decay_mult: 1
  }
  param {
    lr_mult: 2
    decay_mult: 0
  }
  inner_product_param {
    num_output: 9000
    weight_filler {
      type: "gaussian"
      std: 0.0001675
    }
    bias_filler {
      type: "constant"
      value: 0
    }
  }
}
layer {
  name: "InnerProduct1021"
  type: "InnerProduct"
  bottom: "Slice1014"
  top: "InnerProduct1021"
  param {
    lr_mult: 1
    decay_mult: 1
  }
  param {
    lr_mult: 2
    decay_mult: 0
  }
  inner_product_param {
    num_output: 9000
    weight_filler {
      type: "gaussian"
      std: 0.0001675
    }
    bias_filler {
      type: "constant"
      value: 0
    }
  }
}
layer {
  name: "InnerProduct1022"
  type: "InnerProduct"
  bottom: "Slice1015"
  top: "InnerProduct1022"
  param {
    lr_mult: 1
    decay_mult: 1
  }
  param {
    lr_mult: 2
    decay_mult: 0
  }
  inner_product_param {
    num_output: 9000
    weight_filler {
      type: "gaussian"
      std: 0.0001675
    }
    bias_filler {
      type: "constant"
      value: 0
    }
  }
}
layer {
  name: "InnerProduct1023"
  type: "InnerProduct"
  bottom: "Slice1016"
  top: "InnerProduct1023"
  param {
    lr_mult: 1
    decay_mult: 1
  }
  param {
    lr_mult: 2
    decay_mult: 0
  }
  inner_product_param {
    num_output: 9000
    weight_filler {
      type: "gaussian"
      std: 0.0001675
    }
    bias_filler {
      type: "constant"
      value: 0
    }
  }
}
layer {
  name: "InnerProduct1024"
  type: "InnerProduct"
  bottom: "Slice1017"
  top: "InnerProduct1024"
  param {
    lr_mult: 1
    decay_mult: 1
  }
  param {
    lr_mult: 2
    decay_mult: 0
  }
  inner_product_param {
    num_output: 9000
    weight_filler {
      type: "gaussian"
      std: 0.0001675
    }
    bias_filler {
      type: "constant"
      value: 0
    }
  }
}
layer {
  name: "InnerProduct1025"
  type: "InnerProduct"
  bottom: "Slice1018"
  top: "InnerProduct1025"
  param {
    lr_mult: 1
    decay_mult: 1
  }
  param {
    lr_mult: 2
    decay_mult: 0
  }
  inner_product_param {
    num_output: 9000
    weight_filler {
      type: "gaussian"
      std: 0.0001675
    }
    bias_filler {
      type: "constant"
      value: 0
    }
  }
}
layer {
  name: "InnerProduct1026"
  type: "InnerProduct"
  bottom: "Slice1019"
  top: "InnerProduct1026"
  param {
    lr_mult: 1
    decay_mult: 1
  }
  param {
    lr_mult: 2
    decay_mult: 0
  }
  inner_product_param {
    num_output: 9000
    weight_filler {
      type: "gaussian"
      std: 0.0001675
    }
    bias_filler {
      type: "constant"
      value: 0
    }
  }
}
layer {
  name: "InnerProduct1027"
  type: "InnerProduct"
  bottom: "Slice1020"
  top: "InnerProduct1027"
  param {
    lr_mult: 1
    decay_mult: 1
  }
  param {
    lr_mult: 2
    decay_mult: 0
  }
  inner_product_param {
    num_output: 9000
    weight_filler {
      type: "gaussian"
      std: 0.0001675
    }
    bias_filler {
      type: "constant"
      value: 0
    }
  }
}
layer {
  name: "InnerProduct1028"
  type: "InnerProduct"
  bottom: "Slice1021"
  top: "InnerProduct1028"
  param {
    lr_mult: 1
    decay_mult: 1
  }
  param {
    lr_mult: 2
    decay_mult: 0
  }
  inner_product_param {
    num_output: 9000
    weight_filler {
      type: "gaussian"
      std: 0.0001675
    }
    bias_filler {
      type: "constant"
      value: 0
    }
  }
}
layer {
  name: "InnerProduct1029"
  type: "InnerProduct"
  bottom: "Slice1022"
  top: "InnerProduct1029"
  param {
    lr_mult: 1
    decay_mult: 1
  }
  param {
    lr_mult: 2
    decay_mult: 0
  }
  inner_product_param {
    num_output: 9000
    weight_filler {
      type: "gaussian"
      std: 0.0001675
    }
    bias_filler {
      type: "constant"
      value: 0
    }
  }
}
layer {
  name: "InnerProduct1030"
  type: "InnerProduct"
  bottom: "Slice1023"
  top: "InnerProduct1030"
  param {
    lr_mult: 1
    decay_mult: 1
  }
  param {
    lr_mult: 2
    decay_mult: 0
  }
  inner_product_param {
    num_output: 9000
    weight_filler {
      type: "gaussian"
      std: 0.0001675
    }
    bias_filler {
      type: "constant"
      value: 0
    }
  }
}
layer {
  name: "InnerProduct1031"
  type: "InnerProduct"
  bottom: "Slice1024"
  top: "InnerProduct1031"
  param {
    lr_mult: 1
    decay_mult: 1
  }
  param {
    lr_mult: 2
    decay_mult: 0
  }
  inner_product_param {
    num_output: 9000
    weight_filler {
      type: "gaussian"
      std: 0.0001675
    }
    bias_filler {
      type: "constant"
      value: 0
    }
  }
}
layer {
  name: "InnerProduct1032"
  type: "InnerProduct"
  bottom: "Slice1025"
  top: "InnerProduct1032"
  param {
    lr_mult: 1
    decay_mult: 1
  }
  param {
    lr_mult: 2
    decay_mult: 0
  }
  inner_product_param {
    num_output: 9000
    weight_filler {
      type: "gaussian"
      std: 0.0001675
    }
    bias_filler {
      type: "constant"
      value: 0
    }
  }
}
layer {
  name: "InnerProduct1033"
  type: "InnerProduct"
  bottom: "Slice1026"
  top: "InnerProduct1033"
  param {
    lr_mult: 1
    decay_mult: 1
  }
  param {
    lr_mult: 2
    decay_mult: 0
  }
  inner_product_param {
    num_output: 9000
    weight_filler {
      type: "gaussian"
      std: 0.0001675
    }
    bias_filler {
      type: "constant"
      value: 0
    }
  }
}
layer {
  name: "InnerProduct1034"
  type: "InnerProduct"
  bottom: "Slice1027"
  top: "InnerProduct1034"
  param {
    lr_mult: 1
    decay_mult: 1
  }
  param {
    lr_mult: 2
    decay_mult: 0
  }
  inner_product_param {
    num_output: 9000
    weight_filler {
      type: "gaussian"
      std: 0.0001675
    }
    bias_filler {
      type: "constant"
      value: 0
    }
  }
}
layer {
  name: "InnerProduct1035"
  type: "InnerProduct"
  bottom: "Slice1028"
  top: "InnerProduct1035"
  param {
    lr_mult: 1
    decay_mult: 1
  }
  param {
    lr_mult: 2
    decay_mult: 0
  }
  inner_product_param {
    num_output: 9000
    weight_filler {
      type: "gaussian"
      std: 0.0001675
    }
    bias_filler {
      type: "constant"
      value: 0
    }
  }
}
layer {
  name: "InnerProduct1036"
  type: "InnerProduct"
  bottom: "Slice1029"
  top: "InnerProduct1036"
  param {
    lr_mult: 1
    decay_mult: 1
  }
  param {
    lr_mult: 2
    decay_mult: 0
  }
  inner_product_param {
    num_output: 9000
    weight_filler {
      type: "gaussian"
      std: 0.0001675
    }
    bias_filler {
      type: "constant"
      value: 0
    }
  }
}
layer {
  name: "InnerProduct1037"
  type: "InnerProduct"
  bottom: "Slice1030"
  top: "InnerProduct1037"
  param {
    lr_mult: 1
    decay_mult: 1
  }
  param {
    lr_mult: 2
    decay_mult: 0
  }
  inner_product_param {
    num_output: 9000
    weight_filler {
      type: "gaussian"
      std: 0.0001675
    }
    bias_filler {
      type: "constant"
      value: 0
    }
  }
}
layer {
  name: "InnerProduct1038"
  type: "InnerProduct"
  bottom: "Slice1031"
  top: "InnerProduct1038"
  param {
    lr_mult: 1
    decay_mult: 1
  }
  param {
    lr_mult: 2
    decay_mult: 0
  }
  inner_product_param {
    num_output: 9000
    weight_filler {
      type: "gaussian"
      std: 0.0001675
    }
    bias_filler {
      type: "constant"
      value: 0
    }
  }
}
layer {
  name: "InnerProduct1039"
  type: "InnerProduct"
  bottom: "Slice1032"
  top: "InnerProduct1039"
  param {
    lr_mult: 1
    decay_mult: 1
  }
  param {
    lr_mult: 2
    decay_mult: 0
  }
  inner_product_param {
    num_output: 9000
    weight_filler {
      type: "gaussian"
      std: 0.0001675
    }
    bias_filler {
      type: "constant"
      value: 0
    }
  }
}
layer {
  name: "InnerProduct1040"
  type: "InnerProduct"
  bottom: "Slice1033"
  top: "InnerProduct1040"
  param {
    lr_mult: 1
    decay_mult: 1
  }
  param {
    lr_mult: 2
    decay_mult: 0
  }
  inner_product_param {
    num_output: 9000
    weight_filler {
      type: "gaussian"
      std: 0.0001675
    }
    bias_filler {
      type: "constant"
      value: 0
    }
  }
}
layer {
  name: "InnerProduct1041"
  type: "InnerProduct"
  bottom: "Slice1034"
  top: "InnerProduct1041"
  param {
    lr_mult: 1
    decay_mult: 1
  }
  param {
    lr_mult: 2
    decay_mult: 0
  }
  inner_product_param {
    num_output: 9000
    weight_filler {
      type: "gaussian"
      std: 0.0001675
    }
    bias_filler {
      type: "constant"
      value: 0
    }
  }
}
layer {
  name: "InnerProduct1042"
  type: "InnerProduct"
  bottom: "Slice1035"
  top: "InnerProduct1042"
  param {
    lr_mult: 1
    decay_mult: 1
  }
  param {
    lr_mult: 2
    decay_mult: 0
  }
  inner_product_param {
    num_output: 9000
    weight_filler {
      type: "gaussian"
      std: 0.0001675
    }
    bias_filler {
      type: "constant"
      value: 0
    }
  }
}
layer {
  name: "InnerProduct1043"
  type: "InnerProduct"
  bottom: "Slice1036"
  top: "InnerProduct1043"
  param {
    lr_mult: 1
    decay_mult: 1
  }
  param {
    lr_mult: 2
    decay_mult: 0
  }
  inner_product_param {
    num_output: 9000
    weight_filler {
      type: "gaussian"
      std: 0.0001675
    }
    bias_filler {
      type: "constant"
      value: 0
    }
  }
}
layer {
  name: "InnerProduct1044"
  type: "InnerProduct"
  bottom: "Slice1037"
  top: "InnerProduct1044"
  param {
    lr_mult: 1
    decay_mult: 1
  }
  param {
    lr_mult: 2
    decay_mult: 0
  }
  inner_product_param {
    num_output: 9000
    weight_filler {
      type: "gaussian"
      std: 0.0001675
    }
    bias_filler {
      type: "constant"
      value: 0
    }
  }
}
layer {
  name: "InnerProduct1045"
  type: "InnerProduct"
  bottom: "Slice1038"
  top: "InnerProduct1045"
  param {
    lr_mult: 1
    decay_mult: 1
  }
  param {
    lr_mult: 2
    decay_mult: 0
  }
  inner_product_param {
    num_output: 9000
    weight_filler {
      type: "gaussian"
      std: 0.0001675
    }
    bias_filler {
      type: "constant"
      value: 0
    }
  }
}
layer {
  name: "InnerProduct1046"
  type: "InnerProduct"
  bottom: "Slice1039"
  top: "InnerProduct1046"
  param {
    lr_mult: 1
    decay_mult: 1
  }
  param {
    lr_mult: 2
    decay_mult: 0
  }
  inner_product_param {
    num_output: 9000
    weight_filler {
      type: "gaussian"
      std: 0.0001675
    }
    bias_filler {
      type: "constant"
      value: 0
    }
  }
}
layer {
  name: "InnerProduct1047"
  type: "InnerProduct"
  bottom: "Slice1040"
  top: "InnerProduct1047"
  param {
    lr_mult: 1
    decay_mult: 1
  }
  param {
    lr_mult: 2
    decay_mult: 0
  }
  inner_product_param {
    num_output: 9000
    weight_filler {
      type: "gaussian"
      std: 0.0001675
    }
    bias_filler {
      type: "constant"
      value: 0
    }
  }
}
layer {
  name: "InnerProduct1048"
  type: "InnerProduct"
  bottom: "Slice1041"
  top: "InnerProduct1048"
  param {
    lr_mult: 1
    decay_mult: 1
  }
  param {
    lr_mult: 2
    decay_mult: 0
  }
  inner_product_param {
    num_output: 9000
    weight_filler {
      type: "gaussian"
      std: 0.0001675
    }
    bias_filler {
      type: "constant"
      value: 0
    }
  }
}
layer {
  name: "InnerProduct1049"
  type: "InnerProduct"
  bottom: "Slice1042"
  top: "InnerProduct1049"
  param {
    lr_mult: 1
    decay_mult: 1
  }
  param {
    lr_mult: 2
    decay_mult: 0
  }
  inner_product_param {
    num_output: 9000
    weight_filler {
      type: "gaussian"
      std: 0.0001675
    }
    bias_filler {
      type: "constant"
      value: 0
    }
  }
}
layer {
  name: "InnerProduct1050"
  type: "InnerProduct"
  bottom: "Slice1043"
  top: "InnerProduct1050"
  param {
    lr_mult: 1
    decay_mult: 1
  }
  param {
    lr_mult: 2
    decay_mult: 0
  }
  inner_product_param {
    num_output: 9000
    weight_filler {
      type: "gaussian"
      std: 0.0001675
    }
    bias_filler {
      type: "constant"
      value: 0
    }
  }
}
layer {
  name: "InnerProduct1051"
  type: "InnerProduct"
  bottom: "Slice1044"
  top: "InnerProduct1051"
  param {
    lr_mult: 1
    decay_mult: 1
  }
  param {
    lr_mult: 2
    decay_mult: 0
  }
  inner_product_param {
    num_output: 9000
    weight_filler {
      type: "gaussian"
      std: 0.0001675
    }
    bias_filler {
      type: "constant"
      value: 0
    }
  }
}
layer {
  name: "InnerProduct1052"
  type: "InnerProduct"
  bottom: "Slice1045"
  top: "InnerProduct1052"
  param {
    lr_mult: 1
    decay_mult: 1
  }
  param {
    lr_mult: 2
    decay_mult: 0
  }
  inner_product_param {
    num_output: 9000
    weight_filler {
      type: "gaussian"
      std: 0.0001675
    }
    bias_filler {
      type: "constant"
      value: 0
    }
  }
}
layer {
  name: "InnerProduct1053"
  type: "InnerProduct"
  bottom: "Slice1046"
  top: "InnerProduct1053"
  param {
    lr_mult: 1
    decay_mult: 1
  }
  param {
    lr_mult: 2
    decay_mult: 0
  }
  inner_product_param {
    num_output: 9000
    weight_filler {
      type: "gaussian"
      std: 0.0001675
    }
    bias_filler {
      type: "constant"
      value: 0
    }
  }
}
layer {
  name: "InnerProduct1054"
  type: "InnerProduct"
  bottom: "Slice1047"
  top: "InnerProduct1054"
  param {
    lr_mult: 1
    decay_mult: 1
  }
  param {
    lr_mult: 2
    decay_mult: 0
  }
  inner_product_param {
    num_output: 9000
    weight_filler {
      type: "gaussian"
      std: 0.0001675
    }
    bias_filler {
      type: "constant"
      value: 0
    }
  }
}
layer {
  name: "InnerProduct1055"
  type: "InnerProduct"
  bottom: "Slice1048"
  top: "InnerProduct1055"
  param {
    lr_mult: 1
    decay_mult: 1
  }
  param {
    lr_mult: 2
    decay_mult: 0
  }
  inner_product_param {
    num_output: 9000
    weight_filler {
      type: "gaussian"
      std: 0.0001675
    }
    bias_filler {
      type: "constant"
      value: 0
    }
  }
}
layer {
  name: "InnerProduct1056"
  type: "InnerProduct"
  bottom: "Slice1049"
  top: "InnerProduct1056"
  param {
    lr_mult: 1
    decay_mult: 1
  }
  param {
    lr_mult: 2
    decay_mult: 0
  }
  inner_product_param {
    num_output: 9000
    weight_filler {
      type: "gaussian"
      std: 0.0001675
    }
    bias_filler {
      type: "constant"
      value: 0
    }
  }
}
layer {
  name: "InnerProduct1057"
  type: "InnerProduct"
  bottom: "Slice1050"
  top: "InnerProduct1057"
  param {
    lr_mult: 1
    decay_mult: 1
  }
  param {
    lr_mult: 2
    decay_mult: 0
  }
  inner_product_param {
    num_output: 9000
    weight_filler {
      type: "gaussian"
      std: 0.0001675
    }
    bias_filler {
      type: "constant"
      value: 0
    }
  }
}
layer {
  name: "InnerProduct1058"
  type: "InnerProduct"
  bottom: "Slice1051"
  top: "InnerProduct1058"
  param {
    lr_mult: 1
    decay_mult: 1
  }
  param {
    lr_mult: 2
    decay_mult: 0
  }
  inner_product_param {
    num_output: 9000
    weight_filler {
      type: "gaussian"
      std: 0.0001675
    }
    bias_filler {
      type: "constant"
      value: 0
    }
  }
}
layer {
  name: "InnerProduct1059"
  type: "InnerProduct"
  bottom: "Slice1052"
  top: "InnerProduct1059"
  param {
    lr_mult: 1
    decay_mult: 1
  }
  param {
    lr_mult: 2
    decay_mult: 0
  }
  inner_product_param {
    num_output: 9000
    weight_filler {
      type: "gaussian"
      std: 0.0001675
    }
    bias_filler {
      type: "constant"
      value: 0
    }
  }
}
layer {
  name: "InnerProduct1060"
  type: "InnerProduct"
  bottom: "Slice1053"
  top: "InnerProduct1060"
  param {
    lr_mult: 1
    decay_mult: 1
  }
  param {
    lr_mult: 2
    decay_mult: 0
  }
  inner_product_param {
    num_output: 9000
    weight_filler {
      type: "gaussian"
      std: 0.0001675
    }
    bias_filler {
      type: "constant"
      value: 0
    }
  }
}
layer {
  name: "InnerProduct1061"
  type: "InnerProduct"
  bottom: "Slice1054"
  top: "InnerProduct1061"
  param {
    lr_mult: 1
    decay_mult: 1
  }
  param {
    lr_mult: 2
    decay_mult: 0
  }
  inner_product_param {
    num_output: 9000
    weight_filler {
      type: "gaussian"
      std: 0.0001675
    }
    bias_filler {
      type: "constant"
      value: 0
    }
  }
}
layer {
  name: "InnerProduct1062"
  type: "InnerProduct"
  bottom: "Slice1055"
  top: "InnerProduct1062"
  param {
    lr_mult: 1
    decay_mult: 1
  }
  param {
    lr_mult: 2
    decay_mult: 0
  }
  inner_product_param {
    num_output: 9000
    weight_filler {
      type: "gaussian"
      std: 0.0001675
    }
    bias_filler {
      type: "constant"
      value: 0
    }
  }
}
layer {
  name: "InnerProduct1063"
  type: "InnerProduct"
  bottom: "Slice1056"
  top: "InnerProduct1063"
  param {
    lr_mult: 1
    decay_mult: 1
  }
  param {
    lr_mult: 2
    decay_mult: 0
  }
  inner_product_param {
    num_output: 9000
    weight_filler {
      type: "gaussian"
      std: 0.0001675
    }
    bias_filler {
      type: "constant"
      value: 0
    }
  }
}
layer {
  name: "InnerProduct1064"
  type: "InnerProduct"
  bottom: "Slice1057"
  top: "InnerProduct1064"
  param {
    lr_mult: 1
    decay_mult: 1
  }
  param {
    lr_mult: 2
    decay_mult: 0
  }
  inner_product_param {
    num_output: 9000
    weight_filler {
      type: "gaussian"
      std: 0.0001675
    }
    bias_filler {
      type: "constant"
      value: 0
    }
  }
}
layer {
  name: "InnerProduct1065"
  type: "InnerProduct"
  bottom: "Slice1058"
  top: "InnerProduct1065"
  param {
    lr_mult: 1
    decay_mult: 1
  }
  param {
    lr_mult: 2
    decay_mult: 0
  }
  inner_product_param {
    num_output: 9000
    weight_filler {
      type: "gaussian"
      std: 0.0001675
    }
    bias_filler {
      type: "constant"
      value: 0
    }
  }
}
layer {
  name: "InnerProduct1066"
  type: "InnerProduct"
  bottom: "Slice1059"
  top: "InnerProduct1066"
  param {
    lr_mult: 1
    decay_mult: 1
  }
  param {
    lr_mult: 2
    decay_mult: 0
  }
  inner_product_param {
    num_output: 9000
    weight_filler {
      type: "gaussian"
      std: 0.0001675
    }
    bias_filler {
      type: "constant"
      value: 0
    }
  }
}
layer {
  name: "InnerProduct1067"
  type: "InnerProduct"
  bottom: "Slice1060"
  top: "InnerProduct1067"
  param {
    lr_mult: 1
    decay_mult: 1
  }
  param {
    lr_mult: 2
    decay_mult: 0
  }
  inner_product_param {
    num_output: 9000
    weight_filler {
      type: "gaussian"
      std: 0.0001675
    }
    bias_filler {
      type: "constant"
      value: 0
    }
  }
}
layer {
  name: "InnerProduct1068"
  type: "InnerProduct"
  bottom: "Slice1061"
  top: "InnerProduct1068"
  param {
    lr_mult: 1
    decay_mult: 1
  }
  param {
    lr_mult: 2
    decay_mult: 0
  }
  inner_product_param {
    num_output: 9000
    weight_filler {
      type: "gaussian"
      std: 0.0001675
    }
    bias_filler {
      type: "constant"
      value: 0
    }
  }
}
layer {
  name: "InnerProduct1069"
  type: "InnerProduct"
  bottom: "Slice1062"
  top: "InnerProduct1069"
  param {
    lr_mult: 1
    decay_mult: 1
  }
  param {
    lr_mult: 2
    decay_mult: 0
  }
  inner_product_param {
    num_output: 9000
    weight_filler {
      type: "gaussian"
      std: 0.0001675
    }
    bias_filler {
      type: "constant"
      value: 0
    }
  }
}
layer {
  name: "InnerProduct1070"
  type: "InnerProduct"
  bottom: "Slice1063"
  top: "InnerProduct1070"
  param {
    lr_mult: 1
    decay_mult: 1
  }
  param {
    lr_mult: 2
    decay_mult: 0
  }
  inner_product_param {
    num_output: 9000
    weight_filler {
      type: "gaussian"
      std: 0.0001675
    }
    bias_filler {
      type: "constant"
      value: 0
    }
  }
}
layer {
  name: "InnerProduct1071"
  type: "InnerProduct"
  bottom: "Slice1064"
  top: "InnerProduct1071"
  param {
    lr_mult: 1
    decay_mult: 1
  }
  param {
    lr_mult: 2
    decay_mult: 0
  }
  inner_product_param {
    num_output: 9000
    weight_filler {
      type: "gaussian"
      std: 0.0001675
    }
    bias_filler {
      type: "constant"
      value: 0
    }
  }
}
layer {
  name: "InnerProduct1072"
  type: "InnerProduct"
  bottom: "Slice1065"
  top: "InnerProduct1072"
  param {
    lr_mult: 1
    decay_mult: 1
  }
  param {
    lr_mult: 2
    decay_mult: 0
  }
  inner_product_param {
    num_output: 9000
    weight_filler {
      type: "gaussian"
      std: 0.0001675
    }
    bias_filler {
      type: "constant"
      value: 0
    }
  }
}
layer {
  name: "InnerProduct1073"
  type: "InnerProduct"
  bottom: "Slice1066"
  top: "InnerProduct1073"
  param {
    lr_mult: 1
    decay_mult: 1
  }
  param {
    lr_mult: 2
    decay_mult: 0
  }
  inner_product_param {
    num_output: 9000
    weight_filler {
      type: "gaussian"
      std: 0.0001675
    }
    bias_filler {
      type: "constant"
      value: 0
    }
  }
}
layer {
  name: "InnerProduct1074"
  type: "InnerProduct"
  bottom: "Slice1067"
  top: "InnerProduct1074"
  param {
    lr_mult: 1
    decay_mult: 1
  }
  param {
    lr_mult: 2
    decay_mult: 0
  }
  inner_product_param {
    num_output: 9000
    weight_filler {
      type: "gaussian"
      std: 0.0001675
    }
    bias_filler {
      type: "constant"
      value: 0
    }
  }
}
layer {
  name: "InnerProduct1075"
  type: "InnerProduct"
  bottom: "Slice1068"
  top: "InnerProduct1075"
  param {
    lr_mult: 1
    decay_mult: 1
  }
  param {
    lr_mult: 2
    decay_mult: 0
  }
  inner_product_param {
    num_output: 9000
    weight_filler {
      type: "gaussian"
      std: 0.0001675
    }
    bias_filler {
      type: "constant"
      value: 0
    }
  }
}
layer {
  name: "InnerProduct1076"
  type: "InnerProduct"
  bottom: "Slice1069"
  top: "InnerProduct1076"
  param {
    lr_mult: 1
    decay_mult: 1
  }
  param {
    lr_mult: 2
    decay_mult: 0
  }
  inner_product_param {
    num_output: 9000
    weight_filler {
      type: "gaussian"
      std: 0.0001675
    }
    bias_filler {
      type: "constant"
      value: 0
    }
  }
}
layer {
  name: "InnerProduct1077"
  type: "InnerProduct"
  bottom: "Slice1070"
  top: "InnerProduct1077"
  param {
    lr_mult: 1
    decay_mult: 1
  }
  param {
    lr_mult: 2
    decay_mult: 0
  }
  inner_product_param {
    num_output: 9000
    weight_filler {
      type: "gaussian"
      std: 0.0001675
    }
    bias_filler {
      type: "constant"
      value: 0
    }
  }
}
layer {
  name: "InnerProduct1078"
  type: "InnerProduct"
  bottom: "Slice1071"
  top: "InnerProduct1078"
  param {
    lr_mult: 1
    decay_mult: 1
  }
  param {
    lr_mult: 2
    decay_mult: 0
  }
  inner_product_param {
    num_output: 9000
    weight_filler {
      type: "gaussian"
      std: 0.0001675
    }
    bias_filler {
      type: "constant"
      value: 0
    }
  }
}
layer {
  name: "InnerProduct1079"
  type: "InnerProduct"
  bottom: "Slice1072"
  top: "InnerProduct1079"
  param {
    lr_mult: 1
    decay_mult: 1
  }
  param {
    lr_mult: 2
    decay_mult: 0
  }
  inner_product_param {
    num_output: 9000
    weight_filler {
      type: "gaussian"
      std: 0.0001675
    }
    bias_filler {
      type: "constant"
      value: 0
    }
  }
}
layer {
  name: "InnerProduct1080"
  type: "InnerProduct"
  bottom: "Slice1073"
  top: "InnerProduct1080"
  param {
    lr_mult: 1
    decay_mult: 1
  }
  param {
    lr_mult: 2
    decay_mult: 0
  }
  inner_product_param {
    num_output: 9000
    weight_filler {
      type: "gaussian"
      std: 0.0001675
    }
    bias_filler {
      type: "constant"
      value: 0
    }
  }
}
layer {
  name: "InnerProduct1081"
  type: "InnerProduct"
  bottom: "Slice1074"
  top: "InnerProduct1081"
  param {
    lr_mult: 1
    decay_mult: 1
  }
  param {
    lr_mult: 2
    decay_mult: 0
  }
  inner_product_param {
    num_output: 9000
    weight_filler {
      type: "gaussian"
      std: 0.0001675
    }
    bias_filler {
      type: "constant"
      value: 0
    }
  }
}
layer {
  name: "InnerProduct1082"
  type: "InnerProduct"
  bottom: "Slice1075"
  top: "InnerProduct1082"
  param {
    lr_mult: 1
    decay_mult: 1
  }
  param {
    lr_mult: 2
    decay_mult: 0
  }
  inner_product_param {
    num_output: 9000
    weight_filler {
      type: "gaussian"
      std: 0.0001675
    }
    bias_filler {
      type: "constant"
      value: 0
    }
  }
}
layer {
  name: "InnerProduct1083"
  type: "InnerProduct"
  bottom: "Slice1076"
  top: "InnerProduct1083"
  param {
    lr_mult: 1
    decay_mult: 1
  }
  param {
    lr_mult: 2
    decay_mult: 0
  }
  inner_product_param {
    num_output: 9000
    weight_filler {
      type: "gaussian"
      std: 0.0001675
    }
    bias_filler {
      type: "constant"
      value: 0
    }
  }
}
layer {
  name: "InnerProduct1084"
  type: "InnerProduct"
  bottom: "Slice1077"
  top: "InnerProduct1084"
  param {
    lr_mult: 1
    decay_mult: 1
  }
  param {
    lr_mult: 2
    decay_mult: 0
  }
  inner_product_param {
    num_output: 9000
    weight_filler {
      type: "gaussian"
      std: 0.0001675
    }
    bias_filler {
      type: "constant"
      value: 0
    }
  }
}
layer {
  name: "InnerProduct1085"
  type: "InnerProduct"
  bottom: "Slice1078"
  top: "InnerProduct1085"
  param {
    lr_mult: 1
    decay_mult: 1
  }
  param {
    lr_mult: 2
    decay_mult: 0
  }
  inner_product_param {
    num_output: 9000
    weight_filler {
      type: "gaussian"
      std: 0.0001675
    }
    bias_filler {
      type: "constant"
      value: 0
    }
  }
}
layer {
  name: "InnerProduct1086"
  type: "InnerProduct"
  bottom: "Slice1079"
  top: "InnerProduct1086"
  param {
    lr_mult: 1
    decay_mult: 1
  }
  param {
    lr_mult: 2
    decay_mult: 0
  }
  inner_product_param {
    num_output: 9000
    weight_filler {
      type: "gaussian"
      std: 0.0001675
    }
    bias_filler {
      type: "constant"
      value: 0
    }
  }
}
layer {
  name: "InnerProduct1087"
  type: "InnerProduct"
  bottom: "Slice1080"
  top: "InnerProduct1087"
  param {
    lr_mult: 1
    decay_mult: 1
  }
  param {
    lr_mult: 2
    decay_mult: 0
  }
  inner_product_param {
    num_output: 9000
    weight_filler {
      type: "gaussian"
      std: 0.0001675
    }
    bias_filler {
      type: "constant"
      value: 0
    }
  }
}
layer {
  name: "InnerProduct1088"
  type: "InnerProduct"
  bottom: "Slice1081"
  top: "InnerProduct1088"
  param {
    lr_mult: 1
    decay_mult: 1
  }
  param {
    lr_mult: 2
    decay_mult: 0
  }
  inner_product_param {
    num_output: 9000
    weight_filler {
      type: "gaussian"
      std: 0.0001675
    }
    bias_filler {
      type: "constant"
      value: 0
    }
  }
}
layer {
  name: "InnerProduct1089"
  type: "InnerProduct"
  bottom: "Slice1082"
  top: "InnerProduct1089"
  param {
    lr_mult: 1
    decay_mult: 1
  }
  param {
    lr_mult: 2
    decay_mult: 0
  }
  inner_product_param {
    num_output: 9000
    weight_filler {
      type: "gaussian"
      std: 0.0001675
    }
    bias_filler {
      type: "constant"
      value: 0
    }
  }
}
layer {
  name: "InnerProduct1090"
  type: "InnerProduct"
  bottom: "Slice1083"
  top: "InnerProduct1090"
  param {
    lr_mult: 1
    decay_mult: 1
  }
  param {
    lr_mult: 2
    decay_mult: 0
  }
  inner_product_param {
    num_output: 9000
    weight_filler {
      type: "gaussian"
      std: 0.0001675
    }
    bias_filler {
      type: "constant"
      value: 0
    }
  }
}
layer {
  name: "InnerProduct1091"
  type: "InnerProduct"
  bottom: "Slice1084"
  top: "InnerProduct1091"
  param {
    lr_mult: 1
    decay_mult: 1
  }
  param {
    lr_mult: 2
    decay_mult: 0
  }
  inner_product_param {
    num_output: 9000
    weight_filler {
      type: "gaussian"
      std: 0.0001675
    }
    bias_filler {
      type: "constant"
      value: 0
    }
  }
}
layer {
  name: "InnerProduct1092"
  type: "InnerProduct"
  bottom: "Slice1085"
  top: "InnerProduct1092"
  param {
    lr_mult: 1
    decay_mult: 1
  }
  param {
    lr_mult: 2
    decay_mult: 0
  }
  inner_product_param {
    num_output: 9000
    weight_filler {
      type: "gaussian"
      std: 0.0001675
    }
    bias_filler {
      type: "constant"
      value: 0
    }
  }
}
layer {
  name: "InnerProduct1093"
  type: "InnerProduct"
  bottom: "Slice1086"
  top: "InnerProduct1093"
  param {
    lr_mult: 1
    decay_mult: 1
  }
  param {
    lr_mult: 2
    decay_mult: 0
  }
  inner_product_param {
    num_output: 9000
    weight_filler {
      type: "gaussian"
      std: 0.0001675
    }
    bias_filler {
      type: "constant"
      value: 0
    }
  }
}
layer {
  name: "InnerProduct1094"
  type: "InnerProduct"
  bottom: "Slice1087"
  top: "InnerProduct1094"
  param {
    lr_mult: 1
    decay_mult: 1
  }
  param {
    lr_mult: 2
    decay_mult: 0
  }
  inner_product_param {
    num_output: 9000
    weight_filler {
      type: "gaussian"
      std: 0.0001675
    }
    bias_filler {
      type: "constant"
      value: 0
    }
  }
}
layer {
  name: "InnerProduct1095"
  type: "InnerProduct"
  bottom: "Slice1088"
  top: "InnerProduct1095"
  param {
    lr_mult: 1
    decay_mult: 1
  }
  param {
    lr_mult: 2
    decay_mult: 0
  }
  inner_product_param {
    num_output: 9000
    weight_filler {
      type: "gaussian"
      std: 0.0001675
    }
    bias_filler {
      type: "constant"
      value: 0
    }
  }
}
layer {
  name: "InnerProduct1096"
  type: "InnerProduct"
  bottom: "Slice1089"
  top: "InnerProduct1096"
  param {
    lr_mult: 1
    decay_mult: 1
  }
  param {
    lr_mult: 2
    decay_mult: 0
  }
  inner_product_param {
    num_output: 9000
    weight_filler {
      type: "gaussian"
      std: 0.0001675
    }
    bias_filler {
      type: "constant"
      value: 0
    }
  }
}
layer {
  name: "InnerProduct1097"
  type: "InnerProduct"
  bottom: "Slice1090"
  top: "InnerProduct1097"
  param {
    lr_mult: 1
    decay_mult: 1
  }
  param {
    lr_mult: 2
    decay_mult: 0
  }
  inner_product_param {
    num_output: 9000
    weight_filler {
      type: "gaussian"
      std: 0.0001675
    }
    bias_filler {
      type: "constant"
      value: 0
    }
  }
}
layer {
  name: "InnerProduct1098"
  type: "InnerProduct"
  bottom: "Slice1091"
  top: "InnerProduct1098"
  param {
    lr_mult: 1
    decay_mult: 1
  }
  param {
    lr_mult: 2
    decay_mult: 0
  }
  inner_product_param {
    num_output: 9000
    weight_filler {
      type: "gaussian"
      std: 0.0001675
    }
    bias_filler {
      type: "constant"
      value: 0
    }
  }
}
layer {
  name: "InnerProduct1099"
  type: "InnerProduct"
  bottom: "Slice1092"
  top: "InnerProduct1099"
  param {
    lr_mult: 1
    decay_mult: 1
  }
  param {
    lr_mult: 2
    decay_mult: 0
  }
  inner_product_param {
    num_output: 9000
    weight_filler {
      type: "gaussian"
      std: 0.0001675
    }
    bias_filler {
      type: "constant"
      value: 0
    }
  }
}
layer {
  name: "InnerProduct1100"
  type: "InnerProduct"
  bottom: "Slice1093"
  top: "InnerProduct1100"
  param {
    lr_mult: 1
    decay_mult: 1
  }
  param {
    lr_mult: 2
    decay_mult: 0
  }
  inner_product_param {
    num_output: 9000
    weight_filler {
      type: "gaussian"
      std: 0.0001675
    }
    bias_filler {
      type: "constant"
      value: 0
    }
  }
}
layer {
  name: "InnerProduct1101"
  type: "InnerProduct"
  bottom: "Slice1094"
  top: "InnerProduct1101"
  param {
    lr_mult: 1
    decay_mult: 1
  }
  param {
    lr_mult: 2
    decay_mult: 0
  }
  inner_product_param {
    num_output: 9000
    weight_filler {
      type: "gaussian"
      std: 0.0001675
    }
    bias_filler {
      type: "constant"
      value: 0
    }
  }
}
layer {
  name: "InnerProduct1102"
  type: "InnerProduct"
  bottom: "Slice1095"
  top: "InnerProduct1102"
  param {
    lr_mult: 1
    decay_mult: 1
  }
  param {
    lr_mult: 2
    decay_mult: 0
  }
  inner_product_param {
    num_output: 9000
    weight_filler {
      type: "gaussian"
      std: 0.0001675
    }
    bias_filler {
      type: "constant"
      value: 0
    }
  }
}
layer {
  name: "InnerProduct1103"
  type: "InnerProduct"
  bottom: "Slice1096"
  top: "InnerProduct1103"
  param {
    lr_mult: 1
    decay_mult: 1
  }
  param {
    lr_mult: 2
    decay_mult: 0
  }
  inner_product_param {
    num_output: 9000
    weight_filler {
      type: "gaussian"
      std: 0.0001675
    }
    bias_filler {
      type: "constant"
      value: 0
    }
  }
}
layer {
  name: "InnerProduct1104"
  type: "InnerProduct"
  bottom: "Slice1097"
  top: "InnerProduct1104"
  param {
    lr_mult: 1
    decay_mult: 1
  }
  param {
    lr_mult: 2
    decay_mult: 0
  }
  inner_product_param {
    num_output: 9000
    weight_filler {
      type: "gaussian"
      std: 0.0001675
    }
    bias_filler {
      type: "constant"
      value: 0
    }
  }
}
layer {
  name: "InnerProduct1105"
  type: "InnerProduct"
  bottom: "Slice1098"
  top: "InnerProduct1105"
  param {
    lr_mult: 1
    decay_mult: 1
  }
  param {
    lr_mult: 2
    decay_mult: 0
  }
  inner_product_param {
    num_output: 9000
    weight_filler {
      type: "gaussian"
      std: 0.0001675
    }
    bias_filler {
      type: "constant"
      value: 0
    }
  }
}
layer {
  name: "InnerProduct1106"
  type: "InnerProduct"
  bottom: "Slice1099"
  top: "InnerProduct1106"
  param {
    lr_mult: 1
    decay_mult: 1
  }
  param {
    lr_mult: 2
    decay_mult: 0
  }
  inner_product_param {
    num_output: 9000
    weight_filler {
      type: "gaussian"
      std: 0.0001675
    }
    bias_filler {
      type: "constant"
      value: 0
    }
  }
}
layer {
  name: "InnerProduct1107"
  type: "InnerProduct"
  bottom: "Slice1100"
  top: "InnerProduct1107"
  param {
    lr_mult: 1
    decay_mult: 1
  }
  param {
    lr_mult: 2
    decay_mult: 0
  }
  inner_product_param {
    num_output: 9000
    weight_filler {
      type: "gaussian"
      std: 0.0001675
    }
    bias_filler {
      type: "constant"
      value: 0
    }
  }
}
layer {
  name: "InnerProduct1108"
  type: "InnerProduct"
  bottom: "Slice1101"
  top: "InnerProduct1108"
  param {
    lr_mult: 1
    decay_mult: 1
  }
  param {
    lr_mult: 2
    decay_mult: 0
  }
  inner_product_param {
    num_output: 9000
    weight_filler {
      type: "gaussian"
      std: 0.0001675
    }
    bias_filler {
      type: "constant"
      value: 0
    }
  }
}
layer {
  name: "InnerProduct1109"
  type: "InnerProduct"
  bottom: "Slice1102"
  top: "InnerProduct1109"
  param {
    lr_mult: 1
    decay_mult: 1
  }
  param {
    lr_mult: 2
    decay_mult: 0
  }
  inner_product_param {
    num_output: 9000
    weight_filler {
      type: "gaussian"
      std: 0.0001675
    }
    bias_filler {
      type: "constant"
      value: 0
    }
  }
}
layer {
  name: "InnerProduct1110"
  type: "InnerProduct"
  bottom: "Slice1103"
  top: "InnerProduct1110"
  param {
    lr_mult: 1
    decay_mult: 1
  }
  param {
    lr_mult: 2
    decay_mult: 0
  }
  inner_product_param {
    num_output: 9000
    weight_filler {
      type: "gaussian"
      std: 0.0001675
    }
    bias_filler {
      type: "constant"
      value: 0
    }
  }
}
layer {
  name: "InnerProduct1111"
  type: "InnerProduct"
  bottom: "Slice1104"
  top: "InnerProduct1111"
  param {
    lr_mult: 1
    decay_mult: 1
  }
  param {
    lr_mult: 2
    decay_mult: 0
  }
  inner_product_param {
    num_output: 9000
    weight_filler {
      type: "gaussian"
      std: 0.0001675
    }
    bias_filler {
      type: "constant"
      value: 0
    }
  }
}
layer {
  name: "InnerProduct1112"
  type: "InnerProduct"
  bottom: "Slice1105"
  top: "InnerProduct1112"
  param {
    lr_mult: 1
    decay_mult: 1
  }
  param {
    lr_mult: 2
    decay_mult: 0
  }
  inner_product_param {
    num_output: 9000
    weight_filler {
      type: "gaussian"
      std: 0.0001675
    }
    bias_filler {
      type: "constant"
      value: 0
    }
  }
}
layer {
  name: "InnerProduct1113"
  type: "InnerProduct"
  bottom: "Slice1106"
  top: "InnerProduct1113"
  param {
    lr_mult: 1
    decay_mult: 1
  }
  param {
    lr_mult: 2
    decay_mult: 0
  }
  inner_product_param {
    num_output: 9000
    weight_filler {
      type: "gaussian"
      std: 0.0001675
    }
    bias_filler {
      type: "constant"
      value: 0
    }
  }
}
layer {
  name: "InnerProduct1114"
  type: "InnerProduct"
  bottom: "Slice1107"
  top: "InnerProduct1114"
  param {
    lr_mult: 1
    decay_mult: 1
  }
  param {
    lr_mult: 2
    decay_mult: 0
  }
  inner_product_param {
    num_output: 9000
    weight_filler {
      type: "gaussian"
      std: 0.0001675
    }
    bias_filler {
      type: "constant"
      value: 0
    }
  }
}
layer {
  name: "InnerProduct1115"
  type: "InnerProduct"
  bottom: "Slice1108"
  top: "InnerProduct1115"
  param {
    lr_mult: 1
    decay_mult: 1
  }
  param {
    lr_mult: 2
    decay_mult: 0
  }
  inner_product_param {
    num_output: 9000
    weight_filler {
      type: "gaussian"
      std: 0.0001675
    }
    bias_filler {
      type: "constant"
      value: 0
    }
  }
}
layer {
  name: "InnerProduct1116"
  type: "InnerProduct"
  bottom: "Slice1109"
  top: "InnerProduct1116"
  param {
    lr_mult: 1
    decay_mult: 1
  }
  param {
    lr_mult: 2
    decay_mult: 0
  }
  inner_product_param {
    num_output: 9000
    weight_filler {
      type: "gaussian"
      std: 0.0001675
    }
    bias_filler {
      type: "constant"
      value: 0
    }
  }
}
layer {
  name: "InnerProduct1117"
  type: "InnerProduct"
  bottom: "Slice1110"
  top: "InnerProduct1117"
  param {
    lr_mult: 1
    decay_mult: 1
  }
  param {
    lr_mult: 2
    decay_mult: 0
  }
  inner_product_param {
    num_output: 9000
    weight_filler {
      type: "gaussian"
      std: 0.0001675
    }
    bias_filler {
      type: "constant"
      value: 0
    }
  }
}
layer {
  name: "InnerProduct1118"
  type: "InnerProduct"
  bottom: "Slice1111"
  top: "InnerProduct1118"
  param {
    lr_mult: 1
    decay_mult: 1
  }
  param {
    lr_mult: 2
    decay_mult: 0
  }
  inner_product_param {
    num_output: 9000
    weight_filler {
      type: "gaussian"
      std: 0.0001675
    }
    bias_filler {
      type: "constant"
      value: 0
    }
  }
}
layer {
  name: "InnerProduct1119"
  type: "InnerProduct"
  bottom: "Slice1112"
  top: "InnerProduct1119"
  param {
    lr_mult: 1
    decay_mult: 1
  }
  param {
    lr_mult: 2
    decay_mult: 0
  }
  inner_product_param {
    num_output: 9000
    weight_filler {
      type: "gaussian"
      std: 0.0001675
    }
    bias_filler {
      type: "constant"
      value: 0
    }
  }
}
layer {
  name: "Concat3"
  type: "Concat"
  bottom: "InnerProduct1020"
  bottom: "InnerProduct1021"
  bottom: "InnerProduct1022"
  bottom: "InnerProduct1023"
  bottom: "InnerProduct1024"
  bottom: "InnerProduct1025"
  bottom: "InnerProduct1026"
  bottom: "InnerProduct1027"
  bottom: "InnerProduct1028"
  bottom: "InnerProduct1029"
  bottom: "InnerProduct1030"
  bottom: "InnerProduct1031"
  bottom: "InnerProduct1032"
  bottom: "InnerProduct1033"
  bottom: "InnerProduct1034"
  bottom: "InnerProduct1035"
  bottom: "InnerProduct1036"
  bottom: "InnerProduct1037"
  bottom: "InnerProduct1038"
  bottom: "InnerProduct1039"
  bottom: "InnerProduct1040"
  bottom: "InnerProduct1041"
  bottom: "InnerProduct1042"
  bottom: "InnerProduct1043"
  bottom: "InnerProduct1044"
  bottom: "InnerProduct1045"
  bottom: "InnerProduct1046"
  bottom: "InnerProduct1047"
  bottom: "InnerProduct1048"
  bottom: "InnerProduct1049"
  bottom: "InnerProduct1050"
  bottom: "InnerProduct1051"
  bottom: "InnerProduct1052"
  bottom: "InnerProduct1053"
  bottom: "InnerProduct1054"
  bottom: "InnerProduct1055"
  bottom: "InnerProduct1056"
  bottom: "InnerProduct1057"
  bottom: "InnerProduct1058"
  bottom: "InnerProduct1059"
  bottom: "InnerProduct1060"
  bottom: "InnerProduct1061"
  bottom: "InnerProduct1062"
  bottom: "InnerProduct1063"
  bottom: "InnerProduct1064"
  bottom: "InnerProduct1065"
  bottom: "InnerProduct1066"
  bottom: "InnerProduct1067"
  bottom: "InnerProduct1068"
  bottom: "InnerProduct1069"
  bottom: "InnerProduct1070"
  bottom: "InnerProduct1071"
  bottom: "InnerProduct1072"
  bottom: "InnerProduct1073"
  bottom: "InnerProduct1074"
  bottom: "InnerProduct1075"
  bottom: "InnerProduct1076"
  bottom: "InnerProduct1077"
  bottom: "InnerProduct1078"
  bottom: "InnerProduct1079"
  bottom: "InnerProduct1080"
  bottom: "InnerProduct1081"
  bottom: "InnerProduct1082"
  bottom: "InnerProduct1083"
  bottom: "InnerProduct1084"
  bottom: "InnerProduct1085"
  bottom: "InnerProduct1086"
  bottom: "InnerProduct1087"
  bottom: "InnerProduct1088"
  bottom: "InnerProduct1089"
  bottom: "InnerProduct1090"
  bottom: "InnerProduct1091"
  bottom: "InnerProduct1092"
  bottom: "InnerProduct1093"
  bottom: "InnerProduct1094"
  bottom: "InnerProduct1095"
  bottom: "InnerProduct1096"
  bottom: "InnerProduct1097"
  bottom: "InnerProduct1098"
  bottom: "InnerProduct1099"
  bottom: "InnerProduct1100"
  bottom: "InnerProduct1101"
  bottom: "InnerProduct1102"
  bottom: "InnerProduct1103"
  bottom: "InnerProduct1104"
  bottom: "InnerProduct1105"
  bottom: "InnerProduct1106"
  bottom: "InnerProduct1107"
  bottom: "InnerProduct1108"
  bottom: "InnerProduct1109"
  bottom: "InnerProduct1110"
  bottom: "InnerProduct1111"
  bottom: "InnerProduct1112"
  bottom: "InnerProduct1113"
  bottom: "InnerProduct1114"
  bottom: "InnerProduct1115"
  bottom: "InnerProduct1116"
  bottom: "InnerProduct1117"
  bottom: "InnerProduct1118"
  bottom: "InnerProduct1119"
  top: "Concat3"
}
layer {
  name: "Sigmoid1"
  type: "Sigmoid"
  bottom: "Concat3"
  top: "Sigmoid1"
}
layer {
  name: "EuclideanLoss1"
  type: "EuclideanLoss"
  bottom: "data"
  bottom: "Sigmoid1"
  top: "EuclideanLoss1"
  loss_weight: 1
}
layer {
  name: "EuclideanLoss2"
  type: "EuclideanLoss"
  bottom: "label"
  bottom: "label"
  top: "EuclideanLoss2"
  loss_weight: 0
}

