name: "Sauron Tree V0.11"
layer {
  name: "data"
  type: "Data"
  top: "data"
  top: "label"
  include {
    phase: TRAIN
  }
  transform_param {
    mirror: true
    crop_size: 227
    scale: 0.00390625
#    mean_file: "tfdp_mean.binaryproto"
  }
  data_param {
    source: "/datas/root/deepid_test/cacd_train_lmdb"
    batch_size: 256
    backend: LMDB
  }
}
layer {
  name: "data"
  type: "Data"
  top: "data"
  top: "label"
  include {
    phase: TEST
  }
  transform_param {
    mirror: false
    crop_size: 227
    scale: 0.00390625
#    mean_file: "tfdp_mean.binaryproto"
  }
  data_param {
    source: "/datas/root/deepid_test/cacd_val_lmdb"
    batch_size: 4
    backend: LMDB
  }
}
layer {
  name: "slice_data"
  type: "Slice"
  bottom: "data"
  top: "data_r"
  top: "data_g"
  top: "data_b"
  slice_param {
    slice_dim: 1
    slice_point: 1
    slice_point: 2
  }
}
layer {
  name: "none0"
  type: "InnerProduct"
  bottom: "data_g"
  top: "none0"
  param {
    lr_mult: 0
    decay_mult: 1
  }
  param {
    lr_mult: 0
    decay_mult: 0
  }
  inner_product_param {
    num_output: 1
    weight_filler {
      type: "xavier"
    }
    bias_filler {
      type: "constant"
      value: 0
    }
  }
}
layer {
  name: "none1"
  type: "InnerProduct"
  bottom: "data_b"
  top: "none1"
  param {
    lr_mult: 0
    decay_mult: 1
  }
  param {
    lr_mult: 0
    decay_mult: 0
  }
  inner_product_param {
    num_output: 1
    weight_filler {
      type: "xavier"
    }
    bias_filler {
      type: "constant"
      value: 0
    }
  }
}
layer {
  name: "loss-none0"
  type: "SoftmaxWithLoss"
  bottom: "none0"
  bottom: "label"
  top: "loss-none0"
  loss_weight: 0
}
layer {
  name: "loss-none1"
  type: "SoftmaxWithLoss"
  bottom: "none1"
  bottom: "label"
  top: "loss-none1"
  loss_weight: 0
}
layer {
  name: "flat_data"
  type: "Flatten"
  bottom: "data_r"
  top: "flat_data"
}
#############################################33
layer {
  name: "slice_pair"
  type: "Slice"
  bottom: "flat_data"
    top: "data-0"
  top: "data-1"
  top: "data-2"
  top: "data-3"
  top: "data-4"
  top: "data-5"
  top: "data-6"
  top: "data-7"
  top: "data-8"
  top: "data-9"
  top: "data-10"
  top: "data-11"
  top: "data-12"
  top: "data-13"
  top: "data-14"
  top: "data-15"
  top: "data-16"
  top: "data-17"
  top: "data-18"
  top: "data-19"
  top: "data-20"
  top: "data-21"
  top: "data-22"
  top: "data-23"
  top: "data-24"
  top: "data-25"
  top: "data-26"
  top: "data-27"
  top: "data-28"
  top: "data-29"
  top: "data-30"
  top: "data-31"
  top: "data-32"
  top: "data-33"
  top: "data-34"
  top: "data-35"
  top: "data-36"
  top: "data-37"
  top: "data-38"
  top: "data-39"
  top: "data-40"
  top: "data-41"
  top: "data-42"
  top: "data-43"
  top: "data-44"
  top: "data-45"
  top: "data-46"
  top: "data-47"
  top: "data-48"
  top: "data-49"
  top: "data-50"
  top: "data-51"
  top: "data-52"
  top: "data-53"
  top: "data-54"
  top: "data-55"
  top: "data-56"
  top: "data-57"
  top: "data-58"
  top: "data-59"
  top: "data-60"
  top: "data-61"
  top: "data-62"
  top: "data-63"
  top: "data-64"
  top: "data-65"
  top: "data-66"
  top: "data-67"
  top: "data-68"
  top: "data-69"
  top: "data-70"
  top: "data-71"
  top: "data-72"
  top: "data-73"
  top: "data-74"
  top: "data-75"
  top: "data-76"
  top: "data-77"
  top: "data-78"
  top: "data-79"
  top: "data-80"
  top: "data-81"
  top: "data-82"
  top: "data-83"
  top: "data-84"
  top: "data-85"
  top: "data-86"
  top: "data-87"
  top: "data-88"
  top: "data-89"
  top: "data-90"
  top: "data-91"
  top: "data-92"
  top: "data-93"
  top: "data-94"
  top: "data-95"
  top: "data-96"
  top: "data-97"
  top: "data-98"
  top: "data-99"
  top: "data-100"
  top: "data-101"
  top: "data-102"
  top: "data-103"
  top: "data-104"
  top: "data-105"
  top: "data-106"
  top: "data-107"
  top: "data-108"
  top: "data-109"
  top: "data-110"
  top: "data-111"
  top: "data-112"
  top: "data-113"
  top: "data-114"
  top: "data-115"
  top: "data-116"
  top: "data-117"
  top: "data-118"
  top: "data-119"
  top: "data-120"
  top: "data-121"
  top: "data-122"
  top: "data-123"
  top: "data-124"
  top: "data-125"
  top: "data-126"
  top: "data-127"
  top: "data-128"
  top: "data-129"
  top: "data-130"
  top: "data-131"
  top: "data-132"
  top: "data-133"
  top: "data-134"
  top: "data-135"
  top: "data-136"
  top: "data-137"
  top: "data-138"
  top: "data-139"
  top: "data-140"
  top: "data-141"
  top: "data-142"
  top: "data-143"
  top: "data-144"
  top: "data-145"
  top: "data-146"
  top: "data-147"
  top: "data-148"
  top: "data-149"
  top: "data-150"
  top: "data-151"
  top: "data-152"
  top: "data-153"
  top: "data-154"
  top: "data-155"
  top: "data-156"
  top: "data-157"
  top: "data-158"
  top: "data-159"
  top: "data-160"
  top: "data-161"
  top: "data-162"
  top: "data-163"
  top: "data-164"
  top: "data-165"
  top: "data-166"
  top: "data-167"
  top: "data-168"
  top: "data-169"
  top: "data-170"
  top: "data-171"
  top: "data-172"
  top: "data-173"
  top: "data-174"
  top: "data-175"
  top: "data-176"
  top: "data-177"
  top: "data-178"
  top: "data-179"
  top: "data-180"
  top: "data-181"
  top: "data-182"
  top: "data-183"
  top: "data-184"
  top: "data-185"
  top: "data-186"
  top: "data-187"
  top: "data-188"
  top: "data-189"
  top: "data-190"
  top: "data-191"
  top: "data-192"
  top: "data-193"
  top: "data-194"
  top: "data-195"
  top: "data-196"
  top: "data-197"
  top: "data-198"
  top: "data-199"
  top: "data-200"
  top: "data-201"
  top: "data-202"
  top: "data-203"
  top: "data-204"
  top: "data-205"
  top: "data-206"
  top: "data-207"
  top: "data-208"
  top: "data-209"
  top: "data-210"
  top: "data-211"
  top: "data-212"
  top: "data-213"
  top: "data-214"
  top: "data-215"
  top: "data-216"
  top: "data-217"
  top: "data-218"
  top: "data-219"
  top: "data-220"
  top: "data-221"
  top: "data-222"
  top: "data-223"
  top: "data-224"
  top: "data-225"
  top: "data-226"
  top: "data-227"
  top: "data-228"
  top: "data-229"
  top: "data-230"
  top: "data-231"
  top: "data-232"
  top: "data-233"
  top: "data-234"
  top: "data-235"
  top: "data-236"
  top: "data-237"
  top: "data-238"
  top: "data-239"
  top: "data-240"
  top: "data-241"
  top: "data-242"
  top: "data-243"
  top: "data-244"
  top: "data-245"
  top: "data-246"
  top: "data-247"
  top: "data-248"
  top: "data-249"
  top: "data-250"
  top: "data-251"
  top: "data-252"
  top: "data-253"
  top: "data-254"
  top: "data-255"
  top: "data-256"
  top: "data-257"
  top: "data-258"
  top: "data-259"
  top: "data-260"
  top: "data-261"
  top: "data-262"
  top: "data-263"
  top: "data-264"
  top: "data-265"
  top: "data-266"
  top: "data-267"
  top: "data-268"
  top: "data-269"
  top: "data-270"
  top: "data-271"
  top: "data-272"
  top: "data-273"
  top: "data-274"
  top: "data-275"
  top: "data-276"
  top: "data-277"
  top: "data-278"
  top: "data-279"
  top: "data-280"
  top: "data-281"
  top: "data-282"
  top: "data-283"
  top: "data-284"
  top: "data-285"
  top: "data-286"
  top: "data-287"
  top: "data-288"
  top: "data-289"
  top: "data-290"
  top: "data-291"
  top: "data-292"
  top: "data-293"
  top: "data-294"
  top: "data-295"
  top: "data-296"
  top: "data-297"
  top: "data-298"
  top: "data-299"
  top: "data-300"
  top: "data-301"
  top: "data-302"
  top: "data-303"
  top: "data-304"
  top: "data-305"
  top: "data-306"
  top: "data-307"
  top: "data-308"
  top: "data-309"
  top: "data-310"
  top: "data-311"
  top: "data-312"
  top: "data-313"
  top: "data-314"
  top: "data-315"
  top: "data-316"
  top: "data-317"
  top: "data-318"
  top: "data-319"
  top: "data-320"
  top: "data-321"
  top: "data-322"
  top: "data-323"
  top: "data-324"
  top: "data-325"
  top: "data-326"
  top: "data-327"
  top: "data-328"
  top: "data-329"
  top: "data-330"
  top: "data-331"
  top: "data-332"
  top: "data-333"
  top: "data-334"
  top: "data-335"
  top: "data-336"
  top: "data-337"
  top: "data-338"
  top: "data-339"
  top: "data-340"
  top: "data-341"
  top: "data-342"
  top: "data-343"
  top: "data-344"
  top: "data-345"
  top: "data-346"
  top: "data-347"
  top: "data-348"
  top: "data-349"
  top: "data-350"
  top: "data-351"
  top: "data-352"
  top: "data-353"
  top: "data-354"
  top: "data-355"
  top: "data-356"
  top: "data-357"
  top: "data-358"
  top: "data-359"
  top: "data-360"
  top: "data-361"
  top: "data-362"
  top: "data-363"
  top: "data-364"
  top: "data-365"
  top: "data-366"
  top: "data-367"
  top: "data-368"
  top: "data-369"
  top: "data-370"
  top: "data-371"
  top: "data-372"
  top: "data-373"
  top: "data-374"
  top: "data-375"
  top: "data-376"
  top: "data-377"
  top: "data-378"
  top: "data-379"
  top: "data-380"
  top: "data-381"
  top: "data-382"
  top: "data-383"
  top: "data-384"
  top: "data-385"
  top: "data-386"
  top: "data-387"
  top: "data-388"
  top: "data-389"
  top: "data-390"
  top: "data-391"
  top: "data-392"
  top: "data-393"
  top: "data-394"
  top: "data-395"
  top: "data-396"
  top: "data-397"
  top: "data-398"
  top: "data-399"
  top: "data-400"
  top: "data-401"
  top: "data-402"
  top: "data-403"
  top: "data-404"
  top: "data-405"
  top: "data-406"
  top: "data-407"
  top: "data-408"
  top: "data-409"
  top: "data-410"
  top: "data-411"
  top: "data-412"
  top: "data-413"
  top: "data-414"
  top: "data-415"
  top: "data-416"
  top: "data-417"
  top: "data-418"
  top: "data-419"
  top: "data-420"
  top: "data-421"
  top: "data-422"
  top: "data-423"
  top: "data-424"
  top: "data-425"
  top: "data-426"
  top: "data-427"
  top: "data-428"
  top: "data-429"
  top: "data-430"
  top: "data-431"
  top: "data-432"
  top: "data-433"
  top: "data-434"
  top: "data-435"
  top: "data-436"
  top: "data-437"
  top: "data-438"
  top: "data-439"
  top: "data-440"
  top: "data-441"
  top: "data-442"
  top: "data-443"
  top: "data-444"
  top: "data-445"
  top: "data-446"
  top: "data-447"
  top: "data-448"
  top: "data-449"
  top: "data-450"
  top: "data-451"
  top: "data-452"
  top: "data-453"
  top: "data-454"
  top: "data-455"
  top: "data-456"
  top: "data-457"
  top: "data-458"
  top: "data-459"
  top: "data-460"
  top: "data-461"
  top: "data-462"
  top: "data-463"
  top: "data-464"
  top: "data-465"
  top: "data-466"
  top: "data-467"
  top: "data-468"
  top: "data-469"
  top: "data-470"
  top: "data-471"
  top: "data-472"
  top: "data-473"
  top: "data-474"
  top: "data-475"
  top: "data-476"
  top: "data-477"
  top: "data-478"
  top: "data-479"
  top: "data-480"
  top: "data-481"
  top: "data-482"
  top: "data-483"
  top: "data-484"
  top: "data-485"
  top: "data-486"
  top: "data-487"
  top: "data-488"
  top: "data-489"
  top: "data-490"
  top: "data-491"
  top: "data-492"
  top: "data-493"
  top: "data-494"
  top: "data-495"
  top: "data-496"
  top: "data-497"
  top: "data-498"
  top: "data-499"
  top: "data-500"
  top: "data-501"
  top: "data-502"
  top: "data-503"
  top: "data-504"
  top: "data-505"
  top: "data-506"
  top: "data-507"
  top: "data-508"
  top: "data-509"
  top: "data-510"
  top: "data-511"
  top: "data-512"
  top: "data-513"
  top: "data-514"
  top: "data-515"
  top: "data-516"
  top: "data-517"
  top: "data-518"
  top: "data-519"
  top: "data-520"
  top: "data-521"
  top: "data-522"
  top: "data-523"
  top: "data-524"
  top: "data-525"
  top: "data-526"
  top: "data-527"
  top: "data-528"
  top: "data-529"
  top: "data-530"
  top: "data-531"
  top: "data-532"
  top: "data-533"
  top: "data-534"
  top: "data-535"
  top: "data-536"
  top: "data-537"
  top: "data-538"
  top: "data-539"
  top: "data-540"
  top: "data-541"
  top: "data-542"
  top: "data-543"
  top: "data-544"
  top: "data-545"
  top: "data-546"
  top: "data-547"
  top: "data-548"
  top: "data-549"
  top: "data-550"
  top: "data-551"
  top: "data-552"
  top: "data-553"
  top: "data-554"
  top: "data-555"
  top: "data-556"
  top: "data-557"
  top: "data-558"
  top: "data-559"
  top: "data-560"
  top: "data-561"
  top: "data-562"
  top: "data-563"
  top: "data-564"
  top: "data-565"
  top: "data-566"
  top: "data-567"
  top: "data-568"
  top: "data-569"
  top: "data-570"
  top: "data-571"
  top: "data-572"
  top: "data-573"
  top: "data-574"
  top: "data-575"
  top: "data-576"
  top: "data-577"
  top: "data-578"
  top: "data-579"
  top: "data-580"
  top: "data-581"
  top: "data-582"
  top: "data-583"
  top: "data-584"
  top: "data-585"
  top: "data-586"
  top: "data-587"
  top: "data-588"
  top: "data-589"
  top: "data-590"
  top: "data-591"
  top: "data-592"
  top: "data-593"
  top: "data-594"
  top: "data-595"
  top: "data-596"
  top: "data-597"
  top: "data-598"
  top: "data-599"
  top: "data-600"
  top: "data-601"
  top: "data-602"
  top: "data-603"
  top: "data-604"
  top: "data-605"
  top: "data-606"
  top: "data-607"
  top: "data-608"
  top: "data-609"
  top: "data-610"
  top: "data-611"
  top: "data-612"
  top: "data-613"
  top: "data-614"
  top: "data-615"
  top: "data-616"
  top: "data-617"
  top: "data-618"
  top: "data-619"
  top: "data-620"
  top: "data-621"
  top: "data-622"
  top: "data-623"
  top: "data-624"
  top: "data-625"
  top: "data-626"
  top: "data-627"
  top: "data-628"
  top: "data-629"
  top: "data-630"
  top: "data-631"
  top: "data-632"
  top: "data-633"
  top: "data-634"
  top: "data-635"
  top: "data-636"
  top: "data-637"
  top: "data-638"
  top: "data-639"
  top: "data-640"
  top: "data-641"
  top: "data-642"
  top: "data-643"
  top: "data-644"
  top: "data-645"
  top: "data-646"
  top: "data-647"
  top: "data-648"
  top: "data-649"
  top: "data-650"
  top: "data-651"
  top: "data-652"
  top: "data-653"
  top: "data-654"
  top: "data-655"
  top: "data-656"
  top: "data-657"
  top: "data-658"
  top: "data-659"
  top: "data-660"
  top: "data-661"
  top: "data-662"
  top: "data-663"
  top: "data-664"
  top: "data-665"
  top: "data-666"
  top: "data-667"
  top: "data-668"
  top: "data-669"
  top: "data-670"
  top: "data-671"
  top: "data-672"
  top: "data-673"
  top: "data-674"
  top: "data-675"
  top: "data-676"
  top: "data-677"
  top: "data-678"
  top: "data-679"
  top: "data-680"
  top: "data-681"
  top: "data-682"
  top: "data-683"
  top: "data-684"
  top: "data-685"
  top: "data-686"
  top: "data-687"
  top: "data-688"
  top: "data-689"
  top: "data-690"
  top: "data-691"
  top: "data-692"
  top: "data-693"
  top: "data-694"
  top: "data-695"
  top: "data-696"
  top: "data-697"
  top: "data-698"
  top: "data-699"
  top: "data-700"
  top: "data-701"
  top: "data-702"
  top: "data-703"
  top: "data-704"
  top: "data-705"
  top: "data-706"
  top: "data-707"
  top: "data-708"
  top: "data-709"
  top: "data-710"
  top: "data-711"
  top: "data-712"
  top: "data-713"
  top: "data-714"
  top: "data-715"
  top: "data-716"
  top: "data-717"
  top: "data-718"
  top: "data-719"
  top: "data-720"
  top: "data-721"
  top: "data-722"
  top: "data-723"
  top: "data-724"
  top: "data-725"
  top: "data-726"
  top: "data-727"
  top: "data-728"
  top: "data-729"
  top: "data-730"
  top: "data-731"
  top: "data-732"
  top: "data-733"
  top: "data-734"
  top: "data-735"
  top: "data-736"
  top: "data-737"
  top: "data-738"
  top: "data-739"
  top: "data-740"
  top: "data-741"
  top: "data-742"
  top: "data-743"
  top: "data-744"
  top: "data-745"
  top: "data-746"
  top: "data-747"
  top: "data-748"
  top: "data-749"
  top: "data-750"
  top: "data-751"
  top: "data-752"
  top: "data-753"
  top: "data-754"
  top: "data-755"
  top: "data-756"
  top: "data-757"
  top: "data-758"
  top: "data-759"
  top: "data-760"
  top: "data-761"
  top: "data-762"
  top: "data-763"
  top: "data-764"
  top: "data-765"
  top: "data-766"
  top: "data-767"
  top: "data-768"
  top: "data-769"
  top: "data-770"
  top: "data-771"
  top: "data-772"
  top: "data-773"
  top: "data-774"
  top: "data-775"
  top: "data-776"
  top: "data-777"
  top: "data-778"
  top: "data-779"
  top: "data-780"
  top: "data-781"
  top: "data-782"
  top: "data-783"
  top: "data-784"
  top: "data-785"
  top: "data-786"
  top: "data-787"
  top: "data-788"
  top: "data-789"
  top: "data-790"
  top: "data-791"
  top: "data-792"
  top: "data-793"
  top: "data-794"
  top: "data-795"
  top: "data-796"
  top: "data-797"
  top: "data-798"
  top: "data-799"
  top: "data-800"
  top: "data-801"
  top: "data-802"
  top: "data-803"
  top: "data-804"
  top: "data-805"
  top: "data-806"
  top: "data-807"
  top: "data-808"
  top: "data-809"
  top: "data-810"
  top: "data-811"
  top: "data-812"
  top: "data-813"
  top: "data-814"
  top: "data-815"
  top: "data-816"
  top: "data-817"
  top: "data-818"
  top: "data-819"
  top: "data-820"
  top: "data-821"
  top: "data-822"
  top: "data-823"
  top: "data-824"
  top: "data-825"
  top: "data-826"
  top: "data-827"
  top: "data-828"
  top: "data-829"
  top: "data-830"
  top: "data-831"
  top: "data-832"
  top: "data-833"
  top: "data-834"
  top: "data-835"
  top: "data-836"
  top: "data-837"
  top: "data-838"
  top: "data-839"
  top: "data-840"
  top: "data-841"
  top: "data-842"
  top: "data-843"
  top: "data-844"
  top: "data-845"
  top: "data-846"
  top: "data-847"
  top: "data-848"
  top: "data-849"
  top: "data-850"
  top: "data-851"
  top: "data-852"
  top: "data-853"
  top: "data-854"
  top: "data-855"
  top: "data-856"
  top: "data-857"
  top: "data-858"
  top: "data-859"
  top: "data-860"
  top: "data-861"
  top: "data-862"
  top: "data-863"
  top: "data-864"
  top: "data-865"
  top: "data-866"
  top: "data-867"
  top: "data-868"
  top: "data-869"
  top: "data-870"
  top: "data-871"
  top: "data-872"
  top: "data-873"
  top: "data-874"
  top: "data-875"
  top: "data-876"
  top: "data-877"
  top: "data-878"
  top: "data-879"
  top: "data-880"
  top: "data-881"
  top: "data-882"
  top: "data-883"
  top: "data-884"
  top: "data-885"
  top: "data-886"
  top: "data-887"
  top: "data-888"
  top: "data-889"
  top: "data-890"
  top: "data-891"
  top: "data-892"
  top: "data-893"
  top: "data-894"
  top: "data-895"
  top: "data-896"
  top: "data-897"
  top: "data-898"
  top: "data-899"
  top: "data-900"
  top: "data-901"
  top: "data-902"
  top: "data-903"
  top: "data-904"
  top: "data-905"
  top: "data-906"
  top: "data-907"
  top: "data-908"
  top: "data-909"
  top: "data-910"
  top: "data-911"
  top: "data-912"
  top: "data-913"
  top: "data-914"
  top: "data-915"
  top: "data-916"
  top: "data-917"
  top: "data-918"
  top: "data-919"
  top: "data-920"
  top: "data-921"
  top: "data-922"
  top: "data-923"
  top: "data-924"
  top: "data-925"
  top: "data-926"
  top: "data-927"
  top: "data-928"
  top: "data-929"
  top: "data-930"
  top: "data-931"
  top: "data-932"
  top: "data-933"
  top: "data-934"
  top: "data-935"
  top: "data-936"
  top: "data-937"
  top: "data-938"
  top: "data-939"
  top: "data-940"
  top: "data-941"
  top: "data-942"
  top: "data-943"
  top: "data-944"
  top: "data-945"
  top: "data-946"
  top: "data-947"
  top: "data-948"
  top: "data-949"
  top: "data-950"
  top: "data-951"
  top: "data-952"
  top: "data-953"
  top: "data-954"
  top: "data-955"
  top: "data-956"
  top: "data-957"
  top: "data-958"
  top: "data-959"
  top: "data-960"
  top: "data-961"
  top: "data-962"
  top: "data-963"
  top: "data-964"
  top: "data-965"
  top: "data-966"
  top: "data-967"
  top: "data-968"
  top: "data-969"
  top: "data-970"
  top: "data-971"
  top: "data-972"
  top: "data-973"
  top: "data-974"
  top: "data-975"
  top: "data-976"
  top: "data-977"
  top: "data-978"
  top: "data-979"
  top: "data-980"
  top: "data-981"
  top: "data-982"
  top: "data-983"
  top: "data-984"
  top: "data-985"
  top: "data-986"
  top: "data-987"
  top: "data-988"
  top: "data-989"
  top: "data-990"
  top: "data-991"
  top: "data-992"
  top: "data-993"
  top: "data-994"
  top: "data-995"
  top: "data-996"
  top: "data-997"
  top: "data-998"
  top: "data-999"

  slice_param {
    slice_dim: 1
        slice_point: 51
    slice_point: 102
    slice_point: 153
    slice_point: 204
    slice_point: 255
    slice_point: 306
    slice_point: 357
    slice_point: 408
    slice_point: 459
    slice_point: 510
    slice_point: 561
    slice_point: 612
    slice_point: 663
    slice_point: 714
    slice_point: 765
    slice_point: 816
    slice_point: 867
    slice_point: 918
    slice_point: 969
    slice_point: 1020
    slice_point: 1071
    slice_point: 1122
    slice_point: 1173
    slice_point: 1224
    slice_point: 1275
    slice_point: 1326
    slice_point: 1377
    slice_point: 1428
    slice_point: 1479
    slice_point: 1530
    slice_point: 1581
    slice_point: 1632
    slice_point: 1683
    slice_point: 1734
    slice_point: 1785
    slice_point: 1836
    slice_point: 1887
    slice_point: 1938
    slice_point: 1989
    slice_point: 2040
    slice_point: 2091
    slice_point: 2142
    slice_point: 2193
    slice_point: 2244
    slice_point: 2295
    slice_point: 2346
    slice_point: 2397
    slice_point: 2448
    slice_point: 2499
    slice_point: 2550
    slice_point: 2601
    slice_point: 2652
    slice_point: 2703
    slice_point: 2754
    slice_point: 2805
    slice_point: 2856
    slice_point: 2907
    slice_point: 2958
    slice_point: 3009
    slice_point: 3060
    slice_point: 3111
    slice_point: 3162
    slice_point: 3213
    slice_point: 3264
    slice_point: 3315
    slice_point: 3366
    slice_point: 3417
    slice_point: 3468
    slice_point: 3519
    slice_point: 3570
    slice_point: 3621
    slice_point: 3672
    slice_point: 3723
    slice_point: 3774
    slice_point: 3825
    slice_point: 3876
    slice_point: 3927
    slice_point: 3978
    slice_point: 4029
    slice_point: 4080
    slice_point: 4131
    slice_point: 4182
    slice_point: 4233
    slice_point: 4284
    slice_point: 4335
    slice_point: 4386
    slice_point: 4437
    slice_point: 4488
    slice_point: 4539
    slice_point: 4590
    slice_point: 4641
    slice_point: 4692
    slice_point: 4743
    slice_point: 4794
    slice_point: 4845
    slice_point: 4896
    slice_point: 4947
    slice_point: 4998
    slice_point: 5049
    slice_point: 5100
    slice_point: 5151
    slice_point: 5202
    slice_point: 5253
    slice_point: 5304
    slice_point: 5355
    slice_point: 5406
    slice_point: 5457
    slice_point: 5508
    slice_point: 5559
    slice_point: 5610
    slice_point: 5661
    slice_point: 5712
    slice_point: 5763
    slice_point: 5814
    slice_point: 5865
    slice_point: 5916
    slice_point: 5967
    slice_point: 6018
    slice_point: 6069
    slice_point: 6120
    slice_point: 6171
    slice_point: 6222
    slice_point: 6273
    slice_point: 6324
    slice_point: 6375
    slice_point: 6426
    slice_point: 6477
    slice_point: 6528
    slice_point: 6579
    slice_point: 6630
    slice_point: 6681
    slice_point: 6732
    slice_point: 6783
    slice_point: 6834
    slice_point: 6885
    slice_point: 6936
    slice_point: 6987
    slice_point: 7038
    slice_point: 7089
    slice_point: 7140
    slice_point: 7191
    slice_point: 7242
    slice_point: 7293
    slice_point: 7344
    slice_point: 7395
    slice_point: 7446
    slice_point: 7497
    slice_point: 7548
    slice_point: 7599
    slice_point: 7650
    slice_point: 7701
    slice_point: 7752
    slice_point: 7803
    slice_point: 7854
    slice_point: 7905
    slice_point: 7956
    slice_point: 8007
    slice_point: 8058
    slice_point: 8109
    slice_point: 8160
    slice_point: 8211
    slice_point: 8262
    slice_point: 8313
    slice_point: 8364
    slice_point: 8415
    slice_point: 8466
    slice_point: 8517
    slice_point: 8568
    slice_point: 8619
    slice_point: 8670
    slice_point: 8721
    slice_point: 8772
    slice_point: 8823
    slice_point: 8874
    slice_point: 8925
    slice_point: 8976
    slice_point: 9027
    slice_point: 9078
    slice_point: 9129
    slice_point: 9180
    slice_point: 9231
    slice_point: 9282
    slice_point: 9333
    slice_point: 9384
    slice_point: 9435
    slice_point: 9486
    slice_point: 9537
    slice_point: 9588
    slice_point: 9639
    slice_point: 9690
    slice_point: 9741
    slice_point: 9792
    slice_point: 9843
    slice_point: 9894
    slice_point: 9945
    slice_point: 9996
    slice_point: 10047
    slice_point: 10098
    slice_point: 10149
    slice_point: 10200
    slice_point: 10251
    slice_point: 10302
    slice_point: 10353
    slice_point: 10404
    slice_point: 10455
    slice_point: 10506
    slice_point: 10557
    slice_point: 10608
    slice_point: 10659
    slice_point: 10710
    slice_point: 10761
    slice_point: 10812
    slice_point: 10863
    slice_point: 10914
    slice_point: 10965
    slice_point: 11016
    slice_point: 11067
    slice_point: 11118
    slice_point: 11169
    slice_point: 11220
    slice_point: 11271
    slice_point: 11322
    slice_point: 11373
    slice_point: 11424
    slice_point: 11475
    slice_point: 11526
    slice_point: 11577
    slice_point: 11628
    slice_point: 11679
    slice_point: 11730
    slice_point: 11781
    slice_point: 11832
    slice_point: 11883
    slice_point: 11934
    slice_point: 11985
    slice_point: 12036
    slice_point: 12087
    slice_point: 12138
    slice_point: 12189
    slice_point: 12240
    slice_point: 12291
    slice_point: 12342
    slice_point: 12393
    slice_point: 12444
    slice_point: 12495
    slice_point: 12546
    slice_point: 12597
    slice_point: 12648
    slice_point: 12699
    slice_point: 12750
    slice_point: 12801
    slice_point: 12852
    slice_point: 12903
    slice_point: 12954
    slice_point: 13005
    slice_point: 13056
    slice_point: 13107
    slice_point: 13158
    slice_point: 13209
    slice_point: 13260
    slice_point: 13311
    slice_point: 13362
    slice_point: 13413
    slice_point: 13464
    slice_point: 13515
    slice_point: 13566
    slice_point: 13617
    slice_point: 13668
    slice_point: 13719
    slice_point: 13770
    slice_point: 13821
    slice_point: 13872
    slice_point: 13923
    slice_point: 13974
    slice_point: 14025
    slice_point: 14076
    slice_point: 14127
    slice_point: 14178
    slice_point: 14229
    slice_point: 14280
    slice_point: 14331
    slice_point: 14382
    slice_point: 14433
    slice_point: 14484
    slice_point: 14535
    slice_point: 14586
    slice_point: 14637
    slice_point: 14688
    slice_point: 14739
    slice_point: 14790
    slice_point: 14841
    slice_point: 14892
    slice_point: 14943
    slice_point: 14994
    slice_point: 15045
    slice_point: 15096
    slice_point: 15147
    slice_point: 15198
    slice_point: 15249
    slice_point: 15300
    slice_point: 15351
    slice_point: 15402
    slice_point: 15453
    slice_point: 15504
    slice_point: 15555
    slice_point: 15606
    slice_point: 15657
    slice_point: 15708
    slice_point: 15759
    slice_point: 15810
    slice_point: 15861
    slice_point: 15912
    slice_point: 15963
    slice_point: 16014
    slice_point: 16065
    slice_point: 16116
    slice_point: 16167
    slice_point: 16218
    slice_point: 16269
    slice_point: 16320
    slice_point: 16371
    slice_point: 16422
    slice_point: 16473
    slice_point: 16524
    slice_point: 16575
    slice_point: 16626
    slice_point: 16677
    slice_point: 16728
    slice_point: 16779
    slice_point: 16830
    slice_point: 16881
    slice_point: 16932
    slice_point: 16983
    slice_point: 17034
    slice_point: 17085
    slice_point: 17136
    slice_point: 17187
    slice_point: 17238
    slice_point: 17289
    slice_point: 17340
    slice_point: 17391
    slice_point: 17442
    slice_point: 17493
    slice_point: 17544
    slice_point: 17595
    slice_point: 17646
    slice_point: 17697
    slice_point: 17748
    slice_point: 17799
    slice_point: 17850
    slice_point: 17901
    slice_point: 17952
    slice_point: 18003
    slice_point: 18054
    slice_point: 18105
    slice_point: 18156
    slice_point: 18207
    slice_point: 18258
    slice_point: 18309
    slice_point: 18360
    slice_point: 18411
    slice_point: 18462
    slice_point: 18513
    slice_point: 18564
    slice_point: 18615
    slice_point: 18666
    slice_point: 18717
    slice_point: 18768
    slice_point: 18819
    slice_point: 18870
    slice_point: 18921
    slice_point: 18972
    slice_point: 19023
    slice_point: 19074
    slice_point: 19125
    slice_point: 19176
    slice_point: 19227
    slice_point: 19278
    slice_point: 19329
    slice_point: 19380
    slice_point: 19431
    slice_point: 19482
    slice_point: 19533
    slice_point: 19584
    slice_point: 19635
    slice_point: 19686
    slice_point: 19737
    slice_point: 19788
    slice_point: 19839
    slice_point: 19890
    slice_point: 19941
    slice_point: 19992
    slice_point: 20043
    slice_point: 20094
    slice_point: 20145
    slice_point: 20196
    slice_point: 20247
    slice_point: 20298
    slice_point: 20349
    slice_point: 20400
    slice_point: 20451
    slice_point: 20502
    slice_point: 20553
    slice_point: 20604
    slice_point: 20655
    slice_point: 20706
    slice_point: 20757
    slice_point: 20808
    slice_point: 20859
    slice_point: 20910
    slice_point: 20961
    slice_point: 21012
    slice_point: 21063
    slice_point: 21114
    slice_point: 21165
    slice_point: 21216
    slice_point: 21267
    slice_point: 21318
    slice_point: 21369
    slice_point: 21420
    slice_point: 21471
    slice_point: 21522
    slice_point: 21573
    slice_point: 21624
    slice_point: 21675
    slice_point: 21726
    slice_point: 21777
    slice_point: 21828
    slice_point: 21879
    slice_point: 21930
    slice_point: 21981
    slice_point: 22032
    slice_point: 22083
    slice_point: 22134
    slice_point: 22185
    slice_point: 22236
    slice_point: 22287
    slice_point: 22338
    slice_point: 22389
    slice_point: 22440
    slice_point: 22491
    slice_point: 22542
    slice_point: 22593
    slice_point: 22644
    slice_point: 22695
    slice_point: 22746
    slice_point: 22797
    slice_point: 22848
    slice_point: 22899
    slice_point: 22950
    slice_point: 23001
    slice_point: 23052
    slice_point: 23103
    slice_point: 23154
    slice_point: 23205
    slice_point: 23256
    slice_point: 23307
    slice_point: 23358
    slice_point: 23409
    slice_point: 23460
    slice_point: 23511
    slice_point: 23562
    slice_point: 23613
    slice_point: 23664
    slice_point: 23715
    slice_point: 23766
    slice_point: 23817
    slice_point: 23868
    slice_point: 23919
    slice_point: 23970
    slice_point: 24021
    slice_point: 24072
    slice_point: 24123
    slice_point: 24174
    slice_point: 24225
    slice_point: 24276
    slice_point: 24327
    slice_point: 24378
    slice_point: 24429
    slice_point: 24480
    slice_point: 24531
    slice_point: 24582
    slice_point: 24633
    slice_point: 24684
    slice_point: 24735
    slice_point: 24786
    slice_point: 24837
    slice_point: 24888
    slice_point: 24939
    slice_point: 24990
    slice_point: 25041
    slice_point: 25092
    slice_point: 25143
    slice_point: 25194
    slice_point: 25245
    slice_point: 25296
    slice_point: 25347
    slice_point: 25398
    slice_point: 25449
    slice_point: 25500
    slice_point: 25551
    slice_point: 25602
    slice_point: 25653
    slice_point: 25704
    slice_point: 25755
    slice_point: 25806
    slice_point: 25857
    slice_point: 25908
    slice_point: 25959
    slice_point: 26010
    slice_point: 26061
    slice_point: 26112
    slice_point: 26163
    slice_point: 26214
    slice_point: 26265
    slice_point: 26316
    slice_point: 26367
    slice_point: 26418
    slice_point: 26469
    slice_point: 26520
    slice_point: 26571
    slice_point: 26622
    slice_point: 26673
    slice_point: 26724
    slice_point: 26775
    slice_point: 26826
    slice_point: 26877
    slice_point: 26928
    slice_point: 26979
    slice_point: 27030
    slice_point: 27081
    slice_point: 27132
    slice_point: 27183
    slice_point: 27234
    slice_point: 27285
    slice_point: 27336
    slice_point: 27387
    slice_point: 27438
    slice_point: 27489
    slice_point: 27540
    slice_point: 27591
    slice_point: 27642
    slice_point: 27693
    slice_point: 27744
    slice_point: 27795
    slice_point: 27846
    slice_point: 27897
    slice_point: 27948
    slice_point: 27999
    slice_point: 28050
    slice_point: 28101
    slice_point: 28152
    slice_point: 28203
    slice_point: 28254
    slice_point: 28305
    slice_point: 28356
    slice_point: 28407
    slice_point: 28458
    slice_point: 28509
    slice_point: 28560
    slice_point: 28611
    slice_point: 28662
    slice_point: 28713
    slice_point: 28764
    slice_point: 28815
    slice_point: 28866
    slice_point: 28917
    slice_point: 28968
    slice_point: 29019
    slice_point: 29070
    slice_point: 29121
    slice_point: 29172
    slice_point: 29223
    slice_point: 29274
    slice_point: 29325
    slice_point: 29376
    slice_point: 29427
    slice_point: 29478
    slice_point: 29529
    slice_point: 29580
    slice_point: 29631
    slice_point: 29682
    slice_point: 29733
    slice_point: 29784
    slice_point: 29835
    slice_point: 29886
    slice_point: 29937
    slice_point: 29988
    slice_point: 30039
    slice_point: 30090
    slice_point: 30141
    slice_point: 30192
    slice_point: 30243
    slice_point: 30294
    slice_point: 30345
    slice_point: 30396
    slice_point: 30447
    slice_point: 30498
    slice_point: 30549
    slice_point: 30600
    slice_point: 30651
    slice_point: 30702
    slice_point: 30753
    slice_point: 30804
    slice_point: 30855
    slice_point: 30906
    slice_point: 30957
    slice_point: 31008
    slice_point: 31059
    slice_point: 31110
    slice_point: 31161
    slice_point: 31212
    slice_point: 31263
    slice_point: 31314
    slice_point: 31365
    slice_point: 31416
    slice_point: 31467
    slice_point: 31518
    slice_point: 31569
    slice_point: 31620
    slice_point: 31671
    slice_point: 31722
    slice_point: 31773
    slice_point: 31824
    slice_point: 31875
    slice_point: 31926
    slice_point: 31977
    slice_point: 32028
    slice_point: 32079
    slice_point: 32130
    slice_point: 32181
    slice_point: 32232
    slice_point: 32283
    slice_point: 32334
    slice_point: 32385
    slice_point: 32436
    slice_point: 32487
    slice_point: 32538
    slice_point: 32589
    slice_point: 32640
    slice_point: 32691
    slice_point: 32742
    slice_point: 32793
    slice_point: 32844
    slice_point: 32895
    slice_point: 32946
    slice_point: 32997
    slice_point: 33048
    slice_point: 33099
    slice_point: 33150
    slice_point: 33201
    slice_point: 33252
    slice_point: 33303
    slice_point: 33354
    slice_point: 33405
    slice_point: 33456
    slice_point: 33507
    slice_point: 33558
    slice_point: 33609
    slice_point: 33660
    slice_point: 33711
    slice_point: 33762
    slice_point: 33813
    slice_point: 33864
    slice_point: 33915
    slice_point: 33966
    slice_point: 34017
    slice_point: 34068
    slice_point: 34119
    slice_point: 34170
    slice_point: 34221
    slice_point: 34272
    slice_point: 34323
    slice_point: 34374
    slice_point: 34425
    slice_point: 34476
    slice_point: 34527
    slice_point: 34578
    slice_point: 34629
    slice_point: 34680
    slice_point: 34731
    slice_point: 34782
    slice_point: 34833
    slice_point: 34884
    slice_point: 34935
    slice_point: 34986
    slice_point: 35037
    slice_point: 35088
    slice_point: 35139
    slice_point: 35190
    slice_point: 35241
    slice_point: 35292
    slice_point: 35343
    slice_point: 35394
    slice_point: 35445
    slice_point: 35496
    slice_point: 35547
    slice_point: 35598
    slice_point: 35649
    slice_point: 35700
    slice_point: 35751
    slice_point: 35802
    slice_point: 35853
    slice_point: 35904
    slice_point: 35955
    slice_point: 36006
    slice_point: 36057
    slice_point: 36108
    slice_point: 36159
    slice_point: 36210
    slice_point: 36261
    slice_point: 36312
    slice_point: 36363
    slice_point: 36414
    slice_point: 36465
    slice_point: 36516
    slice_point: 36567
    slice_point: 36618
    slice_point: 36669
    slice_point: 36720
    slice_point: 36771
    slice_point: 36822
    slice_point: 36873
    slice_point: 36924
    slice_point: 36975
    slice_point: 37026
    slice_point: 37077
    slice_point: 37128
    slice_point: 37179
    slice_point: 37230
    slice_point: 37281
    slice_point: 37332
    slice_point: 37383
    slice_point: 37434
    slice_point: 37485
    slice_point: 37536
    slice_point: 37587
    slice_point: 37638
    slice_point: 37689
    slice_point: 37740
    slice_point: 37791
    slice_point: 37842
    slice_point: 37893
    slice_point: 37944
    slice_point: 37995
    slice_point: 38046
    slice_point: 38097
    slice_point: 38148
    slice_point: 38199
    slice_point: 38250
    slice_point: 38301
    slice_point: 38352
    slice_point: 38403
    slice_point: 38454
    slice_point: 38505
    slice_point: 38556
    slice_point: 38607
    slice_point: 38658
    slice_point: 38709
    slice_point: 38760
    slice_point: 38811
    slice_point: 38862
    slice_point: 38913
    slice_point: 38964
    slice_point: 39015
    slice_point: 39066
    slice_point: 39117
    slice_point: 39168
    slice_point: 39219
    slice_point: 39270
    slice_point: 39321
    slice_point: 39372
    slice_point: 39423
    slice_point: 39474
    slice_point: 39525
    slice_point: 39576
    slice_point: 39627
    slice_point: 39678
    slice_point: 39729
    slice_point: 39780
    slice_point: 39831
    slice_point: 39882
    slice_point: 39933
    slice_point: 39984
    slice_point: 40035
    slice_point: 40086
    slice_point: 40137
    slice_point: 40188
    slice_point: 40239
    slice_point: 40290
    slice_point: 40341
    slice_point: 40392
    slice_point: 40443
    slice_point: 40494
    slice_point: 40545
    slice_point: 40596
    slice_point: 40647
    slice_point: 40698
    slice_point: 40749
    slice_point: 40800
    slice_point: 40851
    slice_point: 40902
    slice_point: 40953
    slice_point: 41004
    slice_point: 41055
    slice_point: 41106
    slice_point: 41157
    slice_point: 41208
    slice_point: 41259
    slice_point: 41310
    slice_point: 41361
    slice_point: 41412
    slice_point: 41463
    slice_point: 41514
    slice_point: 41565
    slice_point: 41616
    slice_point: 41667
    slice_point: 41718
    slice_point: 41769
    slice_point: 41820
    slice_point: 41871
    slice_point: 41922
    slice_point: 41973
    slice_point: 42024
    slice_point: 42075
    slice_point: 42126
    slice_point: 42177
    slice_point: 42228
    slice_point: 42279
    slice_point: 42330
    slice_point: 42381
    slice_point: 42432
    slice_point: 42483
    slice_point: 42534
    slice_point: 42585
    slice_point: 42636
    slice_point: 42687
    slice_point: 42738
    slice_point: 42789
    slice_point: 42840
    slice_point: 42891
    slice_point: 42942
    slice_point: 42993
    slice_point: 43044
    slice_point: 43095
    slice_point: 43146
    slice_point: 43197
    slice_point: 43248
    slice_point: 43299
    slice_point: 43350
    slice_point: 43401
    slice_point: 43452
    slice_point: 43503
    slice_point: 43554
    slice_point: 43605
    slice_point: 43656
    slice_point: 43707
    slice_point: 43758
    slice_point: 43809
    slice_point: 43860
    slice_point: 43911
    slice_point: 43962
    slice_point: 44013
    slice_point: 44064
    slice_point: 44115
    slice_point: 44166
    slice_point: 44217
    slice_point: 44268
    slice_point: 44319
    slice_point: 44370
    slice_point: 44421
    slice_point: 44472
    slice_point: 44523
    slice_point: 44574
    slice_point: 44625
    slice_point: 44676
    slice_point: 44727
    slice_point: 44778
    slice_point: 44829
    slice_point: 44880
    slice_point: 44931
    slice_point: 44982
    slice_point: 45033
    slice_point: 45084
    slice_point: 45135
    slice_point: 45186
    slice_point: 45237
    slice_point: 45288
    slice_point: 45339
    slice_point: 45390
    slice_point: 45441
    slice_point: 45492
    slice_point: 45543
    slice_point: 45594
    slice_point: 45645
    slice_point: 45696
    slice_point: 45747
    slice_point: 45798
    slice_point: 45849
    slice_point: 45900
    slice_point: 45951
    slice_point: 46002
    slice_point: 46053
    slice_point: 46104
    slice_point: 46155
    slice_point: 46206
    slice_point: 46257
    slice_point: 46308
    slice_point: 46359
    slice_point: 46410
    slice_point: 46461
    slice_point: 46512
    slice_point: 46563
    slice_point: 46614
    slice_point: 46665
    slice_point: 46716
    slice_point: 46767
    slice_point: 46818
    slice_point: 46869
    slice_point: 46920
    slice_point: 46971
    slice_point: 47022
    slice_point: 47073
    slice_point: 47124
    slice_point: 47175
    slice_point: 47226
    slice_point: 47277
    slice_point: 47328
    slice_point: 47379
    slice_point: 47430
    slice_point: 47481
    slice_point: 47532
    slice_point: 47583
    slice_point: 47634
    slice_point: 47685
    slice_point: 47736
    slice_point: 47787
    slice_point: 47838
    slice_point: 47889
    slice_point: 47940
    slice_point: 47991
    slice_point: 48042
    slice_point: 48093
    slice_point: 48144
    slice_point: 48195
    slice_point: 48246
    slice_point: 48297
    slice_point: 48348
    slice_point: 48399
    slice_point: 48450
    slice_point: 48501
    slice_point: 48552
    slice_point: 48603
    slice_point: 48654
    slice_point: 48705
    slice_point: 48756
    slice_point: 48807
    slice_point: 48858
    slice_point: 48909
    slice_point: 48960
    slice_point: 49011
    slice_point: 49062
    slice_point: 49113
    slice_point: 49164
    slice_point: 49215
    slice_point: 49266
    slice_point: 49317
    slice_point: 49368
    slice_point: 49419
    slice_point: 49470
    slice_point: 49521
    slice_point: 49572
    slice_point: 49623
    slice_point: 49674
    slice_point: 49725
    slice_point: 49776
    slice_point: 49827
    slice_point: 49878
    slice_point: 49929
    slice_point: 49980
    slice_point: 50031
    slice_point: 50082
    slice_point: 50133
    slice_point: 50184
    slice_point: 50235
    slice_point: 50286
    slice_point: 50337
    slice_point: 50388
    slice_point: 50439
    slice_point: 50490
    slice_point: 50541
    slice_point: 50592
    slice_point: 50643
    slice_point: 50694
    slice_point: 50745
    slice_point: 50796
    slice_point: 50847
    slice_point: 50898
    slice_point: 50949

  }
}
layer {
  name: "slice-ip_0-0"
  type: "InnerProduct"
  bottom: "data-0"
  top: "slice-ip_0-0"
  param {
    lr_mult: 1
    decay_mult: 1
  }
  param {
    lr_mult: 2
    decay_mult: 0
  }
  inner_product_param {
    num_output: 6
    weight_filler {
      type: "xavier"
      std:0.01
    }
    bias_filler {
      type: "constant"
      value: 0
    }
  }
}
layer {
  name: "slice-ip_1-0"
  type: "InnerProduct"
  bottom: "data-1"
  top: "slice-ip_1-0"
  param {
    lr_mult: 1
    decay_mult: 1
  }
  param {
    lr_mult: 2
    decay_mult: 0
  }
  inner_product_param {
    num_output: 6
    weight_filler {
      type: "xavier"
      std:0.01
    }
    bias_filler {
      type: "constant"
      value: 0
    }
  }
}
layer {
  name: "slice-ip_2-0"
  type: "InnerProduct"
  bottom: "data-2"
  top: "slice-ip_2-0"
  param {
    lr_mult: 1
    decay_mult: 1
  }
  param {
    lr_mult: 2
    decay_mult: 0
  }
  inner_product_param {
    num_output: 6
    weight_filler {
      type: "xavier"
      std:0.01
    }
    bias_filler {
      type: "constant"
      value: 0
    }
  }
}
layer {
  name: "slice-ip_3-0"
  type: "InnerProduct"
  bottom: "data-3"
  top: "slice-ip_3-0"
  param {
    lr_mult: 1
    decay_mult: 1
  }
  param {
    lr_mult: 2
    decay_mult: 0
  }
  inner_product_param {
    num_output: 6
    weight_filler {
      type: "xavier"
      std:0.01
    }
    bias_filler {
      type: "constant"
      value: 0
    }
  }
}
layer {
  name: "slice-ip_4-0"
  type: "InnerProduct"
  bottom: "data-4"
  top: "slice-ip_4-0"
  param {
    lr_mult: 1
    decay_mult: 1
  }
  param {
    lr_mult: 2
    decay_mult: 0
  }
  inner_product_param {
    num_output: 6
    weight_filler {
      type: "xavier"
      std:0.01
    }
    bias_filler {
      type: "constant"
      value: 0
    }
  }
}
layer {
  name: "slice-ip_5-0"
  type: "InnerProduct"
  bottom: "data-5"
  top: "slice-ip_5-0"
  param {
    lr_mult: 1
    decay_mult: 1
  }
  param {
    lr_mult: 2
    decay_mult: 0
  }
  inner_product_param {
    num_output: 6
    weight_filler {
      type: "xavier"
      std:0.01
    }
    bias_filler {
      type: "constant"
      value: 0
    }
  }
}
layer {
  name: "slice-ip_6-0"
  type: "InnerProduct"
  bottom: "data-6"
  top: "slice-ip_6-0"
  param {
    lr_mult: 1
    decay_mult: 1
  }
  param {
    lr_mult: 2
    decay_mult: 0
  }
  inner_product_param {
    num_output: 6
    weight_filler {
      type: "xavier"
      std:0.01
    }
    bias_filler {
      type: "constant"
      value: 0
    }
  }
}
layer {
  name: "slice-ip_7-0"
  type: "InnerProduct"
  bottom: "data-7"
  top: "slice-ip_7-0"
  param {
    lr_mult: 1
    decay_mult: 1
  }
  param {
    lr_mult: 2
    decay_mult: 0
  }
  inner_product_param {
    num_output: 6
    weight_filler {
      type: "xavier"
      std:0.01
    }
    bias_filler {
      type: "constant"
      value: 0
    }
  }
}
layer {
  name: "slice-ip_8-0"
  type: "InnerProduct"
  bottom: "data-8"
  top: "slice-ip_8-0"
  param {
    lr_mult: 1
    decay_mult: 1
  }
  param {
    lr_mult: 2
    decay_mult: 0
  }
  inner_product_param {
    num_output: 6
    weight_filler {
      type: "xavier"
      std:0.01
    }
    bias_filler {
      type: "constant"
      value: 0
    }
  }
}
layer {
  name: "slice-ip_9-0"
  type: "InnerProduct"
  bottom: "data-9"
  top: "slice-ip_9-0"
  param {
    lr_mult: 1
    decay_mult: 1
  }
  param {
    lr_mult: 2
    decay_mult: 0
  }
  inner_product_param {
    num_output: 6
    weight_filler {
      type: "xavier"
      std:0.01
    }
    bias_filler {
      type: "constant"
      value: 0
    }
  }
}
layer {
  name: "slice-ip_10-0"
  type: "InnerProduct"
  bottom: "data-10"
  top: "slice-ip_10-0"
  param {
    lr_mult: 1
    decay_mult: 1
  }
  param {
    lr_mult: 2
    decay_mult: 0
  }
  inner_product_param {
    num_output: 6
    weight_filler {
      type: "xavier"
      std:0.01
    }
    bias_filler {
      type: "constant"
      value: 0
    }
  }
}
layer {
  name: "slice-ip_11-0"
  type: "InnerProduct"
  bottom: "data-11"
  top: "slice-ip_11-0"
  param {
    lr_mult: 1
    decay_mult: 1
  }
  param {
    lr_mult: 2
    decay_mult: 0
  }
  inner_product_param {
    num_output: 6
    weight_filler {
      type: "xavier"
      std:0.01
    }
    bias_filler {
      type: "constant"
      value: 0
    }
  }
}
layer {
  name: "slice-ip_12-0"
  type: "InnerProduct"
  bottom: "data-12"
  top: "slice-ip_12-0"
  param {
    lr_mult: 1
    decay_mult: 1
  }
  param {
    lr_mult: 2
    decay_mult: 0
  }
  inner_product_param {
    num_output: 6
    weight_filler {
      type: "xavier"
      std:0.01
    }
    bias_filler {
      type: "constant"
      value: 0
    }
  }
}
layer {
  name: "slice-ip_13-0"
  type: "InnerProduct"
  bottom: "data-13"
  top: "slice-ip_13-0"
  param {
    lr_mult: 1
    decay_mult: 1
  }
  param {
    lr_mult: 2
    decay_mult: 0
  }
  inner_product_param {
    num_output: 6
    weight_filler {
      type: "xavier"
      std:0.01
    }
    bias_filler {
      type: "constant"
      value: 0
    }
  }
}
layer {
  name: "slice-ip_14-0"
  type: "InnerProduct"
  bottom: "data-14"
  top: "slice-ip_14-0"
  param {
    lr_mult: 1
    decay_mult: 1
  }
  param {
    lr_mult: 2
    decay_mult: 0
  }
  inner_product_param {
    num_output: 6
    weight_filler {
      type: "xavier"
      std:0.01
    }
    bias_filler {
      type: "constant"
      value: 0
    }
  }
}
layer {
  name: "slice-ip_15-0"
  type: "InnerProduct"
  bottom: "data-15"
  top: "slice-ip_15-0"
  param {
    lr_mult: 1
    decay_mult: 1
  }
  param {
    lr_mult: 2
    decay_mult: 0
  }
  inner_product_param {
    num_output: 6
    weight_filler {
      type: "xavier"
      std:0.01
    }
    bias_filler {
      type: "constant"
      value: 0
    }
  }
}
layer {
  name: "slice-ip_16-0"
  type: "InnerProduct"
  bottom: "data-16"
  top: "slice-ip_16-0"
  param {
    lr_mult: 1
    decay_mult: 1
  }
  param {
    lr_mult: 2
    decay_mult: 0
  }
  inner_product_param {
    num_output: 6
    weight_filler {
      type: "xavier"
      std:0.01
    }
    bias_filler {
      type: "constant"
      value: 0
    }
  }
}
layer {
  name: "slice-ip_17-0"
  type: "InnerProduct"
  bottom: "data-17"
  top: "slice-ip_17-0"
  param {
    lr_mult: 1
    decay_mult: 1
  }
  param {
    lr_mult: 2
    decay_mult: 0
  }
  inner_product_param {
    num_output: 6
    weight_filler {
      type: "xavier"
      std:0.01
    }
    bias_filler {
      type: "constant"
      value: 0
    }
  }
}
layer {
  name: "slice-ip_18-0"
  type: "InnerProduct"
  bottom: "data-18"
  top: "slice-ip_18-0"
  param {
    lr_mult: 1
    decay_mult: 1
  }
  param {
    lr_mult: 2
    decay_mult: 0
  }
  inner_product_param {
    num_output: 6
    weight_filler {
      type: "xavier"
      std:0.01
    }
    bias_filler {
      type: "constant"
      value: 0
    }
  }
}
layer {
  name: "slice-ip_19-0"
  type: "InnerProduct"
  bottom: "data-19"
  top: "slice-ip_19-0"
  param {
    lr_mult: 1
    decay_mult: 1
  }
  param {
    lr_mult: 2
    decay_mult: 0
  }
  inner_product_param {
    num_output: 6
    weight_filler {
      type: "xavier"
      std:0.01
    }
    bias_filler {
      type: "constant"
      value: 0
    }
  }
}
layer {
  name: "slice-ip_20-0"
  type: "InnerProduct"
  bottom: "data-20"
  top: "slice-ip_20-0"
  param {
    lr_mult: 1
    decay_mult: 1
  }
  param {
    lr_mult: 2
    decay_mult: 0
  }
  inner_product_param {
    num_output: 6
    weight_filler {
      type: "xavier"
      std:0.01
    }
    bias_filler {
      type: "constant"
      value: 0
    }
  }
}
layer {
  name: "slice-ip_21-0"
  type: "InnerProduct"
  bottom: "data-21"
  top: "slice-ip_21-0"
  param {
    lr_mult: 1
    decay_mult: 1
  }
  param {
    lr_mult: 2
    decay_mult: 0
  }
  inner_product_param {
    num_output: 6
    weight_filler {
      type: "xavier"
      std:0.01
    }
    bias_filler {
      type: "constant"
      value: 0
    }
  }
}
layer {
  name: "slice-ip_22-0"
  type: "InnerProduct"
  bottom: "data-22"
  top: "slice-ip_22-0"
  param {
    lr_mult: 1
    decay_mult: 1
  }
  param {
    lr_mult: 2
    decay_mult: 0
  }
  inner_product_param {
    num_output: 6
    weight_filler {
      type: "xavier"
      std:0.01
    }
    bias_filler {
      type: "constant"
      value: 0
    }
  }
}
layer {
  name: "slice-ip_23-0"
  type: "InnerProduct"
  bottom: "data-23"
  top: "slice-ip_23-0"
  param {
    lr_mult: 1
    decay_mult: 1
  }
  param {
    lr_mult: 2
    decay_mult: 0
  }
  inner_product_param {
    num_output: 6
    weight_filler {
      type: "xavier"
      std:0.01
    }
    bias_filler {
      type: "constant"
      value: 0
    }
  }
}
layer {
  name: "slice-ip_24-0"
  type: "InnerProduct"
  bottom: "data-24"
  top: "slice-ip_24-0"
  param {
    lr_mult: 1
    decay_mult: 1
  }
  param {
    lr_mult: 2
    decay_mult: 0
  }
  inner_product_param {
    num_output: 6
    weight_filler {
      type: "xavier"
      std:0.01
    }
    bias_filler {
      type: "constant"
      value: 0
    }
  }
}
layer {
  name: "slice-ip_25-0"
  type: "InnerProduct"
  bottom: "data-25"
  top: "slice-ip_25-0"
  param {
    lr_mult: 1
    decay_mult: 1
  }
  param {
    lr_mult: 2
    decay_mult: 0
  }
  inner_product_param {
    num_output: 6
    weight_filler {
      type: "xavier"
      std:0.01
    }
    bias_filler {
      type: "constant"
      value: 0
    }
  }
}
layer {
  name: "slice-ip_26-0"
  type: "InnerProduct"
  bottom: "data-26"
  top: "slice-ip_26-0"
  param {
    lr_mult: 1
    decay_mult: 1
  }
  param {
    lr_mult: 2
    decay_mult: 0
  }
  inner_product_param {
    num_output: 6
    weight_filler {
      type: "xavier"
      std:0.01
    }
    bias_filler {
      type: "constant"
      value: 0
    }
  }
}
layer {
  name: "slice-ip_27-0"
  type: "InnerProduct"
  bottom: "data-27"
  top: "slice-ip_27-0"
  param {
    lr_mult: 1
    decay_mult: 1
  }
  param {
    lr_mult: 2
    decay_mult: 0
  }
  inner_product_param {
    num_output: 6
    weight_filler {
      type: "xavier"
      std:0.01
    }
    bias_filler {
      type: "constant"
      value: 0
    }
  }
}
layer {
  name: "slice-ip_28-0"
  type: "InnerProduct"
  bottom: "data-28"
  top: "slice-ip_28-0"
  param {
    lr_mult: 1
    decay_mult: 1
  }
  param {
    lr_mult: 2
    decay_mult: 0
  }
  inner_product_param {
    num_output: 6
    weight_filler {
      type: "xavier"
      std:0.01
    }
    bias_filler {
      type: "constant"
      value: 0
    }
  }
}
layer {
  name: "slice-ip_29-0"
  type: "InnerProduct"
  bottom: "data-29"
  top: "slice-ip_29-0"
  param {
    lr_mult: 1
    decay_mult: 1
  }
  param {
    lr_mult: 2
    decay_mult: 0
  }
  inner_product_param {
    num_output: 6
    weight_filler {
      type: "xavier"
      std:0.01
    }
    bias_filler {
      type: "constant"
      value: 0
    }
  }
}
layer {
  name: "slice-ip_30-0"
  type: "InnerProduct"
  bottom: "data-30"
  top: "slice-ip_30-0"
  param {
    lr_mult: 1
    decay_mult: 1
  }
  param {
    lr_mult: 2
    decay_mult: 0
  }
  inner_product_param {
    num_output: 6
    weight_filler {
      type: "xavier"
      std:0.01
    }
    bias_filler {
      type: "constant"
      value: 0
    }
  }
}
layer {
  name: "slice-ip_31-0"
  type: "InnerProduct"
  bottom: "data-31"
  top: "slice-ip_31-0"
  param {
    lr_mult: 1
    decay_mult: 1
  }
  param {
    lr_mult: 2
    decay_mult: 0
  }
  inner_product_param {
    num_output: 6
    weight_filler {
      type: "xavier"
      std:0.01
    }
    bias_filler {
      type: "constant"
      value: 0
    }
  }
}
layer {
  name: "slice-ip_32-0"
  type: "InnerProduct"
  bottom: "data-32"
  top: "slice-ip_32-0"
  param {
    lr_mult: 1
    decay_mult: 1
  }
  param {
    lr_mult: 2
    decay_mult: 0
  }
  inner_product_param {
    num_output: 6
    weight_filler {
      type: "xavier"
      std:0.01
    }
    bias_filler {
      type: "constant"
      value: 0
    }
  }
}
layer {
  name: "slice-ip_33-0"
  type: "InnerProduct"
  bottom: "data-33"
  top: "slice-ip_33-0"
  param {
    lr_mult: 1
    decay_mult: 1
  }
  param {
    lr_mult: 2
    decay_mult: 0
  }
  inner_product_param {
    num_output: 6
    weight_filler {
      type: "xavier"
      std:0.01
    }
    bias_filler {
      type: "constant"
      value: 0
    }
  }
}
layer {
  name: "slice-ip_34-0"
  type: "InnerProduct"
  bottom: "data-34"
  top: "slice-ip_34-0"
  param {
    lr_mult: 1
    decay_mult: 1
  }
  param {
    lr_mult: 2
    decay_mult: 0
  }
  inner_product_param {
    num_output: 6
    weight_filler {
      type: "xavier"
      std:0.01
    }
    bias_filler {
      type: "constant"
      value: 0
    }
  }
}
layer {
  name: "slice-ip_35-0"
  type: "InnerProduct"
  bottom: "data-35"
  top: "slice-ip_35-0"
  param {
    lr_mult: 1
    decay_mult: 1
  }
  param {
    lr_mult: 2
    decay_mult: 0
  }
  inner_product_param {
    num_output: 6
    weight_filler {
      type: "xavier"
      std:0.01
    }
    bias_filler {
      type: "constant"
      value: 0
    }
  }
}
layer {
  name: "slice-ip_36-0"
  type: "InnerProduct"
  bottom: "data-36"
  top: "slice-ip_36-0"
  param {
    lr_mult: 1
    decay_mult: 1
  }
  param {
    lr_mult: 2
    decay_mult: 0
  }
  inner_product_param {
    num_output: 6
    weight_filler {
      type: "xavier"
      std:0.01
    }
    bias_filler {
      type: "constant"
      value: 0
    }
  }
}
layer {
  name: "slice-ip_37-0"
  type: "InnerProduct"
  bottom: "data-37"
  top: "slice-ip_37-0"
  param {
    lr_mult: 1
    decay_mult: 1
  }
  param {
    lr_mult: 2
    decay_mult: 0
  }
  inner_product_param {
    num_output: 6
    weight_filler {
      type: "xavier"
      std:0.01
    }
    bias_filler {
      type: "constant"
      value: 0
    }
  }
}
layer {
  name: "slice-ip_38-0"
  type: "InnerProduct"
  bottom: "data-38"
  top: "slice-ip_38-0"
  param {
    lr_mult: 1
    decay_mult: 1
  }
  param {
    lr_mult: 2
    decay_mult: 0
  }
  inner_product_param {
    num_output: 6
    weight_filler {
      type: "xavier"
      std:0.01
    }
    bias_filler {
      type: "constant"
      value: 0
    }
  }
}
layer {
  name: "slice-ip_39-0"
  type: "InnerProduct"
  bottom: "data-39"
  top: "slice-ip_39-0"
  param {
    lr_mult: 1
    decay_mult: 1
  }
  param {
    lr_mult: 2
    decay_mult: 0
  }
  inner_product_param {
    num_output: 6
    weight_filler {
      type: "xavier"
      std:0.01
    }
    bias_filler {
      type: "constant"
      value: 0
    }
  }
}
layer {
  name: "slice-ip_40-0"
  type: "InnerProduct"
  bottom: "data-40"
  top: "slice-ip_40-0"
  param {
    lr_mult: 1
    decay_mult: 1
  }
  param {
    lr_mult: 2
    decay_mult: 0
  }
  inner_product_param {
    num_output: 6
    weight_filler {
      type: "xavier"
      std:0.01
    }
    bias_filler {
      type: "constant"
      value: 0
    }
  }
}
layer {
  name: "slice-ip_41-0"
  type: "InnerProduct"
  bottom: "data-41"
  top: "slice-ip_41-0"
  param {
    lr_mult: 1
    decay_mult: 1
  }
  param {
    lr_mult: 2
    decay_mult: 0
  }
  inner_product_param {
    num_output: 6
    weight_filler {
      type: "xavier"
      std:0.01
    }
    bias_filler {
      type: "constant"
      value: 0
    }
  }
}
layer {
  name: "slice-ip_42-0"
  type: "InnerProduct"
  bottom: "data-42"
  top: "slice-ip_42-0"
  param {
    lr_mult: 1
    decay_mult: 1
  }
  param {
    lr_mult: 2
    decay_mult: 0
  }
  inner_product_param {
    num_output: 6
    weight_filler {
      type: "xavier"
      std:0.01
    }
    bias_filler {
      type: "constant"
      value: 0
    }
  }
}
layer {
  name: "slice-ip_43-0"
  type: "InnerProduct"
  bottom: "data-43"
  top: "slice-ip_43-0"
  param {
    lr_mult: 1
    decay_mult: 1
  }
  param {
    lr_mult: 2
    decay_mult: 0
  }
  inner_product_param {
    num_output: 6
    weight_filler {
      type: "xavier"
      std:0.01
    }
    bias_filler {
      type: "constant"
      value: 0
    }
  }
}
layer {
  name: "slice-ip_44-0"
  type: "InnerProduct"
  bottom: "data-44"
  top: "slice-ip_44-0"
  param {
    lr_mult: 1
    decay_mult: 1
  }
  param {
    lr_mult: 2
    decay_mult: 0
  }
  inner_product_param {
    num_output: 6
    weight_filler {
      type: "xavier"
      std:0.01
    }
    bias_filler {
      type: "constant"
      value: 0
    }
  }
}
layer {
  name: "slice-ip_45-0"
  type: "InnerProduct"
  bottom: "data-45"
  top: "slice-ip_45-0"
  param {
    lr_mult: 1
    decay_mult: 1
  }
  param {
    lr_mult: 2
    decay_mult: 0
  }
  inner_product_param {
    num_output: 6
    weight_filler {
      type: "xavier"
      std:0.01
    }
    bias_filler {
      type: "constant"
      value: 0
    }
  }
}
layer {
  name: "slice-ip_46-0"
  type: "InnerProduct"
  bottom: "data-46"
  top: "slice-ip_46-0"
  param {
    lr_mult: 1
    decay_mult: 1
  }
  param {
    lr_mult: 2
    decay_mult: 0
  }
  inner_product_param {
    num_output: 6
    weight_filler {
      type: "xavier"
      std:0.01
    }
    bias_filler {
      type: "constant"
      value: 0
    }
  }
}
layer {
  name: "slice-ip_47-0"
  type: "InnerProduct"
  bottom: "data-47"
  top: "slice-ip_47-0"
  param {
    lr_mult: 1
    decay_mult: 1
  }
  param {
    lr_mult: 2
    decay_mult: 0
  }
  inner_product_param {
    num_output: 6
    weight_filler {
      type: "xavier"
      std:0.01
    }
    bias_filler {
      type: "constant"
      value: 0
    }
  }
}
layer {
  name: "slice-ip_48-0"
  type: "InnerProduct"
  bottom: "data-48"
  top: "slice-ip_48-0"
  param {
    lr_mult: 1
    decay_mult: 1
  }
  param {
    lr_mult: 2
    decay_mult: 0
  }
  inner_product_param {
    num_output: 6
    weight_filler {
      type: "xavier"
      std:0.01
    }
    bias_filler {
      type: "constant"
      value: 0
    }
  }
}
layer {
  name: "slice-ip_49-0"
  type: "InnerProduct"
  bottom: "data-49"
  top: "slice-ip_49-0"
  param {
    lr_mult: 1
    decay_mult: 1
  }
  param {
    lr_mult: 2
    decay_mult: 0
  }
  inner_product_param {
    num_output: 6
    weight_filler {
      type: "xavier"
      std:0.01
    }
    bias_filler {
      type: "constant"
      value: 0
    }
  }
}
layer {
  name: "slice-ip_50-0"
  type: "InnerProduct"
  bottom: "data-50"
  top: "slice-ip_50-0"
  param {
    lr_mult: 1
    decay_mult: 1
  }
  param {
    lr_mult: 2
    decay_mult: 0
  }
  inner_product_param {
    num_output: 6
    weight_filler {
      type: "xavier"
      std:0.01
    }
    bias_filler {
      type: "constant"
      value: 0
    }
  }
}
layer {
  name: "slice-ip_51-0"
  type: "InnerProduct"
  bottom: "data-51"
  top: "slice-ip_51-0"
  param {
    lr_mult: 1
    decay_mult: 1
  }
  param {
    lr_mult: 2
    decay_mult: 0
  }
  inner_product_param {
    num_output: 6
    weight_filler {
      type: "xavier"
      std:0.01
    }
    bias_filler {
      type: "constant"
      value: 0
    }
  }
}
layer {
  name: "slice-ip_52-0"
  type: "InnerProduct"
  bottom: "data-52"
  top: "slice-ip_52-0"
  param {
    lr_mult: 1
    decay_mult: 1
  }
  param {
    lr_mult: 2
    decay_mult: 0
  }
  inner_product_param {
    num_output: 6
    weight_filler {
      type: "xavier"
      std:0.01
    }
    bias_filler {
      type: "constant"
      value: 0
    }
  }
}
layer {
  name: "slice-ip_53-0"
  type: "InnerProduct"
  bottom: "data-53"
  top: "slice-ip_53-0"
  param {
    lr_mult: 1
    decay_mult: 1
  }
  param {
    lr_mult: 2
    decay_mult: 0
  }
  inner_product_param {
    num_output: 6
    weight_filler {
      type: "xavier"
      std:0.01
    }
    bias_filler {
      type: "constant"
      value: 0
    }
  }
}
layer {
  name: "slice-ip_54-0"
  type: "InnerProduct"
  bottom: "data-54"
  top: "slice-ip_54-0"
  param {
    lr_mult: 1
    decay_mult: 1
  }
  param {
    lr_mult: 2
    decay_mult: 0
  }
  inner_product_param {
    num_output: 6
    weight_filler {
      type: "xavier"
      std:0.01
    }
    bias_filler {
      type: "constant"
      value: 0
    }
  }
}
layer {
  name: "slice-ip_55-0"
  type: "InnerProduct"
  bottom: "data-55"
  top: "slice-ip_55-0"
  param {
    lr_mult: 1
    decay_mult: 1
  }
  param {
    lr_mult: 2
    decay_mult: 0
  }
  inner_product_param {
    num_output: 6
    weight_filler {
      type: "xavier"
      std:0.01
    }
    bias_filler {
      type: "constant"
      value: 0
    }
  }
}
layer {
  name: "slice-ip_56-0"
  type: "InnerProduct"
  bottom: "data-56"
  top: "slice-ip_56-0"
  param {
    lr_mult: 1
    decay_mult: 1
  }
  param {
    lr_mult: 2
    decay_mult: 0
  }
  inner_product_param {
    num_output: 6
    weight_filler {
      type: "xavier"
      std:0.01
    }
    bias_filler {
      type: "constant"
      value: 0
    }
  }
}
layer {
  name: "slice-ip_57-0"
  type: "InnerProduct"
  bottom: "data-57"
  top: "slice-ip_57-0"
  param {
    lr_mult: 1
    decay_mult: 1
  }
  param {
    lr_mult: 2
    decay_mult: 0
  }
  inner_product_param {
    num_output: 6
    weight_filler {
      type: "xavier"
      std:0.01
    }
    bias_filler {
      type: "constant"
      value: 0
    }
  }
}
layer {
  name: "slice-ip_58-0"
  type: "InnerProduct"
  bottom: "data-58"
  top: "slice-ip_58-0"
  param {
    lr_mult: 1
    decay_mult: 1
  }
  param {
    lr_mult: 2
    decay_mult: 0
  }
  inner_product_param {
    num_output: 6
    weight_filler {
      type: "xavier"
      std:0.01
    }
    bias_filler {
      type: "constant"
      value: 0
    }
  }
}
layer {
  name: "slice-ip_59-0"
  type: "InnerProduct"
  bottom: "data-59"
  top: "slice-ip_59-0"
  param {
    lr_mult: 1
    decay_mult: 1
  }
  param {
    lr_mult: 2
    decay_mult: 0
  }
  inner_product_param {
    num_output: 6
    weight_filler {
      type: "xavier"
      std:0.01
    }
    bias_filler {
      type: "constant"
      value: 0
    }
  }
}
layer {
  name: "slice-ip_60-0"
  type: "InnerProduct"
  bottom: "data-60"
  top: "slice-ip_60-0"
  param {
    lr_mult: 1
    decay_mult: 1
  }
  param {
    lr_mult: 2
    decay_mult: 0
  }
  inner_product_param {
    num_output: 6
    weight_filler {
      type: "xavier"
      std:0.01
    }
    bias_filler {
      type: "constant"
      value: 0
    }
  }
}
layer {
  name: "slice-ip_61-0"
  type: "InnerProduct"
  bottom: "data-61"
  top: "slice-ip_61-0"
  param {
    lr_mult: 1
    decay_mult: 1
  }
  param {
    lr_mult: 2
    decay_mult: 0
  }
  inner_product_param {
    num_output: 6
    weight_filler {
      type: "xavier"
      std:0.01
    }
    bias_filler {
      type: "constant"
      value: 0
    }
  }
}
layer {
  name: "slice-ip_62-0"
  type: "InnerProduct"
  bottom: "data-62"
  top: "slice-ip_62-0"
  param {
    lr_mult: 1
    decay_mult: 1
  }
  param {
    lr_mult: 2
    decay_mult: 0
  }
  inner_product_param {
    num_output: 6
    weight_filler {
      type: "xavier"
      std:0.01
    }
    bias_filler {
      type: "constant"
      value: 0
    }
  }
}
layer {
  name: "slice-ip_63-0"
  type: "InnerProduct"
  bottom: "data-63"
  top: "slice-ip_63-0"
  param {
    lr_mult: 1
    decay_mult: 1
  }
  param {
    lr_mult: 2
    decay_mult: 0
  }
  inner_product_param {
    num_output: 6
    weight_filler {
      type: "xavier"
      std:0.01
    }
    bias_filler {
      type: "constant"
      value: 0
    }
  }
}
layer {
  name: "slice-ip_64-0"
  type: "InnerProduct"
  bottom: "data-64"
  top: "slice-ip_64-0"
  param {
    lr_mult: 1
    decay_mult: 1
  }
  param {
    lr_mult: 2
    decay_mult: 0
  }
  inner_product_param {
    num_output: 6
    weight_filler {
      type: "xavier"
      std:0.01
    }
    bias_filler {
      type: "constant"
      value: 0
    }
  }
}
layer {
  name: "slice-ip_65-0"
  type: "InnerProduct"
  bottom: "data-65"
  top: "slice-ip_65-0"
  param {
    lr_mult: 1
    decay_mult: 1
  }
  param {
    lr_mult: 2
    decay_mult: 0
  }
  inner_product_param {
    num_output: 6
    weight_filler {
      type: "xavier"
      std:0.01
    }
    bias_filler {
      type: "constant"
      value: 0
    }
  }
}
layer {
  name: "slice-ip_66-0"
  type: "InnerProduct"
  bottom: "data-66"
  top: "slice-ip_66-0"
  param {
    lr_mult: 1
    decay_mult: 1
  }
  param {
    lr_mult: 2
    decay_mult: 0
  }
  inner_product_param {
    num_output: 6
    weight_filler {
      type: "xavier"
      std:0.01
    }
    bias_filler {
      type: "constant"
      value: 0
    }
  }
}
layer {
  name: "slice-ip_67-0"
  type: "InnerProduct"
  bottom: "data-67"
  top: "slice-ip_67-0"
  param {
    lr_mult: 1
    decay_mult: 1
  }
  param {
    lr_mult: 2
    decay_mult: 0
  }
  inner_product_param {
    num_output: 6
    weight_filler {
      type: "xavier"
      std:0.01
    }
    bias_filler {
      type: "constant"
      value: 0
    }
  }
}
layer {
  name: "slice-ip_68-0"
  type: "InnerProduct"
  bottom: "data-68"
  top: "slice-ip_68-0"
  param {
    lr_mult: 1
    decay_mult: 1
  }
  param {
    lr_mult: 2
    decay_mult: 0
  }
  inner_product_param {
    num_output: 6
    weight_filler {
      type: "xavier"
      std:0.01
    }
    bias_filler {
      type: "constant"
      value: 0
    }
  }
}
layer {
  name: "slice-ip_69-0"
  type: "InnerProduct"
  bottom: "data-69"
  top: "slice-ip_69-0"
  param {
    lr_mult: 1
    decay_mult: 1
  }
  param {
    lr_mult: 2
    decay_mult: 0
  }
  inner_product_param {
    num_output: 6
    weight_filler {
      type: "xavier"
      std:0.01
    }
    bias_filler {
      type: "constant"
      value: 0
    }
  }
}
layer {
  name: "slice-ip_70-0"
  type: "InnerProduct"
  bottom: "data-70"
  top: "slice-ip_70-0"
  param {
    lr_mult: 1
    decay_mult: 1
  }
  param {
    lr_mult: 2
    decay_mult: 0
  }
  inner_product_param {
    num_output: 6
    weight_filler {
      type: "xavier"
      std:0.01
    }
    bias_filler {
      type: "constant"
      value: 0
    }
  }
}
layer {
  name: "slice-ip_71-0"
  type: "InnerProduct"
  bottom: "data-71"
  top: "slice-ip_71-0"
  param {
    lr_mult: 1
    decay_mult: 1
  }
  param {
    lr_mult: 2
    decay_mult: 0
  }
  inner_product_param {
    num_output: 6
    weight_filler {
      type: "xavier"
      std:0.01
    }
    bias_filler {
      type: "constant"
      value: 0
    }
  }
}
layer {
  name: "slice-ip_72-0"
  type: "InnerProduct"
  bottom: "data-72"
  top: "slice-ip_72-0"
  param {
    lr_mult: 1
    decay_mult: 1
  }
  param {
    lr_mult: 2
    decay_mult: 0
  }
  inner_product_param {
    num_output: 6
    weight_filler {
      type: "xavier"
      std:0.01
    }
    bias_filler {
      type: "constant"
      value: 0
    }
  }
}
layer {
  name: "slice-ip_73-0"
  type: "InnerProduct"
  bottom: "data-73"
  top: "slice-ip_73-0"
  param {
    lr_mult: 1
    decay_mult: 1
  }
  param {
    lr_mult: 2
    decay_mult: 0
  }
  inner_product_param {
    num_output: 6
    weight_filler {
      type: "xavier"
      std:0.01
    }
    bias_filler {
      type: "constant"
      value: 0
    }
  }
}
layer {
  name: "slice-ip_74-0"
  type: "InnerProduct"
  bottom: "data-74"
  top: "slice-ip_74-0"
  param {
    lr_mult: 1
    decay_mult: 1
  }
  param {
    lr_mult: 2
    decay_mult: 0
  }
  inner_product_param {
    num_output: 6
    weight_filler {
      type: "xavier"
      std:0.01
    }
    bias_filler {
      type: "constant"
      value: 0
    }
  }
}
layer {
  name: "slice-ip_75-0"
  type: "InnerProduct"
  bottom: "data-75"
  top: "slice-ip_75-0"
  param {
    lr_mult: 1
    decay_mult: 1
  }
  param {
    lr_mult: 2
    decay_mult: 0
  }
  inner_product_param {
    num_output: 6
    weight_filler {
      type: "xavier"
      std:0.01
    }
    bias_filler {
      type: "constant"
      value: 0
    }
  }
}
layer {
  name: "slice-ip_76-0"
  type: "InnerProduct"
  bottom: "data-76"
  top: "slice-ip_76-0"
  param {
    lr_mult: 1
    decay_mult: 1
  }
  param {
    lr_mult: 2
    decay_mult: 0
  }
  inner_product_param {
    num_output: 6
    weight_filler {
      type: "xavier"
      std:0.01
    }
    bias_filler {
      type: "constant"
      value: 0
    }
  }
}
layer {
  name: "slice-ip_77-0"
  type: "InnerProduct"
  bottom: "data-77"
  top: "slice-ip_77-0"
  param {
    lr_mult: 1
    decay_mult: 1
  }
  param {
    lr_mult: 2
    decay_mult: 0
  }
  inner_product_param {
    num_output: 6
    weight_filler {
      type: "xavier"
      std:0.01
    }
    bias_filler {
      type: "constant"
      value: 0
    }
  }
}
layer {
  name: "slice-ip_78-0"
  type: "InnerProduct"
  bottom: "data-78"
  top: "slice-ip_78-0"
  param {
    lr_mult: 1
    decay_mult: 1
  }
  param {
    lr_mult: 2
    decay_mult: 0
  }
  inner_product_param {
    num_output: 6
    weight_filler {
      type: "xavier"
      std:0.01
    }
    bias_filler {
      type: "constant"
      value: 0
    }
  }
}
layer {
  name: "slice-ip_79-0"
  type: "InnerProduct"
  bottom: "data-79"
  top: "slice-ip_79-0"
  param {
    lr_mult: 1
    decay_mult: 1
  }
  param {
    lr_mult: 2
    decay_mult: 0
  }
  inner_product_param {
    num_output: 6
    weight_filler {
      type: "xavier"
      std:0.01
    }
    bias_filler {
      type: "constant"
      value: 0
    }
  }
}
layer {
  name: "slice-ip_80-0"
  type: "InnerProduct"
  bottom: "data-80"
  top: "slice-ip_80-0"
  param {
    lr_mult: 1
    decay_mult: 1
  }
  param {
    lr_mult: 2
    decay_mult: 0
  }
  inner_product_param {
    num_output: 6
    weight_filler {
      type: "xavier"
      std:0.01
    }
    bias_filler {
      type: "constant"
      value: 0
    }
  }
}
layer {
  name: "slice-ip_81-0"
  type: "InnerProduct"
  bottom: "data-81"
  top: "slice-ip_81-0"
  param {
    lr_mult: 1
    decay_mult: 1
  }
  param {
    lr_mult: 2
    decay_mult: 0
  }
  inner_product_param {
    num_output: 6
    weight_filler {
      type: "xavier"
      std:0.01
    }
    bias_filler {
      type: "constant"
      value: 0
    }
  }
}
layer {
  name: "slice-ip_82-0"
  type: "InnerProduct"
  bottom: "data-82"
  top: "slice-ip_82-0"
  param {
    lr_mult: 1
    decay_mult: 1
  }
  param {
    lr_mult: 2
    decay_mult: 0
  }
  inner_product_param {
    num_output: 6
    weight_filler {
      type: "xavier"
      std:0.01
    }
    bias_filler {
      type: "constant"
      value: 0
    }
  }
}
layer {
  name: "slice-ip_83-0"
  type: "InnerProduct"
  bottom: "data-83"
  top: "slice-ip_83-0"
  param {
    lr_mult: 1
    decay_mult: 1
  }
  param {
    lr_mult: 2
    decay_mult: 0
  }
  inner_product_param {
    num_output: 6
    weight_filler {
      type: "xavier"
      std:0.01
    }
    bias_filler {
      type: "constant"
      value: 0
    }
  }
}
layer {
  name: "slice-ip_84-0"
  type: "InnerProduct"
  bottom: "data-84"
  top: "slice-ip_84-0"
  param {
    lr_mult: 1
    decay_mult: 1
  }
  param {
    lr_mult: 2
    decay_mult: 0
  }
  inner_product_param {
    num_output: 6
    weight_filler {
      type: "xavier"
      std:0.01
    }
    bias_filler {
      type: "constant"
      value: 0
    }
  }
}
layer {
  name: "slice-ip_85-0"
  type: "InnerProduct"
  bottom: "data-85"
  top: "slice-ip_85-0"
  param {
    lr_mult: 1
    decay_mult: 1
  }
  param {
    lr_mult: 2
    decay_mult: 0
  }
  inner_product_param {
    num_output: 6
    weight_filler {
      type: "xavier"
      std:0.01
    }
    bias_filler {
      type: "constant"
      value: 0
    }
  }
}
layer {
  name: "slice-ip_86-0"
  type: "InnerProduct"
  bottom: "data-86"
  top: "slice-ip_86-0"
  param {
    lr_mult: 1
    decay_mult: 1
  }
  param {
    lr_mult: 2
    decay_mult: 0
  }
  inner_product_param {
    num_output: 6
    weight_filler {
      type: "xavier"
      std:0.01
    }
    bias_filler {
      type: "constant"
      value: 0
    }
  }
}
layer {
  name: "slice-ip_87-0"
  type: "InnerProduct"
  bottom: "data-87"
  top: "slice-ip_87-0"
  param {
    lr_mult: 1
    decay_mult: 1
  }
  param {
    lr_mult: 2
    decay_mult: 0
  }
  inner_product_param {
    num_output: 6
    weight_filler {
      type: "xavier"
      std:0.01
    }
    bias_filler {
      type: "constant"
      value: 0
    }
  }
}
layer {
  name: "slice-ip_88-0"
  type: "InnerProduct"
  bottom: "data-88"
  top: "slice-ip_88-0"
  param {
    lr_mult: 1
    decay_mult: 1
  }
  param {
    lr_mult: 2
    decay_mult: 0
  }
  inner_product_param {
    num_output: 6
    weight_filler {
      type: "xavier"
      std:0.01
    }
    bias_filler {
      type: "constant"
      value: 0
    }
  }
}
layer {
  name: "slice-ip_89-0"
  type: "InnerProduct"
  bottom: "data-89"
  top: "slice-ip_89-0"
  param {
    lr_mult: 1
    decay_mult: 1
  }
  param {
    lr_mult: 2
    decay_mult: 0
  }
  inner_product_param {
    num_output: 6
    weight_filler {
      type: "xavier"
      std:0.01
    }
    bias_filler {
      type: "constant"
      value: 0
    }
  }
}
layer {
  name: "slice-ip_90-0"
  type: "InnerProduct"
  bottom: "data-90"
  top: "slice-ip_90-0"
  param {
    lr_mult: 1
    decay_mult: 1
  }
  param {
    lr_mult: 2
    decay_mult: 0
  }
  inner_product_param {
    num_output: 6
    weight_filler {
      type: "xavier"
      std:0.01
    }
    bias_filler {
      type: "constant"
      value: 0
    }
  }
}
layer {
  name: "slice-ip_91-0"
  type: "InnerProduct"
  bottom: "data-91"
  top: "slice-ip_91-0"
  param {
    lr_mult: 1
    decay_mult: 1
  }
  param {
    lr_mult: 2
    decay_mult: 0
  }
  inner_product_param {
    num_output: 6
    weight_filler {
      type: "xavier"
      std:0.01
    }
    bias_filler {
      type: "constant"
      value: 0
    }
  }
}
layer {
  name: "slice-ip_92-0"
  type: "InnerProduct"
  bottom: "data-92"
  top: "slice-ip_92-0"
  param {
    lr_mult: 1
    decay_mult: 1
  }
  param {
    lr_mult: 2
    decay_mult: 0
  }
  inner_product_param {
    num_output: 6
    weight_filler {
      type: "xavier"
      std:0.01
    }
    bias_filler {
      type: "constant"
      value: 0
    }
  }
}
layer {
  name: "slice-ip_93-0"
  type: "InnerProduct"
  bottom: "data-93"
  top: "slice-ip_93-0"
  param {
    lr_mult: 1
    decay_mult: 1
  }
  param {
    lr_mult: 2
    decay_mult: 0
  }
  inner_product_param {
    num_output: 6
    weight_filler {
      type: "xavier"
      std:0.01
    }
    bias_filler {
      type: "constant"
      value: 0
    }
  }
}
layer {
  name: "slice-ip_94-0"
  type: "InnerProduct"
  bottom: "data-94"
  top: "slice-ip_94-0"
  param {
    lr_mult: 1
    decay_mult: 1
  }
  param {
    lr_mult: 2
    decay_mult: 0
  }
  inner_product_param {
    num_output: 6
    weight_filler {
      type: "xavier"
      std:0.01
    }
    bias_filler {
      type: "constant"
      value: 0
    }
  }
}
layer {
  name: "slice-ip_95-0"
  type: "InnerProduct"
  bottom: "data-95"
  top: "slice-ip_95-0"
  param {
    lr_mult: 1
    decay_mult: 1
  }
  param {
    lr_mult: 2
    decay_mult: 0
  }
  inner_product_param {
    num_output: 6
    weight_filler {
      type: "xavier"
      std:0.01
    }
    bias_filler {
      type: "constant"
      value: 0
    }
  }
}
layer {
  name: "slice-ip_96-0"
  type: "InnerProduct"
  bottom: "data-96"
  top: "slice-ip_96-0"
  param {
    lr_mult: 1
    decay_mult: 1
  }
  param {
    lr_mult: 2
    decay_mult: 0
  }
  inner_product_param {
    num_output: 6
    weight_filler {
      type: "xavier"
      std:0.01
    }
    bias_filler {
      type: "constant"
      value: 0
    }
  }
}
layer {
  name: "slice-ip_97-0"
  type: "InnerProduct"
  bottom: "data-97"
  top: "slice-ip_97-0"
  param {
    lr_mult: 1
    decay_mult: 1
  }
  param {
    lr_mult: 2
    decay_mult: 0
  }
  inner_product_param {
    num_output: 6
    weight_filler {
      type: "xavier"
      std:0.01
    }
    bias_filler {
      type: "constant"
      value: 0
    }
  }
}
layer {
  name: "slice-ip_98-0"
  type: "InnerProduct"
  bottom: "data-98"
  top: "slice-ip_98-0"
  param {
    lr_mult: 1
    decay_mult: 1
  }
  param {
    lr_mult: 2
    decay_mult: 0
  }
  inner_product_param {
    num_output: 6
    weight_filler {
      type: "xavier"
      std:0.01
    }
    bias_filler {
      type: "constant"
      value: 0
    }
  }
}
layer {
  name: "slice-ip_99-0"
  type: "InnerProduct"
  bottom: "data-99"
  top: "slice-ip_99-0"
  param {
    lr_mult: 1
    decay_mult: 1
  }
  param {
    lr_mult: 2
    decay_mult: 0
  }
  inner_product_param {
    num_output: 6
    weight_filler {
      type: "xavier"
      std:0.01
    }
    bias_filler {
      type: "constant"
      value: 0
    }
  }
}
layer {
  name: "slice-ip_100-0"
  type: "InnerProduct"
  bottom: "data-100"
  top: "slice-ip_100-0"
  param {
    lr_mult: 1
    decay_mult: 1
  }
  param {
    lr_mult: 2
    decay_mult: 0
  }
  inner_product_param {
    num_output: 6
    weight_filler {
      type: "xavier"
      std:0.01
    }
    bias_filler {
      type: "constant"
      value: 0
    }
  }
}
layer {
  name: "slice-ip_101-0"
  type: "InnerProduct"
  bottom: "data-101"
  top: "slice-ip_101-0"
  param {
    lr_mult: 1
    decay_mult: 1
  }
  param {
    lr_mult: 2
    decay_mult: 0
  }
  inner_product_param {
    num_output: 6
    weight_filler {
      type: "xavier"
      std:0.01
    }
    bias_filler {
      type: "constant"
      value: 0
    }
  }
}
layer {
  name: "slice-ip_102-0"
  type: "InnerProduct"
  bottom: "data-102"
  top: "slice-ip_102-0"
  param {
    lr_mult: 1
    decay_mult: 1
  }
  param {
    lr_mult: 2
    decay_mult: 0
  }
  inner_product_param {
    num_output: 6
    weight_filler {
      type: "xavier"
      std:0.01
    }
    bias_filler {
      type: "constant"
      value: 0
    }
  }
}
layer {
  name: "slice-ip_103-0"
  type: "InnerProduct"
  bottom: "data-103"
  top: "slice-ip_103-0"
  param {
    lr_mult: 1
    decay_mult: 1
  }
  param {
    lr_mult: 2
    decay_mult: 0
  }
  inner_product_param {
    num_output: 6
    weight_filler {
      type: "xavier"
      std:0.01
    }
    bias_filler {
      type: "constant"
      value: 0
    }
  }
}
layer {
  name: "slice-ip_104-0"
  type: "InnerProduct"
  bottom: "data-104"
  top: "slice-ip_104-0"
  param {
    lr_mult: 1
    decay_mult: 1
  }
  param {
    lr_mult: 2
    decay_mult: 0
  }
  inner_product_param {
    num_output: 6
    weight_filler {
      type: "xavier"
      std:0.01
    }
    bias_filler {
      type: "constant"
      value: 0
    }
  }
}
layer {
  name: "slice-ip_105-0"
  type: "InnerProduct"
  bottom: "data-105"
  top: "slice-ip_105-0"
  param {
    lr_mult: 1
    decay_mult: 1
  }
  param {
    lr_mult: 2
    decay_mult: 0
  }
  inner_product_param {
    num_output: 6
    weight_filler {
      type: "xavier"
      std:0.01
    }
    bias_filler {
      type: "constant"
      value: 0
    }
  }
}
layer {
  name: "slice-ip_106-0"
  type: "InnerProduct"
  bottom: "data-106"
  top: "slice-ip_106-0"
  param {
    lr_mult: 1
    decay_mult: 1
  }
  param {
    lr_mult: 2
    decay_mult: 0
  }
  inner_product_param {
    num_output: 6
    weight_filler {
      type: "xavier"
      std:0.01
    }
    bias_filler {
      type: "constant"
      value: 0
    }
  }
}
layer {
  name: "slice-ip_107-0"
  type: "InnerProduct"
  bottom: "data-107"
  top: "slice-ip_107-0"
  param {
    lr_mult: 1
    decay_mult: 1
  }
  param {
    lr_mult: 2
    decay_mult: 0
  }
  inner_product_param {
    num_output: 6
    weight_filler {
      type: "xavier"
      std:0.01
    }
    bias_filler {
      type: "constant"
      value: 0
    }
  }
}
layer {
  name: "slice-ip_108-0"
  type: "InnerProduct"
  bottom: "data-108"
  top: "slice-ip_108-0"
  param {
    lr_mult: 1
    decay_mult: 1
  }
  param {
    lr_mult: 2
    decay_mult: 0
  }
  inner_product_param {
    num_output: 6
    weight_filler {
      type: "xavier"
      std:0.01
    }
    bias_filler {
      type: "constant"
      value: 0
    }
  }
}
layer {
  name: "slice-ip_109-0"
  type: "InnerProduct"
  bottom: "data-109"
  top: "slice-ip_109-0"
  param {
    lr_mult: 1
    decay_mult: 1
  }
  param {
    lr_mult: 2
    decay_mult: 0
  }
  inner_product_param {
    num_output: 6
    weight_filler {
      type: "xavier"
      std:0.01
    }
    bias_filler {
      type: "constant"
      value: 0
    }
  }
}
layer {
  name: "slice-ip_110-0"
  type: "InnerProduct"
  bottom: "data-110"
  top: "slice-ip_110-0"
  param {
    lr_mult: 1
    decay_mult: 1
  }
  param {
    lr_mult: 2
    decay_mult: 0
  }
  inner_product_param {
    num_output: 6
    weight_filler {
      type: "xavier"
      std:0.01
    }
    bias_filler {
      type: "constant"
      value: 0
    }
  }
}
layer {
  name: "slice-ip_111-0"
  type: "InnerProduct"
  bottom: "data-111"
  top: "slice-ip_111-0"
  param {
    lr_mult: 1
    decay_mult: 1
  }
  param {
    lr_mult: 2
    decay_mult: 0
  }
  inner_product_param {
    num_output: 6
    weight_filler {
      type: "xavier"
      std:0.01
    }
    bias_filler {
      type: "constant"
      value: 0
    }
  }
}
layer {
  name: "slice-ip_112-0"
  type: "InnerProduct"
  bottom: "data-112"
  top: "slice-ip_112-0"
  param {
    lr_mult: 1
    decay_mult: 1
  }
  param {
    lr_mult: 2
    decay_mult: 0
  }
  inner_product_param {
    num_output: 6
    weight_filler {
      type: "xavier"
      std:0.01
    }
    bias_filler {
      type: "constant"
      value: 0
    }
  }
}
layer {
  name: "slice-ip_113-0"
  type: "InnerProduct"
  bottom: "data-113"
  top: "slice-ip_113-0"
  param {
    lr_mult: 1
    decay_mult: 1
  }
  param {
    lr_mult: 2
    decay_mult: 0
  }
  inner_product_param {
    num_output: 6
    weight_filler {
      type: "xavier"
      std:0.01
    }
    bias_filler {
      type: "constant"
      value: 0
    }
  }
}
layer {
  name: "slice-ip_114-0"
  type: "InnerProduct"
  bottom: "data-114"
  top: "slice-ip_114-0"
  param {
    lr_mult: 1
    decay_mult: 1
  }
  param {
    lr_mult: 2
    decay_mult: 0
  }
  inner_product_param {
    num_output: 6
    weight_filler {
      type: "xavier"
      std:0.01
    }
    bias_filler {
      type: "constant"
      value: 0
    }
  }
}
layer {
  name: "slice-ip_115-0"
  type: "InnerProduct"
  bottom: "data-115"
  top: "slice-ip_115-0"
  param {
    lr_mult: 1
    decay_mult: 1
  }
  param {
    lr_mult: 2
    decay_mult: 0
  }
  inner_product_param {
    num_output: 6
    weight_filler {
      type: "xavier"
      std:0.01
    }
    bias_filler {
      type: "constant"
      value: 0
    }
  }
}
layer {
  name: "slice-ip_116-0"
  type: "InnerProduct"
  bottom: "data-116"
  top: "slice-ip_116-0"
  param {
    lr_mult: 1
    decay_mult: 1
  }
  param {
    lr_mult: 2
    decay_mult: 0
  }
  inner_product_param {
    num_output: 6
    weight_filler {
      type: "xavier"
      std:0.01
    }
    bias_filler {
      type: "constant"
      value: 0
    }
  }
}
layer {
  name: "slice-ip_117-0"
  type: "InnerProduct"
  bottom: "data-117"
  top: "slice-ip_117-0"
  param {
    lr_mult: 1
    decay_mult: 1
  }
  param {
    lr_mult: 2
    decay_mult: 0
  }
  inner_product_param {
    num_output: 6
    weight_filler {
      type: "xavier"
      std:0.01
    }
    bias_filler {
      type: "constant"
      value: 0
    }
  }
}
layer {
  name: "slice-ip_118-0"
  type: "InnerProduct"
  bottom: "data-118"
  top: "slice-ip_118-0"
  param {
    lr_mult: 1
    decay_mult: 1
  }
  param {
    lr_mult: 2
    decay_mult: 0
  }
  inner_product_param {
    num_output: 6
    weight_filler {
      type: "xavier"
      std:0.01
    }
    bias_filler {
      type: "constant"
      value: 0
    }
  }
}
layer {
  name: "slice-ip_119-0"
  type: "InnerProduct"
  bottom: "data-119"
  top: "slice-ip_119-0"
  param {
    lr_mult: 1
    decay_mult: 1
  }
  param {
    lr_mult: 2
    decay_mult: 0
  }
  inner_product_param {
    num_output: 6
    weight_filler {
      type: "xavier"
      std:0.01
    }
    bias_filler {
      type: "constant"
      value: 0
    }
  }
}
layer {
  name: "slice-ip_120-0"
  type: "InnerProduct"
  bottom: "data-120"
  top: "slice-ip_120-0"
  param {
    lr_mult: 1
    decay_mult: 1
  }
  param {
    lr_mult: 2
    decay_mult: 0
  }
  inner_product_param {
    num_output: 6
    weight_filler {
      type: "xavier"
      std:0.01
    }
    bias_filler {
      type: "constant"
      value: 0
    }
  }
}
layer {
  name: "slice-ip_121-0"
  type: "InnerProduct"
  bottom: "data-121"
  top: "slice-ip_121-0"
  param {
    lr_mult: 1
    decay_mult: 1
  }
  param {
    lr_mult: 2
    decay_mult: 0
  }
  inner_product_param {
    num_output: 6
    weight_filler {
      type: "xavier"
      std:0.01
    }
    bias_filler {
      type: "constant"
      value: 0
    }
  }
}
layer {
  name: "slice-ip_122-0"
  type: "InnerProduct"
  bottom: "data-122"
  top: "slice-ip_122-0"
  param {
    lr_mult: 1
    decay_mult: 1
  }
  param {
    lr_mult: 2
    decay_mult: 0
  }
  inner_product_param {
    num_output: 6
    weight_filler {
      type: "xavier"
      std:0.01
    }
    bias_filler {
      type: "constant"
      value: 0
    }
  }
}
layer {
  name: "slice-ip_123-0"
  type: "InnerProduct"
  bottom: "data-123"
  top: "slice-ip_123-0"
  param {
    lr_mult: 1
    decay_mult: 1
  }
  param {
    lr_mult: 2
    decay_mult: 0
  }
  inner_product_param {
    num_output: 6
    weight_filler {
      type: "xavier"
      std:0.01
    }
    bias_filler {
      type: "constant"
      value: 0
    }
  }
}
layer {
  name: "slice-ip_124-0"
  type: "InnerProduct"
  bottom: "data-124"
  top: "slice-ip_124-0"
  param {
    lr_mult: 1
    decay_mult: 1
  }
  param {
    lr_mult: 2
    decay_mult: 0
  }
  inner_product_param {
    num_output: 6
    weight_filler {
      type: "xavier"
      std:0.01
    }
    bias_filler {
      type: "constant"
      value: 0
    }
  }
}
layer {
  name: "slice-ip_125-0"
  type: "InnerProduct"
  bottom: "data-125"
  top: "slice-ip_125-0"
  param {
    lr_mult: 1
    decay_mult: 1
  }
  param {
    lr_mult: 2
    decay_mult: 0
  }
  inner_product_param {
    num_output: 6
    weight_filler {
      type: "xavier"
      std:0.01
    }
    bias_filler {
      type: "constant"
      value: 0
    }
  }
}
layer {
  name: "slice-ip_126-0"
  type: "InnerProduct"
  bottom: "data-126"
  top: "slice-ip_126-0"
  param {
    lr_mult: 1
    decay_mult: 1
  }
  param {
    lr_mult: 2
    decay_mult: 0
  }
  inner_product_param {
    num_output: 6
    weight_filler {
      type: "xavier"
      std:0.01
    }
    bias_filler {
      type: "constant"
      value: 0
    }
  }
}
layer {
  name: "slice-ip_127-0"
  type: "InnerProduct"
  bottom: "data-127"
  top: "slice-ip_127-0"
  param {
    lr_mult: 1
    decay_mult: 1
  }
  param {
    lr_mult: 2
    decay_mult: 0
  }
  inner_product_param {
    num_output: 6
    weight_filler {
      type: "xavier"
      std:0.01
    }
    bias_filler {
      type: "constant"
      value: 0
    }
  }
}
layer {
  name: "slice-ip_128-0"
  type: "InnerProduct"
  bottom: "data-128"
  top: "slice-ip_128-0"
  param {
    lr_mult: 1
    decay_mult: 1
  }
  param {
    lr_mult: 2
    decay_mult: 0
  }
  inner_product_param {
    num_output: 6
    weight_filler {
      type: "xavier"
      std:0.01
    }
    bias_filler {
      type: "constant"
      value: 0
    }
  }
}
layer {
  name: "slice-ip_129-0"
  type: "InnerProduct"
  bottom: "data-129"
  top: "slice-ip_129-0"
  param {
    lr_mult: 1
    decay_mult: 1
  }
  param {
    lr_mult: 2
    decay_mult: 0
  }
  inner_product_param {
    num_output: 6
    weight_filler {
      type: "xavier"
      std:0.01
    }
    bias_filler {
      type: "constant"
      value: 0
    }
  }
}
layer {
  name: "slice-ip_130-0"
  type: "InnerProduct"
  bottom: "data-130"
  top: "slice-ip_130-0"
  param {
    lr_mult: 1
    decay_mult: 1
  }
  param {
    lr_mult: 2
    decay_mult: 0
  }
  inner_product_param {
    num_output: 6
    weight_filler {
      type: "xavier"
      std:0.01
    }
    bias_filler {
      type: "constant"
      value: 0
    }
  }
}
layer {
  name: "slice-ip_131-0"
  type: "InnerProduct"
  bottom: "data-131"
  top: "slice-ip_131-0"
  param {
    lr_mult: 1
    decay_mult: 1
  }
  param {
    lr_mult: 2
    decay_mult: 0
  }
  inner_product_param {
    num_output: 6
    weight_filler {
      type: "xavier"
      std:0.01
    }
    bias_filler {
      type: "constant"
      value: 0
    }
  }
}
layer {
  name: "slice-ip_132-0"
  type: "InnerProduct"
  bottom: "data-132"
  top: "slice-ip_132-0"
  param {
    lr_mult: 1
    decay_mult: 1
  }
  param {
    lr_mult: 2
    decay_mult: 0
  }
  inner_product_param {
    num_output: 6
    weight_filler {
      type: "xavier"
      std:0.01
    }
    bias_filler {
      type: "constant"
      value: 0
    }
  }
}
layer {
  name: "slice-ip_133-0"
  type: "InnerProduct"
  bottom: "data-133"
  top: "slice-ip_133-0"
  param {
    lr_mult: 1
    decay_mult: 1
  }
  param {
    lr_mult: 2
    decay_mult: 0
  }
  inner_product_param {
    num_output: 6
    weight_filler {
      type: "xavier"
      std:0.01
    }
    bias_filler {
      type: "constant"
      value: 0
    }
  }
}
layer {
  name: "slice-ip_134-0"
  type: "InnerProduct"
  bottom: "data-134"
  top: "slice-ip_134-0"
  param {
    lr_mult: 1
    decay_mult: 1
  }
  param {
    lr_mult: 2
    decay_mult: 0
  }
  inner_product_param {
    num_output: 6
    weight_filler {
      type: "xavier"
      std:0.01
    }
    bias_filler {
      type: "constant"
      value: 0
    }
  }
}
layer {
  name: "slice-ip_135-0"
  type: "InnerProduct"
  bottom: "data-135"
  top: "slice-ip_135-0"
  param {
    lr_mult: 1
    decay_mult: 1
  }
  param {
    lr_mult: 2
    decay_mult: 0
  }
  inner_product_param {
    num_output: 6
    weight_filler {
      type: "xavier"
      std:0.01
    }
    bias_filler {
      type: "constant"
      value: 0
    }
  }
}
layer {
  name: "slice-ip_136-0"
  type: "InnerProduct"
  bottom: "data-136"
  top: "slice-ip_136-0"
  param {
    lr_mult: 1
    decay_mult: 1
  }
  param {
    lr_mult: 2
    decay_mult: 0
  }
  inner_product_param {
    num_output: 6
    weight_filler {
      type: "xavier"
      std:0.01
    }
    bias_filler {
      type: "constant"
      value: 0
    }
  }
}
layer {
  name: "slice-ip_137-0"
  type: "InnerProduct"
  bottom: "data-137"
  top: "slice-ip_137-0"
  param {
    lr_mult: 1
    decay_mult: 1
  }
  param {
    lr_mult: 2
    decay_mult: 0
  }
  inner_product_param {
    num_output: 6
    weight_filler {
      type: "xavier"
      std:0.01
    }
    bias_filler {
      type: "constant"
      value: 0
    }
  }
}
layer {
  name: "slice-ip_138-0"
  type: "InnerProduct"
  bottom: "data-138"
  top: "slice-ip_138-0"
  param {
    lr_mult: 1
    decay_mult: 1
  }
  param {
    lr_mult: 2
    decay_mult: 0
  }
  inner_product_param {
    num_output: 6
    weight_filler {
      type: "xavier"
      std:0.01
    }
    bias_filler {
      type: "constant"
      value: 0
    }
  }
}
layer {
  name: "slice-ip_139-0"
  type: "InnerProduct"
  bottom: "data-139"
  top: "slice-ip_139-0"
  param {
    lr_mult: 1
    decay_mult: 1
  }
  param {
    lr_mult: 2
    decay_mult: 0
  }
  inner_product_param {
    num_output: 6
    weight_filler {
      type: "xavier"
      std:0.01
    }
    bias_filler {
      type: "constant"
      value: 0
    }
  }
}
layer {
  name: "slice-ip_140-0"
  type: "InnerProduct"
  bottom: "data-140"
  top: "slice-ip_140-0"
  param {
    lr_mult: 1
    decay_mult: 1
  }
  param {
    lr_mult: 2
    decay_mult: 0
  }
  inner_product_param {
    num_output: 6
    weight_filler {
      type: "xavier"
      std:0.01
    }
    bias_filler {
      type: "constant"
      value: 0
    }
  }
}
layer {
  name: "slice-ip_141-0"
  type: "InnerProduct"
  bottom: "data-141"
  top: "slice-ip_141-0"
  param {
    lr_mult: 1
    decay_mult: 1
  }
  param {
    lr_mult: 2
    decay_mult: 0
  }
  inner_product_param {
    num_output: 6
    weight_filler {
      type: "xavier"
      std:0.01
    }
    bias_filler {
      type: "constant"
      value: 0
    }
  }
}
layer {
  name: "slice-ip_142-0"
  type: "InnerProduct"
  bottom: "data-142"
  top: "slice-ip_142-0"
  param {
    lr_mult: 1
    decay_mult: 1
  }
  param {
    lr_mult: 2
    decay_mult: 0
  }
  inner_product_param {
    num_output: 6
    weight_filler {
      type: "xavier"
      std:0.01
    }
    bias_filler {
      type: "constant"
      value: 0
    }
  }
}
layer {
  name: "slice-ip_143-0"
  type: "InnerProduct"
  bottom: "data-143"
  top: "slice-ip_143-0"
  param {
    lr_mult: 1
    decay_mult: 1
  }
  param {
    lr_mult: 2
    decay_mult: 0
  }
  inner_product_param {
    num_output: 6
    weight_filler {
      type: "xavier"
      std:0.01
    }
    bias_filler {
      type: "constant"
      value: 0
    }
  }
}
layer {
  name: "slice-ip_144-0"
  type: "InnerProduct"
  bottom: "data-144"
  top: "slice-ip_144-0"
  param {
    lr_mult: 1
    decay_mult: 1
  }
  param {
    lr_mult: 2
    decay_mult: 0
  }
  inner_product_param {
    num_output: 6
    weight_filler {
      type: "xavier"
      std:0.01
    }
    bias_filler {
      type: "constant"
      value: 0
    }
  }
}
layer {
  name: "slice-ip_145-0"
  type: "InnerProduct"
  bottom: "data-145"
  top: "slice-ip_145-0"
  param {
    lr_mult: 1
    decay_mult: 1
  }
  param {
    lr_mult: 2
    decay_mult: 0
  }
  inner_product_param {
    num_output: 6
    weight_filler {
      type: "xavier"
      std:0.01
    }
    bias_filler {
      type: "constant"
      value: 0
    }
  }
}
layer {
  name: "slice-ip_146-0"
  type: "InnerProduct"
  bottom: "data-146"
  top: "slice-ip_146-0"
  param {
    lr_mult: 1
    decay_mult: 1
  }
  param {
    lr_mult: 2
    decay_mult: 0
  }
  inner_product_param {
    num_output: 6
    weight_filler {
      type: "xavier"
      std:0.01
    }
    bias_filler {
      type: "constant"
      value: 0
    }
  }
}
layer {
  name: "slice-ip_147-0"
  type: "InnerProduct"
  bottom: "data-147"
  top: "slice-ip_147-0"
  param {
    lr_mult: 1
    decay_mult: 1
  }
  param {
    lr_mult: 2
    decay_mult: 0
  }
  inner_product_param {
    num_output: 6
    weight_filler {
      type: "xavier"
      std:0.01
    }
    bias_filler {
      type: "constant"
      value: 0
    }
  }
}
layer {
  name: "slice-ip_148-0"
  type: "InnerProduct"
  bottom: "data-148"
  top: "slice-ip_148-0"
  param {
    lr_mult: 1
    decay_mult: 1
  }
  param {
    lr_mult: 2
    decay_mult: 0
  }
  inner_product_param {
    num_output: 6
    weight_filler {
      type: "xavier"
      std:0.01
    }
    bias_filler {
      type: "constant"
      value: 0
    }
  }
}
layer {
  name: "slice-ip_149-0"
  type: "InnerProduct"
  bottom: "data-149"
  top: "slice-ip_149-0"
  param {
    lr_mult: 1
    decay_mult: 1
  }
  param {
    lr_mult: 2
    decay_mult: 0
  }
  inner_product_param {
    num_output: 6
    weight_filler {
      type: "xavier"
      std:0.01
    }
    bias_filler {
      type: "constant"
      value: 0
    }
  }
}
layer {
  name: "slice-ip_150-0"
  type: "InnerProduct"
  bottom: "data-150"
  top: "slice-ip_150-0"
  param {
    lr_mult: 1
    decay_mult: 1
  }
  param {
    lr_mult: 2
    decay_mult: 0
  }
  inner_product_param {
    num_output: 6
    weight_filler {
      type: "xavier"
      std:0.01
    }
    bias_filler {
      type: "constant"
      value: 0
    }
  }
}
layer {
  name: "slice-ip_151-0"
  type: "InnerProduct"
  bottom: "data-151"
  top: "slice-ip_151-0"
  param {
    lr_mult: 1
    decay_mult: 1
  }
  param {
    lr_mult: 2
    decay_mult: 0
  }
  inner_product_param {
    num_output: 6
    weight_filler {
      type: "xavier"
      std:0.01
    }
    bias_filler {
      type: "constant"
      value: 0
    }
  }
}
layer {
  name: "slice-ip_152-0"
  type: "InnerProduct"
  bottom: "data-152"
  top: "slice-ip_152-0"
  param {
    lr_mult: 1
    decay_mult: 1
  }
  param {
    lr_mult: 2
    decay_mult: 0
  }
  inner_product_param {
    num_output: 6
    weight_filler {
      type: "xavier"
      std:0.01
    }
    bias_filler {
      type: "constant"
      value: 0
    }
  }
}
layer {
  name: "slice-ip_153-0"
  type: "InnerProduct"
  bottom: "data-153"
  top: "slice-ip_153-0"
  param {
    lr_mult: 1
    decay_mult: 1
  }
  param {
    lr_mult: 2
    decay_mult: 0
  }
  inner_product_param {
    num_output: 6
    weight_filler {
      type: "xavier"
      std:0.01
    }
    bias_filler {
      type: "constant"
      value: 0
    }
  }
}
layer {
  name: "slice-ip_154-0"
  type: "InnerProduct"
  bottom: "data-154"
  top: "slice-ip_154-0"
  param {
    lr_mult: 1
    decay_mult: 1
  }
  param {
    lr_mult: 2
    decay_mult: 0
  }
  inner_product_param {
    num_output: 6
    weight_filler {
      type: "xavier"
      std:0.01
    }
    bias_filler {
      type: "constant"
      value: 0
    }
  }
}
layer {
  name: "slice-ip_155-0"
  type: "InnerProduct"
  bottom: "data-155"
  top: "slice-ip_155-0"
  param {
    lr_mult: 1
    decay_mult: 1
  }
  param {
    lr_mult: 2
    decay_mult: 0
  }
  inner_product_param {
    num_output: 6
    weight_filler {
      type: "xavier"
      std:0.01
    }
    bias_filler {
      type: "constant"
      value: 0
    }
  }
}
layer {
  name: "slice-ip_156-0"
  type: "InnerProduct"
  bottom: "data-156"
  top: "slice-ip_156-0"
  param {
    lr_mult: 1
    decay_mult: 1
  }
  param {
    lr_mult: 2
    decay_mult: 0
  }
  inner_product_param {
    num_output: 6
    weight_filler {
      type: "xavier"
      std:0.01
    }
    bias_filler {
      type: "constant"
      value: 0
    }
  }
}
layer {
  name: "slice-ip_157-0"
  type: "InnerProduct"
  bottom: "data-157"
  top: "slice-ip_157-0"
  param {
    lr_mult: 1
    decay_mult: 1
  }
  param {
    lr_mult: 2
    decay_mult: 0
  }
  inner_product_param {
    num_output: 6
    weight_filler {
      type: "xavier"
      std:0.01
    }
    bias_filler {
      type: "constant"
      value: 0
    }
  }
}
layer {
  name: "slice-ip_158-0"
  type: "InnerProduct"
  bottom: "data-158"
  top: "slice-ip_158-0"
  param {
    lr_mult: 1
    decay_mult: 1
  }
  param {
    lr_mult: 2
    decay_mult: 0
  }
  inner_product_param {
    num_output: 6
    weight_filler {
      type: "xavier"
      std:0.01
    }
    bias_filler {
      type: "constant"
      value: 0
    }
  }
}
layer {
  name: "slice-ip_159-0"
  type: "InnerProduct"
  bottom: "data-159"
  top: "slice-ip_159-0"
  param {
    lr_mult: 1
    decay_mult: 1
  }
  param {
    lr_mult: 2
    decay_mult: 0
  }
  inner_product_param {
    num_output: 6
    weight_filler {
      type: "xavier"
      std:0.01
    }
    bias_filler {
      type: "constant"
      value: 0
    }
  }
}
layer {
  name: "slice-ip_160-0"
  type: "InnerProduct"
  bottom: "data-160"
  top: "slice-ip_160-0"
  param {
    lr_mult: 1
    decay_mult: 1
  }
  param {
    lr_mult: 2
    decay_mult: 0
  }
  inner_product_param {
    num_output: 6
    weight_filler {
      type: "xavier"
      std:0.01
    }
    bias_filler {
      type: "constant"
      value: 0
    }
  }
}
layer {
  name: "slice-ip_161-0"
  type: "InnerProduct"
  bottom: "data-161"
  top: "slice-ip_161-0"
  param {
    lr_mult: 1
    decay_mult: 1
  }
  param {
    lr_mult: 2
    decay_mult: 0
  }
  inner_product_param {
    num_output: 6
    weight_filler {
      type: "xavier"
      std:0.01
    }
    bias_filler {
      type: "constant"
      value: 0
    }
  }
}
layer {
  name: "slice-ip_162-0"
  type: "InnerProduct"
  bottom: "data-162"
  top: "slice-ip_162-0"
  param {
    lr_mult: 1
    decay_mult: 1
  }
  param {
    lr_mult: 2
    decay_mult: 0
  }
  inner_product_param {
    num_output: 6
    weight_filler {
      type: "xavier"
      std:0.01
    }
    bias_filler {
      type: "constant"
      value: 0
    }
  }
}
layer {
  name: "slice-ip_163-0"
  type: "InnerProduct"
  bottom: "data-163"
  top: "slice-ip_163-0"
  param {
    lr_mult: 1
    decay_mult: 1
  }
  param {
    lr_mult: 2
    decay_mult: 0
  }
  inner_product_param {
    num_output: 6
    weight_filler {
      type: "xavier"
      std:0.01
    }
    bias_filler {
      type: "constant"
      value: 0
    }
  }
}
layer {
  name: "slice-ip_164-0"
  type: "InnerProduct"
  bottom: "data-164"
  top: "slice-ip_164-0"
  param {
    lr_mult: 1
    decay_mult: 1
  }
  param {
    lr_mult: 2
    decay_mult: 0
  }
  inner_product_param {
    num_output: 6
    weight_filler {
      type: "xavier"
      std:0.01
    }
    bias_filler {
      type: "constant"
      value: 0
    }
  }
}
layer {
  name: "slice-ip_165-0"
  type: "InnerProduct"
  bottom: "data-165"
  top: "slice-ip_165-0"
  param {
    lr_mult: 1
    decay_mult: 1
  }
  param {
    lr_mult: 2
    decay_mult: 0
  }
  inner_product_param {
    num_output: 6
    weight_filler {
      type: "xavier"
      std:0.01
    }
    bias_filler {
      type: "constant"
      value: 0
    }
  }
}
layer {
  name: "slice-ip_166-0"
  type: "InnerProduct"
  bottom: "data-166"
  top: "slice-ip_166-0"
  param {
    lr_mult: 1
    decay_mult: 1
  }
  param {
    lr_mult: 2
    decay_mult: 0
  }
  inner_product_param {
    num_output: 6
    weight_filler {
      type: "xavier"
      std:0.01
    }
    bias_filler {
      type: "constant"
      value: 0
    }
  }
}
layer {
  name: "slice-ip_167-0"
  type: "InnerProduct"
  bottom: "data-167"
  top: "slice-ip_167-0"
  param {
    lr_mult: 1
    decay_mult: 1
  }
  param {
    lr_mult: 2
    decay_mult: 0
  }
  inner_product_param {
    num_output: 6
    weight_filler {
      type: "xavier"
      std:0.01
    }
    bias_filler {
      type: "constant"
      value: 0
    }
  }
}
layer {
  name: "slice-ip_168-0"
  type: "InnerProduct"
  bottom: "data-168"
  top: "slice-ip_168-0"
  param {
    lr_mult: 1
    decay_mult: 1
  }
  param {
    lr_mult: 2
    decay_mult: 0
  }
  inner_product_param {
    num_output: 6
    weight_filler {
      type: "xavier"
      std:0.01
    }
    bias_filler {
      type: "constant"
      value: 0
    }
  }
}
layer {
  name: "slice-ip_169-0"
  type: "InnerProduct"
  bottom: "data-169"
  top: "slice-ip_169-0"
  param {
    lr_mult: 1
    decay_mult: 1
  }
  param {
    lr_mult: 2
    decay_mult: 0
  }
  inner_product_param {
    num_output: 6
    weight_filler {
      type: "xavier"
      std:0.01
    }
    bias_filler {
      type: "constant"
      value: 0
    }
  }
}
layer {
  name: "slice-ip_170-0"
  type: "InnerProduct"
  bottom: "data-170"
  top: "slice-ip_170-0"
  param {
    lr_mult: 1
    decay_mult: 1
  }
  param {
    lr_mult: 2
    decay_mult: 0
  }
  inner_product_param {
    num_output: 6
    weight_filler {
      type: "xavier"
      std:0.01
    }
    bias_filler {
      type: "constant"
      value: 0
    }
  }
}
layer {
  name: "slice-ip_171-0"
  type: "InnerProduct"
  bottom: "data-171"
  top: "slice-ip_171-0"
  param {
    lr_mult: 1
    decay_mult: 1
  }
  param {
    lr_mult: 2
    decay_mult: 0
  }
  inner_product_param {
    num_output: 6
    weight_filler {
      type: "xavier"
      std:0.01
    }
    bias_filler {
      type: "constant"
      value: 0
    }
  }
}
layer {
  name: "slice-ip_172-0"
  type: "InnerProduct"
  bottom: "data-172"
  top: "slice-ip_172-0"
  param {
    lr_mult: 1
    decay_mult: 1
  }
  param {
    lr_mult: 2
    decay_mult: 0
  }
  inner_product_param {
    num_output: 6
    weight_filler {
      type: "xavier"
      std:0.01
    }
    bias_filler {
      type: "constant"
      value: 0
    }
  }
}
layer {
  name: "slice-ip_173-0"
  type: "InnerProduct"
  bottom: "data-173"
  top: "slice-ip_173-0"
  param {
    lr_mult: 1
    decay_mult: 1
  }
  param {
    lr_mult: 2
    decay_mult: 0
  }
  inner_product_param {
    num_output: 6
    weight_filler {
      type: "xavier"
      std:0.01
    }
    bias_filler {
      type: "constant"
      value: 0
    }
  }
}
layer {
  name: "slice-ip_174-0"
  type: "InnerProduct"
  bottom: "data-174"
  top: "slice-ip_174-0"
  param {
    lr_mult: 1
    decay_mult: 1
  }
  param {
    lr_mult: 2
    decay_mult: 0
  }
  inner_product_param {
    num_output: 6
    weight_filler {
      type: "xavier"
      std:0.01
    }
    bias_filler {
      type: "constant"
      value: 0
    }
  }
}
layer {
  name: "slice-ip_175-0"
  type: "InnerProduct"
  bottom: "data-175"
  top: "slice-ip_175-0"
  param {
    lr_mult: 1
    decay_mult: 1
  }
  param {
    lr_mult: 2
    decay_mult: 0
  }
  inner_product_param {
    num_output: 6
    weight_filler {
      type: "xavier"
      std:0.01
    }
    bias_filler {
      type: "constant"
      value: 0
    }
  }
}
layer {
  name: "slice-ip_176-0"
  type: "InnerProduct"
  bottom: "data-176"
  top: "slice-ip_176-0"
  param {
    lr_mult: 1
    decay_mult: 1
  }
  param {
    lr_mult: 2
    decay_mult: 0
  }
  inner_product_param {
    num_output: 6
    weight_filler {
      type: "xavier"
      std:0.01
    }
    bias_filler {
      type: "constant"
      value: 0
    }
  }
}
layer {
  name: "slice-ip_177-0"
  type: "InnerProduct"
  bottom: "data-177"
  top: "slice-ip_177-0"
  param {
    lr_mult: 1
    decay_mult: 1
  }
  param {
    lr_mult: 2
    decay_mult: 0
  }
  inner_product_param {
    num_output: 6
    weight_filler {
      type: "xavier"
      std:0.01
    }
    bias_filler {
      type: "constant"
      value: 0
    }
  }
}
layer {
  name: "slice-ip_178-0"
  type: "InnerProduct"
  bottom: "data-178"
  top: "slice-ip_178-0"
  param {
    lr_mult: 1
    decay_mult: 1
  }
  param {
    lr_mult: 2
    decay_mult: 0
  }
  inner_product_param {
    num_output: 6
    weight_filler {
      type: "xavier"
      std:0.01
    }
    bias_filler {
      type: "constant"
      value: 0
    }
  }
}
layer {
  name: "slice-ip_179-0"
  type: "InnerProduct"
  bottom: "data-179"
  top: "slice-ip_179-0"
  param {
    lr_mult: 1
    decay_mult: 1
  }
  param {
    lr_mult: 2
    decay_mult: 0
  }
  inner_product_param {
    num_output: 6
    weight_filler {
      type: "xavier"
      std:0.01
    }
    bias_filler {
      type: "constant"
      value: 0
    }
  }
}
layer {
  name: "slice-ip_180-0"
  type: "InnerProduct"
  bottom: "data-180"
  top: "slice-ip_180-0"
  param {
    lr_mult: 1
    decay_mult: 1
  }
  param {
    lr_mult: 2
    decay_mult: 0
  }
  inner_product_param {
    num_output: 6
    weight_filler {
      type: "xavier"
      std:0.01
    }
    bias_filler {
      type: "constant"
      value: 0
    }
  }
}
layer {
  name: "slice-ip_181-0"
  type: "InnerProduct"
  bottom: "data-181"
  top: "slice-ip_181-0"
  param {
    lr_mult: 1
    decay_mult: 1
  }
  param {
    lr_mult: 2
    decay_mult: 0
  }
  inner_product_param {
    num_output: 6
    weight_filler {
      type: "xavier"
      std:0.01
    }
    bias_filler {
      type: "constant"
      value: 0
    }
  }
}
layer {
  name: "slice-ip_182-0"
  type: "InnerProduct"
  bottom: "data-182"
  top: "slice-ip_182-0"
  param {
    lr_mult: 1
    decay_mult: 1
  }
  param {
    lr_mult: 2
    decay_mult: 0
  }
  inner_product_param {
    num_output: 6
    weight_filler {
      type: "xavier"
      std:0.01
    }
    bias_filler {
      type: "constant"
      value: 0
    }
  }
}
layer {
  name: "slice-ip_183-0"
  type: "InnerProduct"
  bottom: "data-183"
  top: "slice-ip_183-0"
  param {
    lr_mult: 1
    decay_mult: 1
  }
  param {
    lr_mult: 2
    decay_mult: 0
  }
  inner_product_param {
    num_output: 6
    weight_filler {
      type: "xavier"
      std:0.01
    }
    bias_filler {
      type: "constant"
      value: 0
    }
  }
}
layer {
  name: "slice-ip_184-0"
  type: "InnerProduct"
  bottom: "data-184"
  top: "slice-ip_184-0"
  param {
    lr_mult: 1
    decay_mult: 1
  }
  param {
    lr_mult: 2
    decay_mult: 0
  }
  inner_product_param {
    num_output: 6
    weight_filler {
      type: "xavier"
      std:0.01
    }
    bias_filler {
      type: "constant"
      value: 0
    }
  }
}
layer {
  name: "slice-ip_185-0"
  type: "InnerProduct"
  bottom: "data-185"
  top: "slice-ip_185-0"
  param {
    lr_mult: 1
    decay_mult: 1
  }
  param {
    lr_mult: 2
    decay_mult: 0
  }
  inner_product_param {
    num_output: 6
    weight_filler {
      type: "xavier"
      std:0.01
    }
    bias_filler {
      type: "constant"
      value: 0
    }
  }
}
layer {
  name: "slice-ip_186-0"
  type: "InnerProduct"
  bottom: "data-186"
  top: "slice-ip_186-0"
  param {
    lr_mult: 1
    decay_mult: 1
  }
  param {
    lr_mult: 2
    decay_mult: 0
  }
  inner_product_param {
    num_output: 6
    weight_filler {
      type: "xavier"
      std:0.01
    }
    bias_filler {
      type: "constant"
      value: 0
    }
  }
}
layer {
  name: "slice-ip_187-0"
  type: "InnerProduct"
  bottom: "data-187"
  top: "slice-ip_187-0"
  param {
    lr_mult: 1
    decay_mult: 1
  }
  param {
    lr_mult: 2
    decay_mult: 0
  }
  inner_product_param {
    num_output: 6
    weight_filler {
      type: "xavier"
      std:0.01
    }
    bias_filler {
      type: "constant"
      value: 0
    }
  }
}
layer {
  name: "slice-ip_188-0"
  type: "InnerProduct"
  bottom: "data-188"
  top: "slice-ip_188-0"
  param {
    lr_mult: 1
    decay_mult: 1
  }
  param {
    lr_mult: 2
    decay_mult: 0
  }
  inner_product_param {
    num_output: 6
    weight_filler {
      type: "xavier"
      std:0.01
    }
    bias_filler {
      type: "constant"
      value: 0
    }
  }
}
layer {
  name: "slice-ip_189-0"
  type: "InnerProduct"
  bottom: "data-189"
  top: "slice-ip_189-0"
  param {
    lr_mult: 1
    decay_mult: 1
  }
  param {
    lr_mult: 2
    decay_mult: 0
  }
  inner_product_param {
    num_output: 6
    weight_filler {
      type: "xavier"
      std:0.01
    }
    bias_filler {
      type: "constant"
      value: 0
    }
  }
}
layer {
  name: "slice-ip_190-0"
  type: "InnerProduct"
  bottom: "data-190"
  top: "slice-ip_190-0"
  param {
    lr_mult: 1
    decay_mult: 1
  }
  param {
    lr_mult: 2
    decay_mult: 0
  }
  inner_product_param {
    num_output: 6
    weight_filler {
      type: "xavier"
      std:0.01
    }
    bias_filler {
      type: "constant"
      value: 0
    }
  }
}
layer {
  name: "slice-ip_191-0"
  type: "InnerProduct"
  bottom: "data-191"
  top: "slice-ip_191-0"
  param {
    lr_mult: 1
    decay_mult: 1
  }
  param {
    lr_mult: 2
    decay_mult: 0
  }
  inner_product_param {
    num_output: 6
    weight_filler {
      type: "xavier"
      std:0.01
    }
    bias_filler {
      type: "constant"
      value: 0
    }
  }
}
layer {
  name: "slice-ip_192-0"
  type: "InnerProduct"
  bottom: "data-192"
  top: "slice-ip_192-0"
  param {
    lr_mult: 1
    decay_mult: 1
  }
  param {
    lr_mult: 2
    decay_mult: 0
  }
  inner_product_param {
    num_output: 6
    weight_filler {
      type: "xavier"
      std:0.01
    }
    bias_filler {
      type: "constant"
      value: 0
    }
  }
}
layer {
  name: "slice-ip_193-0"
  type: "InnerProduct"
  bottom: "data-193"
  top: "slice-ip_193-0"
  param {
    lr_mult: 1
    decay_mult: 1
  }
  param {
    lr_mult: 2
    decay_mult: 0
  }
  inner_product_param {
    num_output: 6
    weight_filler {
      type: "xavier"
      std:0.01
    }
    bias_filler {
      type: "constant"
      value: 0
    }
  }
}
layer {
  name: "slice-ip_194-0"
  type: "InnerProduct"
  bottom: "data-194"
  top: "slice-ip_194-0"
  param {
    lr_mult: 1
    decay_mult: 1
  }
  param {
    lr_mult: 2
    decay_mult: 0
  }
  inner_product_param {
    num_output: 6
    weight_filler {
      type: "xavier"
      std:0.01
    }
    bias_filler {
      type: "constant"
      value: 0
    }
  }
}
layer {
  name: "slice-ip_195-0"
  type: "InnerProduct"
  bottom: "data-195"
  top: "slice-ip_195-0"
  param {
    lr_mult: 1
    decay_mult: 1
  }
  param {
    lr_mult: 2
    decay_mult: 0
  }
  inner_product_param {
    num_output: 6
    weight_filler {
      type: "xavier"
      std:0.01
    }
    bias_filler {
      type: "constant"
      value: 0
    }
  }
}
layer {
  name: "slice-ip_196-0"
  type: "InnerProduct"
  bottom: "data-196"
  top: "slice-ip_196-0"
  param {
    lr_mult: 1
    decay_mult: 1
  }
  param {
    lr_mult: 2
    decay_mult: 0
  }
  inner_product_param {
    num_output: 6
    weight_filler {
      type: "xavier"
      std:0.01
    }
    bias_filler {
      type: "constant"
      value: 0
    }
  }
}
layer {
  name: "slice-ip_197-0"
  type: "InnerProduct"
  bottom: "data-197"
  top: "slice-ip_197-0"
  param {
    lr_mult: 1
    decay_mult: 1
  }
  param {
    lr_mult: 2
    decay_mult: 0
  }
  inner_product_param {
    num_output: 6
    weight_filler {
      type: "xavier"
      std:0.01
    }
    bias_filler {
      type: "constant"
      value: 0
    }
  }
}
layer {
  name: "slice-ip_198-0"
  type: "InnerProduct"
  bottom: "data-198"
  top: "slice-ip_198-0"
  param {
    lr_mult: 1
    decay_mult: 1
  }
  param {
    lr_mult: 2
    decay_mult: 0
  }
  inner_product_param {
    num_output: 6
    weight_filler {
      type: "xavier"
      std:0.01
    }
    bias_filler {
      type: "constant"
      value: 0
    }
  }
}
layer {
  name: "slice-ip_199-0"
  type: "InnerProduct"
  bottom: "data-199"
  top: "slice-ip_199-0"
  param {
    lr_mult: 1
    decay_mult: 1
  }
  param {
    lr_mult: 2
    decay_mult: 0
  }
  inner_product_param {
    num_output: 6
    weight_filler {
      type: "xavier"
      std:0.01
    }
    bias_filler {
      type: "constant"
      value: 0
    }
  }
}
layer {
  name: "slice-ip_200-0"
  type: "InnerProduct"
  bottom: "data-200"
  top: "slice-ip_200-0"
  param {
    lr_mult: 1
    decay_mult: 1
  }
  param {
    lr_mult: 2
    decay_mult: 0
  }
  inner_product_param {
    num_output: 6
    weight_filler {
      type: "xavier"
      std:0.01
    }
    bias_filler {
      type: "constant"
      value: 0
    }
  }
}
layer {
  name: "slice-ip_201-0"
  type: "InnerProduct"
  bottom: "data-201"
  top: "slice-ip_201-0"
  param {
    lr_mult: 1
    decay_mult: 1
  }
  param {
    lr_mult: 2
    decay_mult: 0
  }
  inner_product_param {
    num_output: 6
    weight_filler {
      type: "xavier"
      std:0.01
    }
    bias_filler {
      type: "constant"
      value: 0
    }
  }
}
layer {
  name: "slice-ip_202-0"
  type: "InnerProduct"
  bottom: "data-202"
  top: "slice-ip_202-0"
  param {
    lr_mult: 1
    decay_mult: 1
  }
  param {
    lr_mult: 2
    decay_mult: 0
  }
  inner_product_param {
    num_output: 6
    weight_filler {
      type: "xavier"
      std:0.01
    }
    bias_filler {
      type: "constant"
      value: 0
    }
  }
}
layer {
  name: "slice-ip_203-0"
  type: "InnerProduct"
  bottom: "data-203"
  top: "slice-ip_203-0"
  param {
    lr_mult: 1
    decay_mult: 1
  }
  param {
    lr_mult: 2
    decay_mult: 0
  }
  inner_product_param {
    num_output: 6
    weight_filler {
      type: "xavier"
      std:0.01
    }
    bias_filler {
      type: "constant"
      value: 0
    }
  }
}
layer {
  name: "slice-ip_204-0"
  type: "InnerProduct"
  bottom: "data-204"
  top: "slice-ip_204-0"
  param {
    lr_mult: 1
    decay_mult: 1
  }
  param {
    lr_mult: 2
    decay_mult: 0
  }
  inner_product_param {
    num_output: 6
    weight_filler {
      type: "xavier"
      std:0.01
    }
    bias_filler {
      type: "constant"
      value: 0
    }
  }
}
layer {
  name: "slice-ip_205-0"
  type: "InnerProduct"
  bottom: "data-205"
  top: "slice-ip_205-0"
  param {
    lr_mult: 1
    decay_mult: 1
  }
  param {
    lr_mult: 2
    decay_mult: 0
  }
  inner_product_param {
    num_output: 6
    weight_filler {
      type: "xavier"
      std:0.01
    }
    bias_filler {
      type: "constant"
      value: 0
    }
  }
}
layer {
  name: "slice-ip_206-0"
  type: "InnerProduct"
  bottom: "data-206"
  top: "slice-ip_206-0"
  param {
    lr_mult: 1
    decay_mult: 1
  }
  param {
    lr_mult: 2
    decay_mult: 0
  }
  inner_product_param {
    num_output: 6
    weight_filler {
      type: "xavier"
      std:0.01
    }
    bias_filler {
      type: "constant"
      value: 0
    }
  }
}
layer {
  name: "slice-ip_207-0"
  type: "InnerProduct"
  bottom: "data-207"
  top: "slice-ip_207-0"
  param {
    lr_mult: 1
    decay_mult: 1
  }
  param {
    lr_mult: 2
    decay_mult: 0
  }
  inner_product_param {
    num_output: 6
    weight_filler {
      type: "xavier"
      std:0.01
    }
    bias_filler {
      type: "constant"
      value: 0
    }
  }
}
layer {
  name: "slice-ip_208-0"
  type: "InnerProduct"
  bottom: "data-208"
  top: "slice-ip_208-0"
  param {
    lr_mult: 1
    decay_mult: 1
  }
  param {
    lr_mult: 2
    decay_mult: 0
  }
  inner_product_param {
    num_output: 6
    weight_filler {
      type: "xavier"
      std:0.01
    }
    bias_filler {
      type: "constant"
      value: 0
    }
  }
}
layer {
  name: "slice-ip_209-0"
  type: "InnerProduct"
  bottom: "data-209"
  top: "slice-ip_209-0"
  param {
    lr_mult: 1
    decay_mult: 1
  }
  param {
    lr_mult: 2
    decay_mult: 0
  }
  inner_product_param {
    num_output: 6
    weight_filler {
      type: "xavier"
      std:0.01
    }
    bias_filler {
      type: "constant"
      value: 0
    }
  }
}
layer {
  name: "slice-ip_210-0"
  type: "InnerProduct"
  bottom: "data-210"
  top: "slice-ip_210-0"
  param {
    lr_mult: 1
    decay_mult: 1
  }
  param {
    lr_mult: 2
    decay_mult: 0
  }
  inner_product_param {
    num_output: 6
    weight_filler {
      type: "xavier"
      std:0.01
    }
    bias_filler {
      type: "constant"
      value: 0
    }
  }
}
layer {
  name: "slice-ip_211-0"
  type: "InnerProduct"
  bottom: "data-211"
  top: "slice-ip_211-0"
  param {
    lr_mult: 1
    decay_mult: 1
  }
  param {
    lr_mult: 2
    decay_mult: 0
  }
  inner_product_param {
    num_output: 6
    weight_filler {
      type: "xavier"
      std:0.01
    }
    bias_filler {
      type: "constant"
      value: 0
    }
  }
}
layer {
  name: "slice-ip_212-0"
  type: "InnerProduct"
  bottom: "data-212"
  top: "slice-ip_212-0"
  param {
    lr_mult: 1
    decay_mult: 1
  }
  param {
    lr_mult: 2
    decay_mult: 0
  }
  inner_product_param {
    num_output: 6
    weight_filler {
      type: "xavier"
      std:0.01
    }
    bias_filler {
      type: "constant"
      value: 0
    }
  }
}
layer {
  name: "slice-ip_213-0"
  type: "InnerProduct"
  bottom: "data-213"
  top: "slice-ip_213-0"
  param {
    lr_mult: 1
    decay_mult: 1
  }
  param {
    lr_mult: 2
    decay_mult: 0
  }
  inner_product_param {
    num_output: 6
    weight_filler {
      type: "xavier"
      std:0.01
    }
    bias_filler {
      type: "constant"
      value: 0
    }
  }
}
layer {
  name: "slice-ip_214-0"
  type: "InnerProduct"
  bottom: "data-214"
  top: "slice-ip_214-0"
  param {
    lr_mult: 1
    decay_mult: 1
  }
  param {
    lr_mult: 2
    decay_mult: 0
  }
  inner_product_param {
    num_output: 6
    weight_filler {
      type: "xavier"
      std:0.01
    }
    bias_filler {
      type: "constant"
      value: 0
    }
  }
}
layer {
  name: "slice-ip_215-0"
  type: "InnerProduct"
  bottom: "data-215"
  top: "slice-ip_215-0"
  param {
    lr_mult: 1
    decay_mult: 1
  }
  param {
    lr_mult: 2
    decay_mult: 0
  }
  inner_product_param {
    num_output: 6
    weight_filler {
      type: "xavier"
      std:0.01
    }
    bias_filler {
      type: "constant"
      value: 0
    }
  }
}
layer {
  name: "slice-ip_216-0"
  type: "InnerProduct"
  bottom: "data-216"
  top: "slice-ip_216-0"
  param {
    lr_mult: 1
    decay_mult: 1
  }
  param {
    lr_mult: 2
    decay_mult: 0
  }
  inner_product_param {
    num_output: 6
    weight_filler {
      type: "xavier"
      std:0.01
    }
    bias_filler {
      type: "constant"
      value: 0
    }
  }
}
layer {
  name: "slice-ip_217-0"
  type: "InnerProduct"
  bottom: "data-217"
  top: "slice-ip_217-0"
  param {
    lr_mult: 1
    decay_mult: 1
  }
  param {
    lr_mult: 2
    decay_mult: 0
  }
  inner_product_param {
    num_output: 6
    weight_filler {
      type: "xavier"
      std:0.01
    }
    bias_filler {
      type: "constant"
      value: 0
    }
  }
}
layer {
  name: "slice-ip_218-0"
  type: "InnerProduct"
  bottom: "data-218"
  top: "slice-ip_218-0"
  param {
    lr_mult: 1
    decay_mult: 1
  }
  param {
    lr_mult: 2
    decay_mult: 0
  }
  inner_product_param {
    num_output: 6
    weight_filler {
      type: "xavier"
      std:0.01
    }
    bias_filler {
      type: "constant"
      value: 0
    }
  }
}
layer {
  name: "slice-ip_219-0"
  type: "InnerProduct"
  bottom: "data-219"
  top: "slice-ip_219-0"
  param {
    lr_mult: 1
    decay_mult: 1
  }
  param {
    lr_mult: 2
    decay_mult: 0
  }
  inner_product_param {
    num_output: 6
    weight_filler {
      type: "xavier"
      std:0.01
    }
    bias_filler {
      type: "constant"
      value: 0
    }
  }
}
layer {
  name: "slice-ip_220-0"
  type: "InnerProduct"
  bottom: "data-220"
  top: "slice-ip_220-0"
  param {
    lr_mult: 1
    decay_mult: 1
  }
  param {
    lr_mult: 2
    decay_mult: 0
  }
  inner_product_param {
    num_output: 6
    weight_filler {
      type: "xavier"
      std:0.01
    }
    bias_filler {
      type: "constant"
      value: 0
    }
  }
}
layer {
  name: "slice-ip_221-0"
  type: "InnerProduct"
  bottom: "data-221"
  top: "slice-ip_221-0"
  param {
    lr_mult: 1
    decay_mult: 1
  }
  param {
    lr_mult: 2
    decay_mult: 0
  }
  inner_product_param {
    num_output: 6
    weight_filler {
      type: "xavier"
      std:0.01
    }
    bias_filler {
      type: "constant"
      value: 0
    }
  }
}
layer {
  name: "slice-ip_222-0"
  type: "InnerProduct"
  bottom: "data-222"
  top: "slice-ip_222-0"
  param {
    lr_mult: 1
    decay_mult: 1
  }
  param {
    lr_mult: 2
    decay_mult: 0
  }
  inner_product_param {
    num_output: 6
    weight_filler {
      type: "xavier"
      std:0.01
    }
    bias_filler {
      type: "constant"
      value: 0
    }
  }
}
layer {
  name: "slice-ip_223-0"
  type: "InnerProduct"
  bottom: "data-223"
  top: "slice-ip_223-0"
  param {
    lr_mult: 1
    decay_mult: 1
  }
  param {
    lr_mult: 2
    decay_mult: 0
  }
  inner_product_param {
    num_output: 6
    weight_filler {
      type: "xavier"
      std:0.01
    }
    bias_filler {
      type: "constant"
      value: 0
    }
  }
}
layer {
  name: "slice-ip_224-0"
  type: "InnerProduct"
  bottom: "data-224"
  top: "slice-ip_224-0"
  param {
    lr_mult: 1
    decay_mult: 1
  }
  param {
    lr_mult: 2
    decay_mult: 0
  }
  inner_product_param {
    num_output: 6
    weight_filler {
      type: "xavier"
      std:0.01
    }
    bias_filler {
      type: "constant"
      value: 0
    }
  }
}
layer {
  name: "slice-ip_225-0"
  type: "InnerProduct"
  bottom: "data-225"
  top: "slice-ip_225-0"
  param {
    lr_mult: 1
    decay_mult: 1
  }
  param {
    lr_mult: 2
    decay_mult: 0
  }
  inner_product_param {
    num_output: 6
    weight_filler {
      type: "xavier"
      std:0.01
    }
    bias_filler {
      type: "constant"
      value: 0
    }
  }
}
layer {
  name: "slice-ip_226-0"
  type: "InnerProduct"
  bottom: "data-226"
  top: "slice-ip_226-0"
  param {
    lr_mult: 1
    decay_mult: 1
  }
  param {
    lr_mult: 2
    decay_mult: 0
  }
  inner_product_param {
    num_output: 6
    weight_filler {
      type: "xavier"
      std:0.01
    }
    bias_filler {
      type: "constant"
      value: 0
    }
  }
}
layer {
  name: "slice-ip_227-0"
  type: "InnerProduct"
  bottom: "data-227"
  top: "slice-ip_227-0"
  param {
    lr_mult: 1
    decay_mult: 1
  }
  param {
    lr_mult: 2
    decay_mult: 0
  }
  inner_product_param {
    num_output: 6
    weight_filler {
      type: "xavier"
      std:0.01
    }
    bias_filler {
      type: "constant"
      value: 0
    }
  }
}
layer {
  name: "slice-ip_228-0"
  type: "InnerProduct"
  bottom: "data-228"
  top: "slice-ip_228-0"
  param {
    lr_mult: 1
    decay_mult: 1
  }
  param {
    lr_mult: 2
    decay_mult: 0
  }
  inner_product_param {
    num_output: 6
    weight_filler {
      type: "xavier"
      std:0.01
    }
    bias_filler {
      type: "constant"
      value: 0
    }
  }
}
layer {
  name: "slice-ip_229-0"
  type: "InnerProduct"
  bottom: "data-229"
  top: "slice-ip_229-0"
  param {
    lr_mult: 1
    decay_mult: 1
  }
  param {
    lr_mult: 2
    decay_mult: 0
  }
  inner_product_param {
    num_output: 6
    weight_filler {
      type: "xavier"
      std:0.01
    }
    bias_filler {
      type: "constant"
      value: 0
    }
  }
}
layer {
  name: "slice-ip_230-0"
  type: "InnerProduct"
  bottom: "data-230"
  top: "slice-ip_230-0"
  param {
    lr_mult: 1
    decay_mult: 1
  }
  param {
    lr_mult: 2
    decay_mult: 0
  }
  inner_product_param {
    num_output: 6
    weight_filler {
      type: "xavier"
      std:0.01
    }
    bias_filler {
      type: "constant"
      value: 0
    }
  }
}
layer {
  name: "slice-ip_231-0"
  type: "InnerProduct"
  bottom: "data-231"
  top: "slice-ip_231-0"
  param {
    lr_mult: 1
    decay_mult: 1
  }
  param {
    lr_mult: 2
    decay_mult: 0
  }
  inner_product_param {
    num_output: 6
    weight_filler {
      type: "xavier"
      std:0.01
    }
    bias_filler {
      type: "constant"
      value: 0
    }
  }
}
layer {
  name: "slice-ip_232-0"
  type: "InnerProduct"
  bottom: "data-232"
  top: "slice-ip_232-0"
  param {
    lr_mult: 1
    decay_mult: 1
  }
  param {
    lr_mult: 2
    decay_mult: 0
  }
  inner_product_param {
    num_output: 6
    weight_filler {
      type: "xavier"
      std:0.01
    }
    bias_filler {
      type: "constant"
      value: 0
    }
  }
}
layer {
  name: "slice-ip_233-0"
  type: "InnerProduct"
  bottom: "data-233"
  top: "slice-ip_233-0"
  param {
    lr_mult: 1
    decay_mult: 1
  }
  param {
    lr_mult: 2
    decay_mult: 0
  }
  inner_product_param {
    num_output: 6
    weight_filler {
      type: "xavier"
      std:0.01
    }
    bias_filler {
      type: "constant"
      value: 0
    }
  }
}
layer {
  name: "slice-ip_234-0"
  type: "InnerProduct"
  bottom: "data-234"
  top: "slice-ip_234-0"
  param {
    lr_mult: 1
    decay_mult: 1
  }
  param {
    lr_mult: 2
    decay_mult: 0
  }
  inner_product_param {
    num_output: 6
    weight_filler {
      type: "xavier"
      std:0.01
    }
    bias_filler {
      type: "constant"
      value: 0
    }
  }
}
layer {
  name: "slice-ip_235-0"
  type: "InnerProduct"
  bottom: "data-235"
  top: "slice-ip_235-0"
  param {
    lr_mult: 1
    decay_mult: 1
  }
  param {
    lr_mult: 2
    decay_mult: 0
  }
  inner_product_param {
    num_output: 6
    weight_filler {
      type: "xavier"
      std:0.01
    }
    bias_filler {
      type: "constant"
      value: 0
    }
  }
}
layer {
  name: "slice-ip_236-0"
  type: "InnerProduct"
  bottom: "data-236"
  top: "slice-ip_236-0"
  param {
    lr_mult: 1
    decay_mult: 1
  }
  param {
    lr_mult: 2
    decay_mult: 0
  }
  inner_product_param {
    num_output: 6
    weight_filler {
      type: "xavier"
      std:0.01
    }
    bias_filler {
      type: "constant"
      value: 0
    }
  }
}
layer {
  name: "slice-ip_237-0"
  type: "InnerProduct"
  bottom: "data-237"
  top: "slice-ip_237-0"
  param {
    lr_mult: 1
    decay_mult: 1
  }
  param {
    lr_mult: 2
    decay_mult: 0
  }
  inner_product_param {
    num_output: 6
    weight_filler {
      type: "xavier"
      std:0.01
    }
    bias_filler {
      type: "constant"
      value: 0
    }
  }
}
layer {
  name: "slice-ip_238-0"
  type: "InnerProduct"
  bottom: "data-238"
  top: "slice-ip_238-0"
  param {
    lr_mult: 1
    decay_mult: 1
  }
  param {
    lr_mult: 2
    decay_mult: 0
  }
  inner_product_param {
    num_output: 6
    weight_filler {
      type: "xavier"
      std:0.01
    }
    bias_filler {
      type: "constant"
      value: 0
    }
  }
}
layer {
  name: "slice-ip_239-0"
  type: "InnerProduct"
  bottom: "data-239"
  top: "slice-ip_239-0"
  param {
    lr_mult: 1
    decay_mult: 1
  }
  param {
    lr_mult: 2
    decay_mult: 0
  }
  inner_product_param {
    num_output: 6
    weight_filler {
      type: "xavier"
      std:0.01
    }
    bias_filler {
      type: "constant"
      value: 0
    }
  }
}
layer {
  name: "slice-ip_240-0"
  type: "InnerProduct"
  bottom: "data-240"
  top: "slice-ip_240-0"
  param {
    lr_mult: 1
    decay_mult: 1
  }
  param {
    lr_mult: 2
    decay_mult: 0
  }
  inner_product_param {
    num_output: 6
    weight_filler {
      type: "xavier"
      std:0.01
    }
    bias_filler {
      type: "constant"
      value: 0
    }
  }
}
layer {
  name: "slice-ip_241-0"
  type: "InnerProduct"
  bottom: "data-241"
  top: "slice-ip_241-0"
  param {
    lr_mult: 1
    decay_mult: 1
  }
  param {
    lr_mult: 2
    decay_mult: 0
  }
  inner_product_param {
    num_output: 6
    weight_filler {
      type: "xavier"
      std:0.01
    }
    bias_filler {
      type: "constant"
      value: 0
    }
  }
}
layer {
  name: "slice-ip_242-0"
  type: "InnerProduct"
  bottom: "data-242"
  top: "slice-ip_242-0"
  param {
    lr_mult: 1
    decay_mult: 1
  }
  param {
    lr_mult: 2
    decay_mult: 0
  }
  inner_product_param {
    num_output: 6
    weight_filler {
      type: "xavier"
      std:0.01
    }
    bias_filler {
      type: "constant"
      value: 0
    }
  }
}
layer {
  name: "slice-ip_243-0"
  type: "InnerProduct"
  bottom: "data-243"
  top: "slice-ip_243-0"
  param {
    lr_mult: 1
    decay_mult: 1
  }
  param {
    lr_mult: 2
    decay_mult: 0
  }
  inner_product_param {
    num_output: 6
    weight_filler {
      type: "xavier"
      std:0.01
    }
    bias_filler {
      type: "constant"
      value: 0
    }
  }
}
layer {
  name: "slice-ip_244-0"
  type: "InnerProduct"
  bottom: "data-244"
  top: "slice-ip_244-0"
  param {
    lr_mult: 1
    decay_mult: 1
  }
  param {
    lr_mult: 2
    decay_mult: 0
  }
  inner_product_param {
    num_output: 6
    weight_filler {
      type: "xavier"
      std:0.01
    }
    bias_filler {
      type: "constant"
      value: 0
    }
  }
}
layer {
  name: "slice-ip_245-0"
  type: "InnerProduct"
  bottom: "data-245"
  top: "slice-ip_245-0"
  param {
    lr_mult: 1
    decay_mult: 1
  }
  param {
    lr_mult: 2
    decay_mult: 0
  }
  inner_product_param {
    num_output: 6
    weight_filler {
      type: "xavier"
      std:0.01
    }
    bias_filler {
      type: "constant"
      value: 0
    }
  }
}
layer {
  name: "slice-ip_246-0"
  type: "InnerProduct"
  bottom: "data-246"
  top: "slice-ip_246-0"
  param {
    lr_mult: 1
    decay_mult: 1
  }
  param {
    lr_mult: 2
    decay_mult: 0
  }
  inner_product_param {
    num_output: 6
    weight_filler {
      type: "xavier"
      std:0.01
    }
    bias_filler {
      type: "constant"
      value: 0
    }
  }
}
layer {
  name: "slice-ip_247-0"
  type: "InnerProduct"
  bottom: "data-247"
  top: "slice-ip_247-0"
  param {
    lr_mult: 1
    decay_mult: 1
  }
  param {
    lr_mult: 2
    decay_mult: 0
  }
  inner_product_param {
    num_output: 6
    weight_filler {
      type: "xavier"
      std:0.01
    }
    bias_filler {
      type: "constant"
      value: 0
    }
  }
}
layer {
  name: "slice-ip_248-0"
  type: "InnerProduct"
  bottom: "data-248"
  top: "slice-ip_248-0"
  param {
    lr_mult: 1
    decay_mult: 1
  }
  param {
    lr_mult: 2
    decay_mult: 0
  }
  inner_product_param {
    num_output: 6
    weight_filler {
      type: "xavier"
      std:0.01
    }
    bias_filler {
      type: "constant"
      value: 0
    }
  }
}
layer {
  name: "slice-ip_249-0"
  type: "InnerProduct"
  bottom: "data-249"
  top: "slice-ip_249-0"
  param {
    lr_mult: 1
    decay_mult: 1
  }
  param {
    lr_mult: 2
    decay_mult: 0
  }
  inner_product_param {
    num_output: 6
    weight_filler {
      type: "xavier"
      std:0.01
    }
    bias_filler {
      type: "constant"
      value: 0
    }
  }
}
layer {
  name: "slice-ip_250-0"
  type: "InnerProduct"
  bottom: "data-250"
  top: "slice-ip_250-0"
  param {
    lr_mult: 1
    decay_mult: 1
  }
  param {
    lr_mult: 2
    decay_mult: 0
  }
  inner_product_param {
    num_output: 6
    weight_filler {
      type: "xavier"
      std:0.01
    }
    bias_filler {
      type: "constant"
      value: 0
    }
  }
}
layer {
  name: "slice-ip_251-0"
  type: "InnerProduct"
  bottom: "data-251"
  top: "slice-ip_251-0"
  param {
    lr_mult: 1
    decay_mult: 1
  }
  param {
    lr_mult: 2
    decay_mult: 0
  }
  inner_product_param {
    num_output: 6
    weight_filler {
      type: "xavier"
      std:0.01
    }
    bias_filler {
      type: "constant"
      value: 0
    }
  }
}
layer {
  name: "slice-ip_252-0"
  type: "InnerProduct"
  bottom: "data-252"
  top: "slice-ip_252-0"
  param {
    lr_mult: 1
    decay_mult: 1
  }
  param {
    lr_mult: 2
    decay_mult: 0
  }
  inner_product_param {
    num_output: 6
    weight_filler {
      type: "xavier"
      std:0.01
    }
    bias_filler {
      type: "constant"
      value: 0
    }
  }
}
layer {
  name: "slice-ip_253-0"
  type: "InnerProduct"
  bottom: "data-253"
  top: "slice-ip_253-0"
  param {
    lr_mult: 1
    decay_mult: 1
  }
  param {
    lr_mult: 2
    decay_mult: 0
  }
  inner_product_param {
    num_output: 6
    weight_filler {
      type: "xavier"
      std:0.01
    }
    bias_filler {
      type: "constant"
      value: 0
    }
  }
}
layer {
  name: "slice-ip_254-0"
  type: "InnerProduct"
  bottom: "data-254"
  top: "slice-ip_254-0"
  param {
    lr_mult: 1
    decay_mult: 1
  }
  param {
    lr_mult: 2
    decay_mult: 0
  }
  inner_product_param {
    num_output: 6
    weight_filler {
      type: "xavier"
      std:0.01
    }
    bias_filler {
      type: "constant"
      value: 0
    }
  }
}
layer {
  name: "slice-ip_255-0"
  type: "InnerProduct"
  bottom: "data-255"
  top: "slice-ip_255-0"
  param {
    lr_mult: 1
    decay_mult: 1
  }
  param {
    lr_mult: 2
    decay_mult: 0
  }
  inner_product_param {
    num_output: 6
    weight_filler {
      type: "xavier"
      std:0.01
    }
    bias_filler {
      type: "constant"
      value: 0
    }
  }
}
layer {
  name: "slice-ip_256-0"
  type: "InnerProduct"
  bottom: "data-256"
  top: "slice-ip_256-0"
  param {
    lr_mult: 1
    decay_mult: 1
  }
  param {
    lr_mult: 2
    decay_mult: 0
  }
  inner_product_param {
    num_output: 6
    weight_filler {
      type: "xavier"
      std:0.01
    }
    bias_filler {
      type: "constant"
      value: 0
    }
  }
}
layer {
  name: "slice-ip_257-0"
  type: "InnerProduct"
  bottom: "data-257"
  top: "slice-ip_257-0"
  param {
    lr_mult: 1
    decay_mult: 1
  }
  param {
    lr_mult: 2
    decay_mult: 0
  }
  inner_product_param {
    num_output: 6
    weight_filler {
      type: "xavier"
      std:0.01
    }
    bias_filler {
      type: "constant"
      value: 0
    }
  }
}
layer {
  name: "slice-ip_258-0"
  type: "InnerProduct"
  bottom: "data-258"
  top: "slice-ip_258-0"
  param {
    lr_mult: 1
    decay_mult: 1
  }
  param {
    lr_mult: 2
    decay_mult: 0
  }
  inner_product_param {
    num_output: 6
    weight_filler {
      type: "xavier"
      std:0.01
    }
    bias_filler {
      type: "constant"
      value: 0
    }
  }
}
layer {
  name: "slice-ip_259-0"
  type: "InnerProduct"
  bottom: "data-259"
  top: "slice-ip_259-0"
  param {
    lr_mult: 1
    decay_mult: 1
  }
  param {
    lr_mult: 2
    decay_mult: 0
  }
  inner_product_param {
    num_output: 6
    weight_filler {
      type: "xavier"
      std:0.01
    }
    bias_filler {
      type: "constant"
      value: 0
    }
  }
}
layer {
  name: "slice-ip_260-0"
  type: "InnerProduct"
  bottom: "data-260"
  top: "slice-ip_260-0"
  param {
    lr_mult: 1
    decay_mult: 1
  }
  param {
    lr_mult: 2
    decay_mult: 0
  }
  inner_product_param {
    num_output: 6
    weight_filler {
      type: "xavier"
      std:0.01
    }
    bias_filler {
      type: "constant"
      value: 0
    }
  }
}
layer {
  name: "slice-ip_261-0"
  type: "InnerProduct"
  bottom: "data-261"
  top: "slice-ip_261-0"
  param {
    lr_mult: 1
    decay_mult: 1
  }
  param {
    lr_mult: 2
    decay_mult: 0
  }
  inner_product_param {
    num_output: 6
    weight_filler {
      type: "xavier"
      std:0.01
    }
    bias_filler {
      type: "constant"
      value: 0
    }
  }
}
layer {
  name: "slice-ip_262-0"
  type: "InnerProduct"
  bottom: "data-262"
  top: "slice-ip_262-0"
  param {
    lr_mult: 1
    decay_mult: 1
  }
  param {
    lr_mult: 2
    decay_mult: 0
  }
  inner_product_param {
    num_output: 6
    weight_filler {
      type: "xavier"
      std:0.01
    }
    bias_filler {
      type: "constant"
      value: 0
    }
  }
}
layer {
  name: "slice-ip_263-0"
  type: "InnerProduct"
  bottom: "data-263"
  top: "slice-ip_263-0"
  param {
    lr_mult: 1
    decay_mult: 1
  }
  param {
    lr_mult: 2
    decay_mult: 0
  }
  inner_product_param {
    num_output: 6
    weight_filler {
      type: "xavier"
      std:0.01
    }
    bias_filler {
      type: "constant"
      value: 0
    }
  }
}
layer {
  name: "slice-ip_264-0"
  type: "InnerProduct"
  bottom: "data-264"
  top: "slice-ip_264-0"
  param {
    lr_mult: 1
    decay_mult: 1
  }
  param {
    lr_mult: 2
    decay_mult: 0
  }
  inner_product_param {
    num_output: 6
    weight_filler {
      type: "xavier"
      std:0.01
    }
    bias_filler {
      type: "constant"
      value: 0
    }
  }
}
layer {
  name: "slice-ip_265-0"
  type: "InnerProduct"
  bottom: "data-265"
  top: "slice-ip_265-0"
  param {
    lr_mult: 1
    decay_mult: 1
  }
  param {
    lr_mult: 2
    decay_mult: 0
  }
  inner_product_param {
    num_output: 6
    weight_filler {
      type: "xavier"
      std:0.01
    }
    bias_filler {
      type: "constant"
      value: 0
    }
  }
}
layer {
  name: "slice-ip_266-0"
  type: "InnerProduct"
  bottom: "data-266"
  top: "slice-ip_266-0"
  param {
    lr_mult: 1
    decay_mult: 1
  }
  param {
    lr_mult: 2
    decay_mult: 0
  }
  inner_product_param {
    num_output: 6
    weight_filler {
      type: "xavier"
      std:0.01
    }
    bias_filler {
      type: "constant"
      value: 0
    }
  }
}
layer {
  name: "slice-ip_267-0"
  type: "InnerProduct"
  bottom: "data-267"
  top: "slice-ip_267-0"
  param {
    lr_mult: 1
    decay_mult: 1
  }
  param {
    lr_mult: 2
    decay_mult: 0
  }
  inner_product_param {
    num_output: 6
    weight_filler {
      type: "xavier"
      std:0.01
    }
    bias_filler {
      type: "constant"
      value: 0
    }
  }
}
layer {
  name: "slice-ip_268-0"
  type: "InnerProduct"
  bottom: "data-268"
  top: "slice-ip_268-0"
  param {
    lr_mult: 1
    decay_mult: 1
  }
  param {
    lr_mult: 2
    decay_mult: 0
  }
  inner_product_param {
    num_output: 6
    weight_filler {
      type: "xavier"
      std:0.01
    }
    bias_filler {
      type: "constant"
      value: 0
    }
  }
}
layer {
  name: "slice-ip_269-0"
  type: "InnerProduct"
  bottom: "data-269"
  top: "slice-ip_269-0"
  param {
    lr_mult: 1
    decay_mult: 1
  }
  param {
    lr_mult: 2
    decay_mult: 0
  }
  inner_product_param {
    num_output: 6
    weight_filler {
      type: "xavier"
      std:0.01
    }
    bias_filler {
      type: "constant"
      value: 0
    }
  }
}
layer {
  name: "slice-ip_270-0"
  type: "InnerProduct"
  bottom: "data-270"
  top: "slice-ip_270-0"
  param {
    lr_mult: 1
    decay_mult: 1
  }
  param {
    lr_mult: 2
    decay_mult: 0
  }
  inner_product_param {
    num_output: 6
    weight_filler {
      type: "xavier"
      std:0.01
    }
    bias_filler {
      type: "constant"
      value: 0
    }
  }
}
layer {
  name: "slice-ip_271-0"
  type: "InnerProduct"
  bottom: "data-271"
  top: "slice-ip_271-0"
  param {
    lr_mult: 1
    decay_mult: 1
  }
  param {
    lr_mult: 2
    decay_mult: 0
  }
  inner_product_param {
    num_output: 6
    weight_filler {
      type: "xavier"
      std:0.01
    }
    bias_filler {
      type: "constant"
      value: 0
    }
  }
}
layer {
  name: "slice-ip_272-0"
  type: "InnerProduct"
  bottom: "data-272"
  top: "slice-ip_272-0"
  param {
    lr_mult: 1
    decay_mult: 1
  }
  param {
    lr_mult: 2
    decay_mult: 0
  }
  inner_product_param {
    num_output: 6
    weight_filler {
      type: "xavier"
      std:0.01
    }
    bias_filler {
      type: "constant"
      value: 0
    }
  }
}
layer {
  name: "slice-ip_273-0"
  type: "InnerProduct"
  bottom: "data-273"
  top: "slice-ip_273-0"
  param {
    lr_mult: 1
    decay_mult: 1
  }
  param {
    lr_mult: 2
    decay_mult: 0
  }
  inner_product_param {
    num_output: 6
    weight_filler {
      type: "xavier"
      std:0.01
    }
    bias_filler {
      type: "constant"
      value: 0
    }
  }
}
layer {
  name: "slice-ip_274-0"
  type: "InnerProduct"
  bottom: "data-274"
  top: "slice-ip_274-0"
  param {
    lr_mult: 1
    decay_mult: 1
  }
  param {
    lr_mult: 2
    decay_mult: 0
  }
  inner_product_param {
    num_output: 6
    weight_filler {
      type: "xavier"
      std:0.01
    }
    bias_filler {
      type: "constant"
      value: 0
    }
  }
}
layer {
  name: "slice-ip_275-0"
  type: "InnerProduct"
  bottom: "data-275"
  top: "slice-ip_275-0"
  param {
    lr_mult: 1
    decay_mult: 1
  }
  param {
    lr_mult: 2
    decay_mult: 0
  }
  inner_product_param {
    num_output: 6
    weight_filler {
      type: "xavier"
      std:0.01
    }
    bias_filler {
      type: "constant"
      value: 0
    }
  }
}
layer {
  name: "slice-ip_276-0"
  type: "InnerProduct"
  bottom: "data-276"
  top: "slice-ip_276-0"
  param {
    lr_mult: 1
    decay_mult: 1
  }
  param {
    lr_mult: 2
    decay_mult: 0
  }
  inner_product_param {
    num_output: 6
    weight_filler {
      type: "xavier"
      std:0.01
    }
    bias_filler {
      type: "constant"
      value: 0
    }
  }
}
layer {
  name: "slice-ip_277-0"
  type: "InnerProduct"
  bottom: "data-277"
  top: "slice-ip_277-0"
  param {
    lr_mult: 1
    decay_mult: 1
  }
  param {
    lr_mult: 2
    decay_mult: 0
  }
  inner_product_param {
    num_output: 6
    weight_filler {
      type: "xavier"
      std:0.01
    }
    bias_filler {
      type: "constant"
      value: 0
    }
  }
}
layer {
  name: "slice-ip_278-0"
  type: "InnerProduct"
  bottom: "data-278"
  top: "slice-ip_278-0"
  param {
    lr_mult: 1
    decay_mult: 1
  }
  param {
    lr_mult: 2
    decay_mult: 0
  }
  inner_product_param {
    num_output: 6
    weight_filler {
      type: "xavier"
      std:0.01
    }
    bias_filler {
      type: "constant"
      value: 0
    }
  }
}
layer {
  name: "slice-ip_279-0"
  type: "InnerProduct"
  bottom: "data-279"
  top: "slice-ip_279-0"
  param {
    lr_mult: 1
    decay_mult: 1
  }
  param {
    lr_mult: 2
    decay_mult: 0
  }
  inner_product_param {
    num_output: 6
    weight_filler {
      type: "xavier"
      std:0.01
    }
    bias_filler {
      type: "constant"
      value: 0
    }
  }
}
layer {
  name: "slice-ip_280-0"
  type: "InnerProduct"
  bottom: "data-280"
  top: "slice-ip_280-0"
  param {
    lr_mult: 1
    decay_mult: 1
  }
  param {
    lr_mult: 2
    decay_mult: 0
  }
  inner_product_param {
    num_output: 6
    weight_filler {
      type: "xavier"
      std:0.01
    }
    bias_filler {
      type: "constant"
      value: 0
    }
  }
}
layer {
  name: "slice-ip_281-0"
  type: "InnerProduct"
  bottom: "data-281"
  top: "slice-ip_281-0"
  param {
    lr_mult: 1
    decay_mult: 1
  }
  param {
    lr_mult: 2
    decay_mult: 0
  }
  inner_product_param {
    num_output: 6
    weight_filler {
      type: "xavier"
      std:0.01
    }
    bias_filler {
      type: "constant"
      value: 0
    }
  }
}
layer {
  name: "slice-ip_282-0"
  type: "InnerProduct"
  bottom: "data-282"
  top: "slice-ip_282-0"
  param {
    lr_mult: 1
    decay_mult: 1
  }
  param {
    lr_mult: 2
    decay_mult: 0
  }
  inner_product_param {
    num_output: 6
    weight_filler {
      type: "xavier"
      std:0.01
    }
    bias_filler {
      type: "constant"
      value: 0
    }
  }
}
layer {
  name: "slice-ip_283-0"
  type: "InnerProduct"
  bottom: "data-283"
  top: "slice-ip_283-0"
  param {
    lr_mult: 1
    decay_mult: 1
  }
  param {
    lr_mult: 2
    decay_mult: 0
  }
  inner_product_param {
    num_output: 6
    weight_filler {
      type: "xavier"
      std:0.01
    }
    bias_filler {
      type: "constant"
      value: 0
    }
  }
}
layer {
  name: "slice-ip_284-0"
  type: "InnerProduct"
  bottom: "data-284"
  top: "slice-ip_284-0"
  param {
    lr_mult: 1
    decay_mult: 1
  }
  param {
    lr_mult: 2
    decay_mult: 0
  }
  inner_product_param {
    num_output: 6
    weight_filler {
      type: "xavier"
      std:0.01
    }
    bias_filler {
      type: "constant"
      value: 0
    }
  }
}
layer {
  name: "slice-ip_285-0"
  type: "InnerProduct"
  bottom: "data-285"
  top: "slice-ip_285-0"
  param {
    lr_mult: 1
    decay_mult: 1
  }
  param {
    lr_mult: 2
    decay_mult: 0
  }
  inner_product_param {
    num_output: 6
    weight_filler {
      type: "xavier"
      std:0.01
    }
    bias_filler {
      type: "constant"
      value: 0
    }
  }
}
layer {
  name: "slice-ip_286-0"
  type: "InnerProduct"
  bottom: "data-286"
  top: "slice-ip_286-0"
  param {
    lr_mult: 1
    decay_mult: 1
  }
  param {
    lr_mult: 2
    decay_mult: 0
  }
  inner_product_param {
    num_output: 6
    weight_filler {
      type: "xavier"
      std:0.01
    }
    bias_filler {
      type: "constant"
      value: 0
    }
  }
}
layer {
  name: "slice-ip_287-0"
  type: "InnerProduct"
  bottom: "data-287"
  top: "slice-ip_287-0"
  param {
    lr_mult: 1
    decay_mult: 1
  }
  param {
    lr_mult: 2
    decay_mult: 0
  }
  inner_product_param {
    num_output: 6
    weight_filler {
      type: "xavier"
      std:0.01
    }
    bias_filler {
      type: "constant"
      value: 0
    }
  }
}
layer {
  name: "slice-ip_288-0"
  type: "InnerProduct"
  bottom: "data-288"
  top: "slice-ip_288-0"
  param {
    lr_mult: 1
    decay_mult: 1
  }
  param {
    lr_mult: 2
    decay_mult: 0
  }
  inner_product_param {
    num_output: 6
    weight_filler {
      type: "xavier"
      std:0.01
    }
    bias_filler {
      type: "constant"
      value: 0
    }
  }
}
layer {
  name: "slice-ip_289-0"
  type: "InnerProduct"
  bottom: "data-289"
  top: "slice-ip_289-0"
  param {
    lr_mult: 1
    decay_mult: 1
  }
  param {
    lr_mult: 2
    decay_mult: 0
  }
  inner_product_param {
    num_output: 6
    weight_filler {
      type: "xavier"
      std:0.01
    }
    bias_filler {
      type: "constant"
      value: 0
    }
  }
}
layer {
  name: "slice-ip_290-0"
  type: "InnerProduct"
  bottom: "data-290"
  top: "slice-ip_290-0"
  param {
    lr_mult: 1
    decay_mult: 1
  }
  param {
    lr_mult: 2
    decay_mult: 0
  }
  inner_product_param {
    num_output: 6
    weight_filler {
      type: "xavier"
      std:0.01
    }
    bias_filler {
      type: "constant"
      value: 0
    }
  }
}
layer {
  name: "slice-ip_291-0"
  type: "InnerProduct"
  bottom: "data-291"
  top: "slice-ip_291-0"
  param {
    lr_mult: 1
    decay_mult: 1
  }
  param {
    lr_mult: 2
    decay_mult: 0
  }
  inner_product_param {
    num_output: 6
    weight_filler {
      type: "xavier"
      std:0.01
    }
    bias_filler {
      type: "constant"
      value: 0
    }
  }
}
layer {
  name: "slice-ip_292-0"
  type: "InnerProduct"
  bottom: "data-292"
  top: "slice-ip_292-0"
  param {
    lr_mult: 1
    decay_mult: 1
  }
  param {
    lr_mult: 2
    decay_mult: 0
  }
  inner_product_param {
    num_output: 6
    weight_filler {
      type: "xavier"
      std:0.01
    }
    bias_filler {
      type: "constant"
      value: 0
    }
  }
}
layer {
  name: "slice-ip_293-0"
  type: "InnerProduct"
  bottom: "data-293"
…
    }
  }
}
layer {
  name: "help-out-932"
  type: "InnerProduct"
  bottom: "help-1-sigmoid-932"
  top: "help-out-932"
  param {
    lr_mult: 1
    decay_mult: 1
  }
  param {
    lr_mult: 2
    decay_mult: 0
  }
  inner_product_param {
    num_output: 51
    weight_filler {
      type: "xavier"
      
    }
    bias_filler {
      type: "constant"
      value: 0
    }
  }
}
layer {
  name: "help-out-933"
  type: "InnerProduct"
  bottom: "help-1-sigmoid-933"
  top: "help-out-933"
  param {
    lr_mult: 1
    decay_mult: 1
  }
  param {
    lr_mult: 2
    decay_mult: 0
  }
  inner_product_param {
    num_output: 51
    weight_filler {
      type: "xavier"
      
    }
    bias_filler {
      type: "constant"
      value: 0
    }
  }
}
layer {
  name: "help-out-934"
  type: "InnerProduct"
  bottom: "help-1-sigmoid-934"
  top: "help-out-934"
  param {
    lr_mult: 1
    decay_mult: 1
  }
  param {
    lr_mult: 2
    decay_mult: 0
  }
  inner_product_param {
    num_output: 51
    weight_filler {
      type: "xavier"
      
    }
    bias_filler {
      type: "constant"
      value: 0
    }
  }
}
layer {
  name: "help-out-935"
  type: "InnerProduct"
  bottom: "help-1-sigmoid-935"
  top: "help-out-935"
  param {
    lr_mult: 1
    decay_mult: 1
  }
  param {
    lr_mult: 2
    decay_mult: 0
  }
  inner_product_param {
    num_output: 51
    weight_filler {
      type: "xavier"
      
    }
    bias_filler {
      type: "constant"
      value: 0
    }
  }
}
layer {
  name: "help-out-936"
  type: "InnerProduct"
  bottom: "help-1-sigmoid-936"
  top: "help-out-936"
  param {
    lr_mult: 1
    decay_mult: 1
  }
  param {
    lr_mult: 2
    decay_mult: 0
  }
  inner_product_param {
    num_output: 51
    weight_filler {
      type: "xavier"
      
    }
    bias_filler {
      type: "constant"
      value: 0
    }
  }
}
layer {
  name: "help-out-937"
  type: "InnerProduct"
  bottom: "help-1-sigmoid-937"
  top: "help-out-937"
  param {
    lr_mult: 1
    decay_mult: 1
  }
  param {
    lr_mult: 2
    decay_mult: 0
  }
  inner_product_param {
    num_output: 51
    weight_filler {
      type: "xavier"
      
    }
    bias_filler {
      type: "constant"
      value: 0
    }
  }
}
layer {
  name: "help-out-938"
  type: "InnerProduct"
  bottom: "help-1-sigmoid-938"
  top: "help-out-938"
  param {
    lr_mult: 1
    decay_mult: 1
  }
  param {
    lr_mult: 2
    decay_mult: 0
  }
  inner_product_param {
    num_output: 51
    weight_filler {
      type: "xavier"
      
    }
    bias_filler {
      type: "constant"
      value: 0
    }
  }
}
layer {
  name: "help-out-939"
  type: "InnerProduct"
  bottom: "help-1-sigmoid-939"
  top: "help-out-939"
  param {
    lr_mult: 1
    decay_mult: 1
  }
  param {
    lr_mult: 2
    decay_mult: 0
  }
  inner_product_param {
    num_output: 51
    weight_filler {
      type: "xavier"
      
    }
    bias_filler {
      type: "constant"
      value: 0
    }
  }
}
layer {
  name: "help-out-940"
  type: "InnerProduct"
  bottom: "help-1-sigmoid-940"
  top: "help-out-940"
  param {
    lr_mult: 1
    decay_mult: 1
  }
  param {
    lr_mult: 2
    decay_mult: 0
  }
  inner_product_param {
    num_output: 51
    weight_filler {
      type: "xavier"
      
    }
    bias_filler {
      type: "constant"
      value: 0
    }
  }
}
layer {
  name: "help-out-941"
  type: "InnerProduct"
  bottom: "help-1-sigmoid-941"
  top: "help-out-941"
  param {
    lr_mult: 1
    decay_mult: 1
  }
  param {
    lr_mult: 2
    decay_mult: 0
  }
  inner_product_param {
    num_output: 51
    weight_filler {
      type: "xavier"
      
    }
    bias_filler {
      type: "constant"
      value: 0
    }
  }
}
layer {
  name: "help-out-942"
  type: "InnerProduct"
  bottom: "help-1-sigmoid-942"
  top: "help-out-942"
  param {
    lr_mult: 1
    decay_mult: 1
  }
  param {
    lr_mult: 2
    decay_mult: 0
  }
  inner_product_param {
    num_output: 51
    weight_filler {
      type: "xavier"
      
    }
    bias_filler {
      type: "constant"
      value: 0
    }
  }
}
layer {
  name: "help-out-943"
  type: "InnerProduct"
  bottom: "help-1-sigmoid-943"
  top: "help-out-943"
  param {
    lr_mult: 1
    decay_mult: 1
  }
  param {
    lr_mult: 2
    decay_mult: 0
  }
  inner_product_param {
    num_output: 51
    weight_filler {
      type: "xavier"
      
    }
    bias_filler {
      type: "constant"
      value: 0
    }
  }
}
layer {
  name: "help-out-944"
  type: "InnerProduct"
  bottom: "help-1-sigmoid-944"
  top: "help-out-944"
  param {
    lr_mult: 1
    decay_mult: 1
  }
  param {
    lr_mult: 2
    decay_mult: 0
  }
  inner_product_param {
    num_output: 51
    weight_filler {
      type: "xavier"
      
    }
    bias_filler {
      type: "constant"
      value: 0
    }
  }
}
layer {
  name: "help-out-945"
  type: "InnerProduct"
  bottom: "help-1-sigmoid-945"
  top: "help-out-945"
  param {
    lr_mult: 1
    decay_mult: 1
  }
  param {
    lr_mult: 2
    decay_mult: 0
  }
  inner_product_param {
    num_output: 51
    weight_filler {
      type: "xavier"
      
    }
    bias_filler {
      type: "constant"
      value: 0
    }
  }
}
layer {
  name: "help-out-946"
  type: "InnerProduct"
  bottom: "help-1-sigmoid-946"
  top: "help-out-946"
  param {
    lr_mult: 1
    decay_mult: 1
  }
  param {
    lr_mult: 2
    decay_mult: 0
  }
  inner_product_param {
    num_output: 51
    weight_filler {
      type: "xavier"
      
    }
    bias_filler {
      type: "constant"
      value: 0
    }
  }
}
layer {
  name: "help-out-947"
  type: "InnerProduct"
  bottom: "help-1-sigmoid-947"
  top: "help-out-947"
  param {
    lr_mult: 1
    decay_mult: 1
  }
  param {
    lr_mult: 2
    decay_mult: 0
  }
  inner_product_param {
    num_output: 51
    weight_filler {
      type: "xavier"
      
    }
    bias_filler {
      type: "constant"
      value: 0
    }
  }
}
layer {
  name: "help-out-948"
  type: "InnerProduct"
  bottom: "help-1-sigmoid-948"
  top: "help-out-948"
  param {
    lr_mult: 1
    decay_mult: 1
  }
  param {
    lr_mult: 2
    decay_mult: 0
  }
  inner_product_param {
    num_output: 51
    weight_filler {
      type: "xavier"
      
    }
    bias_filler {
      type: "constant"
      value: 0
    }
  }
}
layer {
  name: "help-out-949"
  type: "InnerProduct"
  bottom: "help-1-sigmoid-949"
  top: "help-out-949"
  param {
    lr_mult: 1
    decay_mult: 1
  }
  param {
    lr_mult: 2
    decay_mult: 0
  }
  inner_product_param {
    num_output: 51
    weight_filler {
      type: "xavier"
      
    }
    bias_filler {
      type: "constant"
      value: 0
    }
  }
}
layer {
  name: "help-out-950"
  type: "InnerProduct"
  bottom: "help-1-sigmoid-950"
  top: "help-out-950"
  param {
    lr_mult: 1
    decay_mult: 1
  }
  param {
    lr_mult: 2
    decay_mult: 0
  }
  inner_product_param {
    num_output: 51
    weight_filler {
      type: "xavier"
      
    }
    bias_filler {
      type: "constant"
      value: 0
    }
  }
}
layer {
  name: "help-out-951"
  type: "InnerProduct"
  bottom: "help-1-sigmoid-951"
  top: "help-out-951"
  param {
    lr_mult: 1
    decay_mult: 1
  }
  param {
    lr_mult: 2
    decay_mult: 0
  }
  inner_product_param {
    num_output: 51
    weight_filler {
      type: "xavier"
      
    }
    bias_filler {
      type: "constant"
      value: 0
    }
  }
}
layer {
  name: "help-out-952"
  type: "InnerProduct"
  bottom: "help-1-sigmoid-952"
  top: "help-out-952"
  param {
    lr_mult: 1
    decay_mult: 1
  }
  param {
    lr_mult: 2
    decay_mult: 0
  }
  inner_product_param {
    num_output: 51
    weight_filler {
      type: "xavier"
      
    }
    bias_filler {
      type: "constant"
      value: 0
    }
  }
}
layer {
  name: "help-out-953"
  type: "InnerProduct"
  bottom: "help-1-sigmoid-953"
  top: "help-out-953"
  param {
    lr_mult: 1
    decay_mult: 1
  }
  param {
    lr_mult: 2
    decay_mult: 0
  }
  inner_product_param {
    num_output: 51
    weight_filler {
      type: "xavier"
      
    }
    bias_filler {
      type: "constant"
      value: 0
    }
  }
}
layer {
  name: "help-out-954"
  type: "InnerProduct"
  bottom: "help-1-sigmoid-954"
  top: "help-out-954"
  param {
    lr_mult: 1
    decay_mult: 1
  }
  param {
    lr_mult: 2
    decay_mult: 0
  }
  inner_product_param {
    num_output: 51
    weight_filler {
      type: "xavier"
      
    }
    bias_filler {
      type: "constant"
      value: 0
    }
  }
}
layer {
  name: "help-out-955"
  type: "InnerProduct"
  bottom: "help-1-sigmoid-955"
  top: "help-out-955"
  param {
    lr_mult: 1
    decay_mult: 1
  }
  param {
    lr_mult: 2
    decay_mult: 0
  }
  inner_product_param {
    num_output: 51
    weight_filler {
      type: "xavier"
      
    }
    bias_filler {
      type: "constant"
      value: 0
    }
  }
}
layer {
  name: "help-out-956"
  type: "InnerProduct"
  bottom: "help-1-sigmoid-956"
  top: "help-out-956"
  param {
    lr_mult: 1
    decay_mult: 1
  }
  param {
    lr_mult: 2
    decay_mult: 0
  }
  inner_product_param {
    num_output: 51
    weight_filler {
      type: "xavier"
      
    }
    bias_filler {
      type: "constant"
      value: 0
    }
  }
}
layer {
  name: "help-out-957"
  type: "InnerProduct"
  bottom: "help-1-sigmoid-957"
  top: "help-out-957"
  param {
    lr_mult: 1
    decay_mult: 1
  }
  param {
    lr_mult: 2
    decay_mult: 0
  }
  inner_product_param {
    num_output: 51
    weight_filler {
      type: "xavier"
      
    }
    bias_filler {
      type: "constant"
      value: 0
    }
  }
}
layer {
  name: "help-out-958"
  type: "InnerProduct"
  bottom: "help-1-sigmoid-958"
  top: "help-out-958"
  param {
    lr_mult: 1
    decay_mult: 1
  }
  param {
    lr_mult: 2
    decay_mult: 0
  }
  inner_product_param {
    num_output: 51
    weight_filler {
      type: "xavier"
      
    }
    bias_filler {
      type: "constant"
      value: 0
    }
  }
}
layer {
  name: "help-out-959"
  type: "InnerProduct"
  bottom: "help-1-sigmoid-959"
  top: "help-out-959"
  param {
    lr_mult: 1
    decay_mult: 1
  }
  param {
    lr_mult: 2
    decay_mult: 0
  }
  inner_product_param {
    num_output: 51
    weight_filler {
      type: "xavier"
      
    }
    bias_filler {
      type: "constant"
      value: 0
    }
  }
}
layer {
  name: "help-out-960"
  type: "InnerProduct"
  bottom: "help-1-sigmoid-960"
  top: "help-out-960"
  param {
    lr_mult: 1
    decay_mult: 1
  }
  param {
    lr_mult: 2
    decay_mult: 0
  }
  inner_product_param {
    num_output: 51
    weight_filler {
      type: "xavier"
      
    }
    bias_filler {
      type: "constant"
      value: 0
    }
  }
}
layer {
  name: "help-out-961"
  type: "InnerProduct"
  bottom: "help-1-sigmoid-961"
  top: "help-out-961"
  param {
    lr_mult: 1
    decay_mult: 1
  }
  param {
    lr_mult: 2
    decay_mult: 0
  }
  inner_product_param {
    num_output: 51
    weight_filler {
      type: "xavier"
      
    }
    bias_filler {
      type: "constant"
      value: 0
    }
  }
}
layer {
  name: "help-out-962"
  type: "InnerProduct"
  bottom: "help-1-sigmoid-962"
  top: "help-out-962"
  param {
    lr_mult: 1
    decay_mult: 1
  }
  param {
    lr_mult: 2
    decay_mult: 0
  }
  inner_product_param {
    num_output: 51
    weight_filler {
      type: "xavier"
      
    }
    bias_filler {
      type: "constant"
      value: 0
    }
  }
}
layer {
  name: "help-out-963"
  type: "InnerProduct"
  bottom: "help-1-sigmoid-963"
  top: "help-out-963"
  param {
    lr_mult: 1
    decay_mult: 1
  }
  param {
    lr_mult: 2
    decay_mult: 0
  }
  inner_product_param {
    num_output: 51
    weight_filler {
      type: "xavier"
      
    }
    bias_filler {
      type: "constant"
      value: 0
    }
  }
}
layer {
  name: "help-out-964"
  type: "InnerProduct"
  bottom: "help-1-sigmoid-964"
  top: "help-out-964"
  param {
    lr_mult: 1
    decay_mult: 1
  }
  param {
    lr_mult: 2
    decay_mult: 0
  }
  inner_product_param {
    num_output: 51
    weight_filler {
      type: "xavier"
      
    }
    bias_filler {
      type: "constant"
      value: 0
    }
  }
}
layer {
  name: "help-out-965"
  type: "InnerProduct"
  bottom: "help-1-sigmoid-965"
  top: "help-out-965"
  param {
    lr_mult: 1
    decay_mult: 1
  }
  param {
    lr_mult: 2
    decay_mult: 0
  }
  inner_product_param {
    num_output: 51
    weight_filler {
      type: "xavier"
      
    }
    bias_filler {
      type: "constant"
      value: 0
    }
  }
}
layer {
  name: "help-out-966"
  type: "InnerProduct"
  bottom: "help-1-sigmoid-966"
  top: "help-out-966"
  param {
    lr_mult: 1
    decay_mult: 1
  }
  param {
    lr_mult: 2
    decay_mult: 0
  }
  inner_product_param {
    num_output: 51
    weight_filler {
      type: "xavier"
      
    }
    bias_filler {
      type: "constant"
      value: 0
    }
  }
}
layer {
  name: "help-out-967"
  type: "InnerProduct"
  bottom: "help-1-sigmoid-967"
  top: "help-out-967"
  param {
    lr_mult: 1
    decay_mult: 1
  }
  param {
    lr_mult: 2
    decay_mult: 0
  }
  inner_product_param {
    num_output: 51
    weight_filler {
      type: "xavier"
      
    }
    bias_filler {
      type: "constant"
      value: 0
    }
  }
}
layer {
  name: "help-out-968"
  type: "InnerProduct"
  bottom: "help-1-sigmoid-968"
  top: "help-out-968"
  param {
    lr_mult: 1
    decay_mult: 1
  }
  param {
    lr_mult: 2
    decay_mult: 0
  }
  inner_product_param {
    num_output: 51
    weight_filler {
      type: "xavier"
      
    }
    bias_filler {
      type: "constant"
      value: 0
    }
  }
}
layer {
  name: "help-out-969"
  type: "InnerProduct"
  bottom: "help-1-sigmoid-969"
  top: "help-out-969"
  param {
    lr_mult: 1
    decay_mult: 1
  }
  param {
    lr_mult: 2
    decay_mult: 0
  }
  inner_product_param {
    num_output: 51
    weight_filler {
      type: "xavier"
      
    }
    bias_filler {
      type: "constant"
      value: 0
    }
  }
}
layer {
  name: "help-out-970"
  type: "InnerProduct"
  bottom: "help-1-sigmoid-970"
  top: "help-out-970"
  param {
    lr_mult: 1
    decay_mult: 1
  }
  param {
    lr_mult: 2
    decay_mult: 0
  }
  inner_product_param {
    num_output: 51
    weight_filler {
      type: "xavier"
      
    }
    bias_filler {
      type: "constant"
      value: 0
    }
  }
}
layer {
  name: "help-out-971"
  type: "InnerProduct"
  bottom: "help-1-sigmoid-971"
  top: "help-out-971"
  param {
    lr_mult: 1
    decay_mult: 1
  }
  param {
    lr_mult: 2
    decay_mult: 0
  }
  inner_product_param {
    num_output: 51
    weight_filler {
      type: "xavier"
      
    }
    bias_filler {
      type: "constant"
      value: 0
    }
  }
}
layer {
  name: "help-out-972"
  type: "InnerProduct"
  bottom: "help-1-sigmoid-972"
  top: "help-out-972"
  param {
    lr_mult: 1
    decay_mult: 1
  }
  param {
    lr_mult: 2
    decay_mult: 0
  }
  inner_product_param {
    num_output: 51
    weight_filler {
      type: "xavier"
      
    }
    bias_filler {
      type: "constant"
      value: 0
    }
  }
}
layer {
  name: "help-out-973"
  type: "InnerProduct"
  bottom: "help-1-sigmoid-973"
  top: "help-out-973"
  param {
    lr_mult: 1
    decay_mult: 1
  }
  param {
    lr_mult: 2
    decay_mult: 0
  }
  inner_product_param {
    num_output: 51
    weight_filler {
      type: "xavier"
      
    }
    bias_filler {
      type: "constant"
      value: 0
    }
  }
}
layer {
  name: "help-out-974"
  type: "InnerProduct"
  bottom: "help-1-sigmoid-974"
  top: "help-out-974"
  param {
    lr_mult: 1
    decay_mult: 1
  }
  param {
    lr_mult: 2
    decay_mult: 0
  }
  inner_product_param {
    num_output: 51
    weight_filler {
      type: "xavier"
      
    }
    bias_filler {
      type: "constant"
      value: 0
    }
  }
}
layer {
  name: "help-out-975"
  type: "InnerProduct"
  bottom: "help-1-sigmoid-975"
  top: "help-out-975"
  param {
    lr_mult: 1
    decay_mult: 1
  }
  param {
    lr_mult: 2
    decay_mult: 0
  }
  inner_product_param {
    num_output: 51
    weight_filler {
      type: "xavier"
      
    }
    bias_filler {
      type: "constant"
      value: 0
    }
  }
}
layer {
  name: "help-out-976"
  type: "InnerProduct"
  bottom: "help-1-sigmoid-976"
  top: "help-out-976"
  param {
    lr_mult: 1
    decay_mult: 1
  }
  param {
    lr_mult: 2
    decay_mult: 0
  }
  inner_product_param {
    num_output: 51
    weight_filler {
      type: "xavier"
      
    }
    bias_filler {
      type: "constant"
      value: 0
    }
  }
}
layer {
  name: "help-out-977"
  type: "InnerProduct"
  bottom: "help-1-sigmoid-977"
  top: "help-out-977"
  param {
    lr_mult: 1
    decay_mult: 1
  }
  param {
    lr_mult: 2
    decay_mult: 0
  }
  inner_product_param {
    num_output: 51
    weight_filler {
      type: "xavier"
      
    }
    bias_filler {
      type: "constant"
      value: 0
    }
  }
}
layer {
  name: "help-out-978"
  type: "InnerProduct"
  bottom: "help-1-sigmoid-978"
  top: "help-out-978"
  param {
    lr_mult: 1
    decay_mult: 1
  }
  param {
    lr_mult: 2
    decay_mult: 0
  }
  inner_product_param {
    num_output: 51
    weight_filler {
      type: "xavier"
      
    }
    bias_filler {
      type: "constant"
      value: 0
    }
  }
}
layer {
  name: "help-out-979"
  type: "InnerProduct"
  bottom: "help-1-sigmoid-979"
  top: "help-out-979"
  param {
    lr_mult: 1
    decay_mult: 1
  }
  param {
    lr_mult: 2
    decay_mult: 0
  }
  inner_product_param {
    num_output: 51
    weight_filler {
      type: "xavier"
      
    }
    bias_filler {
      type: "constant"
      value: 0
    }
  }
}
layer {
  name: "help-out-980"
  type: "InnerProduct"
  bottom: "help-1-sigmoid-980"
  top: "help-out-980"
  param {
    lr_mult: 1
    decay_mult: 1
  }
  param {
    lr_mult: 2
    decay_mult: 0
  }
  inner_product_param {
    num_output: 51
    weight_filler {
      type: "xavier"
      
    }
    bias_filler {
      type: "constant"
      value: 0
    }
  }
}
layer {
  name: "help-out-981"
  type: "InnerProduct"
  bottom: "help-1-sigmoid-981"
  top: "help-out-981"
  param {
    lr_mult: 1
    decay_mult: 1
  }
  param {
    lr_mult: 2
    decay_mult: 0
  }
  inner_product_param {
    num_output: 51
    weight_filler {
      type: "xavier"
      
    }
    bias_filler {
      type: "constant"
      value: 0
    }
  }
}
layer {
  name: "help-out-982"
  type: "InnerProduct"
  bottom: "help-1-sigmoid-982"
  top: "help-out-982"
  param {
    lr_mult: 1
    decay_mult: 1
  }
  param {
    lr_mult: 2
    decay_mult: 0
  }
  inner_product_param {
    num_output: 51
    weight_filler {
      type: "xavier"
      
    }
    bias_filler {
      type: "constant"
      value: 0
    }
  }
}
layer {
  name: "help-out-983"
  type: "InnerProduct"
  bottom: "help-1-sigmoid-983"
  top: "help-out-983"
  param {
    lr_mult: 1
    decay_mult: 1
  }
  param {
    lr_mult: 2
    decay_mult: 0
  }
  inner_product_param {
    num_output: 51
    weight_filler {
      type: "xavier"
      
    }
    bias_filler {
      type: "constant"
      value: 0
    }
  }
}
layer {
  name: "help-out-984"
  type: "InnerProduct"
  bottom: "help-1-sigmoid-984"
  top: "help-out-984"
  param {
    lr_mult: 1
    decay_mult: 1
  }
  param {
    lr_mult: 2
    decay_mult: 0
  }
  inner_product_param {
    num_output: 51
    weight_filler {
      type: "xavier"
      
    }
    bias_filler {
      type: "constant"
      value: 0
    }
  }
}
layer {
  name: "help-out-985"
  type: "InnerProduct"
  bottom: "help-1-sigmoid-985"
  top: "help-out-985"
  param {
    lr_mult: 1
    decay_mult: 1
  }
  param {
    lr_mult: 2
    decay_mult: 0
  }
  inner_product_param {
    num_output: 51
    weight_filler {
      type: "xavier"
      
    }
    bias_filler {
      type: "constant"
      value: 0
    }
  }
}
layer {
  name: "help-out-986"
  type: "InnerProduct"
  bottom: "help-1-sigmoid-986"
  top: "help-out-986"
  param {
    lr_mult: 1
    decay_mult: 1
  }
  param {
    lr_mult: 2
    decay_mult: 0
  }
  inner_product_param {
    num_output: 51
    weight_filler {
      type: "xavier"
      
    }
    bias_filler {
      type: "constant"
      value: 0
    }
  }
}
layer {
  name: "help-out-987"
  type: "InnerProduct"
  bottom: "help-1-sigmoid-987"
  top: "help-out-987"
  param {
    lr_mult: 1
    decay_mult: 1
  }
  param {
    lr_mult: 2
    decay_mult: 0
  }
  inner_product_param {
    num_output: 51
    weight_filler {
      type: "xavier"
      
    }
    bias_filler {
      type: "constant"
      value: 0
    }
  }
}
layer {
  name: "help-out-988"
  type: "InnerProduct"
  bottom: "help-1-sigmoid-988"
  top: "help-out-988"
  param {
    lr_mult: 1
    decay_mult: 1
  }
  param {
    lr_mult: 2
    decay_mult: 0
  }
  inner_product_param {
    num_output: 51
    weight_filler {
      type: "xavier"
      
    }
    bias_filler {
      type: "constant"
      value: 0
    }
  }
}
layer {
  name: "help-out-989"
  type: "InnerProduct"
  bottom: "help-1-sigmoid-989"
  top: "help-out-989"
  param {
    lr_mult: 1
    decay_mult: 1
  }
  param {
    lr_mult: 2
    decay_mult: 0
  }
  inner_product_param {
    num_output: 51
    weight_filler {
      type: "xavier"
      
    }
    bias_filler {
      type: "constant"
      value: 0
    }
  }
}
layer {
  name: "help-out-990"
  type: "InnerProduct"
  bottom: "help-1-sigmoid-990"
  top: "help-out-990"
  param {
    lr_mult: 1
    decay_mult: 1
  }
  param {
    lr_mult: 2
    decay_mult: 0
  }
  inner_product_param {
    num_output: 51
    weight_filler {
      type: "xavier"
      
    }
    bias_filler {
      type: "constant"
      value: 0
    }
  }
}
layer {
  name: "help-out-991"
  type: "InnerProduct"
  bottom: "help-1-sigmoid-991"
  top: "help-out-991"
  param {
    lr_mult: 1
    decay_mult: 1
  }
  param {
    lr_mult: 2
    decay_mult: 0
  }
  inner_product_param {
    num_output: 51
    weight_filler {
      type: "xavier"
      
    }
    bias_filler {
      type: "constant"
      value: 0
    }
  }
}
layer {
  name: "help-out-992"
  type: "InnerProduct"
  bottom: "help-1-sigmoid-992"
  top: "help-out-992"
  param {
    lr_mult: 1
    decay_mult: 1
  }
  param {
    lr_mult: 2
    decay_mult: 0
  }
  inner_product_param {
    num_output: 51
    weight_filler {
      type: "xavier"
      
    }
    bias_filler {
      type: "constant"
      value: 0
    }
  }
}
layer {
  name: "help-out-993"
  type: "InnerProduct"
  bottom: "help-1-sigmoid-993"
  top: "help-out-993"
  param {
    lr_mult: 1
    decay_mult: 1
  }
  param {
    lr_mult: 2
    decay_mult: 0
  }
  inner_product_param {
    num_output: 51
    weight_filler {
      type: "xavier"
      
    }
    bias_filler {
      type: "constant"
      value: 0
    }
  }
}
layer {
  name: "help-out-994"
  type: "InnerProduct"
  bottom: "help-1-sigmoid-994"
  top: "help-out-994"
  param {
    lr_mult: 1
    decay_mult: 1
  }
  param {
    lr_mult: 2
    decay_mult: 0
  }
  inner_product_param {
    num_output: 51
    weight_filler {
      type: "xavier"
      
    }
    bias_filler {
      type: "constant"
      value: 0
    }
  }
}
layer {
  name: "help-out-995"
  type: "InnerProduct"
  bottom: "help-1-sigmoid-995"
  top: "help-out-995"
  param {
    lr_mult: 1
    decay_mult: 1
  }
  param {
    lr_mult: 2
    decay_mult: 0
  }
  inner_product_param {
    num_output: 51
    weight_filler {
      type: "xavier"
      
    }
    bias_filler {
      type: "constant"
      value: 0
    }
  }
}
layer {
  name: "help-out-996"
  type: "InnerProduct"
  bottom: "help-1-sigmoid-996"
  top: "help-out-996"
  param {
    lr_mult: 1
    decay_mult: 1
  }
  param {
    lr_mult: 2
    decay_mult: 0
  }
  inner_product_param {
    num_output: 51
    weight_filler {
      type: "xavier"
      
    }
    bias_filler {
      type: "constant"
      value: 0
    }
  }
}
layer {
  name: "help-out-997"
  type: "InnerProduct"
  bottom: "help-1-sigmoid-997"
  top: "help-out-997"
  param {
    lr_mult: 1
    decay_mult: 1
  }
  param {
    lr_mult: 2
    decay_mult: 0
  }
  inner_product_param {
    num_output: 51
    weight_filler {
      type: "xavier"
      
    }
    bias_filler {
      type: "constant"
      value: 0
    }
  }
}
layer {
  name: "help-out-998"
  type: "InnerProduct"
  bottom: "help-1-sigmoid-998"
  top: "help-out-998"
  param {
    lr_mult: 1
    decay_mult: 1
  }
  param {
    lr_mult: 2
    decay_mult: 0
  }
  inner_product_param {
    num_output: 51
    weight_filler {
      type: "xavier"
      
    }
    bias_filler {
      type: "constant"
      value: 0
    }
  }
}
layer {
  name: "help-out-999"
  type: "InnerProduct"
  bottom: "help-1-sigmoid-999"
  top: "help-out-999"
  param {
    lr_mult: 1
    decay_mult: 1
  }
  param {
    lr_mult: 2
    decay_mult: 0
  }
  inner_product_param {
    num_output: 580
    weight_filler {
      type: "xavier"
      
    }
    bias_filler {
      type: "constant"
      value: 0
    }
  }
}
layer {
  name: "help-concat"
  type: "Concat"
    bottom: "help-out-0"
  bottom: "help-out-1"
  bottom: "help-out-2"
  bottom: "help-out-3"
  bottom: "help-out-4"
  bottom: "help-out-5"
  bottom: "help-out-6"
  bottom: "help-out-7"
  bottom: "help-out-8"
  bottom: "help-out-9"
  bottom: "help-out-10"
  bottom: "help-out-11"
  bottom: "help-out-12"
  bottom: "help-out-13"
  bottom: "help-out-14"
  bottom: "help-out-15"
  bottom: "help-out-16"
  bottom: "help-out-17"
  bottom: "help-out-18"
  bottom: "help-out-19"
  bottom: "help-out-20"
  bottom: "help-out-21"
  bottom: "help-out-22"
  bottom: "help-out-23"
  bottom: "help-out-24"
  bottom: "help-out-25"
  bottom: "help-out-26"
  bottom: "help-out-27"
  bottom: "help-out-28"
  bottom: "help-out-29"
  bottom: "help-out-30"
  bottom: "help-out-31"
  bottom: "help-out-32"
  bottom: "help-out-33"
  bottom: "help-out-34"
  bottom: "help-out-35"
  bottom: "help-out-36"
  bottom: "help-out-37"
  bottom: "help-out-38"
  bottom: "help-out-39"
  bottom: "help-out-40"
  bottom: "help-out-41"
  bottom: "help-out-42"
  bottom: "help-out-43"
  bottom: "help-out-44"
  bottom: "help-out-45"
  bottom: "help-out-46"
  bottom: "help-out-47"
  bottom: "help-out-48"
  bottom: "help-out-49"
  bottom: "help-out-50"
  bottom: "help-out-51"
  bottom: "help-out-52"
  bottom: "help-out-53"
  bottom: "help-out-54"
  bottom: "help-out-55"
  bottom: "help-out-56"
  bottom: "help-out-57"
  bottom: "help-out-58"
  bottom: "help-out-59"
  bottom: "help-out-60"
  bottom: "help-out-61"
  bottom: "help-out-62"
  bottom: "help-out-63"
  bottom: "help-out-64"
  bottom: "help-out-65"
  bottom: "help-out-66"
  bottom: "help-out-67"
  bottom: "help-out-68"
  bottom: "help-out-69"
  bottom: "help-out-70"
  bottom: "help-out-71"
  bottom: "help-out-72"
  bottom: "help-out-73"
  bottom: "help-out-74"
  bottom: "help-out-75"
  bottom: "help-out-76"
  bottom: "help-out-77"
  bottom: "help-out-78"
  bottom: "help-out-79"
  bottom: "help-out-80"
  bottom: "help-out-81"
  bottom: "help-out-82"
  bottom: "help-out-83"
  bottom: "help-out-84"
  bottom: "help-out-85"
  bottom: "help-out-86"
  bottom: "help-out-87"
  bottom: "help-out-88"
  bottom: "help-out-89"
  bottom: "help-out-90"
  bottom: "help-out-91"
  bottom: "help-out-92"
  bottom: "help-out-93"
  bottom: "help-out-94"
  bottom: "help-out-95"
  bottom: "help-out-96"
  bottom: "help-out-97"
  bottom: "help-out-98"
  bottom: "help-out-99"
  bottom: "help-out-100"
  bottom: "help-out-101"
  bottom: "help-out-102"
  bottom: "help-out-103"
  bottom: "help-out-104"
  bottom: "help-out-105"
  bottom: "help-out-106"
  bottom: "help-out-107"
  bottom: "help-out-108"
  bottom: "help-out-109"
  bottom: "help-out-110"
  bottom: "help-out-111"
  bottom: "help-out-112"
  bottom: "help-out-113"
  bottom: "help-out-114"
  bottom: "help-out-115"
  bottom: "help-out-116"
  bottom: "help-out-117"
  bottom: "help-out-118"
  bottom: "help-out-119"
  bottom: "help-out-120"
  bottom: "help-out-121"
  bottom: "help-out-122"
  bottom: "help-out-123"
  bottom: "help-out-124"
  bottom: "help-out-125"
  bottom: "help-out-126"
  bottom: "help-out-127"
  bottom: "help-out-128"
  bottom: "help-out-129"
  bottom: "help-out-130"
  bottom: "help-out-131"
  bottom: "help-out-132"
  bottom: "help-out-133"
  bottom: "help-out-134"
  bottom: "help-out-135"
  bottom: "help-out-136"
  bottom: "help-out-137"
  bottom: "help-out-138"
  bottom: "help-out-139"
  bottom: "help-out-140"
  bottom: "help-out-141"
  bottom: "help-out-142"
  bottom: "help-out-143"
  bottom: "help-out-144"
  bottom: "help-out-145"
  bottom: "help-out-146"
  bottom: "help-out-147"
  bottom: "help-out-148"
  bottom: "help-out-149"
  bottom: "help-out-150"
  bottom: "help-out-151"
  bottom: "help-out-152"
  bottom: "help-out-153"
  bottom: "help-out-154"
  bottom: "help-out-155"
  bottom: "help-out-156"
  bottom: "help-out-157"
  bottom: "help-out-158"
  bottom: "help-out-159"
  bottom: "help-out-160"
  bottom: "help-out-161"
  bottom: "help-out-162"
  bottom: "help-out-163"
  bottom: "help-out-164"
  bottom: "help-out-165"
  bottom: "help-out-166"
  bottom: "help-out-167"
  bottom: "help-out-168"
  bottom: "help-out-169"
  bottom: "help-out-170"
  bottom: "help-out-171"
  bottom: "help-out-172"
  bottom: "help-out-173"
  bottom: "help-out-174"
  bottom: "help-out-175"
  bottom: "help-out-176"
  bottom: "help-out-177"
  bottom: "help-out-178"
  bottom: "help-out-179"
  bottom: "help-out-180"
  bottom: "help-out-181"
  bottom: "help-out-182"
  bottom: "help-out-183"
  bottom: "help-out-184"
  bottom: "help-out-185"
  bottom: "help-out-186"
  bottom: "help-out-187"
  bottom: "help-out-188"
  bottom: "help-out-189"
  bottom: "help-out-190"
  bottom: "help-out-191"
  bottom: "help-out-192"
  bottom: "help-out-193"
  bottom: "help-out-194"
  bottom: "help-out-195"
  bottom: "help-out-196"
  bottom: "help-out-197"
  bottom: "help-out-198"
  bottom: "help-out-199"
  bottom: "help-out-200"
  bottom: "help-out-201"
  bottom: "help-out-202"
  bottom: "help-out-203"
  bottom: "help-out-204"
  bottom: "help-out-205"
  bottom: "help-out-206"
  bottom: "help-out-207"
  bottom: "help-out-208"
  bottom: "help-out-209"
  bottom: "help-out-210"
  bottom: "help-out-211"
  bottom: "help-out-212"
  bottom: "help-out-213"
  bottom: "help-out-214"
  bottom: "help-out-215"
  bottom: "help-out-216"
  bottom: "help-out-217"
  bottom: "help-out-218"
  bottom: "help-out-219"
  bottom: "help-out-220"
  bottom: "help-out-221"
  bottom: "help-out-222"
  bottom: "help-out-223"
  bottom: "help-out-224"
  bottom: "help-out-225"
  bottom: "help-out-226"
  bottom: "help-out-227"
  bottom: "help-out-228"
  bottom: "help-out-229"
  bottom: "help-out-230"
  bottom: "help-out-231"
  bottom: "help-out-232"
  bottom: "help-out-233"
  bottom: "help-out-234"
  bottom: "help-out-235"
  bottom: "help-out-236"
  bottom: "help-out-237"
  bottom: "help-out-238"
  bottom: "help-out-239"
  bottom: "help-out-240"
  bottom: "help-out-241"
  bottom: "help-out-242"
  bottom: "help-out-243"
  bottom: "help-out-244"
  bottom: "help-out-245"
  bottom: "help-out-246"
  bottom: "help-out-247"
  bottom: "help-out-248"
  bottom: "help-out-249"
  bottom: "help-out-250"
  bottom: "help-out-251"
  bottom: "help-out-252"
  bottom: "help-out-253"
  bottom: "help-out-254"
  bottom: "help-out-255"
  bottom: "help-out-256"
  bottom: "help-out-257"
  bottom: "help-out-258"
  bottom: "help-out-259"
  bottom: "help-out-260"
  bottom: "help-out-261"
  bottom: "help-out-262"
  bottom: "help-out-263"
  bottom: "help-out-264"
  bottom: "help-out-265"
  bottom: "help-out-266"
  bottom: "help-out-267"
  bottom: "help-out-268"
  bottom: "help-out-269"
  bottom: "help-out-270"
  bottom: "help-out-271"
  bottom: "help-out-272"
  bottom: "help-out-273"
  bottom: "help-out-274"
  bottom: "help-out-275"
  bottom: "help-out-276"
  bottom: "help-out-277"
  bottom: "help-out-278"
  bottom: "help-out-279"
  bottom: "help-out-280"
  bottom: "help-out-281"
  bottom: "help-out-282"
  bottom: "help-out-283"
  bottom: "help-out-284"
  bottom: "help-out-285"
  bottom: "help-out-286"
  bottom: "help-out-287"
  bottom: "help-out-288"
  bottom: "help-out-289"
  bottom: "help-out-290"
  bottom: "help-out-291"
  bottom: "help-out-292"
  bottom: "help-out-293"
  bottom: "help-out-294"
  bottom: "help-out-295"
  bottom: "help-out-296"
  bottom: "help-out-297"
  bottom: "help-out-298"
  bottom: "help-out-299"
  bottom: "help-out-300"
  bottom: "help-out-301"
  bottom: "help-out-302"
  bottom: "help-out-303"
  bottom: "help-out-304"
  bottom: "help-out-305"
  bottom: "help-out-306"
  bottom: "help-out-307"
  bottom: "help-out-308"
  bottom: "help-out-309"
  bottom: "help-out-310"
  bottom: "help-out-311"
  bottom: "help-out-312"
  bottom: "help-out-313"
  bottom: "help-out-314"
  bottom: "help-out-315"
  bottom: "help-out-316"
  bottom: "help-out-317"
  bottom: "help-out-318"
  bottom: "help-out-319"
  bottom: "help-out-320"
  bottom: "help-out-321"
  bottom: "help-out-322"
  bottom: "help-out-323"
  bottom: "help-out-324"
  bottom: "help-out-325"
  bottom: "help-out-326"
  bottom: "help-out-327"
  bottom: "help-out-328"
  bottom: "help-out-329"
  bottom: "help-out-330"
  bottom: "help-out-331"
  bottom: "help-out-332"
  bottom: "help-out-333"
  bottom: "help-out-334"
  bottom: "help-out-335"
  bottom: "help-out-336"
  bottom: "help-out-337"
  bottom: "help-out-338"
  bottom: "help-out-339"
  bottom: "help-out-340"
  bottom: "help-out-341"
  bottom: "help-out-342"
  bottom: "help-out-343"
  bottom: "help-out-344"
  bottom: "help-out-345"
  bottom: "help-out-346"
  bottom: "help-out-347"
  bottom: "help-out-348"
  bottom: "help-out-349"
  bottom: "help-out-350"
  bottom: "help-out-351"
  bottom: "help-out-352"
  bottom: "help-out-353"
  bottom: "help-out-354"
  bottom: "help-out-355"
  bottom: "help-out-356"
  bottom: "help-out-357"
  bottom: "help-out-358"
  bottom: "help-out-359"
  bottom: "help-out-360"
  bottom: "help-out-361"
  bottom: "help-out-362"
  bottom: "help-out-363"
  bottom: "help-out-364"
  bottom: "help-out-365"
  bottom: "help-out-366"
  bottom: "help-out-367"
  bottom: "help-out-368"
  bottom: "help-out-369"
  bottom: "help-out-370"
  bottom: "help-out-371"
  bottom: "help-out-372"
  bottom: "help-out-373"
  bottom: "help-out-374"
  bottom: "help-out-375"
  bottom: "help-out-376"
  bottom: "help-out-377"
  bottom: "help-out-378"
  bottom: "help-out-379"
  bottom: "help-out-380"
  bottom: "help-out-381"
  bottom: "help-out-382"
  bottom: "help-out-383"
  bottom: "help-out-384"
  bottom: "help-out-385"
  bottom: "help-out-386"
  bottom: "help-out-387"
  bottom: "help-out-388"
  bottom: "help-out-389"
  bottom: "help-out-390"
  bottom: "help-out-391"
  bottom: "help-out-392"
  bottom: "help-out-393"
  bottom: "help-out-394"
  bottom: "help-out-395"
  bottom: "help-out-396"
  bottom: "help-out-397"
  bottom: "help-out-398"
  bottom: "help-out-399"
  bottom: "help-out-400"
  bottom: "help-out-401"
  bottom: "help-out-402"
  bottom: "help-out-403"
  bottom: "help-out-404"
  bottom: "help-out-405"
  bottom: "help-out-406"
  bottom: "help-out-407"
  bottom: "help-out-408"
  bottom: "help-out-409"
  bottom: "help-out-410"
  bottom: "help-out-411"
  bottom: "help-out-412"
  bottom: "help-out-413"
  bottom: "help-out-414"
  bottom: "help-out-415"
  bottom: "help-out-416"
  bottom: "help-out-417"
  bottom: "help-out-418"
  bottom: "help-out-419"
  bottom: "help-out-420"
  bottom: "help-out-421"
  bottom: "help-out-422"
  bottom: "help-out-423"
  bottom: "help-out-424"
  bottom: "help-out-425"
  bottom: "help-out-426"
  bottom: "help-out-427"
  bottom: "help-out-428"
  bottom: "help-out-429"
  bottom: "help-out-430"
  bottom: "help-out-431"
  bottom: "help-out-432"
  bottom: "help-out-433"
  bottom: "help-out-434"
  bottom: "help-out-435"
  bottom: "help-out-436"
  bottom: "help-out-437"
  bottom: "help-out-438"
  bottom: "help-out-439"
  bottom: "help-out-440"
  bottom: "help-out-441"
  bottom: "help-out-442"
  bottom: "help-out-443"
  bottom: "help-out-444"
  bottom: "help-out-445"
  bottom: "help-out-446"
  bottom: "help-out-447"
  bottom: "help-out-448"
  bottom: "help-out-449"
  bottom: "help-out-450"
  bottom: "help-out-451"
  bottom: "help-out-452"
  bottom: "help-out-453"
  bottom: "help-out-454"
  bottom: "help-out-455"
  bottom: "help-out-456"
  bottom: "help-out-457"
  bottom: "help-out-458"
  bottom: "help-out-459"
  bottom: "help-out-460"
  bottom: "help-out-461"
  bottom: "help-out-462"
  bottom: "help-out-463"
  bottom: "help-out-464"
  bottom: "help-out-465"
  bottom: "help-out-466"
  bottom: "help-out-467"
  bottom: "help-out-468"
  bottom: "help-out-469"
  bottom: "help-out-470"
  bottom: "help-out-471"
  bottom: "help-out-472"
  bottom: "help-out-473"
  bottom: "help-out-474"
  bottom: "help-out-475"
  bottom: "help-out-476"
  bottom: "help-out-477"
  bottom: "help-out-478"
  bottom: "help-out-479"
  bottom: "help-out-480"
  bottom: "help-out-481"
  bottom: "help-out-482"
  bottom: "help-out-483"
  bottom: "help-out-484"
  bottom: "help-out-485"
  bottom: "help-out-486"
  bottom: "help-out-487"
  bottom: "help-out-488"
  bottom: "help-out-489"
  bottom: "help-out-490"
  bottom: "help-out-491"
  bottom: "help-out-492"
  bottom: "help-out-493"
  bottom: "help-out-494"
  bottom: "help-out-495"
  bottom: "help-out-496"
  bottom: "help-out-497"
  bottom: "help-out-498"
  bottom: "help-out-499"
  bottom: "help-out-500"
  bottom: "help-out-501"
  bottom: "help-out-502"
  bottom: "help-out-503"
  bottom: "help-out-504"
  bottom: "help-out-505"
  bottom: "help-out-506"
  bottom: "help-out-507"
  bottom: "help-out-508"
  bottom: "help-out-509"
  bottom: "help-out-510"
  bottom: "help-out-511"
  bottom: "help-out-512"
  bottom: "help-out-513"
  bottom: "help-out-514"
  bottom: "help-out-515"
  bottom: "help-out-516"
  bottom: "help-out-517"
  bottom: "help-out-518"
  bottom: "help-out-519"
  bottom: "help-out-520"
  bottom: "help-out-521"
  bottom: "help-out-522"
  bottom: "help-out-523"
  bottom: "help-out-524"
  bottom: "help-out-525"
  bottom: "help-out-526"
  bottom: "help-out-527"
  bottom: "help-out-528"
  bottom: "help-out-529"
  bottom: "help-out-530"
  bottom: "help-out-531"
  bottom: "help-out-532"
  bottom: "help-out-533"
  bottom: "help-out-534"
  bottom: "help-out-535"
  bottom: "help-out-536"
  bottom: "help-out-537"
  bottom: "help-out-538"
  bottom: "help-out-539"
  bottom: "help-out-540"
  bottom: "help-out-541"
  bottom: "help-out-542"
  bottom: "help-out-543"
  bottom: "help-out-544"
  bottom: "help-out-545"
  bottom: "help-out-546"
  bottom: "help-out-547"
  bottom: "help-out-548"
  bottom: "help-out-549"
  bottom: "help-out-550"
  bottom: "help-out-551"
  bottom: "help-out-552"
  bottom: "help-out-553"
  bottom: "help-out-554"
  bottom: "help-out-555"
  bottom: "help-out-556"
  bottom: "help-out-557"
  bottom: "help-out-558"
  bottom: "help-out-559"
  bottom: "help-out-560"
  bottom: "help-out-561"
  bottom: "help-out-562"
  bottom: "help-out-563"
  bottom: "help-out-564"
  bottom: "help-out-565"
  bottom: "help-out-566"
  bottom: "help-out-567"
  bottom: "help-out-568"
  bottom: "help-out-569"
  bottom: "help-out-570"
  bottom: "help-out-571"
  bottom: "help-out-572"
  bottom: "help-out-573"
  bottom: "help-out-574"
  bottom: "help-out-575"
  bottom: "help-out-576"
  bottom: "help-out-577"
  bottom: "help-out-578"
  bottom: "help-out-579"
  bottom: "help-out-580"
  bottom: "help-out-581"
  bottom: "help-out-582"
  bottom: "help-out-583"
  bottom: "help-out-584"
  bottom: "help-out-585"
  bottom: "help-out-586"
  bottom: "help-out-587"
  bottom: "help-out-588"
  bottom: "help-out-589"
  bottom: "help-out-590"
  bottom: "help-out-591"
  bottom: "help-out-592"
  bottom: "help-out-593"
  bottom: "help-out-594"
  bottom: "help-out-595"
  bottom: "help-out-596"
  bottom: "help-out-597"
  bottom: "help-out-598"
  bottom: "help-out-599"
  bottom: "help-out-600"
  bottom: "help-out-601"
  bottom: "help-out-602"
  bottom: "help-out-603"
  bottom: "help-out-604"
  bottom: "help-out-605"
  bottom: "help-out-606"
  bottom: "help-out-607"
  bottom: "help-out-608"
  bottom: "help-out-609"
  bottom: "help-out-610"
  bottom: "help-out-611"
  bottom: "help-out-612"
  bottom: "help-out-613"
  bottom: "help-out-614"
  bottom: "help-out-615"
  bottom: "help-out-616"
  bottom: "help-out-617"
  bottom: "help-out-618"
  bottom: "help-out-619"
  bottom: "help-out-620"
  bottom: "help-out-621"
  bottom: "help-out-622"
  bottom: "help-out-623"
  bottom: "help-out-624"
  bottom: "help-out-625"
  bottom: "help-out-626"
  bottom: "help-out-627"
  bottom: "help-out-628"
  bottom: "help-out-629"
  bottom: "help-out-630"
  bottom: "help-out-631"
  bottom: "help-out-632"
  bottom: "help-out-633"
  bottom: "help-out-634"
  bottom: "help-out-635"
  bottom: "help-out-636"
  bottom: "help-out-637"
  bottom: "help-out-638"
  bottom: "help-out-639"
  bottom: "help-out-640"
  bottom: "help-out-641"
  bottom: "help-out-642"
  bottom: "help-out-643"
  bottom: "help-out-644"
  bottom: "help-out-645"
  bottom: "help-out-646"
  bottom: "help-out-647"
  bottom: "help-out-648"
  bottom: "help-out-649"
  bottom: "help-out-650"
  bottom: "help-out-651"
  bottom: "help-out-652"
  bottom: "help-out-653"
  bottom: "help-out-654"
  bottom: "help-out-655"
  bottom: "help-out-656"
  bottom: "help-out-657"
  bottom: "help-out-658"
  bottom: "help-out-659"
  bottom: "help-out-660"
  bottom: "help-out-661"
  bottom: "help-out-662"
  bottom: "help-out-663"
  bottom: "help-out-664"
  bottom: "help-out-665"
  bottom: "help-out-666"
  bottom: "help-out-667"
  bottom: "help-out-668"
  bottom: "help-out-669"
  bottom: "help-out-670"
  bottom: "help-out-671"
  bottom: "help-out-672"
  bottom: "help-out-673"
  bottom: "help-out-674"
  bottom: "help-out-675"
  bottom: "help-out-676"
  bottom: "help-out-677"
  bottom: "help-out-678"
  bottom: "help-out-679"
  bottom: "help-out-680"
  bottom: "help-out-681"
  bottom: "help-out-682"
  bottom: "help-out-683"
  bottom: "help-out-684"
  bottom: "help-out-685"
  bottom: "help-out-686"
  bottom: "help-out-687"
  bottom: "help-out-688"
  bottom: "help-out-689"
  bottom: "help-out-690"
  bottom: "help-out-691"
  bottom: "help-out-692"
  bottom: "help-out-693"
  bottom: "help-out-694"
  bottom: "help-out-695"
  bottom: "help-out-696"
  bottom: "help-out-697"
  bottom: "help-out-698"
  bottom: "help-out-699"
  bottom: "help-out-700"
  bottom: "help-out-701"
  bottom: "help-out-702"
  bottom: "help-out-703"
  bottom: "help-out-704"
  bottom: "help-out-705"
  bottom: "help-out-706"
  bottom: "help-out-707"
  bottom: "help-out-708"
  bottom: "help-out-709"
  bottom: "help-out-710"
  bottom: "help-out-711"
  bottom: "help-out-712"
  bottom: "help-out-713"
  bottom: "help-out-714"
  bottom: "help-out-715"
  bottom: "help-out-716"
  bottom: "help-out-717"
  bottom: "help-out-718"
  bottom: "help-out-719"
  bottom: "help-out-720"
  bottom: "help-out-721"
  bottom: "help-out-722"
  bottom: "help-out-723"
  bottom: "help-out-724"
  bottom: "help-out-725"
  bottom: "help-out-726"
  bottom: "help-out-727"
  bottom: "help-out-728"
  bottom: "help-out-729"
  bottom: "help-out-730"
  bottom: "help-out-731"
  bottom: "help-out-732"
  bottom: "help-out-733"
  bottom: "help-out-734"
  bottom: "help-out-735"
  bottom: "help-out-736"
  bottom: "help-out-737"
  bottom: "help-out-738"
  bottom: "help-out-739"
  bottom: "help-out-740"
  bottom: "help-out-741"
  bottom: "help-out-742"
  bottom: "help-out-743"
  bottom: "help-out-744"
  bottom: "help-out-745"
  bottom: "help-out-746"
  bottom: "help-out-747"
  bottom: "help-out-748"
  bottom: "help-out-749"
  bottom: "help-out-750"
  bottom: "help-out-751"
  bottom: "help-out-752"
  bottom: "help-out-753"
  bottom: "help-out-754"
  bottom: "help-out-755"
  bottom: "help-out-756"
  bottom: "help-out-757"
  bottom: "help-out-758"
  bottom: "help-out-759"
  bottom: "help-out-760"
  bottom: "help-out-761"
  bottom: "help-out-762"
  bottom: "help-out-763"
  bottom: "help-out-764"
  bottom: "help-out-765"
  bottom: "help-out-766"
  bottom: "help-out-767"
  bottom: "help-out-768"
  bottom: "help-out-769"
  bottom: "help-out-770"
  bottom: "help-out-771"
  bottom: "help-out-772"
  bottom: "help-out-773"
  bottom: "help-out-774"
  bottom: "help-out-775"
  bottom: "help-out-776"
  bottom: "help-out-777"
  bottom: "help-out-778"
  bottom: "help-out-779"
  bottom: "help-out-780"
  bottom: "help-out-781"
  bottom: "help-out-782"
  bottom: "help-out-783"
  bottom: "help-out-784"
  bottom: "help-out-785"
  bottom: "help-out-786"
  bottom: "help-out-787"
  bottom: "help-out-788"
  bottom: "help-out-789"
  bottom: "help-out-790"
  bottom: "help-out-791"
  bottom: "help-out-792"
  bottom: "help-out-793"
  bottom: "help-out-794"
  bottom: "help-out-795"
  bottom: "help-out-796"
  bottom: "help-out-797"
  bottom: "help-out-798"
  bottom: "help-out-799"
  bottom: "help-out-800"
  bottom: "help-out-801"
  bottom: "help-out-802"
  bottom: "help-out-803"
  bottom: "help-out-804"
  bottom: "help-out-805"
  bottom: "help-out-806"
  bottom: "help-out-807"
  bottom: "help-out-808"
  bottom: "help-out-809"
  bottom: "help-out-810"
  bottom: "help-out-811"
  bottom: "help-out-812"
  bottom: "help-out-813"
  bottom: "help-out-814"
  bottom: "help-out-815"
  bottom: "help-out-816"
  bottom: "help-out-817"
  bottom: "help-out-818"
  bottom: "help-out-819"
  bottom: "help-out-820"
  bottom: "help-out-821"
  bottom: "help-out-822"
  bottom: "help-out-823"
  bottom: "help-out-824"
  bottom: "help-out-825"
  bottom: "help-out-826"
  bottom: "help-out-827"
  bottom: "help-out-828"
  bottom: "help-out-829"
  bottom: "help-out-830"
  bottom: "help-out-831"
  bottom: "help-out-832"
  bottom: "help-out-833"
  bottom: "help-out-834"
  bottom: "help-out-835"
  bottom: "help-out-836"
  bottom: "help-out-837"
  bottom: "help-out-838"
  bottom: "help-out-839"
  bottom: "help-out-840"
  bottom: "help-out-841"
  bottom: "help-out-842"
  bottom: "help-out-843"
  bottom: "help-out-844"
  bottom: "help-out-845"
  bottom: "help-out-846"
  bottom: "help-out-847"
  bottom: "help-out-848"
  bottom: "help-out-849"
  bottom: "help-out-850"
  bottom: "help-out-851"
  bottom: "help-out-852"
  bottom: "help-out-853"
  bottom: "help-out-854"
  bottom: "help-out-855"
  bottom: "help-out-856"
  bottom: "help-out-857"
  bottom: "help-out-858"
  bottom: "help-out-859"
  bottom: "help-out-860"
  bottom: "help-out-861"
  bottom: "help-out-862"
  bottom: "help-out-863"
  bottom: "help-out-864"
  bottom: "help-out-865"
  bottom: "help-out-866"
  bottom: "help-out-867"
  bottom: "help-out-868"
  bottom: "help-out-869"
  bottom: "help-out-870"
  bottom: "help-out-871"
  bottom: "help-out-872"
  bottom: "help-out-873"
  bottom: "help-out-874"
  bottom: "help-out-875"
  bottom: "help-out-876"
  bottom: "help-out-877"
  bottom: "help-out-878"
  bottom: "help-out-879"
  bottom: "help-out-880"
  bottom: "help-out-881"
  bottom: "help-out-882"
  bottom: "help-out-883"
  bottom: "help-out-884"
  bottom: "help-out-885"
  bottom: "help-out-886"
  bottom: "help-out-887"
  bottom: "help-out-888"
  bottom: "help-out-889"
  bottom: "help-out-890"
  bottom: "help-out-891"
  bottom: "help-out-892"
  bottom: "help-out-893"
  bottom: "help-out-894"
  bottom: "help-out-895"
  bottom: "help-out-896"
  bottom: "help-out-897"
  bottom: "help-out-898"
  bottom: "help-out-899"
  bottom: "help-out-900"
  bottom: "help-out-901"
  bottom: "help-out-902"
  bottom: "help-out-903"
  bottom: "help-out-904"
  bottom: "help-out-905"
  bottom: "help-out-906"
  bottom: "help-out-907"
  bottom: "help-out-908"
  bottom: "help-out-909"
  bottom: "help-out-910"
  bottom: "help-out-911"
  bottom: "help-out-912"
  bottom: "help-out-913"
  bottom: "help-out-914"
  bottom: "help-out-915"
  bottom: "help-out-916"
  bottom: "help-out-917"
  bottom: "help-out-918"
  bottom: "help-out-919"
  bottom: "help-out-920"
  bottom: "help-out-921"
  bottom: "help-out-922"
  bottom: "help-out-923"
  bottom: "help-out-924"
  bottom: "help-out-925"
  bottom: "help-out-926"
  bottom: "help-out-927"
  bottom: "help-out-928"
  bottom: "help-out-929"
  bottom: "help-out-930"
  bottom: "help-out-931"
  bottom: "help-out-932"
  bottom: "help-out-933"
  bottom: "help-out-934"
  bottom: "help-out-935"
  bottom: "help-out-936"
  bottom: "help-out-937"
  bottom: "help-out-938"
  bottom: "help-out-939"
  bottom: "help-out-940"
  bottom: "help-out-941"
  bottom: "help-out-942"
  bottom: "help-out-943"
  bottom: "help-out-944"
  bottom: "help-out-945"
  bottom: "help-out-946"
  bottom: "help-out-947"
  bottom: "help-out-948"
  bottom: "help-out-949"
  bottom: "help-out-950"
  bottom: "help-out-951"
  bottom: "help-out-952"
  bottom: "help-out-953"
  bottom: "help-out-954"
  bottom: "help-out-955"
  bottom: "help-out-956"
  bottom: "help-out-957"
  bottom: "help-out-958"
  bottom: "help-out-959"
  bottom: "help-out-960"
  bottom: "help-out-961"
  bottom: "help-out-962"
  bottom: "help-out-963"
  bottom: "help-out-964"
  bottom: "help-out-965"
  bottom: "help-out-966"
  bottom: "help-out-967"
  bottom: "help-out-968"
  bottom: "help-out-969"
  bottom: "help-out-970"
  bottom: "help-out-971"
  bottom: "help-out-972"
  bottom: "help-out-973"
  bottom: "help-out-974"
  bottom: "help-out-975"
  bottom: "help-out-976"
  bottom: "help-out-977"
  bottom: "help-out-978"
  bottom: "help-out-979"
  bottom: "help-out-980"
  bottom: "help-out-981"
  bottom: "help-out-982"
  bottom: "help-out-983"
  bottom: "help-out-984"
  bottom: "help-out-985"
  bottom: "help-out-986"
  bottom: "help-out-987"
  bottom: "help-out-988"
  bottom: "help-out-989"
  bottom: "help-out-990"
  bottom: "help-out-991"
  bottom: "help-out-992"
  bottom: "help-out-993"
  bottom: "help-out-994"
  bottom: "help-out-995"
  bottom: "help-out-996"
  bottom: "help-out-997"
  bottom: "help-out-998"
  bottom: "help-out-999"

  top: "help-concat"
}
layer {
  name: "loss-help"
  type: "EuclideanLoss"
  bottom: "help-concat"
  bottom: "flat_data"
  top: "loss-help"
  loss_weight: 0.01
}
